models/MNIST/cnn_num-modules=4_seed=021/099.pth (torch, 15277 bytes, 16 tensors)

conv1.weight f4 [32, 1, 3, 3]
00000000: 5ff1 e0be 61b4 e7be 5b0e f7be bc25 15be
00000010: a0bf 243b af6f 043e f449 0b3f ee79 ef3e
00000020: 66db 023f 683d 193f 22c2 4d3f 56d6 15bf
00000030: 7191 2cbf fb48 da3e e097 0b3f 7a3c a2bf
00000040: 7f48 273e 1704 5d3e f8b5 0c3f 975e 063f
00000050: b8ee 263f 7110 083e 3033 57be 9a44 1fbf
00000060: 7134 2fbf 84f8 b4be aa2d 86be 7ed6 e53d
00000070: f48f df3e 8ada 293f 5fa0 a33e 5103 3c3e
00000080: bb04 703d ac46 e2be 3b94 02bf 8691 40bf
00000090: f103 143f deb5 41bd 98da 85be 0eb5 183f
000000a0: 202e b63e a10b 2f3f b588 7c3e 55dc 753c
000000b0: 1685 cb3e 46ae e03e 6997 b8be 4e5c 1d3e
000000c0: 6311 773f 87ca f53e 45c3 833e 3d0d c63e
000000d0: f75d c8be 78ff 333e dc77 7c3f f91c f93e
000000e0: 8cb8 b03e 5b43 9dbe cf69 a83e 2e71 3b3f
000000f0: 5eb6 2abe 2708 113e 76dc 503f 5e48 7e3e
00000100: dee8 62bf 2aff a9be 487f 463f f242 3a3f
00000110: 4c3a 2f3f 93e5 0dbe 7cf6 61bf f5bc ed3e
00000120: a49d 783e 637a a73e f773 a83e c781 bdbe
00000130: 48a0 903f 930b 6ebe 180a bbbf 4ee8 a0bf
00000140: 74cd eebf d6b7 57bf 090b 74bf d88a 073f
00000150: 272f afbe f8ed a53e d740 4f3f f382 de3e
00000160: 0bc6 493f 4804 0b3e 22cb 903f 110b 9e3f
00000170: 53b7 ba3d b41a 2b3f 5c14 363f b25b 20bf
00000180: 75d3 843f 130a ed3d 7efd 52be 5fbe 023e
00000190: 44f6 163f 51ca a43e 38a9 613d 027b 753e
000001a0: 5d61 c93d 3ab9 303f da6f 493f f9a5 e53e
000001b0: 475c 213f e134 4abc f413 f6be c3d0 e43d
000001c0: 4056 d4bd e052 a63e ed1a 1fbf b448 183e
000001d0: 07c7 823f 5c31 8bbb b8f0 c13e 3a3d 3a3f
000001e0: 1be5 033f 6f72 ae3e 9924 13bf c72a 693f
000001f0: cfcc 073f 9044 b83e ea10 a53e 9cb2 123f
00000200: cd70 573f 3c8a b63e f8a1 5c3e f6cf 12be
00000210: 7eba 613f 9284 d03e d7f0 b33e a9f7 453f
00000220: efe2 27bc 6850 283f ec87 073e b2eb 683d
00000230: 12fd a83e 7777 b1be 79d6 163f 9405 9f3f
00000240: 4ae3 8201 66d0 1e00 8d47 2a01 69bc d580
00000250: 0cd9 9801 9404 1900 fd58 a781 0f3c 0281
00000260: 8eb9 b001 7fdb e83e 1531 d13e 3f61 753e
00000270: bae8 b93e bc14 02be ac42 d63e caf5 bdbe
00000280: f2ff 07bf ec54 f1be 1bb5 f280 5871 0881
00000290: 33d2 f580 b6d8 d180 28db 0c81 0e73 0881
000002a0: 42a9 d580 3fe4 f880 f340 f580 7060 c13e
000002b0: d191 293e 91f3 9f3e 7385 ae3e 555d 333e
000002c0: 3e92 033d 8f0f 1c3f 4adf ab3e e7d0 ed3e
000002d0: 2f75 cd3e ab4e f73e 2291 ca3e 3f54 903e
000002e0: b94d ce3e 527c 79be d08c e63e 0950 0b3f
000002f0: 6962 a43e b629 2e3e e9eb 2f3f 02ca 783d
00000300: 06b7 d2be 65d4 163f 7f94 d43e fa36 e23d
00000310: 6382 3abe 7942 21be a322 bb3c af38 663f
00000320: 290f 913e e400 a8be 36a9 9b3d 3820 9ebf
00000330: 92a4 803d 329c 2a3f b2a7 033e c56f e93d
00000340: 0e24 e7bd e6e3 7fbf f51d 713f 1f6e 213f
00000350: cd6d 1e3d e55a 983f dafb 433f fed8 4e3f
00000360: 3334 d33e 32e4 303e 013e 8fbe 3c41 b7be
00000370: 4232 1b3f dacc 9cbd c8d9 2d3e 9b1c 373f
00000380: 2be3 3d3e 0c48 173f e048 3abf 5c9e 80bf
00000390: 136a 413f 8d0c 81bf 7e95 6bbf 848d c83e
000003a0: f452 19bf db5c 88bf 5342 d4bd d759 993e
000003b0: e926 f63d 8c62 d53e 9740 0c3f 4615 82bf
000003c0: ee48 103f 49e4 02be 96e4 46bf 9fe2 443e
000003d0: 2ec8 123f ea8a 57bf 9ed1 58bc 0207 283f
000003e0: 3673 70bf 1c94 1f3e c52a 413f 0bb7 203f
000003f0: 38cd 27bc b9f2 24bc 582e 1dbc 545f b1bb
-0.43934152 -0.45254806 -0.4825314 -0.14565176 0.0025138631 0.12933229 0.5440972 0.46772712
0.51116025 0.59859324 0.8037435 -0.58530176 -0.67409426 0.42633805 0.5452862 -1.2674706
0.16336249 0.21583591 0.5496516 0.5248808 0.65208006 0.13287522 -0.2101562 -0.6221405
-0.68439394 -0.35345852 -0.26206714 0.11222552 0.43664515 0.6634909 0.3195829 0.1836064
0.05859826 -0.44194543 -0.5100743 -0.7522205 0.57818514 -0.047292583 -0.26143336 0.5965127
0.35582066 0.6837712 0.24661525 0.0150061445 0.39749974 0.4388296 -0.36053017 0.15367243
0.96510905 0.4800608 0.25734916 0.38681975 -0.3913419 0.17577922 0.9862039 0.48654917
0.34515798 -0.3071545 0.32893226 0.73219573 -0.1667113 0.14163266 0.81586397 0.24832293
-0.8863658 -0.33202487 0.77537966 0.727584 0.6844833 -0.13857107 -0.8826673 0.46433225
0.24278885 0.3271056 0.32900974 -0.37013075 1.1298914 -0.23246603 -1.4612455 -1.2570894
-1.8656449 -0.84264886 -0.9532934 0.52946234 -0.34215662 0.32408118 0.8095831 0.4345928
0.78817815 0.13575852 1.1311991 1.2347127 0.091169976 0.6683762 0.71124816 -0.62639916
1.0377032 0.11574187 -0.20604512 0.12767933 0.5896952 0.32185605 0.05509302 0.23972705
0.09833024 0.69032633 0.78686297 0.4485319 0.6303143 -0.012341709 -0.48062098 0.11172631
-0.103680134 0.32485104 -0.6215046 0.14871484 1.0216988 -0.0042478275 0.37878966 0.72749674
0.5152146 0.3407168 -0.5747772 0.910809 0.5304689 0.3598981 0.32239467 0.57303786
0.84156495 0.3565234 0.21546161 -0.14337143 0.8817519 0.40726143 0.35144684 0.77331024
-0.010246976 0.6574769 0.13235444 0.0568654 0.33005577 -0.34661457 0.5892101 1.2423577
4.80806e-38 2.829824e-39 3.1275404e-38 -1.962855e-38 5.614743e-38 2.29753e-39 -6.1473803e-38 -2.392032e-38
6.491845e-38 0.45479962 0.4085776 0.23962878 0.3631037 -0.12703222 0.41847742 -0.37101585
-0.53124917 -0.47135103 -2.2289158e-38 -2.5060575e-38 -2.2575102e-38 -1.927136e-38 -2.5871176e-38 -2.5061803e-38
-1.9621679e-38 -2.2857082e-38 -2.2522996e-38 0.37768888 0.16559531 0.31240514 0.3408619 0.17516072
0.03212189 0.6096124 0.33568794 0.46448442 0.40128466 0.48302206 0.39563853 0.28189275
0.40293673 -0.2436383 0.45029306 0.54419 0.3210633 0.17008099 0.68719345 0.060739525
-0.4115526 0.5891784 0.41519544 0.11045642 -0.18213801 -0.15748014 0.022843665 0.8993024
0.2833188 -0.3281318 0.07600634 -1.2353582 0.06281389 0.66644585 0.1285694 0.113982715
-0.11286174 -0.9995712 0.94186336 0.63058656 0.038678933 1.1902739 0.7655617 0.80799854
0.41250762 0.1727455 -0.27976993 -0.35791957 0.6062356 -0.0765626 0.16977608 0.71528023
0.18543689 0.5909431 -0.7276745 -1.0048327 0.7555248 -1.0081955 -0.9202498 0.39170468
-0.598922 -1.0653337 -0.10364213 0.29951355 0.1201914 0.41676748 0.54786056 -1.0162742
0.5636128 -0.12782396 -0.77692544 0.19227074 0.573367 -0.8419634 -0.01323357 0.65635693
-0.939258 0.15583843 0.75455886 0.627793 -0.010241799 -0.010067635 -0.009593569 -0.0054129753

conv1.bias f4 [32]
00000000: ba0f 24be d203 72be 4134 7d3e c959 9a3c
00000010: 54ad 13bb 3736 893e 32cc 52ba 1135 643e
00000020: c279 ef3d d8e2 1dbc 05df d73a 2a0b 413e
00000030: ca28 c3bd 8db1 8b3b e9d7 193f b432 263f
00000040: 17a0 69ab cfc2 44ba ee9c de94 2be8 a33d
00000050: 22d1 38be 36ab adbd 10a8 d4ba 9b13 8c3d
00000060: 6e91 e5ba a690 ac3e 57b2 993d 8af0 1a3e
00000070: b366 1dbd 1bdc 31be d141 8c3d 4b06 94bd
-0.16021624 -0.2363427 0.24726965 0.018841641 -0.0022533732 0.26799175 -0.0008041292 0.22285868
0.11693145 -0.009636603 0.0016469663 0.18851915 -0.09529264 0.004263109 0.6009508 0.64921117
-8.30004e-13 -0.00075058354 -2.247817e-26 0.08003267 -0.18048528 -0.084799215 -0.0016224403 0.06839677
-0.0017514655 0.33704108 0.07504719 0.15130821 -0.03842802 -0.1736912 0.06848491 -0.07227763

conv2.weight f4 [32, 1, 3, 3]
00000000: 20bc 24bf 9e0c fbbe e930 bcbe f56f 4abf
00000010: a20f 72bf f0e6 58bf 05e6 a8be c3c5 70bf
00000020: 9b12 fbbe 8ee4 303e be02 ca3d c0d6 0f3f
00000030: 4b5a 853f 1788 743f 9e23 a23e 0329 0d3f
00000040: f753 743f 52a0 923f 93e5 8ebe 9c0b ca3e
00000050: 7423 80bd f383 d13e bb88 3c3f 915c 2e3f
00000060: e655 c33e 7027 1e3f 8848 143f fc89 9d3e
00000070: 38f3 a73e 1b3e be3e 8f49 1abf 5f0d babe
00000080: 75f6 8cbe 6e95 7dbe 124b 69be c730 c6be
00000090: cd16 833e b087 86bd 337b 013f dad6 3c3f
000000a0: f0a0 1b3b d919 213e 526b 253f c90d 81bd
000000b0: 06cd a6be e3b9 a2be 6cd7 e33e 460f 05bf
000000c0: b0ec 0ebf 7bdd b93e e431 88be 2ddc 08bf
000000d0: 9a67 49be c604 adbe 9863 163f a19a b6bd
000000e0: 2e93 703e 4985 193f f6f7 aa3e e569 c7bd
000000f0: 7465 863e b706 10be 2cc7 31bf 8c27 c43e
00000100: a27c 163f 0be0 8e3e e527 3e3f 3def 3d3f
00000110: f139 3f3f c583 9b3e ef4a 0e3f a293 f23e
00000120: 4db8 803c 9d55 bc3e 11b2 063f e66f 693e
00000130: 9698 103f 50c9 2e3e 85b3 8e3f 6efe d53f
00000140: e808 713f 5592 64bc 6dec 963f edb8 873f
00000150: 19c4 ecbc 0f3b 3f3f bfff 8c3f 56a6 aebe
00000160: 0c5b 16be 2ac7 3b3e 5ddb 443f 0df7 013e
00000170: 7f24 cdbe 7faa 133e 17c3 513c ea62 1a3e
00000180: 9229 02be 96ea 23bf 07e4 403e ba57 d4bd
00000190: ebf3 3c3d 5af9 243f 9e55 a2be e772 dd3e
000001a0: 4a08 ea3e 4cf1 063d 1e5c f33e 1010 303e
000001b0: 18b2 f23b 02ff 873e 0c97 953e 8e42 fd3e
000001c0: 7939 573e 4d92 443f aee5 043e af1c 903e
000001d0: 50cd 4d3f 7bbb 39be b4b6 96be 1b0e 67bd
000001e0: d0d4 13bf 456d e8be bc6f 0dbf 46c7 0d3f
000001f0: 5182 4cbe 07e7 d33e c3eb 32bf 4ffa fe3e
00000200: 5d79 f73e 18a3 2cbf 287c b03d 1199 5a3d
00000210: 38a7 f8be 3265 14bf bb14 26be 086a 873e
00000220: 21a3 0bbe 95eb d1be 5d33 8b3e fb45 9f3e
00000230: 1db7 cdbe eba2 543c 015c 163f bb05 2cbf
00000240: d3c9 a181 4d2a 2681 5799 6b81 98f5 3f81
00000250: f4b4 5a81 1c2f 7380 e3ef a700 04a0 9701
00000260: 8ec3 8f01 f1df ec3e ce33 7b3f 9b5c 813d
00000270: 0204 c03e ee3d 293f b1d3 533c 0647 073f
00000280: 8735 533f 4126 0b3f f3d6 8e81 b684 9681
00000290: 2a32 9981 7a96 8681 5e27 7c81 9ad4 7081
000002a0: a8e1 1000 88ec b081 9ea5 2c81 4322 87bc
000002b0: 23d4 7dbd bd98 0e3f 626d 73be da37 ed3e
000002c0: 5423 8c3e c2cb bbbe 6c42 61bb 1ef3 df3e
000002d0: eb30 65be f3cb fabe 1fdf fe3d 51d7 c83c
000002e0: 30ef 30bf c220 2f3c 0e49 b1be 4cea 8bbe
000002f0: bfea 0fbf 52fd 7bbe 2c1a aabd 9d91 a23e
00000300: f672 5f3e 3d3b c73e b14e 563e 5b5a 633e
00000310: f7c6 ca3e 7888 b43e 0ac6 76bf a739 08bf
00000320: 75b8 2abf 7c6b 01be b235 273d f2a4 44be
00000330: 0b8a 65bf 3756 98bf a82f 39bd 8a93 a9be
00000340: 35d6 903e 230e e43e a0ff 02bf eb9d 4b3f
00000350: 4c64 203f 9817 81bd 13f6 dfbe 980b 3ebf
00000360: 7a91 f9be 6512 a9be 2e2f 4d3e bf29 8bbe
00000370: 5ff3 16bf 25f2 f23c 1a4f 8fbe a594 18bf
00000380: b148 9abd f3a7 4ebf e66f 4fbf 1e5f e4be
00000390: d553 1dbf 7253 75bf 7fc5 1bbe 4a1d adbe
000003a0: 2e50 4ebd 2667 133e daf5 b23e f98c 0f3f
000003b0: 0f79 1f3e 767b 04bf 08a6 843f 05e1 323f
000003c0: 67f9 673d a9ea 243f b328 f03e 98cc 00bf
000003d0: 941d 24be 878e f13d 7860 1dbe 6af1 753e
000003e0: 553d 3b3f d63f 613e e8ae 133f 4b36 1b3f
000003f0: 881e 263c d34a 273c 8b08 3a3c 2984 fb3b
-0.64349556 -0.49033064 -0.36756065 -0.7907708 -0.94555104 -0.8472738 -0.3298799 -0.9405176
-0.49037632 0.17274687 0.09863804 0.5618706 1.041818 0.95520157 0.316678 0.55140704
0.9544062 1.1455176 -0.27909526 0.39461982 -0.06256762 0.40920982 0.73646134 0.68109995
0.38151473 0.61778927 0.57923174 0.30769336 0.3280275 0.37156758 -0.6026849 -0.36338326
-0.27531782 -0.24764034 -0.22782543 -0.3870909 0.25603333 -0.06568849 0.5057861 0.7376534
0.002374705 0.15732516 0.6461688 -0.063014574 -0.32578295 -0.31782445 0.4450029 -0.5197643
-0.55829906 0.3630179 -0.26600564 -0.5346096 -0.19668427 -0.33792704 0.5874572 -0.08916212
0.23493645 0.59969 0.33392304 -0.09736995 0.26249278 -0.14065062 -0.6944454 0.38311422
0.58783925 0.27905306 0.74279624 0.74193174 0.74697787 0.3037397 0.5558309 0.4737826
0.015712881 0.36784068 0.5261546 0.22796592 0.5648283 0.17068982 1.1148535 1.6718271
0.94154215 -0.013950904 1.1790901 1.060331 -0.0289021 0.7469949 1.1015548 -0.3411128
-0.14683169 0.18337694 0.7689722 0.12691899 -0.40066907 0.14420508 0.012802861 0.15076795
-0.1271117 -0.64029825 0.18836986 -0.10368295 0.046131056 0.6444298 -0.31705946 0.43251726
0.4570945 0.032944962 0.47531217 0.17193627 0.0074064843 0.26561743 0.29216802 0.4946484
0.21018018 0.7678574 0.12978241 0.28146884 0.80391407 -0.18137924 -0.29436266 -0.056409936
-0.577466 -0.45395866 -0.5524862 0.5538219 -0.19971587 0.41387197 -0.69890994 0.49800345
0.4833478 -0.6743636 0.08617431 0.05336863 -0.48565078 -0.5796691 -0.16218846 0.26448083
-0.13636447 -0.41000047 0.27187625 0.31108078 -0.40178767 0.012978296 0.58734137 -0.67196244
-5.9431663e-38 -3.0519734e-38 -4.32727e-38 -3.5257364e-38 -4.0170104e-38 -1.0577982e-38 1.5422583e-38 5.569825e-38
5.281051e-38 0.46264604 0.9812592 0.06316491 0.37503058 0.6611012 0.012928889 0.5284275
0.8250355 0.54355246 -5.2471e-38 -5.529173e-38 -5.6275306e-38 -4.943975e-38 -4.6313335e-38 -4.4233572e-38
1.550318e-39 -6.4991595e-38 -3.1710235e-38 -0.01649583 -0.061969887 0.5570181 -0.23772195 0.46331674
0.27370703 -0.36678892 -0.0034371866 0.4374017 -0.22381942 -0.48983726 0.12444901 0.024516733
-0.6911497 0.010688962 -0.3462605 -0.27327192 -0.5621757 -0.24608353 -0.08305773 0.3175172
0.21821198 0.38912383 0.20928456 0.22202437 0.39604923 0.35260367 -0.96395934 -0.5321297
-0.6668771 -0.12638658 0.040822692 -0.19203547 -0.8966376 -1.1901311 -0.045211464 -0.33120376
0.28288427 0.44542035 -0.511713 0.7953784 0.6265304 -0.06303328 -0.43742427 -0.7423644
-0.48743802 -0.33021846 0.20037529 -0.27180287 -0.58965105 0.02965648 -0.27990037 -0.59601814
-0.07533396 -0.8072502 -0.8103012 -0.4460382 -0.6145604 -0.9583045 -0.15212058 -0.33811408
-0.050369434 0.14394817 0.34953195 0.5607448 0.15573524 -0.51750886 1.0363169 0.698746
0.056634333 0.64420563 0.4690605 -0.50312185 -0.16026908 0.11794763 -0.15368831 0.24017873
0.7314046 0.21997008 0.5768876 0.6062972 0.010139115 0.010210711 0.011354576 0.007675667

conv2.bias f4 [32]
00000000: 5634 883e 5c09 b8be ab4e 363e 9b22 d73d
00000010: 9cfd a63e f8df 9ebe e0bc a6be a7f8 31be
00000020: ea26 c0be b911 e63d 48d7 2ebe 8e49 05bd
00000030: aad0 e8be 3764 bb3e 1a23 20be 9d65 39be
00000040: 83f5 563b 2854 363e c5dc 7bbe d223 2dbe
00000050: c941 403e 9a65 f2bb b526 5bbd ec7f 93be
00000060: 2fae c33d 3e27 5fbd dbfd c3bc 8d56 85be
00000070: 8b2a 5bbe 9a3a 7ebe 9dc3 153e b611 a83e
0.2660243 -0.3594464 0.17803447 0.10504647 0.32615364 -0.3103025 -0.32565975 -0.1738001
-0.3752969 0.11233849 -0.17074311 -0.03254085 -0.45471698 0.36599895 -0.1563839 -0.18105169
0.0032800145 0.1780554 -0.24595936 -0.16908196 0.18775095 -0.0073973658 -0.05350371 -0.28808534
0.09554707 -0.054480784 -0.023924759 -0.26042596 -0.21402948 -0.24827042 0.14625402 0.32826012

conv3.weight f4 [20, 32, 1, 1]
00000000: e959 f534 7079 e7b8 3c68 a7b7 2caf 6aa1
00000010: 4748 95b8 371d 8f39 d22c 21b0 3db4 42ba
00000020: 72bf 4ba9 952d 9aba b253 591d 695b e3ba
00000030: 1fdb bbb7 3838 8c38 6dac b237 9ea8 2435
00000040: a2de 889c 4b9d 54b8 f533 4d9e f60f 00b9
00000050: df91 193a a134 d5b6 6f04 7b37 e9c2 0db5
00000060: 7832 8037 717c 1829 47a7 7db2 6efc 23b7
00000070: 9818 7e9e 1a38 2436 c670 3635 4d77 4432
00000080: e4ba bbbd b483 0bbf 1dc2 14be 3413 893e
00000090: 69ca ae3e a54d a8be d297 82bc b187 cf3e
000000a0: 3d01 ad3e 563c 6d3c 0246 083e d6c8 6f3c
000000b0: 09d3 6f3e 7ce3 b0bd 1e8c 11bd aa68 143e
000000c0: 57f5 6e3c 49a2 d43e 1d36 ed3d adbb 1b3e
000000d0: b9d8 23be 266b 7e3e 8b75 5bbe 5908 09be
000000e0: 5fe6 81be 7497 343f 1149 c0be efe6 893e
000000f0: 6e51 0a3e 3a20 bc3e 8471 813f cb38 84be
00000100: c8fa 27b3 e671 a2b6 ea2d d1ba f033 162e
00000110: aaa4 cfb7 4f42 b73a 6394 4936 3de2 99ba
00000120: 87b5 7ab2 e4f2 0eb7 88d3 1734 2d3a 27b9
00000130: f679 1db8 1078 94b5 6e82 a63a 4fc1 4237
00000140: b379 4001 f91c 4fb5 b164 d934 48fd 15b2
00000150: b703 fe33 9358 d5a8 163d 0933 53f2 1f35
00000160: 29f2 122b 5fd8 003b fb78 25b4 1912 3db5
00000170: 28c4 0e34 7540 a938 1694 9235 d92b 3c36
00000180: 4a35 d93d 90fd 943f e157 a8be 8e22 30be
00000190: de42 e2bd ab43 a63d 90c8 77be fffb 803e
000001a0: 9007 32bf 3d36 f03e ae6d 9b3d 12c3 743e
000001b0: d4da 3b3f cffa 56be 0593 a93c 5927 753d
000001c0: ba04 a0bc 6cd4 ecbd 645c 3a3d 1c15 a73b
000001d0: 0c07 4fbe 4f00 b03e 8a78 96be 7f90 dcbe
000001e0: 9643 b6be d781 a3be 6af1 c03e 7b7a 893e
000001f0: e533 323c 8f88 d1bd 2540 28bf f3ba 1c3e
00000200: 4499 aa3f fcf5 723e 96c1 39bf 2caf 6a3e
00000210: cbbe 1abe 14e5 043e 2db9 04be 73b8 443e
00000220: b400 0abf 0a57 59be 042e 4abe 3bc3 da3e
00000230: b163 9a3d a3c9 aebe c904 683e 1bac 143e
00000240: 4f2e 12bd aec7 0bbf eeed 0e3e 5c92 563e
00000250: 0f5c 80be cff5 6a3e 781d b4be deed a83e
00000260: 0427 2cbe 29c3 1ebf feda bebd f4f2 0b3e
00000270: 5434 e5bc dd8c 33bd 7d2b 31bf aeb6 2a3e
00000280: 5dee 9b3e d40d 79bd 0cf1 e63e cea9 07bf
00000290: c6f5 b53e 512b 95be 74ec 7b3e a96b e23d
000002a0: 7f47 353f ce32 2a3f c6de 013f 5f35 29be
000002b0: 6983 5abd 7294 86be 85db f03e 7a2a 3abf
000002c0: c472 9b3b 75f5 d13e 57f0 4dbd 4251 92be
000002d0: 8593 ea3e 1563 23bb 8d91 28bf 2e09 8cbe
000002e0: 0755 9a3e 7780 38bf c3de 8fbe df9d 42bf
000002f0: eb17 7ebd fb79 04bf f196 5cbf 55d6 11be
00000300: e855 03bf f48c 043f e342 b03e 7228 0dbf
00000310: 643b 223f ff9e a7be 4d12 9fbd 2785 353f
00000320: bd14 183f 8fdf bcbe c537 c03e 871d 68be
00000330: 9baf b43e 57bf 993d 1529 87be e57c dfbe
00000340: 9fb9 0c3d ec77 09bd 4150 7fbe 9e98 35bd
00000350: 970d 9c3e 5714 283e 1cf9 e8be 914f ae3d
00000360: 252d f5bc 6b0a 483f 65b4 cbbe 5573 903e
00000370: 0fdb 88be cbbf 27be 833f 1e3f 2880 9dbf
00000380: 1c6b 92be 1807 643d 1ba7 003f f98d 06bf
00000390: e5be 8e3e 8c86 f7bd 4774 cb3e 0ad9 1b3d
000003a0: 6c4a 06bf 103c 023f 72c4 d13e 14f3 be3c
000003b0: b812 cbbc c24f a0be ab70 43be 8a0f 43bd
000003c0: d26f 6c3c 9d50 d2bd 366e f6bd 4cad 65bd
000003d0: d882 b2bd ae58 f93d 9cb5 24be 1196 f6bd
000003e0: 1ec1 2ebe 1a57 b1be c410 df3e fa84 1abf
000003f0: 1449 d8bd 7de4 2cbf 51dc abbe 04fc 96be
4.5700224e-07 -0.00011037558 -1.995649e-05 -7.951412e-19 -7.118336e-05 0.00027296852 -5.863515e-10 -0.00074273703
-4.5241107e-14 -0.0011762852 2.876298e-21 -0.0017345968 -2.2394173e-05 6.686192e-05 2.1299546e-05 6.134013e-07
-9.057274e-22 -5.069123e-05 -1.0863354e-20 -0.00012212977 0.00058582233 -6.3540215e-06 1.4961798e-05 -5.2810225e-07
1.528229e-05 3.3858716e-14 -1.4764573e-08 -9.7743305e-06 -1.3451734e-20 2.447056e-06 6.796439e-07 1.1435827e-08
-0.09166506 -0.5449784 -0.14527173 0.26772463 0.34138802 -0.32871738 -0.015941534 0.40533212
0.33790007 0.014479717 0.13307956 0.014635285 0.23420347 -0.08637139 -0.035534017 0.14493051
0.014584861 0.41530064 0.11582587 0.15208311 -0.16000642 0.24845561 -0.21431558 -0.1338209
-0.25371072 0.705436 -0.37555745 0.26934 0.13507625 0.36743337 1.0112767 -0.2582458
-3.91108e-08 -4.8412358e-06 -0.0015959118 3.415218e-11 -2.4753e-05 0.0013981553 3.0037706e-06 -0.0011740398
-1.459319e-08 -8.520412e-06 1.4139925e-07 -0.00015948033 -3.7545302e-05 -1.1061802e-06 0.0012703666 1.1608309e-05
3.5352145e-38 -7.715567e-07 4.0492662e-07 -8.730531e-09 1.18284724e-07 -2.3686163e-14 3.1953356e-08 5.9584744e-07
5.2205684e-13 0.0019660217 -1.5410835e-07 -7.043432e-07 1.3296142e-07 8.070554e-05 1.0920946e-06 2.8039706e-06
0.10605867 1.1639881 -0.32879546 -0.17200682 -0.1104791 0.081183754 -0.24197602 0.25192258
-0.6954279 0.4691638 0.07589279 0.23902538 0.7338078 -0.20994113 0.020699987 0.059851978
-0.019533504 -0.11563954 0.045498267 0.005098952 -0.20217532 0.34375235 -0.2938884 -0.43078992
-0.3559844 -0.31934997 0.37684184 0.26851258 0.01087663 -0.102311246 -0.65722877 0.1530569
1.3328023 0.23726648 -0.72561014 0.22918385 -0.15111844 0.12978011 -0.12961264 0.19210987
-0.5390732 -0.21224609 -0.19744116 0.42727074 0.07538546 -0.34138212 0.22658075 0.14518778
-0.035688695 -0.5460156 0.1395795 0.20954269 -0.25070235 0.22945331 -0.35178733 0.32993978
-0.16811758 -0.6201654 -0.09319113 0.13666898 -0.027979054 -0.04383551 -0.6920698 0.1667125
0.30455294 -0.060804203 0.4510578 -0.52993476 0.35539073 -0.2913461 0.24601918 0.11055691
0.7081222 0.6648377 0.5073055 -0.16524266 -0.05334798 -0.2628513 0.4704248 -0.72721064
0.0047439057 0.4100758 -0.050278034 -0.2857762 0.45815673 -0.0024930884 -0.6584709 -0.27350754
0.30142996 -0.7207102 -0.2809964 -0.7602214 -0.06203453 -0.5174863 -0.8616782 -0.14241917
-0.5130296 0.5177758 0.3442603 -0.5513984 0.6337187 -0.32738492 -0.077671625 0.709063
0.59406644 -0.36889312 0.3754255 -0.22667514 0.35290226 0.07507198 -0.2639853 -0.43649974
0.03435671 -0.033561632 -0.24932958 -0.044335 0.30479118 0.16414009 -0.45502555 0.0851127
-0.029928753 0.78140897 -0.39786068 0.2821299 -0.26729628 -0.16381757 0.6181566 -1.2304735
-0.28597343 0.055670828 0.5025498 -0.52560383 0.27880016 -0.1208621 0.3973715 0.03804878
-0.5245731 0.508729 0.40970188 0.023309268 -0.0247892 -0.3131085 -0.19085948 -0.04762224
0.014430957 -0.10269282 -0.1203274 -0.056073472 -0.08716363 0.121751174 -0.16084903 -0.12040342
-0.17065856 -0.34636766 0.4356748 -0.60359156 -0.105608135 -0.67536145 -0.33566526 -0.29489148

conv3.bias f4 [20]
00000000: 5d6c 0fb1 b008 ae3d 762b 8dba c530 a93d
00000010: f420 33be e835 b5bd 1acc b23e 8ce3 383d
00000020: c2e6 863e 7849 d13c 1eff c23d a710 96bd
00000030: a971 bcbc d2e6 36be 5f8e aabd 85f7 3f3e
00000040: 383b b0bd 7024 31be 4827 ddbc 4cf9 9cbe
-2.0870836e-09 0.08497751 -0.0010770399 0.08261255 -0.1749304 -0.088481724 0.34921342 0.04513888
0.2634793 0.025547728 0.09521316 -0.07327395 -0.023003416 -0.17861488 -0.083279364 0.18746765
-0.08605045 -0.17299056 -0.02699627 -0.30658948

conv4.weight f4 [20, 1, 3, 3]
00000000: f9f4 493b 965f be3b 8018 483b 32db a1b6
00000010: d104 aa3b 27f3 cb3b 541a 01bb 9b2c 6939
00000020: 46ec 113b a381 c6be ce3b 1ebf 4f78 08bf
00000030: a1ee f13d 9bd2 303e 0f66 583e c861 1a3e
00000040: daee bcbe 16e3 a9be 2b27 8e3b f93f b139
00000050: b147 5d39 b809 f53a 82a3 dbb9 458c 0cb7
00000060: 55b1 47b8 06a1 f6b6 7ff2 f2b8 e015 58bf
00000070: 44db 20bd f872 a2be d2e5 37bf c708 04bf
00000080: 0104 4abb f650 99be 6aaa 5c3e ed1d 893d
00000090: 19a8 d53d b121 b8bd d8f3 ff3e 31f5 97be
000000a0: bbe0 19bf b4d4 35bf 0159 e7be 657b 17bf
000000b0: c86a 7ebe 698f 383d a39f d0be 100d 2dbe
000000c0: c4b0 bcbe d4db 4abe ec33 90be 1392 0c3f
000000d0: 5835 3a3f 987b 143f c5d2 633e fa63 f53d
000000e0: 5851 68bd 0d25 203e 07a7 f0be 3a35 083f
000000f0: 6d72 c6be a22c 29bf a766 073e f783 09bf
00000100: 1857 63be 9c13 36bf 5d37 9dbe 5962 133e
00000110: e911 a93e 3f2b 1cbf fc47 46be 444e 71be
00000120: f5c9 2e3f 3ae1 c53e 262f 0c3f f9f3 f23e
00000130: c6d3 e63e d008 7a3e c590 84be 223f 9cbe
00000140: 0ba6 c63d dbc0 16bf d629 a0be f594 1e3f
00000150: 1655 58bd 72df da3e 1f61 083f a6da 053f
00000160: a091 353f d296 863e 3239 323e 7ec7 a0be
00000170: c36a 35bf e8cf 243e eb8c efbe 1c0e b8be
00000180: 873c fabe dd3c 9dbe c7bd a73e b2f4 193f
00000190: fe4f 783e 92fe 30bf 8a50 59be ef7d 9d3e
000001a0: 112a 13bf 5b26 d9bb b300 133f 741b 183f
000001b0: 0c08 79bd ff6f 183f 90e3 2c3e 9483 8f3e
000001c0: 1347 123f 4e1c 923e bf9f f7be 7da4 e03b
000001d0: 78ac aabe 8fcf 89bf 28ea 03bf 5079 56be
000001e0: 1b46 77be f198 21bf 315c d7bc fc12 973e
000001f0: c4d4 e7bd 2e55 5abe 6adc 33bd ae06 e13d
00000200: 57fa 09be 2da1 713e dd2f 1b3f 6456 983e
00000210: 86ba d63e bcfd 9d3e d24c b93d 6723 52bf
00000220: 8349 52bf 6dae f3be c92e 21bf 4a5e ebbe
00000230: 7226 1cbf 1086 80bd 0bbd 76be ac26 ffbe
00000240: e88a 85be c912 ab3c 9ce7 b33e 88eb 2cbf
00000250: 7e33 38bf 45d1 a5be 3156 40bf 9dc1 44bf
00000260: 857a efbe e102 03bf d28a dbbe bbe1 24be
00000270: 70b2 09bf ab05 c3be 929a 1abf a6df f33d
00000280: 1278 15be 06e0 c8be b28f 97bb a908 b3bb
00000290: 47e9 3b3b 9f71 c0bb b48e 4c3b cdc6 60bc
000002a0: 0ed0 1bbc ff8f a4bc 0c7d 2bbd 2d72 04bf
000002b0: a5d6 a4be d774 e8be 50f8 ecbe d924 70bc
000002c0: 6a11 0d3f 9366 a4be 302f 7dbd 8151 0f3f
0.003081618 0.0058097346 0.0030532181 -4.8236916e-06 0.0051885624 0.0062240544 -0.001969953 0.00022237228
0.0022266074 -0.3877078 -0.61810005 -0.53308576 0.11813093 0.1726784 0.21132682 0.15076363
-0.3690098 -0.33181065 0.0043381653 0.00033807734 0.0002110291 0.0018694913 -0.00041892758 -8.377309e-06
-4.761045e-05 -7.350117e-06 -0.00011584628 -0.8440838 -0.039271608 -0.3172834 -0.7183505 -0.51575893
-0.003082514 -0.2994458 0.21549383 0.06695161 0.10432453 -0.08990801 0.49990726 -0.29679254
-0.60108536 -0.71027684 -0.45185092 -0.5917266 -0.24845421 0.04505864 -0.40746793 -0.16899514
-0.3685361 -0.1981042 -0.28164613 0.5491039 0.72737646 0.5800109 0.22248371 0.1198196
-0.0567182 0.15639134 -0.47002432 0.5320622 -0.38759175 -0.6608373 0.13222753 -0.5371699
-0.22201192 -0.7112367 -0.307063 0.14392985 0.33021477 -0.6100349 -0.19363397 -0.23565012
0.6827691 0.38648397 0.5475944 0.4745176 0.45083445 0.24417424 -0.258917 -0.30516917
0.09699639 -0.58888024 -0.31281918 0.6194604 -0.05281552 0.427486 0.53273195 0.52286756
0.7092533 0.26286942 0.17404631 -0.314022 -0.7086603 0.16094935 -0.467872 -0.35948265
-0.48874304 -0.30710497 0.32761976 0.60139 0.24249265 -0.69138443 -0.2122213 0.30760142
-0.57486063 -0.006626887 0.5742294 0.5941689 -0.06079869 0.5954589 0.16883683 0.28030074
0.571397 0.2853722 -0.48364064 0.006855546 -0.33334708 -1.0766467 -0.5152917 -0.20944715
-0.24147837 -0.63123995 -0.026289077 0.2950667 -0.11319879 -0.21321556 -0.043911375 0.10987602
-0.13474403 0.2359664 0.6061991 0.2975341 0.4193918 0.30857646 0.090478554 -0.8208527
-0.8214342 -0.47594014 -0.62962013 -0.45970374 -0.6099616 -0.062755704 -0.24095552 -0.49834192
-0.2608254 0.02088298 0.3513764 -0.6754689 -0.7195357 -0.32386222 -0.7513152 -0.7685793
-0.46773162 -0.5117627 -0.4287935 -0.16101734 -0.537879 -0.38090262 -0.60392106 0.11907892
-0.14596584 -0.39233416 -0.004625284 -0.005463679 0.002867298 -0.0058729197 0.0031212987 -0.013719273
-0.009510053 -0.020088194 -0.0418673 -0.5173672 -0.3219501 -0.45401642 -0.46283197 -0.014657223
0.55104697 -0.32109508 -0.06181258 0.5598374

conv4.bias f4 [20]
00000000: cab6 bdbe 0edd 973d 62a4 1dbf 04b8 bb3e
00000010: ea73 9b3e 3fed 2bbf 93ef 5bbe cdde 013d
00000020: ee8f 3e3e 82dc 983d 468e d3bd f9b4 11be
00000030: 3d4e 8abe 6011 5abe cacb 693e ee6e e7bd
00000040: 80c6 323e a13c 0d3e 2719 e7be bc33 18bf
-0.3705352 0.0741521 -0.61578953 0.3666383 0.30361873 -0.67158884 -0.21478109 0.03170662
0.18609592 0.074639335 -0.10329871 -0.14229192 -0.27012816 -0.2129569 0.22831646 -0.11300455
0.17458534 0.1379266 -0.45136377 -0.5945394

conv5.weight f4 [20, 20, 1, 1]
00000000: 8cd2 33be 084d a8be b152 553d dfb4 063e
00000010: a338 c2be 5ede 833e c25a 34be 01b3 abbe
00000020: de6a 293e 753b 863e cbed 993e e83a 96bd
00000030: b4c7 2e3e 01ab bbbe ad5b ac3d 444d b2be
00000040: a4a3 923e 7e6c d0be dc74 6abe 4e27 d83e
00000050: 87a8 66be 37c0 1c3d 9713 fcbe c707 603e
00000060: baea 62bb c7bf 113e 88a2 083e da70 24bf
00000070: f46c 103f fb15 cc3d fe83 a1bc f63c e1bd
00000080: b9e4 0ebe 84c2 abbd 5331 29be 9721 21be
00000090: 4741 b43e 8b84 93bd 7d1a e5be f108 b9bd
000000a0: 51df 97bd 21f5 d73e 66a6 f23d 96ac b8bd
000000b0: 7abe 94be 92b8 1a3f 34e4 e33d 4d05 e1bc
000000c0: ef28 f1bd 7e05 cabd a88e 64be 3c32 07bf
000000d0: dc26 963e a1b2 8cbd abbf 66bd 990b e3bc
000000e0: 4ef7 aabe 2f3a 96bd 885f 5cbc e4c0 a83e
000000f0: 4cc5 b43e 34cf 233d 18eb c03e 6f82 8ebd
00000100: 8723 913b 89a0 923f ccd1 b63e ac45 9bbd
00000110: 68eb 9c3e d972 a3bc f8d7 933c 4ebb 63be
00000120: 3075 863e efcb 613f 649b 9cbe 3e8e 143f
00000130: 9f11 68be fbc8 16be 374d b43e ebb6 273e
00000140: 6ba0 9e3d 9285 a6bd 5b77 2b3e fd7e ccbe
00000150: b861 75be 3b10 81bd 36b2 76be 376c 0ebe
00000160: 9f01 cc3d 7b5b a93d d4a3 f3bc 2c66 023e
00000170: a6d6 98bd 135a d03e 3868 88be 5114 c33e
00000180: 93e3 a03e 6ec9 ecbd 1e75 483e ca89 3f3f
00000190: 6855 8a3e 6777 f1be 39dc 063e bc91 f63e
000001a0: 761d 383e fcf2 d03e e0c9 b03d 8fc9 8dbd
000001b0: bf28 783d 83e4 243f 716b b63c 48b8 e3be
000001c0: 481b 913e 5af3 52be bbf6 423d f874 853d
000001d0: 7818 183c 2d46 78be a890 e23d c4bd 7f3e
000001e0: 397e d63b a7df fc3c ea18 463c 5e6e e53c
000001f0: 6e3e 913c 52e3 90bb 37f7 793c 8aa8 f73c
00000200: e7af 06bd 06d5 83bc 75e3 f13c 5fb9 b7bc
00000210: ca6c 00bd 3efe 333d d6d7 aabc 0ab6 e23c
00000220: e34b ca3c e2e4 c23c fc00 113c b8ef 183d
00000230: 09f5 06be 5cda 2a3d 9a09 3fbe cab0 9cbe
00000240: 5b56 0f3f 4ceb 0c3d f3d2 e8be 33f4 82bd
00000250: 9170 e13d c99c df3d 57c2 62be bbf2 273e
00000260: 23c1 003f bebc 733e ea83 703e ae58 7e3f
00000270: 3eb3 1fbf ef35 96be 4089 9ebd 537a d63d
00000280: dc18 ce3e 56e0 4cbf 44b5 ee3e 9887 3d3d
00000290: 6a87 3cbe 014a b73e 187c b23e df71 9e3d
000002a0: 690b be3e c726 a33d 902f 94be 1827 6f3e
000002b0: 4d4d 573e 5ec7 f03e 1ec6 f13e b33d 603d
000002c0: 7986 d0be 89b4 42be 38e6 dc3e 9f4f b3be
000002d0: c38a 2d26 3bc8 8a3b 12d7 2a2f aa9e 563c
000002e0: e69d 6139 ce00 41bb 7855 6c3a f3cf 733c
000002f0: c6a9 8abc 6c9d 2dbc 3c08 893c 729f 3ebb
00000300: e445 0ebc 503d 213b 18c0 34bc 48d8 b93b
00000310: 64f1 e73b 05d5 583c 4994 962a e53a 9434
00000320: 3d3c 9a3d bdac 893e 7751 76bd cd4e 1bbe
00000330: b79f 943d e59d df3c f23f cdbe 18ae d7bd
00000340: 6f05 763e 0d34 d43c c942 8e3e 3616 b6be
00000350: e7dd 033f 165e ec3b d546 8f3d a60c 2e3e
00000360: b53e 43bf 0f75 adbe 025f be3d 4f79 a03e
00000370: e95f 20be 9ef5 e33e bb09 f4bb b7dd 91be
00000380: c99c fbbd 2578 04be 83cb e93b 7df3 c7be
00000390: cf64 843d b2a6 533e 4aca 9fbe 5f2d 0b3f
000003a0: d064 68be 000b 80bb 56cd b03e 099a b5bd
000003b0: 2298 ec3e ed99 8e3e 338a 39be ad3c 0f3d
000003c0: f1ba 233d 27d8 dc3e c884 edbb fe79 bcbd
000003d0: 7ced 1e3e 4c6e 373e a267 163f e6dc 75be
000003e0: 5395 4d3e 5af0 fc3d d095 0dbf d2e2 d73d
000003f0: 02d6 1fbe 39c6 dd3e 4271 dfbd 1b11 423e
-0.17560786 -0.3287127 0.052080814 0.13154934 -0.37933835 0.2575559 -0.17612746 -0.33535007
0.16544673 0.26217237 0.30064234 -0.07335454 0.17068368 -0.36653903 0.08415923 -0.34824574
0.28640473 -0.40707773 -0.22896141 0.42217487 -0.22525226 0.038269248 -0.49233696 0.21877967
-0.0034624771 0.14233314 0.13343251 -0.642347 0.5641625 0.0996513 -0.01971626 -0.109979555
-0.13954438 -0.0838671 -0.16522722 -0.1573547 0.35206053 -0.07203015 -0.4474677 -0.090349086
-0.07415641 0.42179206 0.11848144 -0.09017293 -0.29051572 0.6043788 0.11127511 -0.027468348
-0.117753856 -0.09864329 -0.22320044 -0.52811027 0.29326522 -0.06870008 -0.056335133 -0.027715491
-0.33391804 -0.073353164 -0.013450511 0.32959664 0.35306776 0.039992526 0.37679362 -0.06958472
0.004429284 1.1455241 0.35706937 -0.07581648 0.3064835 -0.019952225 0.018047318 -0.2223942
0.26261282 0.882018 -0.30587304 0.58029544 -0.22662972 -0.14725105 0.3521516 0.16378371
0.07745441 -0.08130945 0.16744749 -0.39940634 -0.23963058 -0.06301924 -0.2409142 -0.13908468
0.09961247 0.08269402 -0.029741205 0.12734288 -0.07462816 0.4069372 -0.26642013 0.38101438
0.31423625 -0.11561857 0.19575927 0.74819624 0.27018285 -0.4716141 0.13169946 0.48158062
0.17979988 0.40810382 0.086322546 -0.0692321 0.060585734 0.6441118 0.022268029 -0.44476533
0.28341126 -0.20600644 0.04759858 0.06516451 0.009283178 -0.2424552 0.11062747 0.24974734
0.0065458086 0.030868364 0.012090901 0.028006729 0.017729964 -0.00442163 0.0152566945 0.030231733
-0.032882597 -0.016092788 0.029527405 -0.022427259 -0.03135375 0.043943636 -0.020854872 0.027674694
0.024694389 0.02379078 0.008850332 0.03733799 -0.13179411 0.04171215 -0.18656006 -0.3060363
0.55991143 0.034404084 -0.4547344 -0.063942336 0.110077985 0.10918576 -0.22144447 0.16401188
0.50294703 0.23802468 0.23487821 0.99354064 -0.62382877 -0.29338023 -0.07741022 0.1047255
0.4025334 -0.8002981 0.4662267 0.04627189 -0.18411031 0.35798648 0.348603 0.07736563
0.3711808 0.079663806 -0.28942537 0.23354757 0.21025582 0.47027105 0.47221464 0.05474634
-0.40727594 -0.19014181 0.43144393 -0.35021684 6.020949e-16 0.004235295 1.5537818e-10 0.013099352
0.00021516494 -0.0029449943 0.00090154214 0.014881122 -0.016926657 -0.010596614 0.01672756 -0.0029086736
-0.008683655 0.0024603195 -0.011032127 0.0056715347 0.0070783366 0.013234382 2.6748246e-13 2.761e-07
0.07531021 0.268896 -0.060136285 -0.15166779 0.07257026 0.02729697 -0.4008785 -0.105312526
0.2402551 0.025903726 0.27785328 -0.3556382 0.5151047 0.0072133644 0.06995932 0.16997012
-0.7626756 -0.3387837 0.09295465 0.3134255 -0.15661587 0.4452333 -0.007447449 -0.28489468
-0.12285764 -0.12936457 0.007134856 -0.39052954 0.0646454 0.20669058 -0.31209022 0.54366106
-0.22694707 -0.0039075613 0.3453166 -0.088672705 0.46209818 0.2785181 -0.18119125 0.034969974
0.039973203 0.4313366 -0.007248495 -0.09202956 0.1552028 0.17913169 0.5875188 -0.24010047
0.20076494 0.12350531 -0.5530672 0.105413094 -0.15608981 0.43315294 -0.10910274 0.18951838

conv5.bias f4 [20]
00000000: 7d03 7f3e 25bd 0a3f 9df1 b43d cce5 f8be
00000010: 3be3 98be c188 b6be 4364 90bc b1a1 9b3d
00000020: 2d49 b6be 42bf f8b4 b072 0a3e f3a5 203e
00000030: 1d8e d5bd 92e4 19be 7dce 883e ca7e d63d
00000040: 3560 cdbd 6142 23be 4a68 febd e15e 6eb3
0.24903674 0.5419486 0.088351466 -0.4861282 -0.29860863 -0.3565121 -0.017625934 0.075991996
-0.35602704 -4.6332758e-07 0.13520312 0.15688305 -0.104274966 -0.15028599 0.26720038 0.10473402
-0.10028116 -0.1594329 -0.12422235 -5.5499985e-08

conv6.weight f4 [20, 1, 3, 3]
00000000: bd70 07bf d284 70be aa1c 8f3e 2126 0fbe
00000010: f8e2 90be cddd 2abd 1b01 2a3b 6eda 05bf
00000020: 82d3 9c3e 11ce 463f 5efb 103f c450 363e
00000030: 8d62 61bc c935 aebe b56a babe de76 723e
00000040: 0bef a2be bb2c 56be 9c2c 3dbf ccd8 85be
00000050: 274c dcbe c0d5 5d3e d3ee 3f3c 8854 5ebe
00000060: aa18 b4be 31b1 97be 90dc 433d 7305 18bf
00000070: 6ee1 6e3d 3d0a d8be bfd7 723e 97e2 47bd
00000080: 7cb3 e3be 0d03 1dbd 6dbb 683e 1c37 3ebe
00000090: a8b2 00bf 4c7a 82be c367 03bf d5c0 dcbd
000000a0: 407f a83d cbe7 e1be b599 abbe 1c57 6cbe
000000b0: d3aa 80be 7f89 06be 9721 37be da73 343e
000000c0: 46d6 aa3e 9c6a f8be 311a 5bbd 7d2a 7d3e
000000d0: f102 be3e 7fe0 efbe 5b84 15bd 895a d3bc
000000e0: f4fb 11bc 3d6a 70bc ccaa 9cbc a540 fabb
000000f0: 51a0 a1bb ad10 87bc bb77 10bc b017 b5be
00000100: 092e 27be bb1e d1bd 822c 773e 9d3a f83e
00000110: a4d0 4fbd bfc4 09bf f2f7 9fbd f106 1bbd
00000120: dae2 d5bd d344 a6be ee1d f3be 1224 f23e
00000130: 79af d73d a004 44bd 97a3 81bb 6b30 d43d
00000140: 3b00 53be b2b0 103c 26e8 0ebc af15 a8bc
00000150: 930d 00bc 403b 7cbc fd37 80bc 46a9 99bc
00000160: 75f2 80bc 531e 12bc a74a f3be 2208 c4bd
00000170: ade6 6c3e 3821 973e 9e97 f33d e599 5c3f
00000180: 2b86 403e 288b 06be f3f7 a9be f736 433f
00000190: b18d d63e 2d85 e03e 180c efbc 6c86 b2be
000001a0: 2448 2b3e d38b 7cbe d471 d0be 43bd dabc
000001b0: dc5b d5be a0ee 2bbd cf9d d13e 8f19 a0be
000001c0: 1256 3c3e 072f e3be a532 0e3e f9d7 f8bd
000001d0: e830 afbe 5570 dc3e 1378 0d3e 2c2c 13be
000001e0: 8af3 163f cc61 4d3e 4bf5 053f 3d39 b6be
000001f0: be01 bb3e 1abc aabe 7217 773e e425 d93e
00000200: 9fe3 a6bd d405 1e3f 3f49 e83d 8caa b23e
00000210: 9acc 053f b34f ed3e 4f46 3d3e 613c 7ebe
00000220: c716 92be fd61 a9be eefe 23bf faab fc3e
00000230: 5555 ea3e fc3a b73a 8cfc d8bd 62f2 05be
00000240: 825d a9be 54a1 c6be 546f 863d 3a12 8c3e
00000250: a42b a73e 1b87 bcbe e31b 7cbe 5a85 42be
00000260: 744e cabe a0e5 48bd e633 013f dd66 ca3d
00000270: ba78 8f3e 9a12 80be 1acb 09bf 0c1a 8cbe
00000280: eb17 853d 32df 23bf 0282 5bbe 9082 223f
00000290: 493d 133c bcb4 8d3e 279f b4bd cd1a 44bc
000002a0: 7fa3 d53e 8997 f13c d910 5abe 1f55 b8ba
000002b0: cf2d 163c d688 803c baf8 98bb 17a5 bc3b
000002c0: dcd2 973c 2098 993a e63d 003c 75ca 5e3c
-0.529064 -0.23488167 0.27951556 -0.13979389 -0.28298163 -0.041715432 0.00259406 -0.5228642
0.30630118 0.7765818 0.56633556 0.17804247 -0.0137564065 -0.3402541 -0.36409536 0.23678157
-0.31823 -0.20915501 -0.73896194 -0.26141965 -0.4302685 0.2166357 0.011714655 -0.21711934
-0.35175067 -0.29627374 0.047817767 -0.59383315 0.058320455 -0.4219531 0.23715113 -0.048800077
-0.44472873 -0.038332988 0.22727747 -0.1857571 -0.5027261 -0.2548393 -0.513302 -0.10778967
0.08227396 -0.44122157 -0.33515707 -0.23080105 -0.2513033 -0.13138388 -0.17883907 0.17622319
0.33366603 -0.48518836 -0.053491775 0.24723239 0.3711162 -0.46850964 -0.036503177 -0.025800006
-0.008910168 -0.014673767 -0.019124411 -0.0076371008 -0.0049324413 -0.016487444 -0.0088176085 -0.35369635
-0.16326155 -0.102109395 0.24138072 0.48482218 -0.050736085 -0.53815836 -0.07810964 -0.037848417
-0.10443659 -0.32474384 -0.47483772 0.47293144 0.10531516 -0.047855973 -0.003956269 0.103607975
-0.20605557 0.00883119 -0.008722341 -0.020518152 -0.007815736 -0.015394986 -0.015651697 -0.018757474
-0.015740613 -0.008918363 -0.47517893 -0.09571864 0.23134871 0.2951753 0.11894153 0.86172324
0.18801181 -0.13139021 -0.33196983 0.76255745 0.41904977 0.43851605 -0.029180571 -0.3486818
0.16726738 -0.24662714 -0.40711844 -0.026701575 -0.41671646 -0.041975617 0.4094071 -0.312695
0.18392208 -0.44371817 0.13886507 -0.121505685 -0.34217 0.43054453 0.13815336 -0.14372319
0.5896536 0.20056838 0.5232741 -0.35590544 0.36524767 -0.33346635 0.24130037 0.4241172
-0.08148884 0.61727643 0.113420956 0.34895742 0.5226532 0.46349868 0.18483852 -0.2482772
-0.28533003 -0.33082572 -0.64060867 0.49349958 0.45768228 0.0013979371 -0.105950445 -0.13080743
-0.33079153 -0.3879496 0.06564203 0.27357656 0.32650483 -0.36821827 -0.24620013 -0.18996182
-0.3951298 -0.049047112 0.50469816 0.09882901 0.28021795 -0.25014192 -0.53825533 -0.27363622
0.064987026 -0.64012444 -0.21436313 0.6348047 0.0089867795 0.27676952 -0.088194184 -0.01196928
0.417263 0.029491203 -0.2129549 -0.0014063454 0.009166195 0.015690248 -0.0046683224 0.005756985
0.018533163 0.001171831 0.007827258 0.013598074

conv6.bias f4 [20]
00000000: 07d4 d0bd ba31 e63c 71dd a73e 9cca 063e
00000010: 9e0d cc3e 331c 3e3e ce40 083f 5e89 02be
00000020: ad50 3c3e af45 423f ed1b 07be 286c fbbd
00000030: f06b 12be 4adc 3f3a 3b71 913e 704c 49be
00000040: 9189 7a3e a35a dc3e 3df3 4ebd 693f 0cbf
-0.10196691 0.028099883 0.32786134 0.13163227 0.3985414 0.18565445 0.53223884 -0.12747714
0.1839015 0.7588758 -0.13194247 -0.122764885 -0.14298987 0.00073188974 0.284067 -0.19658065
0.2446654 0.430379 -0.05052494 -0.54784256

conv7.weight f4 [20, 20, 1, 1]
00000000: 20eb 213e f477 cfbe 4a23 13be 189c 6bbe
00000010: 75ef 183f d11a dd3e 41c4 133e 65b5 423e
00000020: 3cd9 f83d 0094 c8bb 4469 303d abf9 cbbe
00000030: 3a3d f63d 3881 8abd adc8 893e 6103 c03d
00000040: 7117 c0be e9a9 cc3d 6339 2f3e 49e4 023d
00000050: 755b 5dbe a989 82be c7cd bd3d b3cc 263f
00000060: 8770 7ebe f885 503d 615d 37be 1440 173e
00000070: 5c8f d33e ff32 ddbd fe09 1cbd 2d23 e8bd
00000080: cecd 153e b704 0dbf 9187 31bd eadb 793e
00000090: a950 c53c 4704 f0bd fc8b 31bf cc82 c33d
000000a0: 7188 f43d 450e 0d3e c05d 903e 956f 0d3f
000000b0: 0592 dcbc 937a 35be 2db6 93be 17ce a13e
000000c0: 9d4e d73d 7aaf 81bd 585a 29be 36e2 3ebe
000000d0: effb 423e d8b1 81bc aaf1 9e3e 0ffb aa3d
000000e0: b3d6 dd3e 2e77 4dbe 5250 7b3e 08f5 543e
000000f0: 60cd 85be 0fd1 1bbf 8615 4fbe 9fee 033e
00000100: 2feb c4bd 88e8 723e 09d4 05bf 9e40 b13d
00000110: 2a7a d9bd 6fd0 a6be 7269 913e 2e62 b83d
00000120: 6e4d 5bbe 4a1e 48bc 419e cebd 6156 5bbd
00000130: ae01 953d 1b1d 433e c2c3 24bd 8456 3b3e
00000140: 79e0 e6bd ced0 c13d 1581 0d3e 491e a5be
00000150: 17d0 913d 48ce eb3e 3630 49be 12e3 723d
00000160: 53b4 74be 376c 113e ff3e c33e 961a 913d
00000170: 0fd7 0c3e 0a9d bbbd a062 43bf 3cc4 9f3d
00000180: a9e5 353d 355f 643f 143d 8ebe 8a89 b13d
00000190: 21f6 f73b 574f 283e 78af 05be b32a f23e
000001a0: 69fd 5fbe cab7 f13e 7fd9 cdbb 562e 96be
000001b0: a7a5 353e 8a78 a73d 00c7 0a3e 9c48 4a3c
000001c0: 35fd 2fbe 4c52 59be b3a9 fdbd 8553 ecbe
000001d0: b8fb 4abd 201c 8f3c c6b9 433e 69d4 20be
000001e0: c3f1 633e 098d 213e 33f3 c0bb 23cc 30be
000001f0: 8b93 56bd 6e12 a0be 20f3 b5be 5ec5 98be
00000200: 4ea7 3fbe ba11 c5be f12c aabe 575e d33e
00000210: f4de 0b3f 5690 8e3b 31c6 4bbd e21e 973e
00000220: c3d0 70be 7dde 293d 4c2b 88be 7d0b b93e
00000230: d6d4 5b3e 795b 87be b101 bd3e c349 393f
00000240: c780 3a3d bed1 a9bc 7aef 4a3d 43e7 4fbd
00000250: 4c9a b33c 85e7 d4bc 7bf4 b9bd 56c2 66be
00000260: bde6 07be 7808 d63d 2187 0abd 5330 133e
00000270: 217f 353d abee 87be 1c9d 8e3e 9753 b23d
00000280: 8bad f53c 2fbc f4be bdd7 55be fbdb 2ebc
00000290: c9c4 073e d9d9 5d3d f3a5 83be 34b6 acbd
000002a0: 6250 d93e a2d0 0bbc f2f2 c8bc e3d4 f73d
000002b0: f114 563e 0cdd 483e bdfb 8c3e f486 823e
000002c0: cb72 d0be 11e9 d43d b4a2 7e3e 9f8c cd3c
000002d0: bef4 613e 44c0 a2be 36dc a7be c865 6e3e
000002e0: 0658 3abe 8cea 52be bdc7 d03d d220 10be
000002f0: 4774 a7bc a087 f03e 4a29 babe 885a 83be
00000300: 0831 3b3e d8dc c1be 2b66 803e b0d1 6c3e
00000310: 4f70 2c3e 9b20 633c 211a c8be 75c3 16be
00000320: 4c0b 253d b133 123d 5cfa d8be cadf d2be
00000330: 06b0 6a3d b86f 133e 1a72 89be 1283 8e3d
00000340: d9c6 3abc 5db4 f4be 2950 203e 2f10 573d
00000350: cc77 2d3f 519a 57be 6fce 21bf 355a df3c
00000360: 9695 2f3f 58c4 b3be 6fa5 da3e e437 4b3e
00000370: 579a 8d3e 9166 cf3e 57e9 98bd 7eb8 1fbd
00000380: 6f13 8fbe 2d51 e8bd 500d 08bf b284 4a3d
00000390: 6919 febd 7fdf 01bf d3b0 2d3e c6c2 683e
000003a0: 860a 97bd cbb1 1dbe fb47 443e a07d 56be
000003b0: b46b 7f3e 484e 723b 40fb ff3b bc33 d63e
000003c0: d189 783e 0ca8 e2be ad57 18be 4b95 9b3e
000003d0: 5bc5 67bd d152 30bd 2fc0 bcbe 3c87 583e
000003e0: 525a 31be 9fce 06bf df1e 083d 448e e9bd
000003f0: 06e6 f7bd eef1 843e 9125 5bbe 6d9b bdbe
0.1581235 -0.40521204 -0.1436893 -0.23008764 0.5974038 0.43184522 0.14430334 0.19014509
0.12150809 -0.0061211586 0.04306914 -0.3983892 0.12023397 -0.06762928 0.26910916 0.093756445
-0.37517884 0.09993345 0.17111735 0.03195599 -0.2161692 -0.2549565 0.092677645 0.65156096
-0.24847613 0.050909013 -0.17906715 0.14770538 0.41320312 -0.10800742 -0.038095467 -0.11334834
0.1462929 -0.5508532 -0.043342177 0.24400297 0.024086313 -0.11719566 -0.69354224 0.09546432
0.11940087 0.13774975 0.28196526 0.55248386 -0.026925096 -0.1772254 -0.28849927 0.31602547
0.10513041 -0.063322976 -0.1653837 -0.1864098 0.19041418 -0.015831873 0.3104375 0.08348667
0.43327865 -0.20064995 0.24542359 0.20796597 -0.2613325 -0.60865873 -0.20223054 0.12883995
-0.0961517 0.23721516 -0.52276665 0.08654903 -0.10619004 -0.32580897 0.2840076 0.09003101
-0.21416256 -0.012214253 -0.10088778 -0.053549174 0.07275711 0.19054072 -0.04022575 0.18294722
-0.112732835 0.094636545 0.13818772 -0.32249668 0.07119768 0.46055818 -0.19647297 0.059298582
-0.23896913 0.14201437 0.38134 0.07085149 0.13753913 -0.09160812 -0.76322365 0.078011006
0.044408474 0.89207774 -0.27780974 0.086688116 0.0075671826 0.16436516 -0.13055217 0.47298202
-0.21874012 0.47210532 -0.006282031 -0.29332227 0.17738973 0.08177288 0.13552475 0.012346413
-0.17186435 -0.212228 -0.12385883 -0.4615747 -0.049556464 0.017469466 0.19113836 -0.15706028
0.22260194 0.15776457 -0.0058883666 -0.17265372 -0.0523868 -0.3126406 -0.35537052 -0.2983808
-0.18716165 -0.38490087 -0.33237413 0.41282913 0.54637074 0.0043507023 -0.049749557 0.2951575
-0.23517136 0.041471947 -0.26595533 0.36141577 0.21467909 -0.26436976 0.36915353 0.72378176
0.045532968 -0.020729896 0.04954479 -0.050757658 0.02192416 -0.025989303 -0.09079834 -0.22535071
-0.13271613 0.10450834 -0.033820275 0.14373903 0.044310693 -0.26549277 0.2785424 0.0870735
0.029989978 -0.47799823 -0.20883079 -0.010672565 0.13258661 0.054162834 -0.25712547 -0.0843319
0.4244414 -0.008533629 -0.024529908 0.12101152 0.20906426 0.19615573 0.2753581 0.25493586
-0.4071258 0.103960164 0.24866754 0.025091467 0.22066018 -0.31787312 -0.32785195 0.23281014
-0.18197641 -0.20597285 0.10194347 -0.1407502 -0.020441188 0.46978474 -0.36359626 -0.25655007
0.18280423 -0.37863803 0.25077948 0.23126864 0.16839717 0.013862754 -0.39082435 -0.14722998
0.040293977 0.035693828 -0.4237851 -0.41186363 0.057296775 0.14398086 -0.26844865 0.069585934
-0.011399948 -0.47793856 0.15655579 0.05250567 0.6776092 -0.21054961 -0.6320562 0.027264694
0.68587625 -0.35110736 0.4270434 0.1984554 0.27656814 0.4050794 -0.07466381 -0.038994305
-0.27944514 -0.11343608 -0.53145313 0.049442954 -0.1240719 -0.5073165 0.16961984 0.2273055
-0.07375054 -0.15399854 0.19168083 -0.2094636 0.24943429 0.0036972929 0.0078119338 0.41836345
0.24271323 -0.44268835 -0.14877196 0.3038734 -0.056584697 -0.04304773 -0.36865374 0.21145338
-0.1731961 -0.5265903 0.033232566 -0.11404088 -0.1210442 0.25965828 -0.21401049 -0.37032643

conv7.bias f4 [20]
00000000: e96c 593d 9f15 3cbe 78bc fd3b b3a3 3dbe
00000010: 50fe f23d f7e7 abbd a3fb 4ebe 147a f4bd
00000020: a169 69be 66c9 313e da55 e6be 55e1 84be
00000030: 9834 34be ba70 50be 87b1 dd3e 5ffe 563e
00000040: 9600 95be ad7c b2be 1ada 8cbe ca40 08be
0.05308238 -0.18367623 0.0077434145 -0.18519478 0.118649125 -0.08393853 -0.2021318 -0.11937347
-0.227942 0.17361984 -0.44987375 -0.25953165 -0.17598188 -0.20355502 0.43299505 0.20995472
-0.2910201 -0.34860745 -0.27510148 -0.13305965

linear.weight f4 [10, 20]
00000000: f4b2 b5be ce65 8d3e 0863 013f c629 28be
00000010: 2b27 533e b516 c1be 4733 e6bd f4b4 7c3e
00000020: 5cac 433e 9205 5c3e 0e3f 19bf d13a b13e
00000030: 53bf acbd f9ff 113e 0b8c ecbd 9919 c53e
00000040: 3e4a 3c3e 89d7 80be fe80 c73e efc8 e7be
00000050: 6c06 f73e 4e36 abbe bab3 013f c270 acbe
00000060: bdc4 c0bd cdb6 913e 3e8f c1bc ee82 dd3e
00000070: 7052 023f 3e41 1fbd eea7 913e 8e23 e73d
00000080: a519 f4bd f9be a1be 6b0e a0be 2f08 763e
00000090: ae52 b7be b5e4 8dbe f7a6 e4be 85ea cc3c
000000a0: 8f1d 8d3d 1ebe cebb 8cd2 fb3c 747d 6cbe
000000b0: a9fa 5e3d d6ae 533d 999a 293e 8625 843d
000000c0: bc01 363e 71c1 adbe 49b5 e23e 98a4 8ebb
000000d0: eff1 b33d b14c 40bc e4d8 49be 8318 13be
000000e0: bf8e f13d 0668 a83e b15b 7ebd 79b7 aabe
000000f0: bd1c cb3d 98d6 9ebd 23be 74be 4d3f 30be
00000100: 4d49 453d fb6b ca3e 0d29 adbe d0f9 f83d
00000110: b537 fe3c 8b82 d8be 5a8b 5abe d884 d7bd
00000120: 58af a4be 7182 8fbe 5562 e83e f75c 473d
00000130: 594a a2bd 22a8 493e d790 8f3c 1acc 0c3e
00000140: de3c 6bbd 769b 03bf 7bb3 8fbe 106e 873e
00000150: 46ec 96be 789d 6cbc 3210 ab3e 7437 ecbc
00000160: 9d57 23bd 5f3e 9b3e c416 2c3e 4ce7 633d
00000170: 64a7 133d 6cbe 4abd 30f3 bebe 3bc4 fdbd
00000180: b22a 873e 3690 e9be 6500 d0be 29a0 23bd
00000190: 1610 143d b07f d83d 896a 59be e300 11be
000001a0: 97ba 273e b990 ee3d 2a6c f1bd 67a6 c8be
000001b0: c81e b23d 9261 ccbd d3d1 8dbe 2de4 d9bd
000001c0: f273 cd3e 3def 813e f62c 73bc fed2 463e
000001d0: e106 00be 4a11 093d a7d3 b33c 8af2 93be
000001e0: 35e9 8e3e 5b51 2c3e b571 39be c4d8 16be
000001f0: 9253 8d3e 2944 eebd 9b59 62bd 49d7 7d3d
00000200: 08d5 96be a7fd af3e ef6c 26be 4360 24be
00000210: 5311 d3b9 1a3c 543e 8107 cebe c224 1ebe
00000220: 3889 2e3e 0666 113e 1d26 b03e 08fa 97bd
00000230: c0ce 133d 73cb f7bd d200 f13e b681 883e
00000240: e39e c9be 533f 1dbd 8aa9 ae3e 627a 77be
00000250: efab a23e 8515 42be 9e61 b03c 5550 873d
00000260: 42b6 083e 32dd afbd f991 93bd 6ed8 54be
00000270: 730c 49be 06e6 ff3d 6b35 f2be c097 3dbd
00000280: d9e9 00bf 71b0 29bd fffc 14bd 1725 9d3d
00000290: c500 2c3e 7af1 a03e 42e6 25be a2f4 4fbe
000002a0: aca5 72be e604 27be 5202 df3c 3994 b43e
000002b0: 9592 16be a85a 2fbe 60d9 6a3e 0b28 99bd
000002c0: d041 34be 87a9 78bd a7ba a53e 1b39 123d
000002d0: 4312 08bf f467 8b3e a9d5 c2be c1af 8ebd
000002e0: b864 a0be 652f 2bbe ba3c 0e3e 8e45 a8be
000002f0: 8869 c7bc a65f afbb 6d33 08bd 9853 98bd
00000300: 32e8 843c b568 013e 4ce4 8d3e 5a53 e13d
00000310: 0ffb 8c3e 2a3f 6fbd 5f72 9dbe 9b98 313e
-0.35488093 0.27616733 0.50541735 -0.16422185 0.2062041 -0.37712637 -0.11240249 0.24678403
0.19108719 0.214865 -0.5986184 0.34615186 -0.0843493 0.14257802 -0.115501486 0.38496092
0.18387696 -0.2516444 0.389656 -0.45270488 0.48247087 -0.3343987 0.50664866 -0.33679777
-0.09412525 0.28459778 -0.023627874 0.43263954 0.5090704 -0.03888058 0.28448433 0.112860784
-0.11918954 -0.31591013 -0.31261 0.2402656 -0.35805267 -0.27713552 -0.44658634 0.025014171
0.068904035 -0.006309285 0.030740045 -0.23094732 0.054438267 0.05168041 0.1656288 0.064524695
0.17774099 -0.33936647 0.44278935 -0.004353117 0.087863795 -0.011737035 -0.19711643 -0.14364819
0.11794805 0.32891864 -0.062099162 -0.33343104 0.09917591 -0.07755774 -0.23900656 -0.17211647
0.04816561 0.39535508 -0.33820382 0.12157023 0.031032423 -0.42287096 -0.21342221 -0.10523385
-0.32165027 -0.28029206 0.4538752 0.048672643 -0.07924337 0.19693044 0.01752512 0.13749734
-0.057431094 -0.5140909 -0.2806662 0.2645116 -0.29477137 -0.01444184 0.33410794 -0.028835036
-0.039878476 0.30321023 0.1680556 0.055640504 0.036048308 -0.049498007 -0.37294912 -0.123909436
0.2639976 -0.45617837 -0.406253 -0.039947663 0.036148153 0.105712295 -0.21232046 -0.14160495
0.16379772 0.116486974 -0.11788209 -0.39189455 0.08697277 -0.099795476 -0.27699146 -0.10639224
0.40127522 0.25377837 -0.0148422625 0.19416425 -0.12502624 0.033463754 0.02195151 -0.2889598
0.27912298 0.1682791 -0.18109782 -0.14731127 0.27602822 -0.11634094 -0.055261236 0.06197289
-0.29459405 0.3437321 -0.16252492 -0.16052346 -0.00040257964 0.20726052 -0.402401 -0.1544371
0.17044532 0.14199075 0.34404078 -0.074207366 0.036085844 -0.12099352 0.47070938 0.26661462
-0.39379033 -0.03839047 0.34113723 -0.24167779 0.317718 -0.18953522 0.021530923 0.06607119
0.13350776 -0.085871115 -0.072055764 -0.20785686 -0.19633655 0.12495045 -0.4730638 -0.0462873
-0.50356823 -0.041428033 -0.03637409 0.0767309 0.16797169 0.31434232 -0.16201118 -0.20308164
-0.23696011 -0.16310462 0.027222786 0.35269335 -0.14704354 -0.17124426 0.22934484 -0.07478341
-0.1760323 -0.06070855 0.32368967 0.03569899 -0.53152865 0.27227747 -0.38053635 -0.06967116
-0.31326842 -0.16717298 0.13890353 -0.32865566 -0.024342313 -0.0053519784 -0.03325217 -0.07437819
0.016224 0.12637599 0.2771324 0.11002226 0.27535293 -0.058409847 -0.3075132 0.1734337

linear.bias f4 [10]
00000000: c46e 513e a38d 2e3e 4526 03bf 3178 223f
00000010: 0a59 05bd 1348 983e 7eff b3bd 976e 04be
00000020: ff43 5cbe a66e fd3c
0.2045241 0.17046218 -0.5123027 0.6346465 -0.032555617 0.29742488 -0.08788966 -0.12932812
-0.21510313 0.03093655
