models/FashionMNIST/cnn_num-modules=4_seed=020/099.pth (torch, 15277 bytes, 16 tensors)

conv1.weight f4 [32, 1, 3, 3]
000000 82 ee 16 3f 8b b6 16 3f 33 c5 4f 3f 9d cf e0 3e
       0.58957684 0.5887229 0.8116028 0.43908396
000010 75 65 da bc 21 7e 13 3e 56 5f 85 be 87 20 b1 bf
       -0.026659707 0.14403583 -0.26049298 -1.3838052
000020 e3 e7 bc bf 04 0c 19 3f ab 2f 50 bf 75 38 20 bd
       -1.4758266 0.5978396 -0.81322736 -0.03911634
000030 c4 5b 37 3f ae bb 29 bf a6 df f2 bd dd 71 c4 3e
       0.716244 -0.66302 -0.11859064 0.3836812
000040 70 d1 5a bd 89 41 d7 3d e3 53 9a 81 7e d1 8c 81
       -0.05342239 0.10510547 -5.6691037e-38 -5.1728484e-38
000050 0c 18 a5 81 e4 57 37 81 f8 23 28 81 f3 9e 8a 81
       -6.0645933e-38 -3.367485e-38 -3.0882533e-38 -5.0921275e-38
000060 04 94 23 81 a8 1e 28 81 d2 c2 8b 81 91 36 d8 be
       -3.0044568e-38 -3.0878721e-38 -5.134009e-38 -0.4222913
000070 00 e9 2e 3e ae ef b5 3e 5b 84 5c bf ce f4 ac 3d
       0.1708107 0.35534424 -0.8613946 0.0844513
000080 cb 23 38 3f ce ff 81 bf 51 53 06 3f 90 be 01 3f
       0.71929616 -1.015619 0.5247088 0.506814
000090 2f ed 53 3e c8 72 a3 3c 0f 04 62 be 0e 5c f9 3e
       0.20695947 0.019952193 -0.2207186 0.48703045
0000a0 1a 4d f9 3e 5e 5f 14 3f 9d 08 a3 be 4e 34 a2 3b
       0.48691636 0.5795802 -0.3184251 0.004950083
0000b0 f8 9c 8b 3e ab c0 9a bf 2b 0c 5f c0 8b eb 40 c0
       0.27268195 -1.2090048 -3.4851177 -3.0143764
0000c0 60 63 2e bf c7 37 fa bf 46 40 1b bf f4 b1 ef 3e
       -0.68120384 -1.9548272 -0.6064495 0.46815455
0000d0 b2 02 09 3e d6 90 31 3f 5b c9 02 3f a9 6a b2 3e
       0.13379934 0.6936163 0.51088494 0.34847
0000e0 81 f7 04 bf 6d ac ba 3e db 84 b5 3d 65 58 63 3d
       -0.5194016 0.36459675 0.08863231 0.05550422
0000f0 e0 61 95 3e bb af 28 bd 64 63 e5 3d e3 cd f6 3e
       0.29176235 -0.041183215 0.11200598 0.48203954
000100 0b 28 02 3f ff 2e 7a 3e 11 25 ae bd 6e ec c0 3e
       0.5084235 0.2443199 -0.085031636 0.37680382
000110 a2 df 27 3e 36 56 8d be 16 cd 73 be 54 c2 15 3f
       0.16393903 -0.27604836 -0.23808703 0.58499646
000120 27 22 50 3e d2 cd c4 3e 8a a1 fe 3e 09 b0 c3 be
       0.20325528 0.38438278 0.4973262 -0.38220242
000130 fe 0c 20 bf 7f c3 37 bf 87 04 26 3e 60 fc 4e 3e
       -0.62519825 -0.7178268 0.16212665 0.20213461
000140 a8 f1 16 bd 6c 07 44 ad eb 06 ba b0 6c ae a7 b1
       -0.036851555 -1.1142958e-11 -1.3535247e-09 -4.880169e-09
000150 4f 5f 98 ac a9 c1 78 b0 6a cc 7a b1 08 24 d3 aa
       -4.330681e-12 -9.049708e-10 -3.6495984e-09 -3.750613e-13
000160 b6 32 89 ae 82 a0 3e b0 8c 34 bf bf 61 1c 35 c0
       -6.239047e-11 -6.934969e-10 -1.4937911 -2.829857
000170 db dd 76 bf 63 e1 de 3e e0 b1 19 c0 4b 79 21 c0
       -0.96432275 0.4353133 -2.4014816 -2.5230281
000180 35 5f 33 3f b0 49 4d bf ed 20 e2 be ef 1e 19 3f
       0.7006715 -0.80190563 -0.44165745 0.59812826
000190 85 22 cf 3e 14 30 e8 3d 43 1b cd 3e e1 d3 1a 3e
       0.40456024 0.11337295 0.40059862 0.15119888
0001a0 d8 81 bc 3e 52 3d df 3e 49 74 0f 3f 82 7c ca 3e
       0.36817813 0.4360147 0.5603681 0.39548117
0001b0 c2 9d 0c bf fc e7 db be 24 22 7c 3e b4 f4 3d 3e
       -0.5492822 -0.42950428 0.24622399 0.18550378
0001c0 00 52 23 3d 39 13 d0 3e 18 1b 84 3e 67 cd 24 3f
       0.039873123 0.40639666 0.2580192 0.6437592
0001d0 89 68 05 3f d9 80 bd bf a9 c0 80 c0 39 50 29 c0
       0.52112633 -1.4804946 -4.023518 -2.6455214
0001e0 1f 96 08 3e c0 04 e5 be 56 80 4a 3e c5 9f ac 3f
       0.13338517 -0.44730186 0.19775519 1.3486258
0001f0 24 d9 90 be d7 88 9e be 9f 07 ab 3e 37 db 01 3f
       -0.28290665 -0.30963776 0.33404252 0.5072512
000200 e2 42 8a bf 40 e9 9f 3e f2 89 2e 3f 80 d1 f0 3c
       -1.0801661 0.31232643 0.6817924 0.029396772
000210 02 38 46 3d b8 65 58 3e 4a 58 5f 3e 67 c6 17 3f
       0.048393257 0.21132553 0.21811023 0.5928711
000220 aa 9c da 3e 9c a8 84 bf 43 55 bb 3e 28 e0 0a 3f
       0.4269765 -1.0363955 0.36588487 0.54248285
000230 62 6d 58 bf ed 07 6a be 6d fd 81 3f 36 d7 10 bf
       -0.84541905 -0.22854586 1.0155464 -0.56578386
000240 ab e4 79 be 20 5e d0 be 3e 9f 58 3f dd 7e 37 3e
       -0.24403636 -0.40696812 0.84617984 0.17919488
000250 c9 8b b1 3c 35 4a 6d 3f 0e 4a ff 3e 69 21 ce 3d
       0.0216731 0.92691356 0.49861187 0.10064966
000260 bc 0d 04 3f d3 a9 9f be fb cf 01 bd 8b e5 db 3d
       0.51583457 -0.31184253 -0.031692486 0.10737141
000270 ff 5c 28 3e 21 bb 4e 3e 43 69 b8 3e d1 cc 5d bc
       0.16441725 0.20188572 0.36017808 -0.013537602
000280 94 13 ea bd 18 97 8a be a0 9e 74 00 4a 16 42 00
       -0.114295155 -0.270684 1.0709821e-38 6.069139e-39
000290 01 dd 5d 00 1a 52 57 00 0c ce 6d 00 68 43 36 00
       8.619982e-39 8.01914e-39 1.0083985e-38 4.983298e-39
0002a0 05 da 4b 00 ce 7e 39 00 c8 f2 42 00 12 6d cd 3e
       6.965873e-39 5.280112e-39 6.148236e-39 0.40122277
0002b0 b8 15 b5 be ed 3a fb 3d 25 9d a6 3e ff fa c4 3d
       -0.35368133 0.122670986 0.32541767 0.09618186
0002c0 ee 59 b5 ba 2a a6 11 be 6e 0d 70 3f 78 95 fd 3e
       -0.0013836005 -0.14223543 0.9377049 0.49528098
0002d0 2d 67 ba be 20 c7 3e 3d 44 4b 23 3f 87 89 0d 3f
       -0.36406842 0.04657662 0.6378672 0.55287975
0002e0 00 d2 05 be 8d 2d bc 3e fe 19 3f be d3 9b 35 3e
       -0.1306839 0.36753502 -0.18662259 0.17735223
0002f0 19 ea 17 bf 1f a8 dd 3e 2d 69 2f 3e ac bd 04 3f
       -0.5934158 0.4329233 0.17129965 0.51851916
000300 71 8e 12 3f fb 10 0c 3f 78 9b d0 3e 25 66 02 3f
       0.572486 0.5471341 0.40743613 0.5093711
000310 eb ea f2 3e f7 7b be bd de 77 dd 3d 8b 3c 71 3e
       0.47444853 -0.09300988 0.108138785 0.23558252
000320 3c 44 de bd 97 66 7f bc 98 25 43 3e 58 9b 0c 3f
       -0.108528584 -0.015588424 0.1905731 0.54924536
000330 8e d7 a3 3e fe 4c 74 3e d8 73 9d 3d d0 61 6b 3e
       0.32000393 0.23857495 0.07688111 0.22986531
000340 7e b9 d7 be c9 5a 01 3e 20 98 e6 be 7c c3 3e 3e
       -0.42133707 0.12632288 -0.45037937 0.18629259
000350 de f8 0d 3e 05 45 98 3e 40 eb a5 be 83 0d 0f be
       0.13864467 0.29740158 -0.32406044 -0.13969998
000360 5f ef e5 be 6f 5f 2f bf 93 f7 17 be c2 6c a3 be
       -0.44909188 -0.68504995 -0.14840536 -0.31918913
000370 85 ab 8c 3e 40 46 c6 3e 8f 36 42 bd 86 38 ce 3e
       0.2747461 0.38725471 -0.047415312 0.402775
000380 6d d1 ea 3e 56 ea da 3e 94 0b 93 3e 78 eb 55 bf
       0.45862904 0.4275691 0.2871977 -0.8356242
000390 41 17 98 bd c8 f9 e4 bd ab c3 02 3f 40 a4 4f 3e
       -0.0742631 -0.111804545 0.51079816 0.202775
0003a0 38 b1 10 3e 31 d3 e9 3e 80 d3 80 3e bf 82 e0 be
       0.14130104 0.4566894 0.25161362 -0.4384975
0003b0 06 d3 b1 3d 5e 65 36 3f 2f ed 44 be db 3c 17 bf
       0.08682828 0.71248424 -0.19231103 -0.59077233
0003c0 8b 7f 0b bf 77 08 c9 3e f4 a4 01 3f 65 6c df bd
       -0.5449149 0.3926427 0.50642323 -0.109093465
0003d0 3d 35 0b bf 90 47 b5 bf 72 b9 0d 3e a8 c8 44 be
       -0.5437811 -1.4162464 0.13840273 -0.1921717
0003e0 b4 09 80 3e f8 a7 d9 3e f5 ad 80 3f 9e 78 a2 3e
       0.25007403 0.42510962 1.0053087 0.3173265
0003f0 17 c8 09 3e fb bf 1c be 99 a0 34 be f3 2c 05 3f
       0.13455234 -0.1530761 -0.17639388 0.5202171

conv1.bias f4 [32]
000000 e4 f6 bd 3e da 95 84 3e f1 78 83 89 e8 70 81 bd
       0.37102425 0.25895578 -3.1650836e-33 -0.06320363
000010 29 73 3f bc 27 10 50 3e 43 e0 bb 3e de bf 98 3e
       -0.011685171 0.20318662 0.36694536 0.29833883
000020 f2 29 ec 3e ae bf 72 a0 98 7c 98 3e d6 d5 86 3e
       0.46125752 -2.0561619e-19 0.29782557 0.2633502
000030 2c ae b6 3d 38 6e c2 3b 39 59 25 3f b1 47 27 bc
       0.089199394 0.0059335493 0.6458927 -0.010209964
000040 1f 04 86 3d 8d 9b 04 3f 6e eb 11 8c 18 d7 ba 3e
       0.06543755 0.5179985 -1.1241241e-31 0.36492229
000050 69 c1 66 3e af 64 4a 3e 5e 0e bf 3e 3e 64 2c 3f
       0.22534718 0.1976497 0.3731565 0.6734046
000060 98 51 c1 3e 58 55 b0 3e e6 bd 1f 3e 72 d5 8d 3a
       0.37757564 0.34440112 0.15599784 0.0010821058
000070 44 4c 0c 3f dd 75 23 3f a9 6d 16 3f f6 db ef 3e
       0.5480387 0.6385172 0.5876108 0.46847504

conv2.weight f4 [32, 1, 3, 3]
000000 6a 7e a5 3d 2e a0 3d 3e 5f 79 8c be a2 8f 34 3d
       0.08080752 0.18518135 -0.2743635 0.04408229
000010 b6 79 fa be 2e 18 e3 be ce 47 ea be f4 dd 81 bf
       -0.48920983 -0.44354385 -0.45757908 -1.014586
000020 16 59 2c be 6d 3c ff 3c 0e b2 ba be d4 b6 25 bf
       -0.16830859 0.031156743 -0.3646397 -0.647321
000030 ce 09 36 bf 84 3e 71 bf aa 2d 90 bf d8 0f 9e 3e
       -0.7110871 -0.94236016 -1.1263936 0.30871463
000040 94 8c 43 bf 9a bc 28 bf 0b de d1 00 98 13 29 80
       -0.7638638 -0.65912783 1.9273273e-38 -3.772284e-39
000050 69 e4 31 80 66 30 33 81 e8 80 3d 80 b0 ab 4e 80
       -4.581877e-39 -3.2911832e-38 -5.648208e-39 -7.224759e-39
000060 41 7d 5d 00 70 f9 ad 80 d4 08 a5 80 54 48 88 3f
       8.585634e-39 -1.5977022e-38 -1.5156024e-38 1.0647073
000070 5f 27 e3 3f 61 bd 91 3f 98 e8 7c 3f 7f 40 c4 3f
       1.774639 1.1385919 0.9879241 1.5332183
000080 f5 12 a6 3f a1 6b 32 3f cd 76 b7 3f 22 d9 6f 3f
       1.2974535 0.6969548 1.433313 0.93690693
000090 42 74 c4 be d8 b0 b0 be 41 73 3e 3d 6f 34 20 bf
       -0.38369948 -0.3450992 0.046496633 -0.6258001
0000a0 b6 65 52 bd 17 7c c1 3e 22 a3 9a be 3c 6b 83 be
       -0.05136653 0.37789986 -0.30202585 -0.2566775
0000b0 c5 cb 42 3d 1f 32 4c 3f cd 70 89 3f 10 9c 6d 3f
       0.04755761 0.7976398 1.0737549 0.9281626
0000c0 2a 31 80 3f e4 0c ad 3f 93 af 8b 3f 1f 08 bd 3e
       1.0015004 1.3519559 1.0912956 0.36920258
0000d0 62 26 4a 3f eb e9 92 3f 41 6c 50 be 3a fc 05 bd
       0.7896482 1.1477636 -0.20353796 -0.032711245
0000e0 0d f1 d1 be 23 33 46 3e 29 f1 6f be 38 6a 1b bf
       -0.4100422 0.19355445 -0.23431839 -0.6070895
0000f0 97 f5 09 bf 9f 8d c3 bd ed a0 ff be 25 1c fe be
       -0.53890365 -0.095484965 -0.49927464 -0.49630848
000100 b2 24 ef be a3 bd 0c bf d1 8b c9 be 08 46 27 bf
       -0.46707684 -0.5497686 -0.39364484 -0.65341234
000110 a6 e7 90 be 3e 1f f8 3e 4a cb 85 be 8b 2d b2 bd
       -0.28301734 0.48461336 -0.2613166 -0.08700093
000120 31 24 4b 3f ae 16 35 3f 54 90 ed 3e 31 61 bc 3e
       0.793521 0.7073773 0.46399176 0.367929
000130 a8 e9 82 3e 48 7b 0a be f1 e2 64 3f 5f 34 d9 3e
       0.2556889 -0.1352359 0.89408785 0.42422768
000140 c1 ce cc 3e 25 c7 32 02 46 48 0b 9a 8f 58 01 23
       0.4000149 1.3134526e-37 -2.8802908e-23 7.011857e-18
000150 3b 4f 8a 84 1b a8 c3 15 65 41 b2 21 33 54 62 01
       -3.2516406e-36 7.9025096e-26 1.2079059e-18 4.1570054e-38
000160 9b 63 2f 87 06 7e 31 8d 0d 17 a0 bf 5b 78 a1 bf
       -1.3194808e-34 -5.469403e-31 -1.2507035 -1.2614855
000170 33 e7 1e bf b2 11 7b bf 78 74 96 bf 73 2a 10 bf
       -0.6207153 -0.98073876 -1.1754293 -0.5631477
000180 cd e2 30 bf dd 9b 81 bf 44 70 66 bf 07 74 37 bf
       -0.6909607 -1.0125691 -0.90015054 -0.7166142
000190 cd db 85 3d 0f 2f cb be d7 bd a8 be 3f 4b 23 bf
       0.06536064 -0.3968434 -0.32957336 -0.6378669
0001a0 52 19 0b bf a1 05 75 be 27 ef 3f 3e 76 50 1f 3e
       -0.5433551 -0.23927929 0.18743573 0.15558037
0001b0 d1 16 4a 3e 1d 36 d2 3e a4 c5 28 3f 30 31 2e bd
       0.19735266 0.4105691 0.65926576 -0.042527378
0001c0 79 26 28 3f 98 df 82 3e df 0d 0e 3f 77 9d 1e 3f
       0.65683705 0.25561213 0.55489916 0.6195902
0001d0 e5 ff 59 3d 38 5e f0 3f f8 f6 f2 3f d0 5a a6 3f
       0.053222556 1.8778753 1.8981619 1.2996464
0001e0 73 33 82 3f d9 3b 8a 3f 33 c7 e5 be 95 f5 41 3e
       1.0171951 1.0799514 -0.4487854 0.18941338
0001f0 6d b7 78 3f 9e 15 f6 3d 08 c1 56 3f a5 ed 3d 3e
       0.97154886 0.12015842 0.8388829 0.18547685
000200 f6 1d 51 be d7 dc c3 3e 70 db 65 bd a0 75 76 3e
       -0.20421585 0.38254425 -0.056117475 0.24068308
000210 32 5f d5 be e2 a5 d6 be 06 ab eb be 00 1f 44 3f
       -0.4167419 -0.41923434 -0.46028918 0.766098
000220 2b 39 74 3f 8e 00 22 3f 39 11 a1 3f 67 51 78 3f
       0.9539973 0.63282096 1.2583381 0.9699921
000230 c8 93 64 3e ef ea b7 3e 6a 44 52 3f ee 6a 88 be
       0.22321999 0.35921428 0.8213564 -0.2664408
000240 48 cb 88 3e 0d 3a d3 be df 9c 0c bf 22 b3 d2 3e
       0.2671759 -0.41255227 -0.54926866 0.41152292
000250 42 ab 36 3e 38 8d 54 be 69 49 03 3f bb f6 4c 3e
       0.17838767 -0.20756996 0.5128389 0.20015995
000260 a2 cd 0c 3f 60 15 59 3e 5c 25 ab 3e 3c ca 03 3e
       0.5500127 0.2119956 0.3342694 0.12870115
000270 2a b1 98 3e 9f 91 b1 3e 6d e7 17 be 27 45 31 3f
       0.29822665 0.34681413 -0.14834376 0.69246143
000280 d2 1b d7 3d 4e 61 b5 3d 7a 0f 48 80 c1 27 49 80
       0.10503353 0.0885645 -6.617708e-39 -6.718252e-39
000290 be b4 18 85 57 8f 3d 80 27 17 d0 84 c4 b5 c7 0f
       -7.180203e-36 -5.653386e-39 -4.8921827e-36 1.9692929e-29
0002a0 19 83 3d 80 fe 08 58 83 52 49 a3 0d c6 d5 47 3e
       -5.648994e-39 -6.3487017e-37 1.0063302e-30 0.19515142
0002b0 bb fd dc be 24 88 15 bf 90 b0 96 3e 64 7f ef be
       -0.4316233 -0.5841086 0.29431581 -0.4677688
0002c0 1a a8 30 bf e3 36 5e 3e 48 18 12 be a9 91 eb be
       -0.690065 0.21700625 -0.14267075 -0.46009567
0002d0 97 7d d2 3e 97 62 99 3e 5b 6b 0a bf ac cc 35 3e
       0.41111442 0.2995803 -0.5407006 0.17753857
0002e0 f9 c3 bd 3c 98 5e 64 bf f3 23 dc be 60 48 74 be
       0.023164736 -0.8920684 -0.42996177 -0.23855734
0002f0 0b e2 14 bf e3 33 f6 3d aa 4f cf bd a5 fd 14 3f
       -0.58157414 0.12021615 -0.101226166 0.5819953
000300 7e 96 aa bd b6 07 a8 3d fd 6f 5b 3f ac 2e f5 3e
       -0.08329485 0.08204596 0.85717756 0.4788717
000310 4e 01 27 3e 45 3d 37 bc 4c d3 cf 3c b9 9e a0 bd
       0.16309091 -0.011184041 0.025369309 -0.07842774
000320 ff 68 0d 3f 62 e4 12 3f 3e 4b ea 3d d0 96 0d 3f
       0.55238336 0.57379735 0.114401326 0.55308247
000330 c9 08 be 3e 32 f5 22 be 68 1b fc 3d 99 07 2c bf
       0.37116078 -0.15913847 0.12309915 -0.67199093
000340 0c b7 93 be f7 43 0a bf 0a d6 88 be cb ba bd bb
       -0.2885059 -0.54009956 -0.267258 -0.0057900897
000350 73 c0 09 bf 2a 9a d1 be fe 3a ba be 2e af 2c bf
       -0.5380928 -0.4093793 -0.36373132 -0.67454803
000360 37 bd c2 3e 10 72 1d 3f e1 da 0a 3f 57 8a 9a 3e
       0.38034984 0.6150217 0.5424023 0.3018367
000370 4b 17 45 3f a0 83 85 3e 59 62 30 3e 4d 1d 3e 3f
       0.7698867 0.26076984 0.17225017 0.7426346
000380 f8 1e 30 3e 74 15 34 3e bc 1f 87 be b2 59 cf bb
       0.17199314 0.17586309 -0.263914 -0.006327831
000390 9e 31 25 bf 3f 39 ea be 86 24 d3 be 80 a1 e0 be
       -0.64528835 -0.457468 -0.41238803 -0.43873215
0003a0 58 5d ae be 5e 24 fe be 66 7f 32 be bd ca cd be
       -0.3405559 -0.4963712 -0.17431411 -0.4019374
0003b0 5f c3 fc be 62 01 66 3f 39 f2 aa 3e 45 95 b1 3e
       -0.49367806 0.8984586 0.33387926 0.34684196
0003c0 f4 ba 68 3f fa 5b fe 3e 89 f8 1d 3f ef a2 b5 3d
       0.9091027 0.49679548 0.6170736 0.08868968
0003d0 8e 0a 3c 3f 16 6b 21 3f b8 34 61 3f b1 bb c2 3f
       0.73453605 0.63054025 0.8797107 1.5213529
0003e0 62 92 90 3f d4 08 a5 3f ae d2 a5 3f 2e b0 7e 3f
       1.1294672 1.2893319 1.2954919 0.9948758
0003f0 70 a4 ee be 32 8e 04 be 41 af 94 be 50 6b 51 bf
       -0.4660983 -0.12944868 -0.29039958 -0.8180437

conv2.bias f4 [32]
000000 97 00 de 3e 13 e1 a8 be df fd 12 38 a9 7a 82 be
       0.43359825 -0.32984218 3.504555e-05 -0.25484207
000010 39 19 4d be 43 0a cc bd 6d 72 03 be a1 73 77 3d
       -0.20029153 -0.09962895 -0.12836619 0.060413007
000020 35 6b ac 3e 5d 90 90 be 07 3b 87 3e 8a ec 68 3e
       0.33675542 -0.2823514 0.26412222 0.22746482
000030 7f db 82 be 20 96 09 3e 4d 29 71 be 9c fe 4a 3d
       -0.25558087 0.13436174 -0.23550911 0.04955922
000040 02 10 bd be 8f 17 1a 3f 2b bd c3 be ff 05 5f 3e
       -0.36926275 0.601922 -0.3823026 0.21779631
000050 08 b4 90 3e 92 b0 20 be aa c6 30 3e 3f 58 f1 be
       0.28262353 -0.15692356 0.17263284 -0.4713764
000060 fa 20 d8 3e 1f 25 94 be 9c 89 04 3e e2 f2 8d bd
       0.4221266 -0.2893457 0.12943119 -0.06931092
000070 4d 73 27 be 9c b7 c3 3a 62 2b 3d bc e3 fa cb 3c
       -0.16352578 0.0014932039 -0.011545988 0.024899906

conv3.weight f4 [20, 32, 1, 1]
000000 36 04 1f 00 81 2b f6 12 b6 12 83 01 b1 a9 9b 9d
       2.848411e-39 1.5535507e-27 4.814865e-38 -4.1203615e-21
000010 b9 3d 24 00 26 81 10 00 fc 5c 38 19 99 26 51 25
       3.32822e-39 1.515698e-39 9.531355e-24 1.8140938e-16
000020 ea be 09 99 02 9c c3 00 e8 fd 24 01 11 f3 a3 24
       -7.121289e-24 1.7963887e-38 3.0304212e-38 7.110175e-17
000030 0e ff 9f 9a 62 d6 2e 00 6c d4 48 00 91 37 2b 00
       -6.617292e-23 4.301339e-39 6.688358e-39 3.96886e-39
000040 4c 3f c1 8d ac 7f 15 90 88 67 1a 01 e3 7c 40 1f
       -1.19097815e-30 -2.9483424e-29 2.8359613e-38 4.0760885e-20
000050 a9 84 21 00 01 2b a1 9f 0f 25 2b 9a f1 44 76 1c
       3.078161e-39 -6.8257296e-20 -3.5391907e-23 8.1483677e-22
000060 45 f0 f0 96 38 bb 05 23 89 26 91 81 bd 34 a0 a1
       -3.8925723e-25 7.2495896e-18 -5.3319883e-38 -1.0855981e-18
000070 41 43 f1 25 dc b5 56 80 9e 7f 21 00 3e d9 48 9b
       4.185241e-16 -7.963092e-39 3.076352e-39 -1.6613807e-22
000080 f1 7c 60 bf c1 f1 24 3e 21 7f a4 bb 63 c6 23 bf
       -0.87690645 0.16107847 -0.0050200378 -0.6397459
000090 40 75 26 3e 28 82 b8 be c0 72 71 be 18 62 11 be
       0.16255665 -0.360368 -0.2357893 -0.14197576
0000a0 6b ff 64 3e 93 88 40 be fe 9a b1 3e b3 8c 97 be
       0.22363059 -0.18802099 0.34688562 -0.29599532
0000b0 e1 a2 af bc fd 6f ed be dd bf 34 be 1a 75 86 be
       -0.021439971 -0.46374503 -0.17651315 -0.26261216
0000c0 cb 44 02 3e 7f e4 8b 3e 1d 37 96 be 85 5e 7d be
       0.12721555 0.27322766 -0.29338923 -0.24743088
0000d0 ea 8f 92 be 31 87 ca 3e e6 cf b0 3e 16 c2 b6 bd
       -0.28625423 0.39556268 0.34533614 -0.08923738
0000e0 01 ad a2 3d df bd 87 be b9 5f 8b be bd 74 0d 3f
       0.07943154 -0.26512048 -0.27221468 0.55256253
0000f0 b8 e1 38 be 9a 45 c7 bb 51 ad 5c be 11 ea a8 3e
       -0.18054855 -0.006081295 -0.2155049 0.32991078
000100 19 38 81 3e 34 e6 33 bd 23 ca b4 3c 5b a8 7e bf
       0.25238112 -0.04392071 0.022069043 -0.9947564
000110 22 8c c3 bd 7c 98 4f be 95 27 43 be b0 c2 c3 bd
       -0.095482126 -0.20273012 -0.19058068 -0.09558618
000120 d9 8d 83 3e 10 33 34 be a1 dd 68 3f 9f ea 0e 3c
       0.2569416 -0.17597604 0.9096318 0.00872293
000130 f7 48 29 3e 14 a1 e1 be b8 06 c7 3d a3 1a 4d be
       0.1653174 -0.44068205 0.097180784 -0.20029692
000140 9e bc 1c 3e 7d 88 77 3e dd 7b db be ef 1a 4b bd
       0.15306327 0.2417316 -0.42867938 -0.049586233
000150 0c 5f f1 3d b6 e8 5a bc 25 51 c0 3e 4d 99 87 be
       0.11785707 -0.013361147 0.37561908 -0.26484147
000160 b8 24 ee 3e a9 4c b4 be c5 c3 1e 3e 51 5e 1c 3f
       0.4651239 -0.35214737 0.15504368 0.61081415
000170 0c c9 a8 be c2 58 ba be 5c f4 ec be db 8f 37 3d
       -0.32965887 -0.36395842 -0.4628018 0.044814926
000180 75 d6 20 bf 8c bd be 3e 46 ac 75 39 4a b7 90 bf
       -0.62827235 0.37253988 0.00023429198 -1.1305935
000190 e5 b4 97 be 53 5a e2 be 9e 50 47 be 89 0b 8a be
       -0.296302 -0.44209537 -0.19464347 -0.26961926
0001a0 f2 2a 57 3f e3 db 03 bf 25 8a 78 3f f5 b7 9a be
       0.84049904 -0.51507396 0.9708579 -0.30218473
0001b0 3f 85 c0 bd 24 35 12 3d a1 d3 07 3e 11 9d 97 bb
       -0.09400415 0.03569521 0.13264324 -0.004626878
0001c0 8d 61 b1 be 0b ce 07 3f b7 eb d6 be 3c 6c 28 be
       -0.34644738 0.5304877 -0.4197671 -0.16447538
0001d0 16 83 c9 be 5d b8 23 bd f7 c1 a8 3e 25 b6 e2 be
       -0.39357823 -0.039970744 0.32960483 -0.4427959
0001e0 5b f8 05 3f 9a 50 ca bd 40 39 f1 3e cd 67 c5 3d
       0.52332085 -0.09878655 0.4711399 0.09638939
0001f0 a0 fd d5 be 5d 24 52 bf 80 33 0f bf 29 38 dc 3e
       -0.41795063 -0.82086736 -0.5593796 0.43011597
000200 2e 50 a9 80 8d b3 8a 24 2e 12 80 80 81 d7 16 a0
       -1.5548962e-38 6.015213e-17 -1.1761465e-38 -1.2776798e-19
000210 bf f3 59 80 b3 c5 8b 00 68 91 68 28 1f 92 2a 2e
       -8.260799e-39 1.2836055e-38 1.2910117e-14 3.8783306e-11
000220 f7 7e a5 a2 1f 7e ea 00 0c 65 7d 80 4a 25 89 2f
       -4.485777e-18 2.153475e-38 -1.1515686e-38 2.494665e-10
000230 08 df 8a a6 85 cd a9 00 6f 7b 03 00 11 10 7c 94
       -9.636126e-16 1.5593925e-38 3.19786e-40 -1.2725917e-26
000240 eb 16 a1 9f 49 f6 6c a2 f2 e8 41 00 bd 49 02 29
       -6.822407e-20 -3.2114346e-18 6.052872e-39 2.8929756e-14
000250 43 2b 4c 80 a1 2f 0b ac 2c 51 1b a8 10 1b df 28
       -6.995017e-39 -1.9779527e-12 -8.62183e-15 2.476971e-14
000260 e2 14 c1 a0 c8 d7 0a 2c ff 26 12 80 ea 96 d2 8b
       -3.270929e-19 1.9730762e-12 -1.667028e-39 -8.111613e-32
000270 5f 59 8b 30 6c 02 85 95 62 50 66 9c 6c 77 be a7
       1.0138982e-09 -5.3722093e-26 -7.620451e-22 -5.286507e-15
000280 8a ed be 3e 24 d7 01 bf 4a 30 82 3a 7e 5d ab 39
       0.37290603 -0.50718904 0.0009932604 0.0003268532
000290 cc d8 6b bc 64 4f 3d bf 0a bb a8 be b8 83 b1 be
       -0.01439495 -0.73949265 -0.329552 -0.34670806
0002a0 d9 e8 ce bd 1b 29 39 be 52 e5 dd 3e a5 ba c2 be
       -0.10103006 -0.18082087 0.4333902 -0.38033023
0002b0 24 b1 1e 3e 8d e1 d2 3d 84 67 cd bc 3a fa 14 3f
       0.15497261 0.10296927 -0.025073774 0.58194315
0002c0 b3 95 97 3e a4 57 cc 3e af 53 42 bd 9d 41 bd be
       0.296064 0.39910614 -0.04744309 -0.3696412
0002d0 35 d0 d1 be 8f 92 92 3e 13 8c d9 3e 57 4e 31 bf
       -0.40979162 0.2862744 0.4248968 -0.6926016
0002e0 fc 63 c5 3e 32 90 e7 be 0b 3a dc bd 11 98 dd 3e
       0.38552845 -0.452272 -0.10753258 0.4328008
0002f0 b3 be 1e be 99 01 f7 be 0b e7 13 bf 29 48 9c 3d
       -0.15502433 -0.48243406 -0.5777442 0.07630951
000300 9f fa 24 3f ef 59 c8 bc a6 a5 ba 3a 48 bc 7b 3e
       0.6444492 -0.024456946 0.0014240041 0.24583542
000310 56 f5 11 be 12 cb 54 3f 63 e1 bc bc 1f 67 41 be
       -0.14253744 0.8312236 -0.023056692 -0.18886994
000320 c0 ff 25 bd b6 54 05 3c 74 88 c2 be 82 ee 24 bd
       -0.040527105 0.008137872 -0.3799473 -0.04026652
000330 ab 12 e2 3d 53 c5 3b 3f a6 bd 3c be 98 5e 39 be
       0.11038717 0.7334797 -0.1843172 -0.18102491
000340 78 92 ff 3b 9c 3f fa bd 69 01 9e 3d f6 73 2f be
       0.007799443 -0.12219164 0.07715113 -0.1713408
000350 f6 cf 53 be 6a 15 17 be c0 cb 80 be 1e e1 64 3d
       -0.206848 -0.14754263 -0.2515545 0.05587875
000360 51 e3 3e be e6 29 cd 3d 32 dc 60 3d 2e e5 1c 3f
       -0.18641402 0.10017757 0.054897495 0.612872
000370 b4 97 31 3e 8e 1c d3 3e c0 72 80 be 7a 49 67 bd
       0.17343026 0.41232723 -0.25087547 -0.056466557
000380 6b 26 34 3e 1f 16 d6 be e2 d6 a3 3a 53 ed b8 bd
       0.1759278 -0.41813752 0.0012499953 -0.09029641
000390 52 61 55 3d be 30 89 bf 34 9b b1 be 6a b4 1b be
       0.052094765 -1.0718 -0.34688723 -0.15205541
0003a0 37 be a2 3e 00 e6 8e bd 1c 17 8f 3f 29 4f 16 be
       0.31785747 -0.06977463 1.1178927 -0.14678635
0003b0 c2 63 a2 be 89 02 19 bf aa 15 f4 be 7e ef 01 bd
       -0.31716734 -0.59769493 -0.47672778 -0.03172254
0003c0 7e 35 ff 3d 9e 08 8f 3d c5 51 95 bd f5 00 dd bd
       0.12461375 0.069840655 -0.07290987 -0.10791198
0003d0 06 2e 6b 3e eb da d4 3d df fe 7d 3e 02 9a 4b be
       0.22966775 0.10393318 0.24804257 -0.19882968
0003e0 73 5d 8e 3e 9c 61 7e be 1f 9f 6c 3e fb fd 58 bf
       0.2780567 -0.24841923 0.23107575 -0.84762543
0003f0 d0 8b a3 be 5b 52 01 bf f5 86 d0 3e e8 e4 c8 3e
       -0.31942606 -0.5051629 0.40727964 0.39237142

conv3.bias f4 [20]
000000 a9 39 2e 80 ec 50 a3 3e 22 ba 88 3e 70 69 01 3f
       -4.245117e-39 0.31897676 0.26704508 0.5055151
000010 bd 25 64 00 0e a5 a1 3e 09 45 87 bc f6 8f 8f 3e
       9.197088e-39 0.3157124 -0.01651241 0.2803952
000020 4d 61 c0 bb 19 95 91 be b8 cb 52 98 e4 a8 d7 3d
       -0.005870974 -0.28434065 -2.7244716e-24 0.1053026
000030 74 3f 94 3e dd 6c 59 3e c5 4a 90 3e 83 8a 53 be
       0.2895466 0.21232934 0.28182045 -0.20658307
000040 28 08 86 3e 3d 95 2c be 83 89 24 3e 62 be 96 3b
       0.26178098 -0.16853805 0.16068082 0.004600332

conv4.weight f4 [20, 1, 3, 3]
000000 9c 87 8d 00 e6 af bd 01 f3 01 fc 00 de 8f 06 00
       1.2997452e-38 6.9680037e-38 2.3143244e-38 6.02623e-40
000010 62 3b 05 01 e9 1e 1d 80 51 46 08 00 ce c3 18 01
       2.4470847e-38 -2.674318e-39 7.59909e-40 2.8058474e-38
000020 5d ed 4a 00 d0 93 e4 be f0 a5 9c 3c 61 55 01 3f
       6.880977e-39 -0.44644022 0.019122094 0.505209
000030 2b 5f 86 be e0 19 a1 bd d3 51 85 be e4 fb 41 bf
       -0.26244482 -0.078662634 -0.2603899 -0.7577498
000040 67 28 ec be 47 a7 50 3b a7 83 6c 3e d2 ff 20 bd
       -0.46124575 0.0031837986 0.23097096 -0.03930647
000050 13 4e 6d 3e f7 7d 80 3e cd 28 d5 be 70 92 8f bd
       0.23174314 0.25096104 -0.4163269 -0.070103526
000060 35 b0 98 be a3 ec 55 bf 29 fc 25 be cf db 24 3e
       -0.29821935 -0.83564204 -0.16209473 0.16099475
000070 9c 0d 58 3f 7f e5 c8 3e 50 58 4b 3e 0b a2 8d bb
       0.84395766 0.39237592 0.19857907 -0.0043222955
000080 a8 c1 a0 be f4 a2 a6 be 0e 94 fe be 8a 40 87 bd
       -0.31397748 -0.32546198 -0.49722332 -0.06604107
000090 a1 75 88 35 aa 7a 88 35 dc d2 03 35 c0 a2 ef 35
       1.0167024e-06 1.016849e-06 4.9108144e-07 1.7854254e-06
0000a0 5c c4 44 36 94 3f 48 35 ad 3d 4a 35 b6 83 38 36
       2.9320572e-06 7.4598324e-07 7.5340614e-07 2.7494802e-06
0000b0 35 71 07 35 28 b9 c7 be bf 05 a2 be f9 f5 9c be
       5.0456157e-07 -0.3900845 -0.3164501 -0.30656412
0000c0 94 ae 10 3f 3a 38 d8 3d 36 33 64 be 0e 63 0c 3f
       0.56516385 0.10557599 -0.2228516 0.54838645
0000d0 42 b4 a7 bd 7b 80 a6 bc cf 51 89 3e 22 bf d8 3e
       -0.08188678 -0.020324936 0.26820228 0.42333323
0000e0 86 11 03 be 67 67 9d bd 85 01 2f 3f ed c4 78 bc
       -0.12799653 -0.07685738 0.68361694 -0.0151836695
0000f0 f8 11 2f 3f c7 92 48 3e ae 4a 59 3e 90 80 08 bf
       0.68386793 0.19587241 0.21219894 -0.5332117
000100 98 68 c5 3d a6 3b ff 3e 91 2b 67 3e a5 df d2 3e
       0.0963909 0.49850196 0.22575213 0.41186252
000110 d8 29 15 3f a2 3b 09 3f 89 15 35 be 5e 07 1f 3f
       0.58266973 0.5360662 -0.17683996 0.62120616
000120 9a 6f 96 3a 99 b9 ad 3b c5 61 43 bc 2b c4 b4 bb
       0.0011477352 0.005301666 -0.011925166 -0.005516549
000130 96 8b c8 bc f6 fc da bc c5 a2 06 bc cd 22 ed bc
       -0.024480622 -0.02673195 -0.008217518 -0.028947258
000140 48 04 de bc 65 53 2d be 37 5e 16 3e 41 53 21 be
       -0.02710165 -0.16926344 0.14684378 -0.15754415
000150 cb c1 f6 be 99 e5 fe be 04 9f 7f be bd 16 06 bf
       -0.48194727 -0.49784544 -0.24963003 -0.52378446
000160 2b 55 b8 bb 4c 1a ee 3d d0 f3 6f 38 9a 80 00 39
       -0.005625387 0.116261095 5.720911e-05 0.00012254939
000170 59 59 cb 38 af dc 47 38 8b 79 11 39 c9 bf 13 39
       9.6964366e-05 4.7650825e-05 0.00013873556 0.00014090458
000180 97 41 2a 38 28 94 87 38 07 dc fd 38 28 f3 c2 bc
       4.0592244e-05 6.464898e-05 0.000121049634 -0.023797587
000190 99 4b 38 3f d9 e5 b2 3e fc a9 23 bc ad 62 5b 3f
       0.7199035 0.34940985 -0.009989258 0.8569744
0001a0 ba 20 64 bd 47 a9 02 3e 8f b5 09 3f ff fd 0a 3f
       -0.055695273 0.12759887 0.5379266 0.5429382
0001b0 66 42 01 be 9d cd 12 3f d8 1f 59 3e 2b 7b 65 be
       -0.12622985 0.5734499 0.21203554 -0.22410266
0001c0 ff 70 e2 3e 6f f8 c8 3d 84 82 fd 3e d0 ac 0c 3f
       0.44226834 0.0981301 0.49513638 0.5495119
0001d0 bb b1 63 bd ed 93 06 bf dd b8 e8 bd 19 3c 47 bd
       -0.05558942 -0.52569467 -0.11363385 -0.048641298
0001e0 b4 97 bc bd 52 c8 a9 be b8 aa f3 be 31 16 9c be
       -0.092086226 -0.33160645 -0.47591186 -0.3048568
0001f0 53 cd 99 be 8e 84 5b 3d c3 85 f8 bd 51 2e 2a 3f
       -0.30039462 0.05359321 -0.12134888 0.66476923
000200 00 0b 12 3f f0 1f a0 be 6d 22 a9 bd 6d e6 bc bd
       0.57048035 -0.31274366 -0.08258519 -0.09223638
000210 9d 50 81 3e cd 09 67 be 00 77 4f be ca 3b 1a be
       0.25256816 -0.22562332 -0.20260239 -0.1506187
000220 0e 7e 84 3e db 34 6a be 6d 44 5e bf 66 36 15 3d
       0.25877422 -0.22871725 -0.8682316 0.03642883
000230 13 71 d0 be 13 6b 0a 3f ea 9f 42 3e 52 09 29 be
       -0.4071127 0.5406963 0.19006315 -0.16507462
000240 3b 69 3b 3f ec 62 64 3e 96 53 3c 3f ca 29 09 3e
       0.73207444 0.2230336 0.7356504 0.13394848
000250 ec 4b 9f 3e 9d e8 4a 3f 28 95 a2 3d cd c7 08 bf
       0.3111261 0.7926119 0.079386055 -0.5342987
000260 06 43 3c bf e6 a5 d4 3e 06 fb 4d 3d a4 50 dd bc
       -0.7353977 0.4153282 0.050288223 -0.027015992
000270 0d 01 90 3e 4b e7 5c 3d d8 db d0 3d bd 42 c2 bd
       0.28125802 0.053931516 0.10198182 -0.094853856
000280 7e c6 f2 be 56 44 15 bf 90 14 fb 3e 5a d6 1c 3f
       -0.47417063 -0.583074 0.49039125 0.61264575
000290 49 97 b5 3e 97 b1 4a 3f 47 83 82 3f 09 71 b7 3d
       0.35466984 0.7917723 1.0196313 0.089571066
0002a0 80 39 76 be b0 cf fe bc 79 74 59 3d 48 33 a6 be
       -0.24045372 -0.031104892 0.053089593 -0.32461
0002b0 0f 55 96 be a7 fc 8a 3e 65 40 75 3f 4a a4 94 3f
       -0.2936177 0.27145883 0.95801383 1.1612637
0002c0 6c f2 72 3e 19 5c c8 3f 2b 7f 98 3f 92 5f 9d 3e
       0.23725289 1.5653106 1.1913809 0.30736977

conv4.bias f4 [20]
000000 e7 03 29 bf 9b 1b a2 be 05 f5 ee be 26 e4 c4 3d
       -0.6602158 -0.31661686 -0.4667131 0.09613828
000010 ec 91 37 bf 0d 77 21 3e f6 d3 4e 3d ce 5a fa 3e
       -0.71707034 0.1576807 0.05049511 0.48897403
000020 66 99 4e bf cc fa aa 3e 2d f8 95 3e a7 b2 01 3e
       -0.8070282 0.33394468 0.29290906 0.12665807
000030 e3 17 1b bd 12 66 02 be f8 4f 5c bd ec 26 66 3e
       -0.037864577 -0.12734249 -0.0537872 0.22475785
000040 da d1 ed be b7 da 6c 3c 40 04 30 be 71 92 d4 be
       -0.46449167 0.014456443 -0.17189121 -0.41517976

conv5.weight f4 [20, 20, 1, 1]
000000 7a 27 17 3d 70 f0 56 3d 8d c5 47 3d 1d de 28 bc
       0.036902882 0.052475393 0.048772383 -0.010306862
000010 b6 b3 1a 3d 14 9f 83 bb 28 50 cc bc a5 46 8f bd
       0.037769042 -0.0040167663 -0.024940565 -0.06995896
000020 7f 71 1e 3d 83 df 95 3d 14 6e db bc f7 09 59 bc
       0.038682457 0.07318022 -0.026785888 -0.013247005
000030 07 32 a8 bd fa 27 52 3d 2b de 84 bd b1 a0 28 3d
       -0.08212667 0.051307656 -0.06487688 0.041168872
000040 15 4c 8d bb 26 3d 4b 3d de 55 91 bc bc 95 8a bc
       -0.004312048 0.049618863 -0.01774114 -0.016917102
000050 56 f9 c5 be 05 45 c6 bd b0 5d f0 be 7b 0b da be
       -0.3866679 -0.09681133 -0.46946478 -0.42586884
000060 66 8a a4 be 99 4c a2 3e 24 8c 8b 3e ab 77 5f 3d
       -0.3213684 0.31699064 0.27255356 0.054557484
000070 c1 50 e0 be fe 49 c9 3e 54 60 a3 3e 28 6f f4 be
       -0.4381161 0.39314264 0.3190943 -0.47741055
000080 26 b1 3e 3e 17 80 2c 3e d8 cc 8a be f2 5e 35 be
       0.18622264 0.16845737 -0.27109408 -0.17712
000090 0c 62 bb bd 01 47 45 3e 74 77 91 3c e8 ca 9e 3f
       -0.0914956 0.19265367 0.017757155 1.2405672
0000a0 75 bd 96 be 6c 71 c9 bd 55 bc ff 3e 87 8c 89 3e
       -0.2944142 -0.09836087 0.49948373 0.26865026
0000b0 3d ba 39 be b0 a9 48 3e 3d 45 16 3e 5c 41 ae bc
       -0.1813745 0.1959598 0.1467485 -0.0212714
0000c0 a4 c4 bd be 2e 06 9f 3e 34 92 f1 3d 75 a0 9e 3e
       -0.37064087 0.31059402 0.11795464 0.30981794
0000d0 84 3a a1 bd 1b 5e 3a be 6c db 45 3f 40 04 1b be
       -0.07872489 -0.18199961 0.77287936 -0.1513834
0000e0 93 7e 88 be 82 a6 ad 3e e3 42 01 be 81 82 66 be
       -0.26659068 0.33916098 -0.12623172 -0.22510721
0000f0 26 41 b2 be 27 b5 77 bd b8 cf 76 be 1d 90 b7 3e
       -0.3481533 -0.060475495 -0.24102676 0.35852137
000100 00 a1 2d bd e5 1c 80 3e 21 5b be bc 52 96 8d bd
       -0.04238987 0.25022045 -0.023236813 -0.06913437
000110 96 0f ab be bd f2 ea 3e 79 27 1f 3d 47 27 65 3e
       -0.3341033 0.4588832 0.038856003 0.22378264
000120 c4 01 96 bd d4 74 7d bd 75 92 a2 be 9d c4 eb bd
       -0.073245555 -0.061878994 -0.31752363 -0.115121104
000130 d0 ce df 3e 67 20 f4 3c c3 81 f3 3e f2 3e 63 bf
       0.43712473 0.029800607 0.47559938 -0.8876792
000140 b3 27 a6 be b7 4c f0 be 30 87 2e be 12 11 83 bd
       -0.32452163 -0.4693353 -0.17043757 -0.0639974
000150 f1 0d b4 be 24 a1 80 be ec 02 1f be ee 65 b6 3e
       -0.35166886 -0.2512294 -0.15528458 0.3562464
000160 67 23 87 bd 11 2b 40 3e a5 0c ae 3d b4 76 e5 be
       -0.06598549 0.18766429 0.084985055 -0.44817126
000170 49 2f 2f 3e a2 2e a9 3e d3 bf 13 be ef a7 8a 3e
       0.17107882 0.3304339 -0.14428644 0.27081248
000180 16 57 8f 3e af 54 b3 be 80 28 97 3d 14 fb b7 3d
       0.2799613 -0.35025546 0.07380772 0.08983436
000190 a1 4a e2 be fd 28 92 be 1d 99 a3 3d a0 47 1b 3f
       -0.44197562 -0.28546897 0.079881884 0.60656166
0001a0 b7 16 dc be b9 4d cd 3d 35 49 01 be 6a 38 4e 3d
       -0.4298608 0.1002459 -0.12625583 0.05034677
0001b0 e6 02 03 bf 71 f1 1c 3e 07 76 f6 3d 6f 6e ea 3e
       -0.511763 0.15326478 0.12034231 0.4578738
0001c0 c0 11 8e be f0 6c 8f be c9 6e e6 bd 10 9c 95 3e
       -0.27747917 -0.280128 -0.11251599 0.2922063
0001d0 d8 7c 60 be c0 64 cf 3d f2 bd 21 bf 8c e9 6b 3e
       -0.21922624 0.101266384 -0.6318046 0.2303831
0001e0 bc ed 5b 3e f6 5c b9 3d ea 4b ec 3e b1 88 60 3e
       0.21477407 0.09050934 0.46151668 0.21927144
0001f0 5b 76 a7 3e 9b 7d a4 be af a9 85 3e 93 43 dd be
       0.32707486 -0.3212708 0.2610602 -0.43215618
000200 ac a0 a3 3e ce 88 d8 3c 32 1b 3f be e4 9f 17 3e
       0.3195852 0.026432421 -0.18662718 0.14807087
000210 05 c7 97 be 5a 21 1f 3e 08 da 0e 3e 88 c7 c7 3e
       -0.29644027 0.15540066 0.1395036 0.39019418
000220 24 8a 85 3e 67 55 72 bb 7b 42 4b 3e 95 61 8b bf
       0.26081955 -0.0036977173 0.19849579 -1.0889155
000230 a5 15 3c 3e 34 29 39 be 59 7c a4 be 7a 5c 46 bf
       0.18367632 -0.18082124 -0.3212612 -0.7748486
000240 b4 13 ec 3e 7b ae 93 3e af bf 20 be 10 25 29 3e
       0.46108782 0.28844056 -0.15698121 0.16518044
000250 b1 93 d7 3e 49 42 65 3d 56 69 a2 be 5e 00 68 bd
       0.42104867 0.055971418 -0.3172099 -0.056640975
000260 04 1a b9 bd 3b d3 1c 3e 8b 17 28 be 6e ab 1a 3e
       -0.09038165 0.15314953 -0.16415231 0.15104458
000270 a3 29 f4 3e d9 43 9c bd 8e 1f fd 3e 85 27 6f 3e
       0.47688016 -0.076301284 0.49438137 0.23354919
000280 0b c6 09 3e f7 7b e1 3d a9 5c 9b 3d 27 e0 1e 3e
       0.13454454 0.110099725 0.07586033 0.15515195
000290 65 1d 46 3d ee 37 ac be 0b c2 da 3e 5c 96 00 be
       0.048367877 -0.3363642 0.42726168 -0.12557358
0002a0 45 ee a5 3d ec 8b 60 bd 6f eb 34 be d0 b6 96 be
       0.08102087 -0.05482094 -0.17667936 -0.2943635
0002b0 72 db 09 be fc 18 e3 be 00 a1 c0 3e c4 f9 f5 be
       -0.13462618 -0.44355 0.37622833 -0.4804212
0002c0 36 87 27 3e 00 9b 64 3d e6 ba 0c 3e 58 10 4d 3e
       0.16360173 0.055811882 0.13743171 0.20025766
0002d0 5d ed 3a bd 04 62 59 be 66 9f 56 3e e5 04 df 3e
       -0.045636524 -0.21228796 0.20959243 0.43558422
0002e0 2a c6 17 3d 27 31 b9 be 84 b6 90 bd ad 6d 1a bf
       0.03705422 -0.36170313 -0.07066062 -0.603236
0002f0 52 b0 e7 bd 16 b2 6e 3e 9e ff 42 bd e9 8e c9 3e
       -0.11312927 0.23310122 -0.047607057 0.39366844
000300 7a b5 4b bf 84 86 41 be 73 1f 1b be 70 91 07 be
       -0.79573786 -0.1889897 -0.15148716 -0.13239074
000310 fc b2 db 3e fe c9 82 3e df 37 92 3e cf df 25 3e
       0.42909992 0.25544733 0.2855825 0.16198657
000320 b6 2b 52 be a0 d8 68 3e f1 0e 20 3f 20 cf 74 bd
       -0.20524487 0.22738886 0.625228 -0.059767842
000330 90 11 25 be f2 04 88 bd 51 5e 90 3e af 90 8a be
       -0.16119981 -0.06641568 0.28196958 -0.2706351
000340 ed 74 7b bd 7e 0f e1 3e 0b e8 31 3e 67 e7 86 3d
       -0.061390806 0.43957132 0.17373674 0.06587105
000350 3b 51 73 bf 6c 1a 70 be e6 bd 96 3e 54 48 26 3f
       -0.9504582 -0.23447579 0.29441756 0.64954114
000360 23 14 92 3e 8e a1 7b be c3 30 73 3e 1e a4 af bf
       0.28530988 -0.24573347 0.2374907 -1.372196
000370 db 37 39 3e 6a a7 90 be fe 0d 42 3d 51 f2 54 3e
       0.18087713 -0.28252727 0.047376625 0.20795561
000380 f6 a0 34 3e 0c cf 28 3e 12 22 0e bf b2 44 ba 3d
       0.17639527 0.16485232 -0.5552074 0.09095134
000390 47 18 35 3e 2d 24 e2 3e de 03 2a be 31 fa 94 be
       0.17685042 0.44168225 -0.16603038 -0.2909713
0003a0 c8 29 06 be 74 90 46 be ea 28 e5 bc 01 8f 2d be
       -0.13101876 -0.19391042 -0.02797361 -0.16949083
0003b0 db 4b f3 3c e7 eb 0b 3f 8d 4a 88 bc 91 e3 3a 3f
       0.029699257 0.54656833 -0.016637111 0.7300349
0003c0 81 49 cd 3e 90 ec cd be 90 75 aa 3d 77 37 0d 3d
       0.40095142 -0.40219545 0.083232045 0.034476724
0003d0 c8 80 ed 3e b9 97 ed 3e f5 23 f4 3d 08 0f 73 be
       0.46387315 0.46404818 0.11920921 -0.23736203
0003e0 58 a6 b3 3e 78 c5 95 be ef 45 0c be dd 02 b5 3e
       0.35087848 -0.2925222 -0.13698553 0.35353747
0003f0 90 e3 c4 39 6e 6d ee be 11 54 2f 3e b3 20 89 3e
       0.0003755358 -0.46567863 0.17121913 0.2678276

conv5.bias f4 [20]
000000 06 2b 25 bd 93 8d 2b 3e 66 15 c4 3e 1a 22 cd 3e
       -0.040324233 0.16753225 0.38297576 0.4006508
000010 50 01 a7 3e bd 5f d0 3e d4 86 9c be 50 a3 b6 be
       0.3261819 0.40698043 -0.30571616 -0.35671473
000020 8a f1 9a bd 4c 58 41 3e 03 91 ce 3b 5b f5 30 be
       -0.07565601 0.18881339 0.006303908 -0.17281096
000030 ee d0 82 be 05 77 ed be 62 c5 f9 3d b0 e6 05 bb
       -0.25550026 -0.46379867 0.12195851 -0.002043169
000040 66 b6 16 be 1d 19 14 3f 25 cd 48 be 6b 62 e9 3e
       -0.14718017 0.5785082 -0.19609506 0.455829

conv6.weight f4 [20, 1, 3, 3]
000000 6b 8c 32 bc 7a 3a 03 bd 80 29 bd bc fc 05 1b 3d
       -0.010897736 -0.03203819 -0.023091078 0.037847504
000010 22 66 5e 3a de ca 08 3c 07 be 31 3d 97 00 9d ba
       0.0008483847 0.008349149 0.043394115 -0.0011978325
000020 1a b7 a7 bc 28 5e 62 be 80 0c 8a be ac 22 c9 be
       -0.020473052 -0.2210623 -0.26962662 -0.39284265
000030 c8 4b 1c 3e ae 21 73 be f0 bd 5c 3d 95 2a 5c 3f
       0.15263283 -0.23743317 0.053892076 0.86002475
000040 c2 7b 20 bf 2c 96 9b 3d fe ec 49 be 31 6c 38 3d
       -0.6268884 0.075970024 -0.19719312 0.045025054
000050 4c 33 51 be 05 c1 59 3e 12 55 04 3f 5c 50 19 be
       -0.20429724 0.21265037 0.51692307 -0.14972061
000060 ac ba 88 be 06 72 32 3f 8e 89 9b be b1 90 15 bf
       -0.2670492 0.69705236 -0.30378383 -0.58423907
000070 06 36 36 bf f5 64 57 be dd ba 61 be 16 dd a5 3e
       -0.71176183 -0.21034606 -0.22043939 0.32395238
000080 d1 3f fb 3e f5 32 08 be da 03 a0 3e d6 2c e3 3e
       0.49072126 -0.13300689 0.31252939 0.44370145
000090 6d 8a 20 be 5e 25 b0 be ef 16 5d 3d be a3 1e 3e
       -0.15677805 -0.3440351 0.05397695 0.1549215
0000a0 db 03 35 3e 90 d3 25 3f 4d 28 92 be ae 77 1e 3d
       0.17677252 0.64775944 -0.28546372 0.038688354
0000b0 28 9d b4 3e 5e b2 31 bf fc fd 43 3e 0f 66 b4 3e
       0.3527615 -0.6941279 0.19139856 0.35234115
0000c0 0c 54 e0 be 83 b8 f5 bd 3a a9 b6 3e 1f 22 e8 be
       -0.43814123 -0.119980834 0.35675985 -0.45338532
0000d0 d4 3b 9a bc 20 8c 54 be 13 a4 6c 3f 86 85 66 3f
       -0.018827356 -0.20756578 0.9243786 0.9004749
0000e0 0a fc b5 be 71 50 53 3f 4e 19 ae 3d 15 f9 0d 3f
       -0.35543853 0.8254462 0.0850092 0.55458194
0000f0 e0 8f d2 3e 23 48 28 3f 19 91 1f 3e 7f 35 7e 3e
       0.41125393 0.6573507 0.15582694 0.24825095
000100 b9 f9 15 be 40 88 bd bd 67 12 3f be 9f 05 76 3e
       -0.14646043 -0.09254503 -0.18659364 0.24025582
000110 57 40 bc be 03 6a 6b bf 17 54 27 bf 88 7a 95 be
       -0.36767837 -0.91958636 -0.65362686 -0.29195046
000120 8e d0 cf 3c c6 3f 77 be 32 6e 9b 3e 39 a3 22 bf
       0.025368001 -0.24145421 0.3035751 -0.6353031
000130 ca 83 8e 3e 6b 51 16 bf aa 78 19 bf 91 a4 97 bd
       0.27834922 -0.58717984 -0.59949744 -0.074044354
000140 ae 3c 20 bd 40 e5 3d bf 04 4d 28 bf 38 b7 fa be
       -0.03912037 -0.7417793 -0.65742517 -0.4896791
000150 9e be b8 3e d7 0d 84 be 8f 93 d8 be 9b ce c1 3b
       0.3608293 -0.2579181 -0.42300078 0.005914522
000160 cf f8 d7 be ab 7e b2 be d7 37 03 bd 93 03 0b bf
       -0.42182013 -0.34862265 -0.032035675 -0.5430233
000170 56 ce 1a 3f 90 f1 6b bf f0 04 84 be b3 35 05 bf
       0.60471094 -0.9216547 -0.25785017 -0.52035064
000180 25 5c b1 3e 0f b5 b3 be 27 86 aa 3e 52 c9 40 be
       0.34640613 -0.35099074 0.33305475 -0.18826798
000190 e2 4d c6 be 41 1d d1 bd b9 10 55 be b0 54 a6 be
       -0.38731295 -0.10210658 -0.2080716 -0.32486486
0001a0 fc 1b 45 be 03 ac 93 3e aa 1c 53 3e ab ac 13 bf
       -0.19248956 0.28842172 0.20616403 -0.57685345
0001b0 28 37 bf 3d 34 df 63 be b2 18 f9 be 11 cb de 3e
       0.09336692 -0.22253114 -0.48651654 0.43514302
0001c0 02 06 2a 3e 4d 73 84 3e 51 a0 0c bf 0f ae de be
       0.16603854 0.25869218 -0.54932123 -0.4349217
0001d0 2a 28 19 be 2d d5 88 bf 6d 5c 23 bf e3 ee 87 be
       -0.14956728 -1.0690056 -0.63812906 -0.26549444
0001e0 d0 7f cb 3e c1 21 64 3f 3c d9 c6 3e 48 17 02 bf
       0.3974595 0.89114004 0.38837612 -0.50816774
0001f0 f6 f2 70 3f 77 99 73 3f 37 26 bf 3e a4 c1 b3 3e
       0.9412073 0.95156044 0.37333843 0.35108674
000200 b3 67 9b 3e ac e2 5c 3e a8 c4 2a bf a1 e9 55 be
       0.30352554 0.21570843 -0.66706324 -0.20889904
000210 92 79 ec 3e be 43 13 bf 57 ff 85 3e 2d 8b 35 3c
       0.461865 -0.5752524 0.2617137 0.011080545
000220 c9 f7 20 3c 76 9f 1d ba 78 88 16 3c d6 f1 b3 bb
       0.009824702 -0.0006012836 0.00918781 -0.0054914756
000230 5b 72 cd bb f8 47 ab bc 5e 75 85 3b ef 67 b1 bb
       -0.0062697357 -0.02090834 0.004072829 -0.005414001
000240 43 31 c3 bd 84 08 ce be e4 32 d4 be 71 d3 fe be
       -0.0953088 -0.40240872 -0.41445076 -0.49770692
000250 5c 04 b0 be 66 93 f1 be ea 15 0c bf 19 03 74 bc
       -0.34378326 -0.4718277 -0.5472094 -0.014893317
000260 e4 ac bf bd 48 11 f5 3d cc e8 80 be 26 bd 88 3e
       -0.09359148 0.11966187 -0.2517761 0.2670681
000270 e2 bc 9d 3e 91 07 a4 be 49 81 6c 3e 3f 7a b2 3e
       0.3080817 -0.32037023 0.23096193 0.3485889
000280 98 e6 a9 3e f4 0c a6 be 81 51 07 bf 8e 22 e6 3d
       0.33183742 -0.32431757 -0.5285874 0.112370595
000290 31 a6 8e 3e 25 cd 01 bf 70 60 b8 3e 8f 08 93 bb
       0.2786117 -0.5070365 0.36011076 -0.0044871042
0002a0 1e 59 8d be 12 4a f3 bc 00 cf ce 3d 5d 46 e4 bc
       -0.27607054 -0.029698405 0.10098076 -0.027865583
0002b0 32 d3 22 bf c4 f4 cb be 60 cd 4c 3e 25 f1 a6 bd
       -0.6360351 -0.3983518 0.2000022 -0.081514634
0002c0 17 31 29 bf de 01 57 3e d3 79 c6 be 09 dc 0a be
       -0.6609053 0.20996806 -0.3876482 -0.13560499

conv6.bias f4 [20]
000000 86 02 d2 be 07 0f 90 3e 60 e5 39 3e 4f f4 b7 bc
       -0.4101755 0.28136465 0.18153906 -0.022455363
000010 57 f6 e7 3e 9a d9 44 3c 06 9c f3 bb 5e 9e 86 3e
       0.4530513 0.012014771 -0.007434371 0.262927
000020 24 a4 fb bd d3 eb 27 3f ea 91 bf 3d c7 1f 2b 3e
       -0.12287167 0.65594214 0.09354003 0.16711341
000030 ca ef a6 3e d8 bb 68 3e 90 e3 43 bf 5e 44 93 3e
       0.3260482 0.22727907 -0.7651911 0.28763098
000040 9a 3c ac 3e 2a b3 7b be 44 73 70 3d 8f b6 00 be
       0.33639985 -0.24580064 0.058703676 -0.1256964

conv7.weight f4 [20, 20, 1, 1]
000000 e3 5d 0a be a0 0f 52 be 21 ec 16 bf 44 9a 86 be
       -0.13512377 -0.20513773 -0.58954054 -0.2628957
000010 b5 51 8c 3d 43 a1 1d 3b 32 62 bf be dd dd 38 3e
       0.06851522 0.0024052418 -0.37379605 0.18053384
000020 bd 2b 8b be bd 12 8c 3e 7c 74 db 3c 6c 6c 1e bf
       -0.27181807 0.27358046 0.026788943 -0.6188419
000030 eb f9 ca 3e 81 18 4d 3d 87 f1 dc 3c 4d 4a 12 3e
       0.39643797 0.050072197 0.026970638 0.14286156
000040 ca 8d 65 3e 23 3c 50 3e 9b 3d c9 bd 55 dd 39 3c
       0.2241737 0.2033544 -0.098262034 0.011344274
000050 2f 8d 66 be 79 a2 01 3e e3 5b fc 3e 40 8c 38 3e
       -0.22514795 0.12659635 0.49288854 0.18022251
000060 8f 29 39 be ed d3 11 bb 54 6b 6a be 74 d7 42 be
       -0.1808226 -0.0022251562 -0.22892505 -0.19027501
000070 04 89 e5 3d 1d 5c 22 3f 50 db cc be ed b1 96 3e
       0.11207774 0.63421804 -0.40011072 0.29432622
000080 19 9e 00 3f 55 44 12 be 59 28 07 3f 0a ec 1b be
       0.5024124 -0.14283879 0.5279594 -0.1522676
000090 0b a1 26 3f 1e 21 02 bf d5 d2 c1 3d ea 96 cb bd
       0.6508948 -0.5083178 0.09464041 -0.09940894
0000a0 45 72 3c 3e 44 d3 92 be 67 cc 62 3d 52 e3 bc 3d
       0.18402965 -0.28676808 0.055370715 0.092230454
0000b0 93 e9 2e bd a8 ad 3f 3e 6b 71 93 3e 3f fd b7 be
       -0.042703222 0.18718588 0.2879747 -0.359354
0000c0 bf c4 20 be 12 d3 a3 be be b5 64 3c 4e 6e 8e be
       -0.15700053 -0.3199697 0.013959346 -0.2781853
0000d0 54 5a 8a 3c 13 21 4b bf e4 87 2b 3f 8a e0 e8 bd
       0.016888775 -0.7934734 0.6700423 -0.113709524
0000e0 50 3e ae 3e c5 a7 b6 be 30 3a ab 3d c1 f4 06 3e
       0.34031916 -0.35674873 0.08360708 0.13179304
0000f0 42 2a b6 38 71 ca 30 3b 20 5c ed bb 0e bb c8 bb
       8.6863074e-05 0.0026976133 -0.007243648 -0.0061258143
000100 c1 2e 0e bc f1 d9 99 ba 12 41 1a bb 14 32 87 3c
       -0.008678139 -0.0011737925 -0.002353732 0.016503371
000110 eb 5c e1 3b 96 ec e0 3b 81 fb 7f 3c 21 5f 63 38
       0.0068775318 0.0068641407 0.015623928 5.4209613e-05
000120 9d a6 8f ba 83 df 11 ba 66 c0 37 3c 58 f4 ab b6
       -0.0010959689 -0.0005564617 0.011215305 -5.1246425e-06
000130 dc d4 94 3b b1 d9 0f bc 04 b0 b2 3a 43 f0 0b 3c
       0.0045419764 -0.008779929 0.0013632779 0.00854117
000140 4a af 0a 3e 5c 34 17 be 9b 7f ac 3e 16 0c 17 be
       0.1354343 -0.14766067 0.33691105 -0.14750704
000150 cc 7e f0 3d 75 80 1c 3f 4f 20 86 3e 6c 20 66 be
       0.117429346 0.6113351 0.26196525 -0.22473305
000160 ab 60 40 be 56 c4 06 3f cc fc 2b 3d 1b 7e 85 be
       -0.18786876 0.52643335 0.041989133 -0.26072773
000170 75 f4 08 3f f1 7e 3c be 9c fa 24 3d 6f 47 3e 3e
       0.5349801 -0.184078 0.040278062 0.18581937
000180 ff a6 1a 3f c7 73 18 bf f3 16 b6 bd c0 f4 e1 3d
       0.60411066 -0.5955166 -0.08891096 0.110330105
000190 3f 5e 9c 3e 6f 8a cd 3e 39 d0 c6 bd dd 90 49 be
       0.30540654 0.4014468 -0.09707684 -0.19684167
0001a0 18 83 8d 3e 38 89 a6 bd 5b 37 90 be b4 81 a0 be
       0.2763908 -0.08131641 -0.28167233 -0.31348956
0001b0 46 ff 3b 3e f6 e6 49 be af 46 39 be 27 77 2d 3e
       0.18359098 -0.19717011 -0.1809337 0.16939984
0001c0 57 61 68 3e 6a a8 85 bc 17 1a 66 3e 51 42 3b be
       0.22693382 -0.016315658 0.2247089 -0.18287016
0001d0 99 24 1c bd b1 13 38 bf e5 0c 9c 3d 38 b3 a8 3e
       -0.03812084 -0.71905047 0.07619647 0.32949233
0001e0 db dc 8a 3e dc 7d c2 3c 5d d2 ae bd 7b 5a db 3e
       0.27121624 0.023741655 -0.08536217 0.4284247
0001f0 f6 a1 78 be 1d e4 27 3f 42 c1 73 3e f7 36 12 be
       -0.24280533 0.6558245 0.23804191 -0.1427878
000200 69 a7 7e 3e 9c c4 73 3e ba 3b 07 bf f9 e0 8a be
       0.2486855 0.2380547 -0.5282551 -0.27124766
000210 06 4c 55 3e 96 41 61 be 4d af 0e 3f ef 96 01 be
       0.20829782 -0.21997675 0.5573624 -0.12655233
000220 64 81 00 bf 9d b2 45 3e 67 67 9e be 25 bb ed 3e
       -0.50197434 0.19306417 -0.30938265 0.46431842
000230 05 86 b2 3e 4c d7 e6 3c e2 92 93 3d 34 81 f3 be
       0.34867874 0.028178833 0.0720575 -0.47559512
000240 96 89 11 be 48 73 11 be 4b d6 25 3f 54 1f 39 bf
       -0.14212641 -0.14204133 0.6478011 -0.7231343
000250 82 3a 1a 3e 8e 9a 73 be 45 27 97 be be 50 a1 be
       0.15061381 -0.23789427 -0.29522148 -0.31506914
000260 db 9b 8c 3d de c1 54 3d f9 9f 82 3f 36 30 21 be
       0.068656646 0.0519427 1.020507 -0.15741047
000270 d0 cd 78 be 07 c6 b1 3e 49 89 0a 3f 58 26 ed bb
       -0.24297261 0.34721395 0.5411573 -0.007237237
000280 48 83 3a be b8 1f 61 bd d4 09 e5 bc fa 1c 97 be
       -0.18214142 -0.05496189 -0.027958788 -0.29514295
000290 b1 7c 12 3e 83 e8 bc 3e e5 5b f7 3e 27 6e e4 3c
       0.14305378 0.36896142 0.48312297 0.027884556
0002a0 f7 cc dc bd 9c 15 76 3e 86 a1 b0 bd ac 02 19 3e
       -0.107812814 0.24031681 -0.08624558 0.14942425
0002b0 b6 fd 0e 3f 72 8f 0d 3e bf 93 c0 bd b9 c7 41 3e
       0.5585588 0.13824251 -0.0940318 0.18923844
0002c0 01 9d ab 3e 7a ee a6 3e 0d 98 0d bd b4 88 53 3d
       0.33518222 0.32603818 -0.034568835 0.051644042
0002d0 24 b9 0f bd 97 35 7f be 8c 6f 21 3e 67 4c 94 be
       -0.035088673 -0.24922787 0.15765208 -0.2896454
0002e0 a8 5b 78 3e 76 95 e8 3e 84 ea 43 3e de a0 46 3e
       0.24253714 0.4542653 0.1913243 0.19397303
0002f0 0e 12 d2 be 1d fc 0c 3d 2e 26 05 3d b9 43 85 3d
       -0.410294 0.03442012 0.032507114 0.06507058
000300 51 68 0b be c0 ca 94 3d b8 f1 08 be 36 51 8b bd
       -0.13614012 0.07265234 -0.13373458 -0.06802599
000310 c5 1d 66 3e 2b 67 5c 3e 1a c9 67 3d e2 16 86 be
       0.22472294 0.2152373 0.05658827 -0.26189333
000320 69 18 50 be 47 5f dc 3d 33 d2 fa be e6 56 5d be
       -0.20321812 0.1076036 -0.48988494 -0.2161518
000330 8a dd 5c be d5 d9 e2 bd 84 31 93 be 28 62 5e 3e
       -0.21568885 -0.110767044 -0.28748715 0.21717131
000340 4c d0 b4 3d a1 15 f9 be c8 54 b0 be ff c0 65 3f
       0.08828792 -0.48649314 -0.34439683 0.89747614
000350 a1 ed 27 bb 07 9f 73 be 6c 0a d9 3e 78 c1 1f 3e
       -0.0025623816 -0.23791133 0.42390764 0.15601146
000360 a1 a8 95 3e d3 57 82 3e ee 5b f4 bd 7c 42 8d bc
       0.29230216 0.2545763 -0.11931597 -0.017243616
000370 57 f0 a3 3e 0d 26 38 3e e0 14 ac be 59 cb a3 3e
       0.32019302 0.17983265 -0.33609676 0.3199108
000380 b7 af 47 be 47 9d 99 3e b0 27 9d be 95 7c 34 3e
       -0.19500624 0.30002806 -0.30694342 0.1762565
000390 bb 4a 4a 3e d4 06 8a be 39 cc 7b 3e 87 69 bb be
       0.1975507 -0.26958334 0.24589624 -0.36603948
0003a0 4c f6 2c be 58 ed 1b 3f 69 05 3b 3f cf e6 6b be
       -0.1689083 0.6090903 0.7305513 -0.23037265
0003b0 32 fd f3 bd 56 17 a1 bd 6f fe c7 be 0d ed df 3d
       -0.119135275 -0.07865779 -0.39061305 0.10933886
0003c0 a5 35 e7 3c 06 49 fd bd c6 61 1c 3c f4 b5 48 bb
       0.028223822 -0.12367444 0.009544795 -0.003062603
0003d0 aa 75 9b be 2d 31 65 bd dd d2 af 3d 56 72 d2 3e
       -0.30363208 -0.0559551 0.08585141 0.41102856
0003e0 8e c6 87 be 1b b0 7b 3e d0 fc 57 3e bf 4a 09 be
       -0.26518673 0.24578898 0.21092534 -0.1340742
0003f0 18 ac 21 bd 15 b1 e7 3e 9c 1f 5b 3f 78 3c 72 be
       -0.039470762 0.4525229 0.8559511 -0.2365588

conv7.bias f4 [20]
000000 89 dc 3a 3e 09 7a e7 3d 8d 42 8c be 26 84 c9 ba
       0.1824819 0.11302573 -0.27394524 -0.0015374466
000010 9a 82 79 3c c4 94 69 be ae c7 50 3c 72 c8 62 be
       0.015228892 -0.22810656 0.01274292 -0.22146776
000020 fe 56 16 3e 91 92 c4 3d db 78 64 3e e5 e6 d8 be
       0.14681622 0.09598268 0.22311728 -0.4236366
000030 e5 7d 8f bd 7d f7 84 bd 8b a4 ca 3c f0 f6 d7 be
       -0.07006434 -0.06492517 0.024736663 -0.42180586
000040 08 45 de 3d bd ff 5f bc 34 ac cc be 19 d8 4b be
       0.108530104 -0.013671813 -0.3997513 -0.19906653
