models/CIFAR10/cnn_params=100k_seed=028/099.pth (torch, 421415 bytes, 8 tensors)

conv1.weight f4 [32, 3, 3, 3]
0	0x3c359a7e	0.011084197
1	0x3e48cb14	0.19608718
2	0xbd3889fe	-0.045053475
3	0x3d52ee8c	0.051497027
4	0x3e9429ed	0.28938237
5	0xbeb59891	-0.3546796
6	0x3df0b446	0.117531344
7	0x3dd80d9c	0.10549471
8	0xbea40cf2	-0.32041126
9	0xbd5bbb01	-0.053645138
10	0x3e8211f9	0.25404337
11	0xbddfb68b	-0.10923489
12	0x3db2e2f7	0.08734696
13	0x3e48a23e	0.1959314
14	0xbe34b686	-0.17647752
15	0xbd4d4d8b	-0.05012278
16	0x3d9e410e	0.07727252
17	0xbe973a70	-0.29536772
18	0x3e1b942f	0.15193246
19	0x3db0942f	0.08622014
20	0xbe117516	-0.14204821
21	0x3e027579	0.12740125
22	0x3de72a99	0.11287422
23	0xbea36d16	-0.31919163
24	0xbde27b62	-0.1105869
25	0x3e124155	0.14282735
26	0xbc89894b	-0.0167891
27	0xbd3546f1	-0.044257108
28	0x3d3c21c8	0.045930654
29	0xbd0ba7c1	-0.03409553
30	0x3e4aa05c	0.19787735
31	0x3e89beb8	0.2690332
32	0xbe1e4ebc	-0.15459722
33	0x3d728bc7	0.059215333
34	0xbd935670	-0.07194221
35	0xbe8ce78a	-0.275204
36	0xbe904726	-0.28179282
37	0x3d9db87c	0.07701203
38	0x3dda7349	0.1066652
39	0x3d92b8f0	0.0716418
40	0x3e9d36d1	0.30705884
41	0xbdec5dc9	-0.115413256
42	0x3e45c1ca	0.19312206
43	0xbe629b12	-0.22129467
44	0xbe237ffb	-0.1596679
45	0xbe76c1c7	-0.24097358
46	0x3e897892	0.268498
47	0x3d86fa5b	0.0659072
48	0x3dcf937a	0.10135551
49	0x3eb9143a	0.36148244
50	0xbe546f36	-0.20745549
51	0xbd7ed8e6	-0.06221857
52	0xbe202327	-0.1563841
53	0xbe1fc866	-0.1560379
54	0xbe007158	-0.12543237
55	0xbe8e6fda	-0.2781971
56	0xbe4118c2	-0.188571
57	0xbe89e72a	-0.26934177
58	0xbe81bd4d	-0.25339738
59	0xbde55042	-0.111969486
60	0xbd77b1aa	-0.060472168
61	0xbe3bbd46	-0.18333921
62	0xbd80db9b	-0.062918864
63	0x3cb8e873	0.022571778
64	0x3e2ee5dc	0.17079872
65	0x3e29995a	0.16562405
66	0x3db757a1	0.08952261
67	0x3e3e4eef	0.18584798
68	0xbcb7146e	-0.022348609
69	0xbc39fef8	-0.011352293
70	0xbd85eb46	-0.065390155
71	0x3dd60957	0.10451
72	0x3e92285e	0.28546423
73	0x3e9498dd	0.29022875
74	0xbdb3c9c2	-0.087787166
75	0x3e65a4b0	0.22426105
76	0x3e68e95e	0.22745273
77	0x3dd24b7b	0.10268303
78	0x3df49bc9	0.11943776
79	0x3e7e640b	0.24842851
80	0xbe070559	-0.13185634
81	0xbd771ba9	-0.060329113
82	0x3e7ac022	0.24487355
83	0x3e454471	0.1926439
84	0xbe312958	-0.17300928
85	0xbec0feaa	-0.37694293
86	0xbe9333d8	-0.2875049
87	0x3dfc0f34	0.12307587
88	0x3d9054ce	0.07047425
89	0xbdfb9fa9	-0.12286312
90	0xbe0cb721	-0.13741733
91	0xbd1bd5dc	-0.03804575
92	0x3e567c80	0.2094593
93	0xbe467083	-0.19378857
94	0xbdeae477	-0.114693575
95	0xbe84acf8	-0.25913215
96	0x3d97ef9c	0.07418749
97	0xbca4d68d	-0.020121837
98	0xbd2e3fa7	-0.042541172
99	0x3e14b809	0.14523329
100	0x3c488991	0.01223983
101	0x3dda8206	0.10669331
102	0xbd614a2d	-0.05500238
103	0x3e0bc3ab	0.1364886
104	0xbc0ba2c6	-0.008522695
105	0x3e2ddc09	0.16978468
106	0xbcb4e022	-0.022079531
107	0x3e415204	0.18878943
108	0xbe26337e	-0.1623058
109	0xbdc0ecb4	-0.094201475
110	0x3c344db5	0.011004855
111	0xbe202fce	-0.15643236
112	0xbd8914cb	-0.06693419
113	0xbc9e83c9	-0.01934995
114	0x3eaa54be	0.33267778
115	0x3e2aa0b3	0.16662864
116	0x3c80ee15	0.015738526
117	0xbd81dd25	-0.06341008
118	0xbdccec17	-0.10005968
119	0x3c84648a	0.016161222
120	0xbde97878	-0.11399931
121	0xbca69523	-0.020334786
122	0xbd9d76a5	-0.07688645
123	0x3e499532	0.1968582
124	0x3dd95444	0.106117755
125	0x3e080b62	0.13285592
126	0xbdc47072	-0.0959176
127	0xbde3116c	-0.11087307
128	0xbd173593	-0.036916327
129	0xbe5ebcc5	-0.21751697
130	0xbc6fd988	-0.014639266
131	0xbe1684f2	-0.14699152
132	0x3eaeb8f0	0.3412547
133	0x3d663661	0.056204204
134	0x3e2e0c2a	0.16996828
135	0xbe2bcba6	-0.16776904
136	0xbe7f55c5	-0.24935062
137	0xbdbac5b2	-0.09119739
138	0xbe232c0f	-0.15934776
139	0xbeab1491	-0.33414128
140	0xbc0ce446	-0.0085993465
141	0xbe13fda9	-0.14452232
142	0xbddc09dd	-0.10744069
143	0x3db005d5	0.08594862
144	0xbd1182e5	-0.03552522
145	0xbe4a5675	-0.19759543
146	0x3e70d3b7	0.23518263
147	0x3d144b97	0.0362049
148	0x3e2d915e	0.16949984
149	0xbc314380	-0.010819316
150	0x3da127a4	0.07868889
151	0x3e3cdfbf	0.18444727
152	0x3e06aa5d	0.13150926
153	0x3e05ed30	0.13078761
154	0xbc6f1456	-0.014592251
155	0xbd93e3de	-0.072211966
156	0xbd606d5e	-0.0547918
157	0xbe3bf490	-0.18355012
158	0x3e23050d	0.15919895
159	0x3e490cdc	0.19633812
160	0x3dad26c7	0.08454662
161	0x3e56cbfa	0.20976248
162	0x3d74a8f6	0.059731446
163	0xbe3977b7	-0.18112074
164	0x3e6e816b	0.23291557
165	0x3b1dd087	0.002408059
166	0xbe981ef2	-0.2971111
167	0x3d644882	0.05573321
168	0xbd692045	-0.05691554
169	0xbe719b84	-0.23594481
170	0x3e2e1a8b	0.17002313
171	0xbe2f38b4	-0.17111474
172	0xbd82fcd4	-0.063958794
173	0xbd941c4f	-0.07231962
174	0xbdbc911b	-0.09207364
175	0xbc3dd48f	-0.011586322
176	0x3de4c2fd	0.111700036
177	0xbcf009bf	-0.029301522
178	0xbea5d1d9	-0.32386664
179	0xbe4c826d	-0.19971628
180	0x3e59d901	0.21274187
181	0xbdb6cd9c	-0.089259356
182	0xbc50c223	-0.012741598
183	0x3e9ae76c	0.30254686
184	0x3e4d06cf	0.20022129
185	0x3e1014fe	0.14070508
186	0x3d97f6b3	0.07420101
187	0x3de6eb71	0.11275376
188	0xbca6ffc8	-0.020385638
189	0x3e6c4cf1	0.23076226
190	0x3ea247d2	0.3169542
191	0x3e022e20	0.12712908
192	0xbb8df06d	-0.0043316395
193	0xbc490c3a	-0.012270981
194	0x3d29e039	0.0414736
195	0xbe4d1f78	-0.20031536
196	0xbe7ed20e	-0.24884817
197	0x3d8039ab	0.06260999
198	0xbd04e2cc	-0.032442853
199	0xbdac20fd	-0.084047295
200	0xbcaf39c7	-0.021389855
201	0xbe79af6c	-0.24383324
202	0xbd0f61b6	-0.035005294
203	0xbc713b05	-0.014723544
204	0xbe157e76	-0.14599022
205	0xbe92e498	-0.28690028
206	0xbdc22159	-0.09479017
207	0xbe1b9907	-0.15195094
208	0x3dc6ad42	0.09701015
209	0xbd3dc350	-0.046328843
210	0xbde08e5e	-0.109646544
211	0x3e7b42f0	0.24537253
212	0x3debfda7	0.1152299
213	0xbe490ce9	-0.19633831
214	0xbe4d041c	-0.20021099
215	0x3e12f31e	0.14350554
216	0x3d68c489	0.056828056
217	0xbe78535d	-0.2425055
218	0x3d1f9946	0.038964532
219	0x3e63e650	0.22255826
220	0xbdb6baec	-0.08922371
221	0x3e052a94	0.13004524
222	0x3c23458a	0.00996531
223	0xbd3c1e7d	-0.045927513
224	0xbcf0f171	-0.029412003
225	0x3e09f0f5	0.13470824
226	0xbe09f32c	-0.13471669
227	0x3ca9152e	0.020639982
228	0x3e2f1248	0.17096817
229	0xbe010b48	-0.1260196
230	0xbe4df1bd	-0.20111747
231	0x3d66271c	0.05618964
232	0xbd7b81c4	-0.06140305
233	0x3c636b19	0.013880515
234	0x3eac7bf0	0.33688307
235	0xbea8aad5	-0.32942834
236	0xbdb00276	-0.085942194
237	0x3ea7d27a	0.32777768
238	0xbe3d1cd7	-0.18468033
239	0xbe2b15d6	-0.16707548
240	0x3e9c1431	0.30484155
241	0xbe2726fd	-0.16323467
242	0x3bbb0e29	0.005708475
243	0x3d8a26d3	0.067456864
244	0xbe1ca2aa	-0.15296426
245	0x3dc1a876	0.094559595
246	0xbe9b58e0	-0.30341244
247	0x3dba6ad3	0.09102406
248	0x3d77b55b	0.06047569
249	0x3e0e6692	0.13906315
250	0x3e3946bb	0.18093388
251	0x3d3c56b0	0.04598111
252	0xbdcbf060	-0.09957957
253	0xbea08a90	-0.31355715
254	0xbd9b893b	-0.07594534
255	0xbeb04b10	-0.34432268

conv1.bias f4 [32]
0	0x3c808d70	0.015692443
1	0xbba67571	-0.005079918
2	0xbdc8d52c	-0.09806284
3	0x3dc925c6	0.09821658
4	0x3801ecc4	3.0976502e-05
5	0x3c2d4023	0.010574373
6	0x3dcecce6	0.10097675
7	0x3e358681	0.1772709
8	0x3cc1d153	0.023659384
9	0x3bf6c92d	0.0075313062
10	0xbb3aa71a	-0.0028480948
11	0xbdb8c774	-0.09022418
12	0xbbf6e185	-0.0075342082
13	0x3d966264	0.07342985
14	0x3d5db03a	0.05412314
15	0xbd808655	-0.06275622
16	0xbe68cbb6	-0.2273396
17	0x3b68ada2	0.0035503884
18	0xbc74a1fb	-0.014931197
19	0xbca394ef	-0.019968478
20	0x3d6dd3bf	0.058063265
21	0x3ba07179	0.0048963395
22	0x3d6453cf	0.05574399
23	0xbc41d030	-0.011829421
24	0x3d1907d5	0.037360985
25	0xbc94ec92	-0.018179212
26	0x3d455611	0.048177782
27	0x3da159a6	0.07878427
28	0xbd8fb371	-0.070166476
29	0xbb95e3d0	-0.0045742765
30	0xbc0c86d4	-0.008577067
31	0x3c5d2f36	0.0135000255

conv2.weight f4 [64, 32, 3, 3]
0	0x3d94b59f	0.07261204
1	0xbd3f20e7	-0.046662237
2	0xbd7600c2	-0.060059316
3	0xbdfbbdeb	-0.12292083
4	0xbe5fe095	-0.21863015
5	0xbe23183b	-0.15927212
6	0xbd03e15d	-0.032197345
7	0x3d367460	0.044544578
8	0xbe1c9be1	-0.15293838
9	0x3cffcb11	0.03122476
10	0x3d36242f	0.0444681
11	0xbd03b3e7	-0.03215399
12	0xbd8f9c7c	-0.07012269
13	0xbe1b8bfc	-0.15190119
14	0xbd125345	-0.035723943
15	0xbe0f567d	-0.13997836
16	0xbda37614	-0.07981506
17	0xbd92d2d1	-0.07169116
18	0x3d73d4c2	0.059529074
19	0xbb871148	-0.004121933
20	0x3d9ea67e	0.077465996
21	0x3d86668b	0.06562527
22	0xbce32921	-0.027729573
23	0xbd458641	-0.048223738
24	0x3e16adc7	0.14714728
25	0xbc3be305	-0.0114677
26	0x3b2e0718	0.0026554521
27	0xbdc8edfc	-0.09811017
28	0x3d661170	0.056168973
29	0x3da94d44	0.082666904
30	0x3e1688cb	0.1470062
31	0xbdf951c2	-0.12173797
32	0xbdfc4c7c	-0.12319276
33	0x3d7f15d1	0.062276665
34	0x3e41efa8	0.18939078
35	0x3d51b9a9	0.05120245
36	0x3de150c6	0.110017344
37	0x3d51d555	0.05122884
38	0xbdc864e3	-0.097848676
39	0xbe67b903	-0.2262917
40	0xbd925565	-0.07145194
41	0x3e88430d	0.26613656
42	0x3ea6d13a	0.32581502
43	0x3d51bc37	0.051204886
44	0xbeb0eb5b	-0.34554562
45	0x3d1c8992	0.038217135
46	0x3d6667cb	0.05625133
47	0x3ba06010	0.004894264
48	0xbdda0384	-0.10645202
49	0x3c905005	0.017616281
50	0x3e51f933	0.20505218
51	0x3dfdc5a0	0.123912096
52	0xbc5ac150	-0.013351753
53	0xbe2f37a2	-0.17111066
54	0xbd0a0c1d	-0.03370296
55	0xbd094bb9	-0.03351948
56	0x3d9f69d3	0.07783856
57	0x3dc6eeb8	0.09713501
58	0x3de5574e	0.11198293
59	0xbc84fa19	-0.016232537
60	0xbdb31b16	-0.087454006
61	0xbc498eb8	-0.012302093
62	0x3e010c49	0.12602343
63	0xbd9c41e6	-0.07629757
64	0xbd800279	-0.062504716
65	0xbce02d66	-0.027365398
66	0x3e81adb7	0.25327846
67	0xbcec8774	-0.028873183
68	0xbe6bfa3e	-0.23044679
69	0xbe6d1191	-0.23151232
70	0x3d87da9f	0.066334955
71	0x3e5eec9e	0.2176995
72	0x3cf4cc9e	0.029882725
73	0x3cf7541d	0.030191476
74	0x3c91728d	0.017754817
75	0xbe7443f0	-0.23854041
76	0xbe447d87	-0.1918851
77	0x3c2e9c7b	0.010657425
78	0x3ddb162d	0.10697589
79	0x3ccdb25d	0.025109464
80	0xbe0de8dc	-0.1385836
81	0x3bff8a43	0.0077984645
82	0x3cd957e1	0.026531162
83	0x3d084dee	0.033277445
84	0xbe0784ee	-0.13234302
85	0xbd5ed3f9	-0.05440137
86	0x3d8ed01d	0.06973288
87	0x3e10b7b6	0.1413258
88	0xbd51b045	-0.051193494
89	0xbe3363ee	-0.17518589
90	0x3cf2cd33	0.029638862
91	0x3e4d4248	0.20044816
92	0x3c96a5f8	0.018389687
93	0xbd17a38e	-0.037021212
94	0x3e4932f7	0.19648348
95	0x3e485d97	0.19566952
96	0x3bb46fde	0.0055064997
97	0x3d08d7f6	0.03340908
98	0x3b617d22	0.003440686
99	0x3d27373b	0.040824156
100	0xbdce0d53	-0.10061135
101	0xbe17e580	-0.14833641
102	0xbe7f8b65	-0.24955519
103	0x3bfaa935	0.0076495656
104	0x3c5134a1	0.012768895
105	0x3deb42bf	0.1148734
106	0x3db8d8e9	0.09025747
107	0xbe432989	-0.19058813
108	0x3bf9d61c	0.007624401
109	0xbc0116d6	-0.00787898
110	0x3d5c06de	0.053717487
111	0xbd09e178	-0.03366229
112	0x3d110d1d	0.035412896
113	0x3d5fee8f	0.054670867
114	0x3d8fa324	0.070135385
115	0x3d805b96	0.06267469
116	0xbe15961e	-0.14608046
117	0x3cc365f4	0.023852326
118	0xbd176241	-0.036958937
119	0x3d89a926	0.06721716
120	0xbcb581be	-0.022156592
121	0xbd7041a1	-0.05865634
122	0x3d1d0333	0.03833313
123	0xbd0616d8	-0.03273663
124	0x3d653d2d	0.055966545
125	0x3d17f218	0.037096113
126	0x3d7db3cd	0.06193905
127	0xbd84d19c	-0.06485292
128	0x3d91428a	0.070927694
129	0xbd30bdc9	-0.043149743
130	0x3e283ccc	0.16429442
131	0x3e1f2b9a	0.15543976
132	0x3d9a8870	0.07545555
133	0xbe096ef1	-0.13421227
134	0xbd803677	-0.06260388
135	0x3d46f88a	0.04857687
136	0x3debcd36	0.1151375
137	0x3d087f63	0.03332461
138	0xbdef78c7	-0.11692958
139	0xbd0bacaa	-0.034100212
140	0x3d748f7f	0.05970716
141	0x3c1e427f	0.009659409
142	0xbdf0709d	-0.11740229
143	0xbe3d796a	-0.18503347
144	0xbe0a7fbe	-0.13525292
145	0x3e0771dd	0.13227029
146	0x3bf25b0b	0.007396107
147	0xbe11cfc6	-0.14239416
148	0xbe6fe142	-0.23425773
149	0xbe43da8e	-0.19126341
150	0xbe6e2fda	-0.23260441
151	0x3d9ed832	0.0775608
152	0x3d1180a5	0.035523076
153	0xbd88ad65	-0.066736974
154	0xbd99ee5e	-0.07516168
155	0xbc9cf90e	-0.019161727
156	0x3da45cbf	0.080255024
157	0xbe007482	-0.12544444
158	0xbe8804f9	-0.26566294
159	0xbec9ebec	-0.39437807
160	0xbd61fa9b	-0.055170637
161	0x3dcab563	0.09897878
162	0xbcf21e7a	-0.029555548
163	0xbe335643	-0.17513375
164	0x3b406ace	0.0029360536
165	0x3e5260ac	0.2054469
166	0xbd6f56df	-0.058432456
167	0xbdf0d6ed	-0.11759744
168	0xbeed6371	-0.4636493
169	0xbd797dbf	-0.060910936
170	0x3e82e922	0.2556849
171	0xbdb67b4c	-0.08910236
172	0xbdc43b64	-0.0958164
173	0xbcd74d20	-0.026281893
174	0xbccc5122	-0.02494103
175	0x3cf24946	0.029575955
176	0x3d9a7632	0.07542075
177	0x3c952c79	0.018209683
178	0xbddc580a	-0.107589796
179	0xbd01a27f	-0.03164911
180	0xbd30807e	-0.04309129
181	0xbcad8143	-0.0211798
182	0xbda2f0be	-0.07956074
183	0x3d796776	0.060889684
184	0xbcd43c03	-0.025907522
185	0x3c16ef99	0.009212398
186	0xbc49c7e6	-0.012315726
187	0xbd54831e	-0.051882856
188	0x3d0b7f20	0.034056783
189	0xbb921970	-0.004458599
190	0xbd4576ca	-0.04820899
191	0x3c2d4715	0.010576029
192	0x3d1b118e	0.03785854
193	0xbca3582d	-0.019939506
194	0xbc9dbd85	-0.019255409
195	0xbd3b85ad	-0.04578178
196	0xbd9c3bc4	-0.07628587
197	0xbd11bac7	-0.035578515
198	0x3e0c7b5d	0.13718934
199	0x3e56813c	0.20947737
200	0x3d23a00b	0.03994755
201	0xbd40e7ed	-0.04709618
202	0xbda4ffa5	-0.08056573
203	0x3ca6fe3b	0.020384898
204	0x3e7a4553	0.24440508
205	0x3e8cd16a	0.2750352
206	0x3d569357	0.052386608
207	0xbd3ff360	-0.04686296
208	0xbd953708	-0.07285887
209	0xbcb747da	-0.022373129
210	0x3d5a351d	0.05327331
211	0x3ca3cdf1	0.019995661
212	0x3cd4c6e3	0.025973743
213	0xbcf1ff98	-0.029540822
214	0xbd70ca39	-0.058786605
215	0x3dc5a334	0.09650269
216	0xbda21398	-0.079138935
217	0x3c31f44c	0.010861468
218	0x3d818d0f	0.06325733
219	0x3e527cc6	0.2055541
220	0x3d62bda9	0.055356655
221	0xbe1fff04	-0.15624624
222	0xbd58eb16	-0.05295857
223	0x3dfcc7fe	0.12342833
224	0x3e4e26e1	0.20132019
225	0xbbaa5c29	-0.0051989746
226	0xbdf091d0	-0.117465615
227	0xbd8df99c	-0.06932375
228	0xbd88377a	-0.06651206
229	0xbde63e26	-0.112423226
230	0x3d328a30	0.043588817
231	0x3e1d20b2	0.15344504
232	0xbe636e28	-0.2220999
233	0xbe556efb	-0.20843117
234	0x3d526e60	0.051374793
235	0xbcabcff2	-0.02097318
236	0x3dcbc21f	0.09949135
237	0xbc9b2b69	-0.018941598
238	0x3e6a510b	0.22882478
239	0x3e342741	0.17593099
240	0x3e29c131	0.16577603
241	0xbdeeafe8	-0.11654645
242	0xbd4e4066	-0.050354384
243	0x3d66e915	0.056374628
244	0x3df78059	0.12085027
245	0xbc0b6f2b	-0.008510391
246	0x3aaef2f3	0.0013347551
247	0x3d4485af	0.047979053
248	0x3d3517f6	0.044212304
249	0xbdcdf39d	-0.10056231
250	0x3da02572	0.07819642
251	0x3be17a0d	0.0068810047
252	0x3d5127d6	0.05106338
253	0xbd2c2f1a	-0.042037107
254	0xbdb447f5	-0.08802787
255	0xbe96100c	-0.29309118

conv2.bias f4 [64]
0	0xbdf626ad	-0.120190956
1	0x3e229d98	0.1588043
2	0xbe9949bb	-0.29939064
3	0x3c34c292	0.011032717
4	0xbd934ceb	-0.07192405
5	0x3d851c73	0.06499567
6	0x3da92524	0.08259037
7	0x3e1cb377	0.15302835
8	0x3db0436b	0.08606609
9	0x3c690fea	0.014224986
10	0xbd529db6	-0.051419936
11	0x3e0add68	0.13561022
12	0xbd1e1404	-0.038593307
13	0xbca4bd59	-0.02010982
14	0xbcd4e234	-0.025986768
15	0xbde468b7	-0.11152785
16	0x3e1fbd0e	0.15599462
17	0x3b893931	0.004187726
18	0x3dad076d	0.08448682
19	0x3dd240a3	0.10266235
20	0x3e30319a	0.17206421
21	0xbd5dfc0c	-0.05419545
22	0x3d131d3c	0.035916552
23	0xbddf894c	-0.10914859
24	0x3e01d93e	0.12680528
25	0xbdc1b51e	-0.094583735
26	0x3dc4e095	0.09613148
27	0x3e8d4300	0.2759018
28	0x3e2e5b94	0.17027122
29	0x3de933ce	0.11386834
30	0xbc9b038e	-0.018922593
31	0xbdf74637	-0.12073939
32	0x3d45feb3	0.048338603
33	0xb762669e	-1.3494542e-05
34	0x3e2360a3	0.15954833
35	0xb9fc8883	-0.00048166895
36	0x3e7298c5	0.2369109
37	0xbe2e340b	-0.1701204
38	0x3d8c7bf0	0.06859577
39	0xbe3993fa	-0.18122855
40	0xbdcbd488	-0.099526465
41	0x3dd30978	0.103045404
42	0x3e582ed3	0.21111612
43	0xbcd0ba50	-0.025479466
44	0x3e59f838	0.21286094
45	0xbda815e6	-0.08207302
46	0x3c20d545	0.009816472
47	0xbe913bd1	-0.2836595
48	0xbcbba59d	-0.022906119
49	0x3d0b2870	0.03397411
50	0xbe8ac6d0	-0.27104807
51	0xbc6d78b7	-0.014494113
52	0xbc18c96f	-0.009325369
53	0xbdb41fa9	-0.08795101
54	0xbe1c39df	-0.15256451
55	0xbdc1313f	-0.09433221
56	0xbdcff332	-0.10153808
57	0x3eac7d7b	0.33689484
58	0x3e0cf978	0.1376704
59	0x3c9619c1	0.018322827
60	0x3dad645b	0.08466407
61	0xbd14fa14	-0.036371306
62	0x3ea07c41	0.31344798
63	0xbd1da341	-0.03848577

conv3.weight f4 [128, 64, 3, 3]
0	0xbe509dd4	-0.20372707
1	0xbe51efff	-0.20501707
2	0xbc63553a	-0.0138753
3	0xbd4b7bc8	-0.049678594
4	0xbcd58b85	-0.026067505
5	0x3d830710	0.063978314
6	0x3d68002d	0.056640793
7	0x3df334ee	0.1187533
8	0x3d730b6c	0.059337065
9	0x3e21f90a	0.15817657
10	0x3d3c71fe	0.04600715
11	0x3d3f74db	0.0467423
12	0x3cc6839d	0.02423268
13	0xbcf68cd7	-0.030096455
14	0xbd35f3c1	-0.044421915
15	0xbecc945c	-0.3995694
16	0xbe966302	-0.29372412
17	0xbcf07557	-0.029352827
18	0xbd544d42	-0.05183149
19	0xbe232938	-0.15933692
20	0xbe5c44ed	-0.21510668
21	0xbd34c775	-0.04413553
22	0xbe7c3563	-0.2462974
23	0xbe495ba1	-0.1966386
24	0x3dd5b9af	0.10435807
25	0x3e2ba568	0.16762316
26	0x3e62be6f	0.22142957
27	0x3cadadce	0.02120104
28	0x3d021244	0.0317557
29	0xbdc446f9	-0.095838495
30	0x3e438d92	0.19096974
31	0x3db6af98	0.089202106
32	0x3d647d0b	0.055783313
33	0xbc8f2631	-0.017474266
34	0x3d1123e9	0.035434637
35	0xbb6642cb	-0.0035135027
36	0xbdb528eb	-0.08845695
37	0x3d896976	0.06709568
38	0xbd7be433	-0.061496925
39	0x3cd25a68	0.025677875
40	0xbd3156df	-0.043295737
41	0x3c8e97bc	0.017406337
42	0x3d09ca05	0.033639926
43	0x3d90205f	0.07037424
44	0x3e60b044	0.2194224
45	0x3ca0fb3a	0.019651044
46	0x3d95b729	0.07310326
47	0xbdab61a5	-0.083682336
48	0x3deba303	0.115057014
49	0xbdba97df	-0.09110998
50	0xbe58402d	-0.21118231
51	0xbdf38c0e	-0.11891948
52	0xbe09bb34	-0.13450319
53	0x3def44eb	0.11683067
54	0x3d90ffe6	0.07080059
55	0x3d6116f2	0.054953523
56	0x3ab22d2b	0.0013593783
57	0x3e193453	0.14961366
58	0x3cc31d15	0.023817578
59	0xbdf1faa8	-0.11815387
60	0x3dc667cc	0.096877664
61	0xbc0f24b5	-0.008736779
62	0x3c89d08c	0.016823076
63	0x3c3d70f6	0.0115625765
64	0x3d90aa2e	0.07063709
65	0x3e6b3bfa	0.22972098
66	0x3dee7ff6	0.116455
67	0x3e8d70b9	0.27625063
68	0x3e660149	0.22461428
69	0x3de1cbfa	0.110252336
70	0x3e12a9da	0.14322606
71	0x3dbbf603	0.091777824
72	0xbcf6f051	-0.030143889
73	0x3e53a274	0.2066744
74	0x3d6d1993	0.057885718
75	0x3de043db	0.109504424
76	0xbd7a7371	-0.06114525
77	0xbd8edccd	-0.06975708
78	0xbe793eae	-0.24340317
79	0xbed8fec6	-0.42381877
80	0xbe3953ea	-0.18098417
81	0x3d006550	0.03134662
82	0x3e467de5	0.19383962
83	0x3dcce54f	0.10004675
84	0x3d1ce712	0.038306303
85	0x3cf82831	0.030292602
86	0x3dc5c1ce	0.09656106
87	0xbe3890dd	-0.18024011
88	0xbe4239af	-0.18967317
89	0x3d03b916	0.032158934
90	0xbe9cb439	-0.3060625
91	0xbe744a51	-0.23856474
92	0xbd472ff9	-0.048629735
93	0xbe141db9	-0.14464463
94	0xbc849c45	-0.016187796
95	0xbdf30613	-0.11866393
96	0xbe3b32f8	-0.18281162
97	0xbe6b800e	-0.22998068
98	0xbd82008a	-0.06347759
99	0x3cc04b17	0.023473306
100	0xbdd817c0	-0.10551405
101	0xbdbd35b9	-0.092387624
102	0xbe05f226	-0.13080654
103	0xbcbf7c78	-0.023374781
104	0xbcfcf4af	-0.030878393
105	0xbeadf941	-0.33979228
106	0x3d9ca496	0.0764858
107	0xbc8e2a50	-0.01735416
108	0xbb9d4220	-0.0047991425
109	0xbbc778c5	-0.006087395
110	0xbbb2fab0	-0.005462013
111	0xbb972a16	-0.0046131713
112	0xbba39072	-0.0049915845
113	0xbb259120	-0.0025263503
114	0xbad65315	-0.0016351665
115	0xba038a48	-0.0005017859
116	0x3b179339	0.0023128523
117	0x3056b837	7.811453e-10
118	0x312b9237	2.4966889e-09
119	0x318c451e	4.082394e-09
120	0x2f777dba	2.2509186e-10
121	0x30d8f419	1.5785445e-09
122	0x31416b79	2.8146288e-09
123	0xb01e6c7b	-5.7634225e-10
124	0xb0d8f20f	-1.5784866e-09
125	0xb0542190	-7.7172846e-10
126	0x3928306c	0.00016039767
127	0x39a9f6f2	0.0003241818
128	0x39acb26a	0.00032939325
129	0x39930faf	0.0002804971
130	0x39aef00b	0.00033366712
131	0x39b13ada	0.0003380392
132	0x39cfa652	0.00039606035
133	0x39ba60c4	0.0003554878
134	0x39d62a52	0.00040848792
135	0xbe9bea47	-0.30452177
136	0xbe25d8c0	-0.16195965
137	0x3db163af	0.08661591
138	0xbe6d0aaf	-0.23148607
139	0x3cf974ff	0.030451296
140	0x3e14d57a	0.1453456
141	0x3e20ac7b	0.15690796
142	0x3e7a1c84	0.2442494
143	0x3e8d8de8	0.27647328
144	0x3df43b8b	0.119254194
145	0xbbf63b43	-0.0075143888
146	0x3da72002	0.08160402
147	0x3dd19058	0.102326095
148	0x3e1c7952	0.15280655
149	0x3e13d0ca	0.14435115
150	0xbdd12e69	-0.1021393
151	0xbde3093c	-0.11085746
152	0x3c2b224d	0.01044519
153	0x3df8f4f2	0.121560946
154	0x3e373647	0.17891799
155	0x3dfd7768	0.123762906
156	0xbcf39eb0	-0.029738754
157	0xbdbaed59	-0.09127302
158	0xb9f92411	-0.00047519853
159	0xbe18999a	-0.14902344
160	0xbe6b302b	-0.22967593
161	0xbe2706cf	-0.16311191
162	0x3e841a7f	0.25801465
163	0x3e6bbc91	0.23021151
164	0x3e0b9a6c	0.13633126
165	0x3e70874b	0.2348911
166	0x3df8172f	0.12113797
167	0x3d80a32f	0.06281125
168	0xbc9dd930	-0.019268602
169	0xbd457836	-0.048210345
170	0xbc912dfa	-0.017722119
171	0x39a3411e	0.000311383
172	0x3e0064fb	0.12538521
173	0x3e70b6d8	0.2350725
174	0x3e3b60fd	0.18298717
175	0x3e267ae6	0.1625782
176	0x3e300ab8	0.17191589
177	0x3d8e51ab	0.06949171
178	0xbbd16fe4	-0.006391512
179	0xbd9f333e	-0.077734455
180	0x3d5c88b0	0.053841293
181	0xbd818476	-0.06324093
182	0xbd99950e	-0.07499133
183	0x3db5c879	0.08876128
184	0x3dedbcd3	0.11608281
185	0xbbf4f0d3	-0.0074749975
186	0x3d41d40c	0.047321364
187	0xbd93cef8	-0.072172105
188	0xbe26455f	-0.162374
189	0xbc83f6c8	-0.016108885
190	0xbd280273	-0.04101796
191	0xbe944bdf	-0.28964135
192	0xbd5f8b4a	-0.054576196
193	0xbe5c01d7	-0.21485077
194	0xbe98b984	-0.29829037
195	0xbd9415b4	-0.07230702
196	0xbe682ef7	-0.22674166
197	0xbe05f7bf	-0.13082789
198	0xbd15200c	-0.036407515
199	0x3e0f9d94	0.14024955
200	0xbd164b46	-0.03669288
201	0x3e0e4ee6	0.13897285
202	0x3dadea9d	0.084920146
203	0x3d34e443	0.044163
204	0xbd95541d	-0.07291434
205	0xbdafa25d	-0.0857589
206	0xbd1e283e	-0.038612597
207	0x3ddb2dc5	0.10702089
208	0x3e03a6c1	0.1285658
209	0x3e1ca732	0.15298155
210	0x3e25ef66	0.16204605
211	0x3ddffa2b	0.10936388
212	0x3d82963a	0.0637631
213	0xbaadd96d	-0.001326365
214	0x3d18e35b	0.037326198
215	0xbdc17212	-0.09445585
216	0xbc431186	-0.011906033
217	0xbdf7af35	-0.12093965
218	0xbdb91d68	-0.09038812
219	0x3d80aa23	0.06282451
220	0xbdd0f22d	-0.10202441
221	0x3d1f6b2e	0.038920574
222	0x3cfdbd3d	0.030974025
223	0xbe589039	-0.21148767
224	0xbbf5f956	-0.00750653
225	0xbea5bdda	-0.32371408
226	0xbe02713d	-0.1273851
227	0x3c8cb175	0.017174462
228	0xbe38e2ff	-0.18055342
229	0xbe12acc5	-0.14323719
230	0x3e3fef98	0.18743742
231	0xbd4094c7	-0.047016885
232	0xbc81af67	-0.015830709
233	0x3c0d75b2	0.008634018
234	0xbe0e400c	-0.1389162
235	0x3d9b873d	0.07594154
236	0xbdc31d68	-0.09527093
237	0xbd90e5ac	-0.070750564
238	0xbdc9b5ae	-0.09849106
239	0xbe0284b7	-0.12745939
240	0xbda3d292	-0.079991475
241	0x3cd787fa	0.026309956
242	0xbe0c8e27	-0.13726102
243	0x3e4c7e54	0.19970065
244	0x3dbd3123	0.09237888
245	0xbd28d34c	-0.041217133
246	0xbc7b4c91	-0.015338079
247	0xbd82caf1	-0.06386364
248	0x3d805caa	0.06267674
249	0xbf00e850	-0.5035448
250	0xbf095849	-0.5365034
251	0xbdfdeca6	-0.12398653
252	0x3e16c9ed	0.14725466
253	0xbd2c72d0	-0.04210168
254	0xbd838252	-0.06421341
255	0x3dd57dff	0.104244225

conv3.bias f4 [128]
0	0x3d8eed80	0.06978893
1	0x3e397de5	0.18114431
2	0xbc992c6d	-0.018697942
3	0xbcc1dfbc	-0.023666255
4	0x3e2c7c2c	0.16844243
5	0x3d5563e0	0.0520972
6	0x3e031481	0.1280079
7	0x3b601093	0.0034189567
8	0xbcf166e4	-0.029468007
9	0xbb60130f	-0.0034191047
10	0xbcbaedc3	-0.022818452
11	0xbc98440d	-0.018587137
12	0x3e014f2d	0.1262786
13	0xb6fa2244	-7.4545696e-06
14	0x3e053628	0.1300894
15	0x3e25c7b2	0.16189459
16	0xaf06918c	-1.2238938e-10
17	0x3ca8e9e6	0.020619344
18	0xb4912626	-2.703611e-07
19	0x3e9757b0	0.29559088
20	0x3e59c74b	0.2126743
21	0x3eaee6e5	0.34160534
22	0xbcc6a6a3	-0.02424938
23	0x3e76ea98	0.24112928
24	0xbcad62e2	-0.021165315
25	0x3e4f9b54	0.20274097
26	0x3da3505c	0.07974312
27	0x3de570e2	0.11203171
28	0xba6824f9	-0.0008855607
29	0xbcbdf1c8	-0.02318658
30	0xb675cc70	-3.6626843e-06
31	0xb86a6f1c	-5.5893426e-05
32	0x3cf97d6c	0.030455314
33	0x3d91753c	0.07102439
34	0xb794f526	-1.7757131e-05
35	0xbd0f23c5	-0.03494622
36	0xbd1d99a1	-0.03847659
37	0x3e092bde	0.1339564
38	0xbdfbce88	-0.12295252
39	0xbd391760	-0.045188308
40	0xbb69bfc6	-0.0035667284
41	0x3d05c871	0.03266186
42	0x3e8e6738	0.27813125
43	0x3ddb43ab	0.10706266
44	0xbd43ccbe	-0.04780268
45	0x3e2786c8	0.16360009
46	0xbba3b212	-0.004995593
47	0xb9ef1145	-0.000455985
48	0x3e1f78e0	0.15573454
49	0x3d9d6f92	0.07687296
50	0x3e141937	0.14462744
51	0x3e4e642e	0.20155403
52	0xbd969757	-0.073530845
53	0xa7c9b39d	-5.5983444e-15
54	0x3e73dcb4	0.2381466
55	0x3eac59d3	0.3366228
56	0xb91341f1	-0.00014043578
57	0xbc8a2a6a	-0.016865928
58	0x3d154372	0.036441274
59	0x3e632454	0.22181827
60	0xbb78fe58	-0.0037993398
61	0xbd1c39be	-0.038141005
62	0x3de41e5b	0.11138602
63	0x3dd564cc	0.10419616
64	0x3d329ae8	0.04360476
65	0x3e6f0152	0.23340347
66	0xbde79cdf	-0.11309218
67	0xb137fa67	-2.6772342e-09
68	0xbe02e240	-0.1278162
69	0x9ad9318d	-8.982915e-23
70	0x3ead3b8d	0.33834496
71	0xbc377a32	-0.011198567
72	0xbdc9f34a	-0.09860857
73	0xb782dd7b	-1.5600343e-05
74	0xb9e77fec	-0.00044155063
75	0x3e70201b	0.23449747
76	0xbdd01213	-0.101596974
77	0xbdff1e01	-0.12456895
78	0x3dcb7b29	0.099356
79	0xbc8de33f	-0.017320273
80	0xbc056fae	-0.008144302
81	0x9ffa4d67	-1.0600717e-19
82	0xbc69aab3	-0.014261889
83	0xbd011116	-0.031510435
84	0xbcbf2bd7	-0.023336334
85	0xbd0226da	-0.031775333
86	0x3e5853bb	0.2112569
87	0xbd0bb655	-0.034109432
88	0x3d886805	0.06660465
89	0xbdb58f22	-0.08865191
90	0xbd133f18	-0.035948843
91	0xb1cc81b4	-5.951927e-09
92	0xb6ad33d2	-5.1618345e-06
93	0x3d001c84	0.031277195
94	0xbd2427d3	-0.04007704
95	0x3d59f6b9	0.05321381
96	0xbc799bec	-0.015234929
97	0xbb23bda7	-0.0024984868
98	0x3e0a213f	0.13489245
99	0xad4cf65a	-1.16507585e-11
100	0xbdb9c78f	-0.09071266
101	0xb2eda9d7	-2.7667665e-08
102	0x3e807b95	0.25094286
103	0xa7b2d765	-4.9638456e-15
104	0x3eb5c266	0.35499877
105	0x3dd8ad08	0.10579878
106	0x3ea6ce27	0.32579157
107	0x3e2652fa	0.1624259
108	0x3e0c0595	0.13674004
109	0x3ce77fda	0.028259207
110	0x3d9f874e	0.07789479
111	0xbcc460ef	-0.023972003
112	0xbd33e6f1	-0.043921415
113	0xbc02ef52	-0.007991629
114	0xbcff37b0	-0.031154484
115	0x3e919ce0	0.2844
116	0x3cb30481	0.021852734
117	0xbda36c31	-0.0797962
118	0x3dd11fb1	0.10211123
119	0x3e072654	0.13198215
120	0x3d28c78b	0.041205924
121	0xbd0a2bef	-0.033733305
122	0x3ad17bab	0.001598229
123	0x95b56591	-7.326556e-26
124	0xba34d5c2	-0.00068983075
125	0xbbee7a53	-0.007277766
126	0x3cd95e26	0.026534151
127	0x3c606498	0.013695858

fc.weight f4 [10, 1152]
0	0x3e3c658c	0.18398112
1	0x3e3c79a8	0.18405783
2	0x3e558b1e	0.2085385
3	0x3e0d5e48	0.13805497
4	0x3e2323b7	0.15931593
5	0x3de34751	0.11097587
6	0x3d8cbc86	0.068718955
7	0x3d0915bf	0.033468004
8	0xbdcc9f08	-0.0999127
9	0xbc1237c5	-0.008924429
10	0x3d2492c5	0.040179033
11	0x3d95863e	0.07300995
12	0xbde0c79c	-0.109755725
13	0xbd081498	-0.033222765
14	0x3d2e948c	0.042622134
15	0xbe269fe1	-0.16271926
16	0xbd9defd2	-0.07711758
17	0x3b380746	0.0028080507
18	0x3d1ebcb3	0.038754176
19	0x3d0542c0	0.03253436
20	0x3c832947	0.016010894
21	0x3ca5ebb2	0.02025399
22	0x3c9043e7	0.017610503
23	0x3c4c0eb7	0.01245468
24	0x3c23c804	0.009996418
25	0x3b8437bb	0.004034964
26	0x3b94b97f	0.0045387144
27	0x3d63d441	0.055622343
28	0x3d565820	0.052330136
29	0x3d4bc4e2	0.04974831
30	0x3d3bb903	0.045830738
31	0x3d3c3362	0.04594744
32	0x3d1ea072	0.03872723
33	0x3d707e7d	0.05871438
34	0x3d4771ca	0.048692502
35	0x3d2d24dc	0.04227148
36	0xbdf87ef0	-0.121335864
37	0x3d862701	0.06550408
38	0xbd280536	-0.041020595
39	0xbf07e6f1	-0.53086764
40	0xbead8dac	-0.3389715
41	0xbe929879	-0.28631952
42	0xbf002da9	-0.5006967
43	0xbeb53d7a	-0.35398465
44	0xbe29b8bc	-0.16574377
45	0xbeb389b9	-0.35066012
46	0xbefac0ef	-0.48975322
47	0xbec410a9	-0.3829396
48	0xbebfd726	-0.37468833
49	0xbe3ed640	-0.18636417
50	0xbd31e3a9	-0.043430004
51	0xbe7cbfb5	-0.24682505
52	0x3d4cdac0	0.050013304
53	0x3dbfb027	0.0935977
54	0xbda81cd2	-0.08208622
55	0xbe49f9ab	-0.19724147
56	0xbc838c0f	-0.016057996
57	0xbe4288e2	-0.18997529
58	0xbde908ed	-0.113786556
59	0xbd022333	-0.03177185
60	0xbd1ac019	-0.037780855
61	0xbc0c5141	-0.008564294
62	0xbc6d4b52	-0.01448329
63	0xbe8591fc	-0.2608794
64	0xbe48c4fd	-0.19606395
65	0xbe99a43c	-0.30008113
66	0xbd7af3a4	-0.06126751
67	0xbdcd1909	-0.10014541
68	0xbe1b27ce	-0.15151903
69	0x3c65282b	0.013986628
70	0xbc1c6a26	-0.009546792
71	0xbd821e9a	-0.06353493
72	0x3c8b1a1c	0.016980223
73	0x3c980351	0.018556269
74	0x3cb3f9e4	0.021969743
75	0x3c927915	0.017880002
76	0x3c87f9e5	0.016598651
77	0x3c7ee128	0.015556611
78	0x3c8fcd23	0.017553871
79	0x3c95bbd1	0.018278034
80	0x3c7e8533	0.015534687
81	0xbbaeb9c5	-0.005332204
82	0xbb9a5c03	-0.0047106757
83	0xbb83abd8	-0.004018288
84	0xbb6402b4	-0.003479165
85	0xbb26568e	-0.002538118
86	0xbae8a666	-0.0017749786
87	0xbb39171b	-0.0028242532
88	0xbb0415bc	-0.0020154556
89	0xbaa91778	-0.0012900671
90	0xbd0b495a	-0.0340055
91	0xbd0a0fbb	-0.033706408
92	0xbd00e536	-0.031468593
93	0xbcfdc5ba	-0.030978072
94	0xbd00eabb	-0.031473856
95	0xbcec4179	-0.028839814
96	0xbcd69123	-0.026192253
97	0xbceb9026	-0.028755259
98	0xbccfce97	-0.025367064
99	0xbc93a744	-0.018024094
100	0xbc4e4cc2	-0.012591543
101	0xbc3dc40e	-0.011582388
102	0xbcbb4e67	-0.022864534
103	0xbcb243c6	-0.021760833
104	0xbca87e06	-0.020567905
105	0xbbb7f5ef	-0.0056140344
106	0xbc945f9d	-0.018111998
107	0xbcad4dfc	-0.02115535
108	0x3e03bd7b	0.1286525
109	0x3d9055ab	0.0704759
110	0x3d6023be	0.054721586
111	0xbdc2fe6b	-0.095211826
112	0xbd2b5d46	-0.041837
113	0xbc872af9	-0.016499983
114	0xbddb7c16	-0.10717027
115	0xbdb996e5	-0.09061984
116	0xbd5cce11	-0.053907458
117	0xb52c1dc8	-6.411833e-07
118	0xb4f3a1bf	-4.5379963e-07
119	0xb271fb79	-1.40852245e-08
120	0xb59b8ea0	-1.1589909e-06
121	0xb56ccdf0	-8.821653e-07
122	0xb3c41742	-9.131192e-08
123	0xb4d22b6a	-3.9147136e-07
124	0xb4afe0ea	-3.2759937e-07
125	0xb29e7a81	-1.844933e-08
126	0x3e12713b	0.14301006
127	0x3d8b1e38	0.06792873
128	0xbc9cde07	-0.01914884
129	0x3dc17f8b	0.09448155
130	0x3c45418e	0.012039555
131	0xbd81a2da	-0.063298896
132	0x3e194600	0.14968109
133	0x3dffbdb4	0.12487355
134	0x3d37b111	0.044846598
135	0xbd7205bf	-0.05908751
136	0x3db096e8	0.08622533
137	0x3e9fe22c	0.31227243
138	0xbdcb26aa	-0.09919484
139	0x3c516830	0.012781188
140	0x3e310bc0	0.17289639
141	0xbdd0355b	-0.10166427
142	0xbdbaaece	-0.091153726
143	0xbd89db98	-0.06731337
144	0xb8331eae	-4.27055e-05
145	0xb8543f2f	-5.0603583e-05
146	0xb7bcccff	-2.2506805e-05
147	0xb8bbc84a	-8.9541616e-05
148	0xb8a8bdbc	-8.046205e-05
149	0xb7ab4bc2	-2.0420066e-05
150	0xb817afb1	-3.616483e-05
151	0xb7ab4c87	-2.0420424e-05
152	0xb68b6807	-4.154633e-06
153	0x3dab43a6	0.08362512
154	0x3c80d815	0.015728036
155	0x3d0d09f0	0.034433305
156	0xbc5cd2c9	-0.0134779895
157	0x3a9f2167	0.0012140692
158	0xbd3f1cc1	-0.04665828
159	0x3e21387c	0.15744203
160	0x3d1c7130	0.03819388
161	0x3dc7b8a0	0.09752011
162	0xb60a87fd	-2.0642758e-06
163	0xb557accb	-8.034519e-07
164	0xb1a50655	-4.802852e-09
165	0xb60735c6	-2.0147868e-06
166	0xb56182b0	-8.4009207e-07
167	0xb2ac9a0b	-2.0093486e-08
168	0xb48523e3	-2.4799292e-07
169	0xb34f423e	-4.825619e-08
170	0xb082b5fc	-9.510468e-10
171	0xbe43b21e	-0.19110915
172	0xbb494cd0	-0.003071595
173	0x3d4fe943	0.050759565
174	0xbe4f3a13	-0.20236997
175	0xbd0ac534	-0.033879474
176	0x3deaf16f	0.11471831
177	0xbdb26097	-0.08709829
178	0xbc480f1c	-0.012210634
179	0x3dcfe120	0.10150361
180	0x3e394caa	0.18095651
181	0x3d5aece7	0.053448584
182	0xbd1db534	-0.038502887
183	0x3e8e47d6	0.2778918
184	0xbdc8c334	-0.09802857
185	0xbe0a1fbf	-0.13488673
186	0x3e44e15b	0.19226591
187	0xbd7d8ddb	-0.061902862
188	0xbdb9cf32	-0.090727225
189	0xbebdc864	-0.37066948
190	0xbe086e4c	-0.13323325
191	0xbe394678	-0.18093288
192	0xbe8bb8cd	-0.2728943
193	0xbe4fb400	-0.20283508
194	0xbe1b134e	-0.15144083
195	0xbe781611	-0.24227168
196	0xbe4b151d	-0.19832273
197	0xbdf48436	-0.1193928
198	0x3cad5a6e	0.021161284
199	0x3cb0de88	0.021590486
200	0x3cab38e9	0.02090116
201	0x3cdafb4e	0.02673116
202	0x3cdd5574	0.027018286
203	0x3ccdbcf7	0.02511452
204	0x3cf662d3	0.03007642
205	0x3ce37751	0.027766855
206	0x3cd0078a	0.02539422
207	0xbee4bc67	-0.4467499
208	0xbcd2de94	-0.0257409
209	0x3cc970fc	0.024590008
210	0xbecb4cf8	-0.3970716
211	0xbe802c1d	-0.25033656
212	0xbbcfe465	-0.0063443654
213	0xbeb742b2	-0.35793072
214	0xbdf31ee7	-0.118711285
215	0x3d145ce3	0.036221396
216	0xbca6a426	-0.020341944
217	0xbc9b2918	-0.018940493
218	0xbcb3c42d	-0.02194413
219	0xbcdaf8fb	-0.026730051
220	0xbcdfc687	-0.027316345
221	0xbcb84203	-0.022492414
222	0xbcd9ac2d	-0.026571358
223	0xbce24e0c	-0.027625106
224	0xbcc308c3	-0.023807889
225	0xbe0470c1	-0.12933637
226	0xbe77c033	-0.24194412
227	0xbd8cf3b8	-0.06882423
228	0x3e319d3d	0.17345138
229	0x3e5a5d18	0.21324575
230	0xbd5103e9	-0.05102912
231	0x3e65ff64	0.22460705
232	0x3ea678eb	0.32514128
233	0x3d7206ed	0.059088636
234	0x3e50d675	0.20394309
235	0x3d53e089	0.051727805
236	0x3d821a5f	0.06352686
237	0x3e11a6d9	0.14223804
238	0x3d87104e	0.06594907
239	0x3d818aa2	0.0632527
240	0x3e01dd40	0.12682056
241	0x3e492e18	0.1964649
242	0x3dde7b72	0.10863389
243	0x3eda0b7a	0.4258688
244	0x3db9874b	0.09059008
245	0xbd56c1b5	-0.052430827
246	0x3eae4f34	0.34044802
247	0x3d41e869	0.047340784
248	0xbd95d5e3	-0.07316186
249	0x3e71416c	0.23560113
250	0x3da28136	0.07934801
251	0x3cfc0a85	0.030766735
252	0x3c08c6a7	0.008348144
253	0x3bcbd0b1	0.0062199463
254	0x3bbf2b56	0.0058340235
255	0x3c13c588	0.009019263

fc.bias f4 [10]
0	0x3d9e7b14	0.07738319
1	0xbe2c4ebd	-0.16826911
2	0xbe384595	-0.17995293
3	0x3d4c9387	0.04994538
4	0x3e82085c	0.25397003
5	0xbcbc7b0e	-0.023007896
6	0x3be893bd	0.00709769
7	0xbe35cc3c	-0.1775369
8	0x3dacbadf	0.0843408
9	0xbd6b132e	-0.057391338
