models/MNIST/cnn_num-modules=2_seed=033/099.pth (torch, 58727 bytes, 8 tensors)

conv1.weight f4 [32, 1, 3, 3]
1.0017686 0.26990765 -0.52510756 0.5907637 0.23863752 0.57018626 -0.010176155 0.037546054
0.64871466 0.29158428 0.45777038 0.81551355 -0.35298505 -0.020006679 0.06162591 -0.59345835
-0.6981777 -0.027753137 1.0219209e-38 8.629115e-39 1.0588252e-38 8.715052e-39 7.551476e-39 1.1023352e-38
8.30151e-39 1.0435807e-38 1.0314322e-38 0.66754884 0.7586253 0.50035626 0.3895745 0.56927097
0.62759864 0.061838362 0.435738 0.6015528 0.4566936 -0.32755682 -0.94162583 0.71937096
0.027953237 -0.90768474 0.3234523 -0.6836465 -0.60704124 0.34973508 0.21044385 0.9258937
0.42774707 0.3562522 0.418374 0.33530203 -0.33223563 -0.19597647 0.47476593 0.7636758
0.14827865 0.485023 -0.1671089 -0.7665885 -0.4781353 -0.769191 -0.48887068 0.55923414
0.31891388 0.6314421 0.40560198 -0.045639664 0.08300169 -0.18519852 -0.7128118 -0.7170193
-0.6632377 -0.7452399 0.07929651 -0.39799106 0.0747996 0.90895796 0.046951376 0.68876976
0.52846557 0.42684457 -0.09511743 0.29235104 0.78083354 -0.06201998 -0.43876383 0.44465497
0.46467912 0.12695506 -0.71587 0.47616795 0.39893907 0.022652576 0.53472173 0.003886238
-0.06875343 0.37200603 0.07014572 0.47493294 0.05955464 -0.09476258 0.38371253 -0.64293647
0.00978005 0.040379405 -0.7702995 0.4764715 -0.2807736 -0.35491484 -0.14103787 0.6019965
0.4413214 0.45947567 -0.16937685 -0.3197454 -0.15267165 0.4619569 0.17007934 0.18420477
0.16386925 0.0334731 0.56745976 0.2971395 0.008826729 0.23356397 0.9737693 -0.20671602
-0.7264795 0.4794453 1.0192108 0.11352474 -0.48252457 0.61348796 0.9152711 0.0039193183
-0.48345628 0.002443423 -0.018091599 0.191616 0.3636262 0.8079213 0.79979354 1.0103011
0.12556922 0.05261928 0.28947133 0.21371463 0.6848187 0.51631075 0.46624187 0.44351482
-0.40483716 -0.054808464 0.25876302 1.0520345 -0.5137967 -0.41787642 1.0002233 0.15998122
-0.43182287 0.11529623 0.34661078 0.19580269 0.51067 -0.44049376 0.5977405 0.22262181
-1.1334502 -0.87190896 -1.2025658 -0.13069308 0.3884198 0.52254266 0.050258204 0.36542448
0.21303168 0.4085222 0.3163344 0.5786173 -0.7656872 0.20487864 0.61564416 0.044400305
0.31809253 -0.018823642 0.49764916 0.06257156 -0.7006788 0.3572232 0.17803 -0.069306485
0.47720715 0.41453034 -0.3786254 0.30762076 0.1549884 0.37345082 0.80866694 0.3460487
0.2972642 0.13537864 0.13130972 0.1790787 0.4487091 0.25031698 0.4199155 0.91055375
0.53812087 0.11975775 0.9412831 0.11693071 -0.40926078 -0.17553443 -0.90072906 -0.78906935
0.63782597 1.0425602 0.6729135 -0.27755928 -0.09239618 0.20390993 -0.26570278 0.33042428
0.1652826 -0.0027345694 0.6680819 0.2907891 0.6596479 0.2596475 -0.2836539 0.46220258
-0.29290313 -0.75002754 -0.028081046 -0.101173215 0.1022208 0.6191024 -0.34777522 -0.69632363
0.6191791 0.12933797 -0.30550572 0.2654307 0.15471546 -1.0158727 0.41405874 0.4231876
-0.5185768 0.056257643 0.23576158 -0.014672117 0.3431396 0.5218216 0.46151313 -0.3590366
00000000: f439 803f 5631 8a3e 736d 06bf 4a3c 173f
00000010: 655d 743e baf7 113f e3b9 26bc e4c9 193d
00000020: 2a12 263f 894a 953e e160 ea3e 7fc5 503f
00000030: 75ba b4be 0ce5 a3bc 736b 7c3d e3ec 17bf
00000040: c6bb 32bf 8c5a e3bc ff46 6f00 76f6 5d00
00000050: bd4b 7300 05e6 5e00 713a 5200 9f08 7800
00000060: 3b65 5a00 c9a2 7100 2250 7000 7be4 2a3f
00000070: 4535 423f 5917 003f 4f76 c73e bebb 113f
00000080: 4eaa 203f 394a 7d3d 0d19 df3e 5dff 193f
00000090: bed3 e93e 87b5 a7be 640e 71bf b228 383f
000000a0: 30fe e43c 075e 68bf 8a9b a53e 7503 2fbf
000000b0: 0e67 1bbf 7a10 b33e 987e 573e 5f07 6d3f
000000c0: aa01 db3e b066 b63e 1e35 d63e b5ac ab3e
000000d0: ca1a aabe 0eae 48be 8514 f33e 4280 433f
000000e0: 5cd6 173e ef54 f83e 981e 2bbe 253f 44bf
000000f0: 26ce f4be b4e9 44bf 424d fabe f829 0f3f
00000100: ae48 a33e 31a6 213f 10ab cf3e a8f0 3abd
00000110: cafc a93d aea4 3dbe d67a 36bf 948e 37bf
00000120: f2c9 29bf 0bc8 3ebf 3566 a23d 7cc5 cbbe
00000130: 8830 993d 78b1 683f 1650 403d 3753 303f
00000140: 8549 073f 5f8b da3e edcc c2bd 09af 953e
00000150: b5e4 473f aa08 7ebd a7a5 e0be d1a9 e33e
00000160: 6cea ed3e 8200 023e 4243 37bf 49cc f33e
00000170: be41 cc3e e591 b93c 86e3 083f 41b0 7e3b
00000180: 99ce 8cbd 9377 be3e 8fa8 8f3d 692a f33e
00000190: 91ef 733d e212 c2bd f875 c43e 7c97 24bf
000001a0: 813c 203c e064 253d 5932 45bf 13f4 f33e
000001b0: 8fc1 8fbe 66b7 b5be 3b6c 10be 711c 1a3f
000001c0: e1f4 e13e 6540 eb3e 2071 2dbe abb5 a3be
000001d0: f555 1cbe 9d85 ec3e 4729 2e3e 2da0 3c3e
000001e0: 57cd 273e 171b 093d 0b45 113f ab22 983e
000001f0: fc9d 103c 652b 6f3e f248 793f 5dad 53be
00000200: 8ffa 39bf db79 f53e 8075 823f a97f e83d
00000210: 760d f7be 8c0d 1d3f 354f 6a3f a06d 803b
00000220: 9587 f7be d621 203b d534 94bc fc36 443e
00000230: 372d ba3e eed3 4e3f 45bf 4c3f 8c51 813f
00000240: 3895 003e 5087 573d 9635 943e 02d8 5a3e
00000250: 4750 2f3f f12c 043f 41b7 ee3e 6014 e33e
00000260: d146 cfbe d77e 60bd 967c 843e 11a9 863f
00000270: 2e88 03bf e6f3 d5be 5107 803f 1ed2 233e
00000280: e317 ddbe 6e20 ec3d f876 b13e 8080 483e
00000290: 45bb 023f 6688 e1be 8505 193f f9f6 633e
000002a0: e514 91bf 6d35 5fbf aded 99bf 68d4 05be
000002b0: f6de c63e 5bc5 053f 8cdb 4d3d eb18 bb3e
000002c0: fa24 5a3e d229 d13e 95f6 a13e 4320 143f
000002d0: 1404 44bf b5cb 513e db9a 1d3f 18dd 353d
000002e0: 06dd a23e 0a34 9abc dfcb fe3e 8525 803d
000002f0: b05f 33bf f6e5 b63e 7f4d 363e 8ff0 8dbd
00000300: 7f54 f43e 523d d43e 30db c1be 7880 9d3e
00000310: 47b5 1e3e f234 bf3e cc04 4f3f 4c2d b13e
00000320: 0333 983e b3a0 0a3e 0e76 063e 6860 373e
00000330: 33bd e53e 8c29 803e 2aff d63e 0d1a 693f
00000340: 4ac2 093f 8d43 f53d eef7 703f 5e79 ef3d
00000350: a18a d1be 4cbf 33be 2e96 66bf 7300 4abf
00000360: 9048 233f 9d72 853f 0f44 2c3f 401c 8ebe
00000370: 353a bdbd c4cd 503e 320a 88be 5f2d a93e
00000380: d83f 293e 7636 33bb 6a07 2b3f 4fe2 943e
00000390: afde 283f 84f0 843e 153b 91be d1a5 ec3e
000003a0: 66f7 95be ce01 40bf 390a e6bc e733 cfbd
000003b0: 2459 d13d 7f7d 1e3f 980f b2be 4442 32bf
000003c0: 8682 1e3f 2c71 043e 3f6b 9cbe 88e6 873e
000003d0: bb6d 1e3e 1e08 82bf 82ff d33e 0cac d83e
000003e0: 73c1 04bf 6a6e 663d 7c6b 713e 5263 70bc
000003f0: feaf af3e 1a96 053f 734b ec3e a5d3 b7be

conv1.bias f4 [32]
-0.019763537 0.056149997 -8.290856e-29 0.1889218 0.31016088 0.059153467 0.12474463 0.1307537
-0.28109995 -0.10066724 -0.0028457267 -0.019652747 -0.1256611 -0.081537805 -0.012124056 -0.005233908
0.007240595 -0.0064210184 -0.05890251 -0.0011263536 -0.23577274 -0.0043534786 -0.0021047096 -0.014906805
0.013390391 -0.11467111 -0.030525966 0.010834597 0.114158414 6.152518e-05 0.10609955 -0.0125189135
00000000: 24e7 a1bc 8afd 653d bb32 d290 b774 413e
00000010: 68cd 9e3e e84a 723d 1d7a ff3d 4ce4 053e
00000020: 55ec 8fbe a02a cebd 5f7f 3abb ccfe a0bc
00000030: 4ead 00be 4bfd a6bd faa3 46bc 3481 abbb
00000040: 8342 ed3b 6867 d2bb c243 71bd 28a2 93ba
00000050: 696e 71be a0a7 8ebb 2bef 09bb ac3b 74bc
00000060: 5f63 5b3c b0d8 eabd 9711 fabc 9883 313c
00000070: e3cb e93d 1407 8138 b94a d93d 211c 4dbc

conv2.weight f4 [32, 1, 3, 3]
0.4361579 -0.610059 0.4085088 0.796967 0.1318757 -0.2134209 0.08751443 -0.34129876
-0.70302737 0.06066834 -0.27116272 -0.82143056 -0.507919 -0.1704414 0.30219752 -0.6764499
-0.7616242 -0.5132767 -8.957617e-39 -7.860669e-39 -3.61763e-39 -8.386864e-39 -9.091652e-39 -6.700418e-39
-1.4180857e-38 -1.15973e-38 -7.092735e-39 0.38528338 0.67121494 -0.08449744 -0.042445373 0.40902084
-0.45153943 0.042927567 -0.011066046 -0.2180154 0.13791807 0.34009388 -0.36077768 0.3178621
0.7103144 0.069228165 0.9110906 0.6202459 0.33637378 0.17482594 0.41961592 0.81385094
-0.2273835 -0.33846384 -0.3284632 -0.35257375 0.10759747 -0.3517285 1.0162933 0.1548412
-0.10675979 0.9852165 0.42116317 -0.02350948 0.5471455 0.8770054 -0.028549153 0.3045721
0.015589791 -0.07466542 -0.11993859 0.39711326 0.0031663496 0.4703736 0.34864905 -0.52396065
-0.20380223 -0.91723686 -0.5257483 0.34076333 -0.2301609 -0.43304154 0.47941655 0.671224
-0.3110375 0.87170744 -0.14140487 -0.122995876 0.23606339 -0.2487918 0.20574556 -0.4143216
0.40105614 0.17848498 -0.54778486 -0.4663635 0.17711829 -0.21386996 -0.26209554 0.14216273
0.34233215 -0.019890731 -0.5345047 1.803898 1.296858 0.46073335 0.90500057 0.75581187
0.15621735 0.59828436 0.6709853 0.1469353 -0.37171823 -0.49300343 -0.41509026 -1.0835865
-0.9408482 -0.5833059 -1.1263218 -0.7254262 -0.4101505 -0.21257845 -0.2580001 -0.07254676
-0.12613265 -0.2054974 -0.5495792 0.20878483 -0.046295196 0.3540124 -0.33181965 -0.5248255
-0.2926586 0.44481575 0.47841847 -0.2641556 -0.42255002 0.44006142 -0.0042346185 0.3183794
-0.05845436 0.13986768 0.21797968 0.31452602 -0.29797155 -0.5473425 -0.55050975 -0.6452337
0.038383663 -0.1508964 0.056498103 0.012523682 -0.44276398 -0.32010838 0.066629685 0.6650131
-0.43492612 -0.26370007 -0.12533608 0.23916435 -0.124117844 -0.12323428 0.7610537 0.09114002
-0.2089586 0.6037398 -0.97982347 -0.9347619 -1.0297171 -1.1789509 -1.3386757 -0.8243523
-0.50898063 -0.9319155 -0.6186231 0.21817651 -0.2452549 -0.61400795 0.44388264 -0.49208462
-0.5538716 0.18514155 0.10462597 0.45758948 -0.97749716 -0.5898391 -0.6853693 -0.26051992
-0.6851653 -0.37674904 -0.2398688 0.5199453 0.46271825 -0.5295688 0.06484749 0.25886968
-0.2091669 -0.37124735 0.4025209 -0.16508158 -0.16487084 -0.44000524 -0.14226341 -0.01585489
0.15499152 0.497135 -0.2554856 -0.59142923 0.2233603 -0.15758255 0.0686594 0.71625566
0.29027423 -0.47218627 -0.37612748 -0.15992624 -0.027039118 -0.4376486 0.26397645 0.8342453
-0.25256574 -0.38965333 -0.57940245 0.01590493 0.094978705 0.4594946 0.110143594 0.28588372
-0.26997924 0.47424352 -0.14568624 -0.084701784 -0.046258796 0.10984962 0.24800518 -0.86265284
-0.5521065 -0.20087436 0.32163814 0.27877063 -0.537767 -0.20615117 -0.07356843 -0.8201403
-0.47100705 -0.658337 -0.6869045 0.66964746 0.5843958 1.0875301 0.30931306 0.36258107
0.4836857 0.17229012 0.23200427 -0.6283642 -0.14352107 0.088591 0.55023164 -0.0060031516
00000000: 1750 df3e d42c 1cbf 1128 d13e 0806 4c3f
00000010: 6c0a 073e 028b 5abe c43a b33d b6be aebe
00000020: 9af9 33bf 5e7f 783d d7d5 8abe 4649 52bf
00000030: fb06 02bf 3188 2ebe a2b9 9a3e d22b 2dbf
00000040: cef9 42bf 1a66 03bf 318a 6180 5998 5580
00000050: 7b64 2780 2a53 5b80 d4ff 6280 0af6 4880
00000060: 766a 9a80 8e48 7e80 a93b 4d80 dd43 c53e
00000070: bed4 2b3f fe0c adbd 33db 2dbd 2e6b d13e
00000080: 2d30 e7be d1d4 2f3d 5c4e 35bc 6e3f 5fbe
00000090: 653a 0d3e c920 ae3e dab7 b8be d2be a23e
000000a0: 2ad7 353f 7fc7 8d3d 3c3d 693f 6fc8 1e3f
000000b0: 2f39 ac3e 9205 333e e6d7 d63e 8958 503f
000000c0: 38d7 68be 224b adbe 542c a8be 8c84 b4be
000000d0: 105c dc3d c215 b4be e615 823f b18e 1e3e
000000e0: e0a4 dabd 2637 7c3f b3a2 d73e f496 c0bc
000000f0: ba11 0c3f 6d83 603f eadf e9bc e0f0 9b3e
00000100: 536c 7f3c 2fea 98bd 5da2 f5bd 6e52 cb3e
00000110: 8882 4f3b cfd4 f03e 2182 b23e 4922 06bf
00000120: 88b1 50be 09d0 6abf 7197 06bf 8878 ae3e
00000130: 4daf 6bbe 9fb7 ddbe 1676 f53e 56d5 2b3f
00000140: 4f40 9fbe 3828 5f3f 70cc 10be 43e5 fbbd
00000150: 9aba 713e 47c3 7ebe f7ae 523e f621 d4be
00000160: 3b57 cd3e c4c4 363e a13b 0cbf 32c7 eebe
00000170: 7f5e 353e ba00 5bbe 6331 86be 1b93 113e
00000180: 2946 af3e e3f1 a2bc 4dd5 08bf 21e6 e63f
00000190: 71ff a53f 3ee5 eb3e 1eae 673f e37c 413f
000001a0: 71f7 1f3e 2a29 193f b1c5 2b3f 3576 163e
000001b0: da51 bebe f26a fcbe b686 d4be f6b2 8abf
000001c0: 6ddb 70bf 8953 15bf 502b 90bf 88b5 39bf
000001d0: 3fff d1be 2aae 59be 9718 84be 6593 94bd
000001e0: eb28 01be e96d 52be 39b1 0cbf b1cb 553e
000001f0: 08a0 3dbd 1d41 b53e 44e4 a9be f75a 06bf
00000200: 59d7 95be e4be e33e 44f3 f43e 673f 87be
00000210: 7a58 d8be bb4f e13e 8ec2 8abb a002 a33e
00000220: d76d 6fbd 7939 0f3e 1136 5f3e 8e09 a13e
00000230: ba8f 98be a31e 0cbf 35ee 0cbf 092e 25bf
00000240: 3038 1d3d 9684 1abe 8e6a 673d 2130 4d3c
00000250: f6b1 e2be 3fe5 a3be 2575 883d 4c3e 2a3f
00000260: a3ae debe b203 87be 1a58 00be 80e7 743e
00000270: 7f31 febd 4162 fcbd 6ad4 423f 9ea7 ba3d
00000280: 3ef9 55be b18e 1a3f b6d5 7abf 8e4c 6fbf
00000290: c5cd 83bf dde7 96bf ba59 abbf c108 53bf
000002a0: 8e4c 02bf 0492 6ebf 155e 1ebf aa69 5f3e
000002b0: 1a24 7bbe a02f 1dbf 9644 e33e 84f2 fbbe
000002c0: 87ca 0dbf bf95 3d3e 2446 d63d 2b49 ea3e
000002d0: 413d 7abf b2ff 16bf 5d74 2fbf de62 85be
000002e0: fe66 2fbf 40e5 c0be 2ba0 75be 231b 053f
000002f0: 68e9 ec3e d291 07bf c3ce 843d 918a 843e
00000300: d92f 56be 2214 bebe 3817 ce3e 250b 29be
00000310: e7d3 28be 5e48 e1be 80ad 11be 1de2 81bc
00000320: 19b6 1e3e 7b88 fe3e 02cf 82be e867 17bf
00000330: 90b8 643e 525d 21be 4d9d 8c3d 885c 373f
00000340: d39e 943e 66c2 f1be c893 c0be b4c3 23be
00000350: 2481 ddbc 7a13 e0be ec27 873e 1a91 553f
00000360: 4c50 81be a480 c7be b853 14bf 0e4b 823c
00000370: 3284 c23d e042 eb3e f792 e13d 5a5f 923e
00000380: b83a 8abe 0cd0 f23e c62e 15be 2178 adbd
00000390: dd79 3dbd d6f8 e03d 12f5 7d3e d1d6 5cbf
000003a0: da56 0dbf 02b2 4dbe c1ad a43e 06bb 8e3e
000003b0: 19ab 09bf 4b19 53be 0cab 96bd b7f4 51bf
000003c0: d627 f1be c688 28bf f9d8 2fbf 046e 2b3f
000003d0: f79a 153f 3034 8b3f 485e 9e3e 3aa4 b93e
000003e0: a7a5 f73e d26c 303e 8792 6d3e 7adc 20bf
000003f0: 30f7 12be 336f b53d fbdb 0c3f 16b6 c4bb

conv2.bias f4 [32]
0.034249507 -0.036406223 -0.022418955 0.32583848 0.12511091 -0.008476022 -0.19161656 -0.13122019
-0.064667016 -0.38734913 0.2551474 0.15407857 0.13324468 0.05806107 -0.20508493 -0.13978563
0.31650904 0.26311356 -0.27360326 0.04442763 0.067474976 -0.0076875375 -0.13298982 -0.11713676
0.13774306 0.12702233 0.16891608 -0.0073736147 0.10016464 -0.15568054 -0.20513487 0.13924317
00000000: 3649 0c3d b11e 15bd f5a7 b7bc 4dd4 a63e
00000010: 131d 003e 03df 0abc 2237 44be 965e 06be
00000020: 2470 84bd a052 c6be aea2 823e c6c6 1d3e
00000030: 4b71 083e 72d1 6d3d c901 52be f723 0fbe
00000040: 790d a23e d2b6 863e ba15 8cbe bff9 353d
00000050: 5230 8a3d bde7 fbbb 7c2e 08be 66e5 efbd
00000060: 840c 0d3e 2412 023e 56f8 2c3e 5d9e f1bb
00000070: 1e23 cd3d b86a 1fbe e00e 52be c395 0e3e

conv3.weight f4 [20, 32, 1, 1]
-0.18115617 0.25914448 0.075017005 0.042177886 0.19917628 -0.18197133 0.16791825 0.41127604
-0.024650333 -0.33283925 -0.22571439 0.00740651 0.78298575 0.12527356 -0.09220936 0.5316744
-0.14322361 -0.40344676 0.314847 0.89466673 0.06664544 -0.13299707 0.5426421 -0.26824895
-0.13258567 0.022649616 0.8193192 -0.19696057 -0.2460301 -0.16330172 0.5217985 -0.14579216
0.048489887 -0.12642391 0.12305724 -0.04954521 -0.56496334 0.20399189 0.120732725 0.3826535
-0.343915 0.06378222 -0.055722136 0.084810324 -0.35160357 0.06676271 -0.0731561 0.25212866
-0.19498737 -0.16572963 0.16348307 -0.1749365 -0.5545842 -0.102030806 0.11843389 -0.3314926
0.04100122 0.09930477 -0.107006416 -0.53514975 0.1409851 0.09615855 0.15615399 -0.27509996
0.03147952 -0.7171896 -0.012299991 -0.20932233 -0.37583902 -0.046959624 0.28255194 0.2479155
0.11177316 -0.14556946 -0.070483245 0.051127426 -0.48712948 0.52461547 0.23340176 0.05753987
0.23783042 0.10320488 0.23389012 0.17278811 -0.03965257 0.29490665 0.061339714 0.0855756
-0.037211217 -0.07246663 -0.24357948 0.0199216 0.21999204 0.09295585 0.26052612 0.40156853
0.0029611134 -0.117825605 0.04163862 0.14219137 -0.038460672 0.14361219 0.38076508 0.2978374
-0.18270653 -0.34830818 -0.15748174 0.10207224 -0.21576668 0.06784478 -0.04330324 0.2662855
0.13929369 -0.13608707 0.38790014 -0.09215185 -0.51521826 -0.06895355 0.13653739 -0.3782897
-0.1281263 -0.35749626 -0.3017028 -0.4264949 -0.08130695 -0.25740463 -0.23354164 0.0026478178
0.34368673 0.030993985 -0.05701901 0.080051325 -0.09723015 0.11105916 0.069950454 0.23038003
-0.009570181 0.23637955 -0.058989543 -0.37436882 -0.38256484 -0.3671029 -0.019755732 0.054491155
0.02136711 -0.29713675 -0.24864033 -0.3031636 0.04214138 -0.054956473 -0.21999493 0.07337383
-0.021752363 0.083038 0.582604 -0.046355274 -0.2002544 0.0376848 0.14871718 0.55262506
0.22699873 -0.0005711508 -0.04074626 0.1946669 -0.27690277 -0.44032747 -0.21926671 -0.22799732
-0.11330605 0.15257798 -0.088214606 -0.59800184 -0.17058273 -0.09376149 -0.102672994 0.33675066
-0.22978412 -0.68150115 -0.14322996 0.13676597 0.12810372 -0.30328086 0.10248796 0.22032695
-0.053086676 -0.016848002 -0.12513044 0.012408942 0.065441325 0.15609944 0.39289683 1.3541301
0.084161684 0.31478542 0.092151344 -0.16375962 -0.6060674 -0.0562341 -0.20460099 0.19783993
-0.0514054 0.27451122 -0.38445607 0.22531787 -0.37732637 -0.25431204 -0.42002183 -0.19496521
-0.3624064 0.086246856 0.32946855 0.25252894 -0.37888336 -0.037071504 -0.04202356 0.03386958
-0.019800209 -0.21884519 -0.22032961 0.17507586 0.17167525 0.24031703 0.1566102 0.22862409
0.1783283 0.17019656 0.056911446 0.024017023 0.15997808 0.050991256 -0.7159413 -0.48013562
-0.16259338 0.16771391 -0.29507008 0.25276655 0.3722118 -0.06592613 0.016371382 0.09959024
-0.33007455 0.16670787 0.77984935 -0.22154571 -0.2045184 -0.16341273 -0.14268555 -0.04794549
-0.014002311 -0.027366463 -0.35278082 0.08440527 0.09705653 0.13411629 0.18838625 -0.4378766
00000000: 0181 39be 96ae 843e 84a2 993d b8c2 2c3d
00000010: def4 4b3e b156 3abe c3f2 2b3e c692 d23e
00000020: 7fef c9bc e869 aabe ac21 67be 4fb2 f23b
00000030: c171 483f b647 003e 43d8 bcbd d01b 083f
00000040: 36a9 12be 9390 cebe a033 a13e e108 653f
00000050: 687d 883d 6230 08be 98ea 0a3f ed57 89be
00000060: 8ac4 07be b08b b93c e7be 513f 08b0 49be
00000070: 51ef 7bbe 9138 27be 9694 053f 8a4a 15be
00000080: 559d 463d 4575 01be 6f05 fc3d ebef 4abd
00000090: 70a1 10bf 40e3 503e b842 f73d 29eb c33e
000000a0: a015 b0be 41a0 823d e53c 64bd 09b1 ad3d
000000b0: 6205 b4be e3ba 883d ded2 95bd 0217 813e
000000c0: c5aa 47be 07b5 29be 1b68 273e 8e22 33be
000000d0: 3bf9 0dbf 87f5 d0bd 788d f23d 66b9 a9be
000000e0: e5f0 273d 4d60 cb3d 2e26 dbbd 93ff 08bf
000000f0: 665e 103e c6ee c43d d5e6 1f3e e7d9 8cbe
00000100: abf0 003d bd99 37bf e785 49bc 9858 56be
00000110: f96d c0be bc58 40bd a6aa 903e 90dd 7d3e
00000120: 54e9 e43d 2910 15be 8559 90bd fe6a 513d
00000130: 0969 f9be 334d 063f df00 6f3e edae 6b3d
00000140: d189 733e 155d d33d e480 6f3e 5eef 303e
00000150: bc6a 22bd 01fe 963e 5a3f 7b3d 4342 af3d
00000160: ca6a 18bd 6269 94bd e66c 79be a032 a33c
00000170: 9845 613e a35f be3d ae63 853e 649a cd3e
00000180: 3d0f 423b 8d4e f1bd 428d 2a3d 9d9a 113e
00000190: f088 1dbd 130f 133e a4f3 c23e 257e 983e
000001a0: 6c17 3bbe 7355 b2be e542 21be 400b d13d
000001b0: f1f1 5cbe 34f2 8a3d bd5e 31bd 9356 883e
000001c0: 01a3 0e3e 695a 0bbe d99a c63e 1cba bcbd
000001d0: 58e5 03bf 8537 8dbd 75d0 0b3e 30af c1be
000001e0: 8a33 03be c009 b7be ca78 9abe 8a5d dabe
000001f0: 4284 a6bd 8aca 83be 8a25 6fbe 0387 2d3b
00000200: b5f7 af3e 19e7 fd3c c48c 69bd f3f1 a33d
00000210: 9a20 c7bd fc72 e33d 2f42 8f3d bee8 6b3e
00000220: 40cc 1cbc 7b0d 723e 059f 71bd 45ad bfbe
00000230: 8adf c3be e9f4 bbbe c6d6 a1bc 1e32 5f3d
00000240: 140a af3c 4f22 98be 929b 7ebe 4238 9bbe
00000250: 719c 2c3d 0a1a 61bd 5a46 61be 0545 963d
00000260: 0332 b2bc d40f aa3d 8925 153f 07df 3dbd
00000270: 7d0f 4dbe 605b 1a3d 5149 183e d678 0d3f
00000280: 5b72 683e 48b9 15ba 8de5 26bd c356 473e
00000290: 33c6 8dbe 9a72 e1be 7487 60be 2178 69be
000002a0: 010d e8bd 673d 1c3e dca9 b4bd a616 19bf
000002b0: 3dad 2ebe 0606 c0bd 3846 d2bd 956a ac3e
000002c0: 874c 6bbe dc76 2ebf e0aa 12be 610c 0c3e
000002d0: 9f2d 033e a147 9bbe 35e5 d13d 639d 613e
000002e0: 6a71 59bd d204 8abc 3222 00be e04e 4b3c
000002f0: 1a06 863d 88d8 1f3e c629 c93e 2354 ad3f
00000300: f65c ac3d 8e2b a13e d8b9 bc3d 9ab0 27be
00000310: 3c27 1bbf ba55 66bd ec82 51be 8d96 4a3e
00000320: 788e 52bd bc8c 8c3e 6dd7 c4be bab9 663e
00000330: ec30 c1be 3035 82be 1a0d d7be f6a4 47be
00000340: 558d b9be 31a2 b03d 1ab0 a83e 794b 813e
00000350: 00fd c1be 4ad8 17bd e520 2cbd d4ba 0a3d
00000360: 0c34 a2bc f418 60be 169e 61be 1647 333e
00000370: a3cb 2f3e ab15 763e 6d5e 203e 6f1c 6a3e
00000380: b29b 363e 0248 2e3e fa1b 693d 59bf c43c
00000390: 4bd1 233e 35dc 503d ee47 37bf 56d4 f5be
000003a0: e17e 26be 32bd 2b3e 6d13 97be 9e6a 813e
000003b0: 8c92 be3e 4704 87bd 471d 863c f8f5 cb3d
000003c0: 88ff a8be 78b5 2a3e 35a4 473f e1dc 62be
000003d0: 456d 51be ab55 27be 291c 12be 7d62 44bd
000003e0: f369 65bc a22f e0bc b09f b4be acdc ac3d
000003f0: 93c5 c63d c855 093e 53e8 403e 5d31 e0be

conv3.bias f4 [20]
-0.04548809 -0.28718188 0.054619506 -0.107528284 0.040297568 0.049324926 -0.23484293 0.047539122
-0.10475795 -0.089629665 -0.080090635 -0.27047336 0.100409634 0.14728235 0.033976115 0.057265624
-0.0511458 0.048366852 0.058118317 0.11588549
00000000: b851 3abd 8109 93be b4b8 5f3d ca37 dcbd
00000010: 100f 253d ef08 4a3d aa7a 70be 62b8 423d
00000020: 568b d6bd c28f b7bd 8f06 a4bd 7c7b 8abe
00000030: 91a3 cd3d 2fd1 163e 8a2a 0b3d 5c8f 6a3d
00000040: 427e 51bd 521c 463d 790d 6e3d 5f55 ed3d

linear.weight f4 [10, 1280]
0.018225197 0.07340116 -0.30753675 -0.58319426 -0.3301564 -0.24795412 -0.06986653 0.13017036
0.00964418 -0.17273358 -0.49041823 -0.65224314 -0.5501254 -0.46660674 -0.15750915 0.037096016
0.13911685 0.0009487799 -0.1942558 -0.17290679 -0.48085168 -0.34146062 -0.09580391 0.13140038
0.049945638 0.028143533 -0.01204647 -0.087477796 -0.13306518 0.0072322735 -0.033730306 0.10819913
-0.10878814 0.036896575 0.17474844 -0.07918152 0.24111123 0.15217026 -0.013271846 0.1757955
-0.013521017 -0.46049765 -0.31953183 -0.013049942 0.24214335 0.00924637 -0.027268883 0.04077346
-0.0068969526 -0.53969336 -1.129302 -0.30483305 0.09437216 0.07513472 -0.008269511 0.040803313
-0.014642909 -0.039465155 -0.6914447 -0.45933494 -0.27764788 -0.22441697 -0.18444197 -0.041696846
-5.6901048e-15 -0.076243944 0.09595685 -0.00716768 -0.0019415042 0.10956053 0.03154092 -0.00036756057
0.15218017 0.13812336 -0.10606014 -0.069733374 0.06555482 0.26075485 0.1845373 -0.002559883
0.15706809 0.1655456 -0.056881357 -0.14223641 0.11339598 0.11564054 -0.14498374 -0.05975093
0.12879781 0.062789254 -0.10508544 -0.1604448 0.06487683 0.123572946 0.11191933 -0.0007871231
-0.0040595927 -0.072108924 -0.48547247 -0.19503199 0.019735921 0.17865866 0.24122506 0.0017444044
-0.112921625 -0.08391333 -0.22031371 -0.18368274 -0.0954348 -0.026988225 0.19261655 -0.0065452876
-0.13618577 -0.28974333 0.055336297 0.043719366 0.05635397 0.05315485 0.28737527 -8.867839e-10
-0.03303316 -0.33101848 -0.12838231 0.03417928 0.15606801 -0.0237555 0.0017264304 -6.108926e-38
-0.085436374 -0.09859046 -0.0013393604 -0.052792404 -0.11067585 -0.0675284 -0.045782655 -0.038038954
0.10364678 0.17346762 -0.04001429 -0.20690404 -0.1439633 -0.007692572 0.13482486 0.006435769
0.007830365 0.046738308 -0.14334847 -0.056169685 -0.08933188 -0.073514506 0.16312179 0.09238013
-0.26962158 0.07603119 0.03445067 -0.033405352 -0.2939645 -0.23536754 -0.0016242258 -0.03444756
-0.28334463 0.25003302 0.19829461 -0.028942512 -0.1285407 -0.32287794 -0.0095101055 -0.08135406
-0.026366737 0.25960398 0.08181753 -0.1236165 -0.14177482 -0.18820952 -0.2409291 -0.24907961
0.061367214 0.4943322 0.07613408 -0.19810706 -0.3493859 -0.20857881 -0.13080077 0.048572753
0.083827786 0.13877702 0.038672205 0.03657655 -0.22995888 -0.310953 -0.08731432 0.007922464
-6.654095e-12 -0.13603507 -0.12283181 -0.14051619 -0.16337809 -0.16414165 -0.07557495 -0.14580357
-0.03594754 0.34286612 0.113145776 0.04127614 -0.023533793 -0.13751842 -0.11378161 -0.080377206
0.074011266 0.25838947 0.011803515 0.021030828 0.07763322 -0.1624029 -0.1935281 -0.10491881
-0.03806337 0.046430282 0.051510096 0.03518035 0.0683626 0.064918645 0.064950764 -0.0109336
0.046242766 0.05084675 0.02509848 0.20188251 0.08537672 0.13813885 0.14464723 0.16249023
-0.22935404 -0.20386697 0.061885927 0.32347047 0.08620266 -0.038812224 0.107425384 0.012950489
-0.19189975 -0.3336189 -0.29210645 0.1652027 0.12579073 0.09613638 0.17638592 0.028933227
0.04985873 -0.1544888 -0.080009215 0.015349002 0.070986874 -0.008494733 0.0059103905 4.661875e-16
00000000: 024d 953c 5953 963d 7575 9dbe 384c 15bf
00000010: 420a a9be afe7 7dbe 2f16 8fbd 614b 053e
00000020: 9f02 1e3c 12e1 30be 1918 fbbe 68f9 26bf
00000030: 05d5 0cbf 14e7 eebe 144a 21be fef1 173d
00000040: a674 0e3e 8bb7 783a feea 46be 7a0e 31be
00000050: 3132 f6be edd3 aebe d734 c4bd d28d 063e
00000060: cc93 4c3d 448d e63c 8f5e 45bc 8f27 b3bd
00000070: 3d42 08be b5fc ec3b ca28 0abd 8197 dd3d
00000080: 51cc debd dd20 173d 41f1 323e ec29 a2bd
00000090: dde5 763e 85d2 1b3e 2872 59bc bc03 343e
000000a0: 4187 5dbc 59c6 ebbe ad99 a3be 6dcf 55bc
000000b0: 6df4 773e 167e 173c fe62 dfbc 1202 273d
000000c0: d5ff e1bb 5829 0abf f88c 90bf 1413 9cbe
000000d0: 3146 c13d 3be0 993d d87c 07bc 6021 273d
000000e0: d0e8 6fbc 37a6 21bd 8502 31bf f32d ebbe
000000f0: dd27 8ebe 90cd 65be 5bde 3cbe 50ca 2abd
00000100: f401 cda7 c925 9cbd 0685 c43d dcde eabb
00000110: 127a feba 4561 e03d 0d31 013d 25b5 c0b9
00000120: 1ed5 1b3e 3670 0d3e 0f36 d9bd 5fd0 8ebd
00000130: 9b41 863d a981 853e 59f7 3c3e b6c3 27bb
00000140: 75d6 203e c984 293e 6dfc 68bd 6ca6 11be
00000150: 273c e83d f3d4 ec3d 9e76 14be 64bd 74bd
00000160: 93e3 033e a797 803d 0937 d7bd a44b 24be
00000170: 25de 843d d013 fd3d f635 e53d f056 4eba
00000180: 5506 85bb d8ad 93bd d98f f8be 77b6 47be
00000190: 3aad a13c 4cf2 363e b403 773e 80a4 e43a
000001a0: 7443 e7bd c1da abbd eb99 61be 5417 3cbe
000001b0: 5273 c3bd 6916 ddbc 463d 453e da79 d6bb
000001c0: 4874 0bbe 3d59 94be 50a8 623d 1413 333d
000001d0: 6cd3 663d e6b8 593d da22 933e dfc1 73b0
000001e0: c74d 07bd 417b a9be a776 03be 93ff 0b3d
000001f0: 4bd0 1f3e e59a c2bc 6449 e23a 004d a681
00000200: 44f9 aebd cce9 c9bd 7a8d afba d93c 58bd
00000210: 05aa e2bd 544c 8abd 9886 3bbd bcce 1bbd
00000220: c344 d43d 7fa1 313e 06e6 23bd a7de 53be
00000230: 1e6b 13be f911 fcbb 870f 0a3e 25e3 d23b
00000240: ee4a 003c ab70 3f3d f1c9 12be 2f12 66bd
00000250: a2f3 b6bd c68e 96bd 6609 273e cb31 bd3d
00000260: d70b 8abe 3eb6 9b3d 251c 0d3d 0dd4 08bd
00000270: 8482 96be 3004 71be f9e3 d4ba e218 0dbd
00000280: 8c12 91be 5404 803e be0d 4b3e d918 edbc
00000290: 2ca0 03be 4250 a5be 46d0 1bbc f59c a6bd
000002a0: 0eff d7bc d0ea 843e f38f a73d a62a fdbd
000002b0: 6b2d 11be ffb9 40be 1eb6 76be ba0e 7fbe
000002c0: 305c 7b3d 1c19 fd3e 2fec 9b3d 94dc 4abe
000002d0: b5e2 b2be af95 55be a3f0 05be 39f4 463d
000002e0: e7ad ab3d 901b 0e3e bf66 1e3d 4bd1 153d
000002f0: 577a 6bbe 3b35 9fbe dad1 b2bd 39cd 013c
00000300: c21e eaac c74c 0bbe 3e8f fbbd 7ae3 0fbe
00000310: 964c 27be c014 28be 0ac7 9abd 884d 15be
00000320: ba3d 13bd 268c af3e f9b8 e73d 2b11 293d
00000330: f1c9 c0bc a1d1 0cbe 5506 e9bd ce9c a4bd
00000340: 3893 973d a04b 843e 8863 413c d848 ac3c
00000350: 2afe 9e3d f24c 26be 3b2c 46be acdf d6bd
00000360: 56e8 1bbd ae2d 3e3d 40fc 523d 4519 103d
00000370: b101 8c3d 11f4 843d e804 853d d822 33bc
00000380: 0e69 3d3d af44 503d 549b cd3c 4aba 4e3e
00000390: fdd9 ae3d 4574 0d3e 671e 143e d763 263e
000003a0: c9db 6abe 81c2 50be 197c 7d3d ec9d a53e
000003b0: 058b b03d 91f9 1ebd d701 dc3d 4a2e 543c
000003c0: 5e81 44be 19d0 aabe fa8e 95be e62a 293e
000003d0: 49cf 003e 27e3 c43d 839e 343e 6005 ed3c
000003e0: ab38 4c3d 5032 1ebe dfdb a3bd 617a 7b3c
000003f0: 9161 913d 7e2d 0bbc f3ab c13b 915e 0626

linear.bias f4 [10]
0.18620831 0.1517754 -0.0065849614 -0.16220732 -0.13377005 0.18932447 -0.081826255 -0.13339025
0.044810582 -0.09296626
00000000: 64ad 3e3e 036b 1b3e a9c6 d7bb ad19 26be
00000010: 04fb 08be 46de 413e 8694 a7bd 7497 08be
00000020: 4d8b 373d 1865 bebd
