models/FashionMNIST/cnn_num-modules=3_seed=034/099.pth (torch, 23817 bytes, 12 tensors)

conv1.weight f4 [32, 1, 3, 3]
000000 13 4c e6 3e a9 da c5 be 44 dd 7f bd ca de 3c 3e
       0.44979915 -0.38643387 -0.062466875 0.18444362
000010 19 4e d9 3e 1b c4 18 bf 83 fe 17 bf 69 92 92 3e
       0.42442396 -0.59674233 -0.5937273 0.28627327
000020 df b3 95 3e a5 88 3f 3e f0 b9 14 be 2a e5 63 3e
       0.29238793 0.1870447 -0.14524055 0.22255388
000030 5c 87 d4 bd 09 73 b1 3e b2 08 b3 3e 05 af d3 3e
       -0.1037738 0.34658077 0.34967571 0.41344467
000040 64 2a 87 3e 04 24 ad 3b f3 5c 76 3e 93 4e 82 be
       0.2639953 0.0052838344 0.24058895 -0.25450572
000050 53 94 a5 3c b3 83 bb 3e d9 0a b7 be 49 e6 2e bc
       0.020212328 0.36623916 -0.35750464 -0.010675021
000060 c6 12 ae 3e f8 09 0f bf bf ca 62 3e e6 19 8c bf
       0.33998698 -0.55874586 0.22147654 -1.0945404
000070 4d 4b cd 3d 70 ad f6 3d 44 70 3e bf c1 45 85 3e
       0.10024128 0.12044799 -0.74390054 0.2602978
000080 44 de 4f 3f 1d 7c a6 be 80 4b 83 3e a1 7a c9 3e
       0.81198525 -0.32516566 0.2564354 0.3935137
000090 a1 0d 04 bd d8 b7 dd 3d 03 b2 f8 3c 09 1c e7 3d
       -0.03223956 0.10826081 0.03035832 0.11284644
0000a0 16 63 23 3f 2f 1f 40 3e 80 a2 03 3f 05 ce d3 3e
       0.6382307 0.18761896 0.5141983 0.41368118
0000b0 18 73 81 3e 84 e0 e7 bd 90 59 d2 3d d3 e7 87 bd
       0.25283122 -0.1132212 0.10270989 -0.06636014
0000c0 dd 59 2c 3e d2 ef 11 3e ec bd 35 3e 8e d2 43 3e
       0.16831155 0.1425164 0.1774823 0.19123289
0000d0 c9 1a a3 3e 67 30 3b 3a db 08 db be 3b bf 82 3e
       0.31856373 0.00071406964 -0.42780194 0.25536522
0000e0 af 8c ac 3e 3e ba ac 3e a0 da 52 be 01 32 9c be
       0.33701083 0.33735842 -0.20591211 -0.305069
0000f0 50 bf ae 3e f6 50 05 3e b1 03 8c 3e f6 bb a5 be
       0.34130335 0.13019165 0.27346566 -0.32369965
000100 45 1f 17 bf 12 e8 9e c0 4e 7f 77 3e ef 83 a3 be
       -0.5903209 -4.965829 0.24169657 -0.31936595
000110 d1 c3 9e bf 30 15 3f 3e 62 1c 45 3f fa 90 75 3c
       -1.2403508 0.18660426 0.76996434 0.014988178
000120 6e 06 e7 3e 7d 00 0d c0 f7 87 a6 be e7 29 1a c0
       0.45122093 -2.2031548 -0.32525608 -2.4088075
000130 bf 5f 11 c0 94 64 ed bd 69 e8 e6 ba dc 74 87 bf
       -2.2714689 -0.115914494 -0.0017616871 -1.0582538
000140 e6 89 57 3f 44 f4 0b 3e 57 0f e3 3e 6a d6 83 be
       0.8419479 0.13667399 0.4434764 -0.25749522
000150 dc 83 c8 bd 30 6f e4 3e 94 7a 04 be 3b 4a db 3e
       -0.09790775 0.4461608 -0.12937385 0.4283007
000160 d0 ef a4 3d 85 d0 04 bf e7 f8 c7 3e 42 7e 7c 3e
       0.08053553 -0.51880676 0.39057085 0.24657539
000170 ea ab 00 3f b8 1d 8d 3e 81 51 09 3e 2d 05 98 3e
       0.5026232 0.27561736 0.13409998 0.2969145
000180 84 5d 45 be 74 cf 97 3e 17 c1 26 be 89 1b 0d 3e
       -0.19273955 0.29650462 -0.16284595 0.13780035
000190 ab fb 71 bd 51 4f 79 3e 4c 3e e1 3d b5 57 a2 3d
       -0.0590779 0.24346663 0.1099821 0.07926885
0001a0 f3 40 94 3e 0b 81 e1 bd 9c a2 19 3d 1e 7c 97 3e
       0.28955802 -0.11010941 0.037508592 0.2958688
0001b0 67 45 a2 3e 69 d8 ac be fe 3f 10 3d a7 b5 6f 3e
       0.31693575 -0.33758858 0.035217278 0.23409139
0001c0 f1 26 e1 3e 94 68 97 3e 61 45 34 bc 4f c0 18 bf
       0.43975022 0.29571974 -0.011002869 -0.5966844
0001d0 a4 3c d6 be 0a 71 18 bf f7 f1 9a 3e 0a ce 9f 3e
       -0.4184314 -0.59547484 0.3026273 0.31211883
0001e0 e7 53 2f bf ab cd 6c 3d f0 88 1f 3f e2 c2 2d bf
       -0.684874 0.057813328 0.62318325 -0.6787549
0001f0 61 a7 ac 3e ee 61 af 3e a8 6d 22 3e c9 dd 60 3e
       0.3372145 0.34254402 0.15862143 0.21959604
000200 cf 6e e3 3e df 4b ed 3e 18 b8 9c 3e e6 18 0a 3f
       0.44420478 0.46346948 0.30609202 0.5394424
000210 cb 8b b1 3e 38 c9 9c 3e 18 d0 8e 3d dd 9e b6 3e
       0.34676966 0.30622268 0.069732845 0.35668078
000220 08 55 36 3e 44 dd 9c 3d 35 53 8e 3e c4 f3 76 bd
       0.17805874 0.076593906 0.27797857 -0.060291067
000230 ce 3e 24 be 09 cf bc 3e 7c 43 24 be e6 0a 7b be
       -0.16039583 0.36876705 -0.16041368 -0.24515876
000240 4c 72 25 bf 0d 0e 09 bf c8 c9 ef be f8 12 c0 bd
       -0.6462753 -0.53537065 -0.46833634 -0.09378618
000250 da a9 7c bc 5c 9c 67 3e c6 7b ed 3e d8 da 27 3f
       -0.015421355 0.2261824 0.46383494 0.65568304
000260 af dd c3 3e 90 30 89 bd 19 13 93 3d a9 60 c3 3e
       0.3825507 -0.06698716 0.07181377 0.38159683
000270 96 f0 c2 bd 7f 4d 60 3c 1b 10 3f 3e 51 96 75 3e
       -0.095185444 0.0136903515 0.18658487 0.23983122
000280 9a 84 a6 3d 01 c6 f9 3d e5 ea d1 bf 80 35 24 c0
       0.081307605 0.121959694 -1.6399809 -2.5657654
000290 f0 31 7b bf bb f3 01 c0 51 bb 04 c0 3a 29 e8 be
       -0.98123074 -2.0305011 -2.073933 -0.45343953
0002a0 4b 2e 11 bf 24 04 f4 be 12 63 86 3f 4f f7 5e bb
       -0.5671126 -0.4765941 1.0498984 -0.003402192
0002b0 b5 a2 90 bb 12 a7 ce bb d1 21 06 bb a1 3d 26 bb
       -0.0044139274 -0.0063065374 -0.0020466933 -0.0025366324
0002c0 66 39 9c bb c6 cf 22 bb 5e 09 42 bb 07 78 98 bb
       -0.0047675846 -0.002484308 -0.0029607634 -0.0046529802
0002d0 18 96 85 be 5f 00 0a 3f 99 2c ae be 1f 4b 10 3f
       -0.26091075 0.53906816 -0.340184 0.56364626
0002e0 d0 ec 0b bf b1 85 59 c0 ed 58 f0 bc 29 e2 b3 be
       -0.5465822 -3.3987849 -0.029339278 -0.35133484
0002f0 aa 25 9d c0 85 99 1a 3f 0c 60 ac be 10 fe f9 be
       -4.9108477 0.603905 -0.33667028 -0.48826647
000300 c4 06 20 bf 78 55 09 be 6b 3b 76 bd 91 b3 3e bc
       -0.62510324 -0.1341151 -0.06011526 -0.011639492
000310 2c ec c0 3e 43 7a 15 3f 1b c2 ad 00 6f 6c a1 00
       0.37680185 0.5838968 1.5957173e-38 1.4824414e-38
000320 de 25 5d 00 66 4e 47 80 4a ff 17 80 c5 ae 24 80
       8.554285e-39 -6.548444e-39 -2.203797e-39 -3.368773e-39
000330 8d 9f 33 80 71 42 1c 00 f6 9d 41 00 fe 49 69 3e
       -4.740846e-39 2.595229e-39 6.025973e-39 0.22782132
000340 1e d1 87 3e 41 95 86 3e 02 36 9c 3e d0 00 44 3e
       0.2652673 0.26285747 0.30509955 0.19140935
000350 91 34 2b 3f 9b b9 e2 3e 7a 46 57 3f 39 ca 82 3e
       0.66877085 0.4428223 0.84091914 0.2554491
000360 e7 16 7a 3e e0 3b 4a 3e 1a 3f cc be 98 9e 7f 3e
       0.24422799 0.19749403 -0.39891893 0.24962842
000370 e2 82 0a 3d b5 cb a6 3d 83 51 7b 3e 53 e2 24 3b
       0.033816226 0.08144323 0.24542813 0.0025159314
000380 ea 43 27 3e de 11 32 be c6 81 cb 3e 37 8a 08 3e
       0.16334501 -0.17389628 0.39747447 0.13333975
000390 94 f5 c4 be 77 40 a7 3e 50 3b ab 3d f8 b5 18 bf
       -0.3846861 0.3266637 0.08360922 -0.5965266
0003a0 13 78 0a 3f a0 73 02 3e b9 6d b3 3e 61 52 60 3d
       0.5408947 0.1273942 0.3504465 0.054766063
0003b0 09 07 4b 3e 45 26 ef bd ee 87 fb be 9e ca 74 be
       0.19826902 -0.11677221 -0.49127144 -0.23905417
0003c0 65 09 54 3e a8 fc c6 3e 1a e6 07 3e 67 be a5 be
       0.20706709 0.38864636 0.1327137 -0.32371828
0003d0 be 00 31 c0 9b b7 db 3e 31 f1 c2 3c a9 40 4f c0
       -2.7656703 0.42913517 0.02379665 -3.2383215
0003e0 9d 76 3a be 1e 99 a4 3e d2 11 80 be cb 6f 41 be
       -0.1820931 0.3214807 -0.25013596 -0.18890302
0003f0 80 f1 fd 3e 16 85 0b 3a ec 85 0c bf 15 08 96 3e
       0.49598312 0.00053222605 -0.5489185 0.2930304

conv1.bias f4 [32]
000000 8d ed 5a bc 49 96 2b 3f c8 d8 b1 bb c7 3a ee 3d
       -0.013362301 0.6702619 -0.0054274537 0.11632305
000010 7a 04 fe 3c 15 ec d6 3c 4e 17 3b 3e c7 ab a3 3c
       0.031007994 0.02623562 0.18270609 0.01997937
000020 ef 02 0d 3e 96 86 63 be ca 46 20 ba 0c 55 72 3e
       0.1377065 -0.22219309 -0.0006114064 0.23665255
000030 8c 95 74 bd 51 66 24 bc 04 ec 3f 3d ef 40 00 3f
       -0.05971293 -0.01003416 0.04685594 0.5009908
000040 4c 44 95 ba 39 d0 be 3e 95 7b 89 3e 6c c8 9b bc
       -0.0011388152 0.37268236 0.26852098 -0.019016467
000050 5d eb 37 3e 56 33 a0 3e f4 8e 0c 9e 96 0b d1 3e
       0.17960878 0.31289166 -7.4411e-21 0.40829152
000060 aa f8 df 3d 04 54 e0 3d 29 4c 91 3e 02 df 91 3e
       0.10936101 0.10953525 0.28378418 0.28490454
000070 ad ba 28 3c e4 e2 3f 3e 68 66 9e 3e ce b3 6b bb
       0.010298413 0.18738896 0.30937505 -0.0035965326

conv2.weight f4 [32, 1, 3, 3]
000000 0d 69 06 bf 29 57 23 bf 41 eb aa be b1 8c bb bf
       -0.52504045 -0.6380487 -0.3338261 -1.4652311
000010 8f fd bb bf 74 c0 5c bf f5 31 69 bf cb 82 8a bf
       -1.4686755 -0.8623116 -0.91091853 -1.0821165
000020 42 78 4b be 82 fd 9c 38 0d ba 09 3f b1 aa 08 3e
       -0.19870093 7.485879e-05 0.53799516 0.13346364
000030 69 dd 35 bd 9b 97 14 3e 28 42 eb 3e ab ad df be
       -0.044400606 0.14510958 0.4594891 -0.43687186
000040 19 29 15 be 1b 16 69 3e 81 a3 ab 3c 27 f8 9b 3f
       -0.14566459 0.22762339 0.020951988 1.2185105
000050 31 5a b9 3f e2 ee a8 3f 3b 9f 15 40 7b f1 dc 3f
       1.4480649 1.3197901 2.3378437 1.7261194
000060 25 11 3a 3f 7a ff ab 3f 88 fd 6f 3f d0 f0 20 bc
       0.7268241 1.343734 0.93746233 -0.009823039
000070 49 80 59 bf a2 47 91 be c5 ca 52 3f 19 9f 8c be
       -0.8496137 -0.28374964 0.8234065 -0.27465132
000080 e1 62 02 3f 94 32 6e 3f e6 e9 d8 3e eb 01 22 3f
       0.5093213 0.93045926 0.4236595 0.63284177
000090 b8 28 e7 bc a2 a5 0f 3e 63 97 af be 0e 8d 16 bf
       -0.028217658 0.14028028 -0.34295186 -0.5880898
0000a0 0f cd 28 bf 7c 74 69 3d 1b 67 85 bd 7c d9 b4 be
       -0.65937895 0.056995854 -0.065138064 -0.35322177
0000b0 d3 9d a1 3d 4e 33 74 bd 64 f3 c8 be 07 dd 34 be
       0.07891431 -0.05961924 -0.39248192 -0.1766244
0000c0 27 61 f6 bd 62 07 cd 3d 62 fa af be 2d 47 43 3e
       -0.12030249 0.10011174 -0.34370714 0.1907012
0000d0 8c 68 2c 3e b7 85 25 bd 9a c9 1a 3e d4 a2 97 be
       0.16836756 -0.040410724 0.15115967 -0.29616416
0000e0 73 5b 06 bb f2 3f a0 3e 16 46 62 be 70 a5 46 be
       -0.0020501285 0.31298786 -0.22097048 -0.19399047
0000f0 70 a5 e7 3e 8d 5e 66 3e d4 07 b0 3e ef d0 0f be
       0.45243406 0.22497006 0.34380972 -0.14044546
000100 4d 50 3a 3f af 12 21 3f 80 0c fd 3d ef df a4 3f
       0.7277878 0.62919134 0.123559 1.2880839
000110 8e a6 86 3f 5c 58 14 3f d5 5c a1 3f 76 d5 86 3f
       1.0519578 0.57947326 1.2606455 1.0533893
000120 77 c6 6b bd 84 4b 14 bf 3d b8 5b bf 4d 15 cf bd
       -0.057562318 -0.5792773 -0.85828 -0.10111485
000130 b6 88 06 bf 62 30 fb be 2f 43 11 bf d7 c4 43 bf
       -0.52552354 -0.4906035 -0.5674314 -0.7647223
000140 14 3f 4e bf 25 ec d1 be 82 07 b6 be 90 a8 b3 bd
       -0.80565 -0.41000476 -0.35552603 -0.08772385
000150 d1 ed 25 bf cc 59 60 bf 54 0e e9 be 57 40 c7 be
       -0.64816004 -0.8763702 -0.45518744 -0.38916275
000160 2a db 27 bf 40 fc f5 be a7 5c a8 be fd 32 10 be
       -0.6556879 -0.48044014 -0.32883188 -0.1408195
000170 35 89 c9 be 50 f9 35 bf 42 27 1d bc 93 93 4e 3e
       -0.39362493 -0.71083546 -0.009591879 0.20173483
000180 c2 f9 2a be e5 dd 34 3d f5 8d e0 be 80 18 56 be
       -0.16696838 0.044156928 -0.43858305 -0.20907784
000190 e4 1b d2 be ff 5d 29 be a5 20 13 3e 0c 3c 35 be
       -0.41036904 -0.16539763 0.14367922 -0.17698687
0001a0 8f 30 be be 06 0c b7 3d 16 08 39 3e db dc 82 3e
       -0.37146422 0.0893784 0.18069491 0.25559124
0001b0 c3 03 04 3f cd b6 ad 3e 31 01 2f 3e 89 68 26 3f
       0.5156824 0.33928528 0.17090298 0.6500326
0001c0 10 71 86 3f 98 07 33 3f 95 16 17 3f 74 57 75 3f
       1.0503254 0.6993346 0.5901883 0.9583657
0001d0 2c d1 1d 3f 01 63 2a bd 3f 10 e7 3e 2a 74 e3 3e
       0.61647296 -0.041598324 0.45129582 0.44424564
0001e0 a0 13 e2 3e f5 3c ae 3f a9 fb 57 3f eb 00 ec 3e
       0.44155598 1.3612353 0.8436838 0.4609445
0001f0 d3 3d 06 3f 59 f3 f9 3e af bb 45 3e 6b a4 74 3e
       0.52438086 0.48818472 0.19309877 0.23890845
000200 2e 25 4d be f7 ad 07 3f fa 91 bf 3e aa 2c 38 3c
       -0.20033714 0.52999824 0.3741606 0.0112411175
000210 c4 d8 84 3e bc 74 0c 3e 5b 2f 2a be ae a7 9a 3d
       0.2594663 0.13716406 -0.16619627 0.075515136
000220 aa 68 98 be 60 1a bc be 7c fb 82 3e 34 aa d4 bd
       -0.29767352 -0.36738873 0.25582492 -0.10384026
000230 b2 68 b5 be ad 7f db be e2 d3 0f be 58 fb b0 be
       -0.3543144 -0.42870846 -0.1404567 -0.3456676
000240 d2 df a9 3e 16 9e 12 3f 12 aa 8e bb d0 1a e6 3e
       0.33178574 0.5727247 -0.00435377 0.4494233
000250 47 bb 13 3f 03 4c 1c be 0c 1c c0 3e b6 6b 3d 3e
       0.5770764 -0.15263371 0.37521398 0.1849812
000260 9c b2 f5 bd 50 ae e5 3d df 66 1a be ac f1 d9 bd
       -0.11996958 0.11214888 -0.15078305 -0.106417984
000270 64 ac a9 3d 9f 20 b6 be d4 12 c1 be a5 d6 84 be
       0.08284834 -0.35571763 -0.37709677 -0.2594501
000280 c6 8a 1f bd 81 df 8e bd a5 48 06 3f a5 4d 8c 3f
       -0.038950704 -0.06976224 0.52454597 1.0961195
000290 3e 17 3d 3f 8f 45 57 3f b1 e2 2c 3f 93 f5 42 3f
       0.7386359 0.84090513 0.67533404 0.76155967
0002a0 38 12 be 3e 6f 44 88 3d 01 3c 84 3e df 77 ec 39
       0.37123275 0.06653678 0.2582703 0.0004510274
0002b0 1d 13 f0 3b ac e3 27 3c 14 01 a1 3a 91 dd a7 3b
       0.007326497 0.010247152 0.0012283647 0.0051228483
0002c0 48 3b f7 3b 3c 65 5e 3b b2 67 99 3b 55 9d de 3b
       0.0075449087 0.0033934852 0.004681551 0.006793658
0002d0 f2 f7 bb be e0 f8 7b bf 3e fe 5a bf c0 55 b1 bf
       -0.36712605 -0.9842663 -0.8554419 -1.3854294
0002e0 92 f9 b6 bf 08 32 b7 be 8d f4 b0 bf 56 02 81 bf
       -1.4294913 -0.35780358 -1.3824631 -1.0078838
0002f0 f3 d1 19 bf db 8f 9d 3e 62 69 c6 be 24 07 29 3e
       -0.6008598 0.30773816 -0.38752276 0.1650663
000300 b4 4c 1d 3f ab 11 a7 ba c7 90 1d 3e af 26 4c 3f
       0.61445165 -0.0012746354 0.1538726 0.79746526
000310 ed 8f 11 3f 9c ef e6 3d 1b b7 97 80 10 e2 0e 80
       0.5686024 0.112761706 -1.3932846e-38 -1.366793e-39
000320 17 bb 57 00 23 aa 26 80 ef e2 f4 80 fe 5f 80 00
       8.056803e-39 -3.550782e-39 -2.248927e-38 1.1789379e-38
000330 5c 3f 31 80 d6 6f 5d 80 e8 31 a4 80 91 61 cd be
       -4.522668e-39 -8.58082e-39 -1.5078924e-38 -0.401135
000340 0f 5d 25 bf c6 7d 87 be da 4f 13 bc 00 3f 1b 3e
       -0.6459512 -0.26463145 -0.008991206 0.15160751
000350 fc 05 ce bc 4e be 71 3e d4 ef c0 3e 6d 81 7e 3e
       -0.025149338 0.23607752 0.37682974 0.2485406
000360 95 2a 38 3e 61 89 9c be f9 99 24 3e bf 02 d0 3e
       0.17984994 -0.30573562 0.16074361 0.40627095
000370 b6 68 c1 3e 27 29 f5 bd 4e 6e ca 3b cf de 86 bd
       0.377752 -0.1197074 0.0061777 -0.06585466
000380 59 1f d6 3d d5 66 0d bf a9 58 13 bf ab 37 2c be
       0.10455198 -0.55235034 -0.5755716 -0.1681811
000390 e9 90 77 be 77 b7 15 bf 08 87 03 3d a8 68 a9 3d
       -0.24176373 -0.5848307 0.032111198 0.08271915
0003a0 09 5f 01 ba 1b 76 0e bd 50 76 9e be b4 ba 89 3e
       -0.0004935121 -0.034780603 -0.3094964 0.26900256
0003b0 b0 ca d6 3d c9 22 af be ed b7 9f be 64 82 1e be
       0.10487878 -0.34206226 -0.31195012 -0.15479428
0003c0 61 23 2b be ac d9 f0 be ab 67 e1 3d ae 88 8b ba
       -0.16712715 -0.4704107 0.11006101 -0.0010645592
0003d0 d6 7d 2f 3f 3f 47 82 3f 04 e7 ed 3d 66 f2 a1 3f
       0.68551385 1.0177993 0.11616328 1.2652099
0003e0 7a a7 7e 3f ea f1 66 bd 33 17 1a 3f 37 67 e9 3d
       0.994743 -0.05638305 0.6019165 0.1139664
0003f0 cf 8f a9 be e6 a3 0a be d9 26 aa 3e a0 48 27 3f
       -0.3311753 -0.13539085 0.33232763 0.6534519

conv2.bias f4 [32]
000000 cd df 82 be 9c 3a 8d 3e 4c d2 c9 be c6 f4 95 3e
       -0.2556137 0.27583778 -0.39418256 0.2928831
000010 b3 96 92 bd d4 5e 0f 3d 4e 49 9c 3e da a8 15 bd
       -0.0715765 0.035002545 0.30524677 -0.036537983
000020 6d 9e 6e 3e 86 b8 28 3e d8 17 80 be 66 29 97 3e
       0.23302622 0.1647664 -0.2501819 0.29523772
000030 f0 28 dd 3c 03 1d 62 3e 00 34 c9 bd 47 17 cf be
       0.02699706 0.2208138 -0.09824371 -0.40447447
000040 41 e9 ec be 1d 15 db be c9 26 d4 be a6 89 86 3e
       -0.4627171 -0.42789546 -0.4143584 0.26276892
000050 e9 98 d5 3c c2 65 45 be 3e d1 e7 3e 40 00 28 b7
       0.02607389 -0.19277099 0.45276827 -1.00136385e-05
000060 b9 bf 86 3d 7d db 60 3d 79 e5 2b 3e 6b bb b3 3d
       0.06579537 0.05489682 0.16786756 0.087759815
000070 73 5f d8 3d 64 b5 e9 3d 8b e0 dc 3d ff 48 8c be
       0.105650805 0.11411551 0.10785016 -0.27399442

conv3.weight f4 [20, 32, 1, 1]
000000 d6 59 88 bd 2d 73 36 3e f0 8e d6 be 82 16 13 3c
       -0.0665776 0.17817374 -0.41905928 0.008977534
000010 1c ab bf 3d 62 58 8d be d1 b6 54 be 62 0b d8 3e
       0.093588084 -0.27606493 -0.20772864 0.42196184
000020 be b8 af be 19 36 bb 3e 5d 90 ea bd c4 3a 35 be
       -0.34320635 0.3656471 -0.11453316 -0.17698199
000030 be 71 02 3e 53 dc 30 3e af 7d 0d 3e 9f bf 0d 3e
       0.12738702 0.17271547 0.13817476 0.13842629
000040 14 bb 70 3e 01 ae b1 3d 2e 97 80 be 4d 43 c4 bd
       0.23508865 0.08675767 -0.2511534 -0.09583149
000050 1e 17 ad be 11 89 5f bc 80 2d cc bd 46 e7 04 bf
       -0.338067 -0.013643519 -0.09969616 -0.51915395
000060 fe a6 6f bd b6 ba 5a bd 4f f8 34 3e 99 71 3b bb
       -0.058508866 -0.053400718 0.17672847 -0.0028601645
000070 74 65 82 3e 31 3c e4 bd 3b e9 2a be 28 0d 8e 3e
       0.25468028 -0.11144293 -0.16690533 0.27744412
000080 cc d8 e3 be fe c2 9a be a4 ce 03 be a4 98 a0 be
       -0.4450134 -0.30226892 -0.12871796 -0.31366456
000090 82 e1 b5 be dd da 65 3b ec 3d 6c 3e e8 25 32 3f
       -0.3552361 0.003507308 0.23070496 0.6958909
0000a0 75 7b ae 3e 7a ab 07 be bb 84 ef be 9f 66 b2 3d
       0.34078565 -0.13249007 -0.46780953 0.0871098
0000b0 cb 56 3e be 44 db a2 be f6 3e f5 3e 47 13 c6 3c
       -0.18587796 -0.3180791 0.47899598 0.024179114
0000c0 09 38 b4 3d 2d 59 be 3d b7 a1 9c 3e e8 9c 15 3d
       0.0879975 0.09294353 0.3059213 0.03652659
0000d0 16 8f 78 3e 7c b1 46 bc 57 56 13 3e 7e 1f 3d 3d
       0.24273333 -0.0121272765 0.14388405 0.04617261
0000e0 e2 55 d2 3e e0 4a 14 be b6 44 e1 be c5 5a f4 3e
       0.41081148 -0.14481688 -0.43997735 0.47725502
0000f0 4c d4 86 3e 5c 3b 59 bc 84 14 a8 3c 09 0f c0 3e
       0.26333845 -0.013258781 0.020517595 0.3751147
000100 38 af 94 bb d0 ee 33 be 4d 91 5f 3d 37 b9 05 3e
       -0.0045374893 -0.17571568 0.05458193 0.13058935
000110 00 80 0a be 20 f1 7d 3d c4 8d ef 3c 80 6b 1b 3e
       -0.1352539 0.061997533 0.029242404 0.15177727
000120 0e 35 09 bf 2f 49 cc 3b 69 54 80 be 2d 65 40 3b
       -0.5359658 0.00623431 -0.250644 0.002935718
000130 5a eb 90 be 70 26 ae 3e 9a 92 ba 3d 7c 4f 2a 3e
       -0.2830456 0.340137 0.09109993 0.16631883
000140 a7 0f c4 bd d9 be 63 3e ff 09 06 3e d8 7e 90 bd
       -0.09573298 0.22240771 0.1308975 -0.070554435
000150 94 71 2b bf aa d0 4c 3e 1d 3e 27 be 63 79 40 be
       -0.6697018 0.20001474 -0.16332288 -0.18796305
000160 39 ae 08 be 5b 38 17 3e 65 22 e5 3d 18 d0 d8 3e
       -0.1334771 0.14767592 0.11188201 0.42346263
000170 45 55 9d 3e 81 44 86 3e d8 9e c6 be 61 83 b5 3e
       0.30729118 0.2622414 -0.38793063 0.35451797
000180 13 8a 57 bf 3d f2 bb be 6a 08 9f 3e e6 d4 38 be
       -0.8419506 -0.3670825 0.31061107 -0.18049964
000190 76 70 6f bc b2 d4 5c bd 85 57 ab 3d a4 7b 60 3f
       -0.014614215 -0.05391378 0.083663024 0.8768866
0001a0 6c 5d f5 3e 41 2c 7e 3d 6c 85 ad bd 6d 6c f1 3d
       0.47922838 0.062053923 -0.08472714 0.11788259
0001b0 c1 7e 69 be bd 05 5f 3e 85 88 8b 3e 8b ce 66 3d
       -0.22802259 0.21779533 0.27252594 0.05634932
0001c0 40 ee 26 bf dd 31 e7 3d ca 44 09 bf 09 98 80 3e
       -0.6520729 0.112888075 -0.5362059 0.25115994
0001d0 31 2c 6e bd c4 15 a4 be 41 c9 00 3e 5e 12 0e 3e
       -0.058147613 -0.32047856 0.12576772 0.13874194
0001e0 69 0a 7f 3d 72 f6 8f bd 77 26 b1 3d 14 25 21 3f
       0.062265787 -0.070294276 0.08649915 0.629472
0001f0 90 c9 46 3e b4 29 41 3e d9 e8 93 be 99 85 c7 3e
       0.19412827 0.18863565 -0.28888586 0.38969114
000200 6a 9a 02 bf 6d 21 78 be 27 c2 c0 3b 8c ee ca bd
       -0.5101687 -0.24231501 0.0058825198 -0.099087805
000210 6c 1d 1f be 17 2d 0a be e8 9b e6 3e 5d 80 1e 3d
       -0.15538567 -0.13493763 0.45040822 0.038696636
000220 79 14 29 3f cc 9a 66 3e 26 51 49 be bc df 5a 3e
       0.66046864 0.22519988 -0.19659862 0.2137441
000230 df 57 a1 be 8d b7 18 3d cc df 8d 3a 67 f5 98 be
       -0.31512353 0.037284423 0.0010824143 -0.29874727
000240 8b 8d dc be b9 98 a3 be 09 2d 4f be 32 6d 5c 3e
       -0.4307674 -0.31952456 -0.20232023 0.2152603
000250 5c 35 45 3f 53 bb 3b 3e 12 4a 4f 3e 2d 2e bd 3e
       0.77034545 0.18333177 0.202431 0.36949292
000260 43 5b 40 3e 97 80 f4 3c 09 2f 49 be 6f 7f 09 be
       0.18784814 0.029846473 -0.19646849 -0.13427518
000270 0e 17 12 3f 08 db 88 bd 5b 7f 38 bc 94 e4 55 be
       0.5706643 -0.06682402 -0.011260833 -0.20887977
000280 c9 0b 08 3f ae 5a a5 bc d1 be d3 bf 66 6b 87 3e
       0.5314298 -0.020184841 -1.6542608 0.26449126
000290 f7 68 f1 3c 51 56 a9 bd ec 07 10 be 28 53 cd 3e
       0.029468996 -0.08268417 -0.14065522 0.40102506
0002a0 50 e2 d5 3d 84 19 34 3f bb 17 45 be 7c f8 b2 bd
       0.10443556 0.70351434 -0.19247334 -0.08738801
0002b0 fb 2e 49 3e 57 49 58 bf c2 eb 2a 3e ff 27 08 3a
       0.19646828 -0.8448691 0.16691497 0.0005193948
0002c0 83 9d 87 3e 2d 0f 83 bd b6 91 94 3d 4d 15 48 bd
       0.2648736 -0.06399379 0.07254355 -0.04884844
0002d0 40 62 9f 3e 4f 1f 71 3b 1f 9f 1c 3e 9b ea 0d 3d
       0.31129646 0.0036792343 0.15295075 0.034647565
0002e0 b5 ae af 3d b6 a5 9c 3e a1 ce 0b bd bc 26 46 bc
       0.085782446 0.30595177 -0.034132604 -0.012094196
0002f0 02 17 51 be 2c 36 c3 3c 5a 7e 34 bd 1c 62 2a bd
       -0.20418933 0.023829542 -0.04406581 -0.04159747
000300 1b 29 10 3c 0c ee 9e bc dd 34 58 3a ec 2f 2e bc
       0.008798863 -0.019400619 0.00082476233 -0.010631543
000310 86 c5 f8 3a c3 50 d7 35 b4 f2 02 bc 74 67 f4 b2
       0.0018979765 1.6042253e-06 -0.007992435 -2.8452384e-08
000320 a0 56 25 3c 51 08 76 ba 7e 81 06 3c 7f 8f 86 b2
       0.010091454 -0.00093853945 0.008209584 -1.5664908e-08
000330 89 84 10 b8 2f 71 86 bc 97 b1 6d 37 af d5 a6 3c
       -3.445571e-05 -0.016411392 1.4167649e-05 0.020365564
000340 3c fa 1e 3c 9d b8 91 3c 25 44 90 bc fe bd 89 bb
       0.009703215 0.017788226 -0.017610619 -0.004203557
000350 09 40 a1 3c e0 26 28 bc aa cf 1f bc 98 ef c6 3b
       0.019683855 -0.010263175 -0.009754101 0.0060710423
000360 cc 5c f3 ba 2f 49 a0 3b e0 59 dd 3a b2 98 a6 bc
       -0.0018567084 0.0048915367 0.0016887747 -0.020336483
000370 8a e5 c0 ba ea 71 34 32 74 e8 9d bc 15 c1 c1 3b
       -0.0014716845 1.050328e-08 -0.019275881 0.0059129097
000380 02 46 48 3a 21 58 9e bb 2a 6f 60 b9 a5 9d 01 ba
       0.00076398265 -0.004832283 -0.00021403717 -0.00049444503
000390 4f 91 34 3a d6 b1 86 35 2c bc e5 b8 d0 80 13 2f
       0.0006888108 1.0035535e-06 -0.00010954621 1.3415336e-10
0003a0 e5 dd 5e 38 05 2b 7e b6 b7 fc 13 3b 0f 45 e3 35
       5.313558e-05 -3.787399e-06 0.002258105 1.6932917e-06
0003b0 e3 5e 42 ba 89 9e 44 bb 36 d5 ca b9 03 9c c2 3b
       -0.0007414652 -0.003000172 -0.00038687297 0.005939008
0003c0 14 49 8f 39 a8 e1 4f 3b 31 80 12 ba 18 e7 51 b6
       0.00027329533 0.0031720195 -0.000558856 -3.1277941e-06
0003d0 ce 4e e8 3b 37 0f bf b8 fc 9f 25 b9 2e 30 85 3b
       0.0070894724 -9.110424e-05 -0.00015795225 0.0040645814
0003e0 46 49 c0 b7 1d 46 07 3a 04 8f 51 38 5a 53 4e bb
       -2.2922304e-05 0.0005160289 4.9962677e-05 -0.0031482787
0003f0 5e 97 30 b6 c8 39 96 2d bf 1b ef ba 7a db 77 35
       -2.631415e-06 1.7078686e-11 -0.0018242522 9.233405e-07

conv3.bias f4 [20]
000000 ae 16 1f be fe ce 43 3e be 39 46 be be ed 77 3e
       -0.15535995 0.1912193 -0.19357964 0.24211785
000010 22 0e 8e 3e c3 14 25 3e 83 fb 94 bc 0f ee 42 bb
       0.27745157 0.16121201 -0.018186336 -0.0029743945
000020 bb fb 8f 3e b2 dc 36 3e 4e cb 6b 3e 78 29 07 bc
       0.28121743 0.17857626 0.23026773 -0.008249633
000030 37 d5 05 bc 86 fb f9 3c 03 25 9c 3c e0 b1 96 3e
       -0.00816851 0.030515444 0.019060617 0.29432583
000040 f4 ac e4 3d 47 d0 91 bc 33 05 de b9 1f 76 9a 3d
       0.11165801 -0.01779951 -0.00042347013 0.07542061

conv4.weight f4 [20, 1, 3, 3]
000000 47 4e cc be c9 3f ab be b6 f1 d3 3e 99 2e e4 3c
       -0.3990347 -0.33447102 0.41395348 0.02785425
000010 0b e4 29 3f 4d 41 38 3f d9 a9 27 3e 8d 2d e2 3e
       0.6636359 0.7197464 0.16373385 0.44175377
000020 cf 5e 06 bd 9a 61 8d be fc 20 ee be 60 39 90 be
       -0.03280526 -0.27613527 -0.4650954 -0.28168774
000030 d7 3e c0 3d 83 2d 71 3e 0f a5 bd be 2f 56 b9 bd
       0.09386986 0.23552518 -0.37039992 -0.09049641
000040 52 0e 0d 3f 7a 29 a6 3e 03 ca 3c be 0f 60 e5 be
       0.55099976 0.3245352 -0.18436436 -0.4479985
000050 1c 66 8d be 0c bc 59 be a5 2b 89 bf 3e 4b 64 be
       -0.27616966 -0.2126314 -1.0716444 -0.22294328
000060 e1 a1 35 be 10 d3 61 be 31 b3 11 3e 96 40 81 be
       -0.17737533 -0.2205317 0.14228512 -0.25244588
000070 e5 24 c2 3e 1b 1a a3 3e a4 53 1e bf 77 a1 17 3f
       0.37918773 0.31855854 -0.61846375 0.5923075
000080 fd d6 47 3f 4d 84 60 be 3b 63 e5 3e fe f9 33 3e
       0.7806242 -0.21925469 0.4480227 0.17575833
000090 d3 ce 1b 3e 75 90 14 bf e5 b9 37 be 7f 03 37 be
       0.15215616 -0.58032924 -0.17942007 -0.17872427
0000a0 f1 69 4a be 9e f5 46 be a0 66 2c 3f cd 71 21 3f
       -0.19766976 -0.19429633 0.67344093 0.6306427
0000b0 6a bd 90 be 7f 73 18 3d f4 5e 2e bf 2e 61 c2 bf
       -0.2826951 0.03721952 -0.68113637 -1.5185907
0000c0 e5 c9 c9 be a3 12 5f bf 09 74 37 bf cd de 78 bf
       -0.39411846 -0.8713781 -0.7166143 -0.97214967
0000d0 a9 82 18 bf 4b 8f 62 bf ac cd 97 ba b4 9c 20 bb
       -0.5957437 -0.884999 -0.0011581681 -0.0024507465
0000e0 63 e8 0e bb d1 1d c9 b9 3c 39 ba b9 09 ae aa b2
       -0.0021805994 -0.00038359922 -0.00035519328 -1.9869747e-08
0000f0 4f cb 32 b9 57 ae be b7 5d 93 17 20 a3 d7 4f 3c
       -0.00017051141 -2.2730948e-05 1.2838956e-19 0.012685689
000100 54 b2 6c 3c fa 7c 4c 3c 1b 12 24 3c 8d 4c 20 3c
       0.014446814 0.012480969 0.010014082 0.009783876
000110 6b 97 9d 3b d7 d5 dd 3b d3 a8 72 3b 27 f2 1f 38
       0.00480931 0.0067698765 0.0037026897 3.8134076e-05
000120 6e bb 12 3e ca a2 1c 3f 10 fb f2 3e 94 74 d9 bd
       0.14329311 0.61185896 0.4745717 -0.10617939
000130 39 2e ad 3e 8a fd 28 3d cc c5 8d 3d 16 8d 00 3f
       0.33824328 0.04125742 0.069224924 0.5021528
000140 78 5c 36 be 2f 8c e5 3e 5a f7 f8 bd 28 b5 c8 bd
       -0.17808712 0.44833514 -0.121565536 -0.09800178
000150 68 e0 ff 3b c4 74 87 3e 3c 2f de be 9e 13 f9 bd
       0.0078087337 0.26456273 -0.43395412 -0.12161945
000160 20 ea 07 bf 57 2c a2 be de a4 29 39 a1 01 02 be
       -0.5309162 -0.31674454 0.00016178514 -0.12695934
000170 81 4b 1c bf 17 39 4a be d0 60 b4 3e dc 05 d0 3e
       -0.6105271 -0.1974834 0.35230112 0.4062947
000180 82 bc 78 bc d5 42 f5 3e 5a 0f 08 3f 96 96 56 bc
       -0.0151816625 0.4790255 0.53148425 -0.013097426
000190 45 20 9c bc a8 cb f4 bb 93 16 6c bc fb 65 cf bc
       -0.019058356 -0.007470567 -0.014409679 -0.025317183
0001a0 dc c7 a2 bc e1 d9 68 bc 76 60 af bc a3 40 df bc
       -0.019870691 -0.014212103 -0.0214083 -0.0272525
0001b0 e1 53 4d bc c0 e1 7b bc 5e 22 ce bc 9d fe 9c bc
       -0.012532205 -0.015373647 -0.025162872 -0.019164378
0001c0 f7 54 db bc 09 5a d1 bc 32 c3 93 3c df 3e 1c bc
       -0.026773913 -0.025555627 0.018037412 -0.009536474
0001d0 1c 21 25 bb dd 0d 3f 3f 15 22 87 3e 33 f3 5b 3e
       -0.0025196737 0.7463053 0.2639319 0.21479492
0001e0 26 46 3f 3f 6d 15 a4 bd 15 17 26 be 40 c7 f4 bd
       0.74716413 -0.08011899 -0.16219743 -0.119520664
0001f0 7b be 57 be ed 8f 19 3d 6c 4d d4 3d 33 5e db bd
       -0.21068756 0.037490774 0.103663296 -0.107113265
000200 a4 27 62 3d 57 9c 28 3c 7c 67 0d 3f 32 af 48 3f
       0.055213585 0.010291181 0.5523603 0.78392327
000210 2b 2d 79 be b4 a4 06 3e d1 9b b1 3d fd 91 1c bd
       -0.24333636 0.13148767 0.08672298 -0.038225163
000220 62 55 be be 32 28 19 3c a0 4d 32 bf 4a b1 20 be
       -0.37174517 0.009347962 -0.69649696 -0.1569263
000230 7f 97 4e 3e 0b 65 e8 be 67 ac f7 bd 53 56 0b 3f
       0.20174979 -0.4538959 -0.1209343 0.54428595
000240 09 9c 00 be d9 bd 9d be 1c 51 5f bd b4 39 09 3f
       -0.12559523 -0.30808905 -0.05452071 0.53603673
000250 5f 6c 06 bf 94 48 02 bf 60 06 87 3e c8 f6 0e be
       -0.5250911 -0.50891995 0.2637205 -0.13961327
000260 34 1f 7a 3e e8 9e f7 3c 70 b7 d6 3e d8 1f fa 3e
       0.24425966 0.03022714 0.41936827 0.4885242
000270 c2 81 c4 3e 5b 41 0d 3f fc 0d 22 3f da 92 72 bd
       0.38380247 0.5517785 0.6330259 -0.05922208
000280 19 41 1e 3e ab 12 67 3e 23 1f bf bb 7d f6 d1 bb
       0.1545452 0.22565715 -0.005832569 -0.0064075575
000290 32 c9 56 bb 61 5f 07 bb 06 ee 2c bb c0 37 80 ba
       -0.003277373 -0.0020656215 -0.002638699 -0.000978224
0002a0 59 d7 77 ba 11 97 fe ba 55 2b 69 ba 1b 36 6d 3e
       -0.00094543915 -0.0019423683 -0.00088947016 0.23165171
0002b0 93 db bd 3d 98 89 d7 3e b0 71 2a 3c 1e 9a c3 3e
       0.09270396 0.42097163 0.010403082 0.3820352
0002c0 64 7d 34 3f 99 79 15 3f 88 11 7e 3f a0 57 85 3c
       0.7050383 0.5838867 0.992455 0.016277134

conv4.bias f4 [20]
000000 34 73 57 be 5d 60 9e 3e c5 87 88 3d 27 ce c3 be
       -0.2104004 0.30932894 0.06666521 -0.3824322
000010 cc d1 f6 3e 1f 50 b9 bc ac 28 97 3d 21 79 26 be
       0.48206937 -0.022621213 0.073808044 -0.16257145
000020 2b 78 93 be a7 4e 0e be 68 58 28 3e 42 5e 2d be
       -0.28802618 -0.13897191 0.16439974 -0.16930488
000030 a1 05 03 3e d8 f8 d8 be 5d 3c 7d 3e c0 72 97 bd
       0.12795116 -0.42377353 0.24730058 -0.07394934
000040 62 32 31 3d 02 37 bb be 6e d3 3b 3d 29 62 d7 be
       0.04326094 -0.36565405 0.045855932 -0.42067078

conv5.weight f4 [20, 20, 1, 1]
000000 f9 62 3a 3e e2 49 a8 bd 2d 21 db be 3f 04 87 be
       0.18201818 -0.08217217 -0.4279875 -0.26370427
000010 97 02 be 3e 42 bb 47 3f 7d 0c 4b bd f7 37 70 3e
       0.3711135 0.7802011 -0.049572457 0.23458849
000020 44 86 90 bd c1 18 a0 bd bb 9a d3 bd 09 bc 15 bd
       -0.07056859 -0.078172214 -0.10332247 -0.036556277
000030 b6 67 6a be 4c 08 a7 3d 00 9b 22 3e 70 02 1d be
       -0.22891125 0.081558794 0.1587944 -0.15332961
000040 0a 67 4c 3e 28 a4 5f 3d ca e6 93 bd 10 f3 7c 3e
       0.19961181 0.05459991 -0.07221754 0.24702096
000050 40 a8 a4 3e 06 98 e4 bd eb 81 a9 3e e6 48 24 bc
       0.32159615 -0.11161809 0.33106932 -0.010027146
000060 c7 a7 f0 3c aa 42 ed 3d a6 f3 d3 bc ef 75 25 3e
       0.029376877 0.11584981 -0.025873017 0.1615827
000070 c4 15 bc 3e 3d 46 d7 be 9d 58 8b 3e 2b 9c 90 bc
       0.36735356 -0.42045775 0.27216044 -0.017652592
000080 36 96 01 be 3c c4 89 bf 4c d2 29 be db 33 3d be
       -0.12654957 -1.0763011 -0.16584128 -0.18476813
000090 1f fd 86 3e 75 ee 77 bd 3f 4c 80 bd 69 48 8b be
       0.2636499 -0.060530145 -0.06264543 -0.27203682
0000a0 1b ec d9 be a7 76 84 be ce d2 44 be 3b 86 10 bf
       -0.42562947 -0.25871775 -0.1922104 -0.5645482
0000b0 3d 9b 8a 3e fd 23 74 3d 8d 49 56 bd 89 28 70 3d
       0.27071562 0.059604634 -0.052316237 0.058632407
0000c0 7a c4 e0 3e df ca 27 be 8e 4c 7a be c2 68 5c bb
       0.438999 -0.16385983 -0.24443266 -0.0033631776
0000d0 b0 60 8c 3d 67 ad 0e bf 8d b2 ef 3e 93 bb 71 3e
       0.06854379 -0.5573334 0.4681591 0.2360671
0000e0 5c f7 7d be 3e 1f 1d bf c2 4c f7 3c 07 da ca 3e
       -0.24801391 -0.61375797 0.030187968 0.39619467
0000f0 b5 c7 2a 3e b9 dc 87 be 21 da 4b 3d e6 c4 e8 3b
       0.16677745 -0.26535586 0.04976857 0.0071035502
000100 9b 25 b6 3d 74 9d 8b 3e cf 80 8a 3d 9d 4e ca 3d
       0.088938914 0.27268565 0.067628495 0.098782755
000110 0c 98 50 3e 2a 84 bf 3e 15 89 be 3e 7d 5d 0d bd
       0.20370501 0.3740552 0.3721396 -0.034512985
000120 69 01 ec 3c dd 9f 3b be 61 d7 6d be 41 60 02 3d
       0.028809266 -0.18322702 -0.23226692 0.031830076
000130 da 94 a1 3c 75 cb 32 3f 80 07 93 3c 4a 18 8c be
       0.019724298 0.698417 0.017947912 -0.2736228
000140 56 81 ee b9 5a 81 34 3a b7 ed 63 3b 3f 18 08 ba
       -0.0004549126 0.000688573 0.003477914 -0.0005191601
000150 8e da 1d 3a 64 4f bc 37 40 06 98 b6 d8 a3 2b 38
       0.0006021642 2.2448316e-05 -4.5306806e-06 4.092217e-05
000160 10 f0 41 bb 88 ed 87 3a 06 7d 27 bb 14 6c b0 38
       -0.0029592551 0.0010370472 -0.0025556698 8.412465e-05
000170 47 58 5b b8 9b ee 9d 38 ca f1 fe ba 70 17 b3 3b
       -5.2295884e-05 7.530787e-05 -0.0019450721 0.0054654405
000180 8a 95 1d 3a b5 46 93 ba f7 a7 ba 36 a6 53 54 ba
       0.0006011358 -0.0011236282 5.5627856e-06 -0.0008099623
000190 f8 aa a3 3e 55 8b f4 be 8c 62 15 3a 8e ca 5b bd
       0.31966376 -0.47762552 0.00056985836 -0.053659968
0001a0 2e ea 1f bf 81 0c f2 3e 2e 76 0c be 67 52 09 3e
       -0.62466705 0.47275165 -0.13716957 0.1341034
0001b0 03 07 bf 3c b7 1e 05 3e a9 e3 8f be 3f e5 dc bd
       0.023318773 0.12999998 -0.28103378 -0.10785913
0001c0 a0 b7 b0 3d 3e 7c 7e be 51 3c 9b 3c ba 19 38 be
       0.08628774 -0.24852082 0.01894966 -0.17978564
0001d0 4d 89 89 bd c4 40 95 3d 81 4c 0f 3d fc 5b 5b 3e
       -0.06715641 0.07287744 0.03498507 0.21421808
0001e0 d4 53 85 3d 36 b1 09 3e 68 b6 98 3e 2d 92 f2 bd
       0.065101296 0.13446507 0.29826665 -0.11844287
0001f0 b5 ad a1 be 9d 71 a0 be c8 a0 8a 3d 98 4e 64 3d
       -0.3157784 -0.3133668 0.06768948 0.055739015
000200 f2 99 59 be be 7a cd bd a6 d4 e4 3e 06 d8 d5 bd
       -0.21250132 -0.10033177 0.44693488 -0.10441594
000210 c7 52 00 3e 4f 3a cc be f2 ad 31 be 23 6f 9c be
       0.12531577 -0.39888236 -0.17351511 -0.3055354
000220 72 fc 96 be 41 aa d8 be cc f6 1f 3e b2 1c 50 3e
       -0.29489475 -0.42317393 0.1562149 0.20323446
000230 92 42 e2 bd 74 2a 32 3e 84 52 fd 3c e3 87 8b bd
       -0.110478535 0.17399007 0.030923136 -0.06813028
000240 6f 44 39 3e d0 76 87 bf bf 98 21 be 9d 4e 28 3e
       0.18092512 -1.0583134 -0.15780924 0.16436239
000250 45 94 1e 3e 25 85 32 be b1 68 b9 3e d6 3c 3b 3e
       0.15486248 -0.17433603 0.36212686 0.18284926
000260 3e bb 08 be ed ae df 3e 32 29 d9 be f8 d9 5d 3e
       -0.13352677 0.43688145 -0.42414242 0.2166518
000270 81 5c 04 bd 59 b1 f3 bd 09 17 45 bd 37 97 e1 be
       -0.03231478 -0.11899061 -0.04811767 -0.4406068
000280 e9 77 c8 3d 12 10 fa 3d 29 d4 ae 3e c1 2c 1f be
       0.09788496 0.122100964 0.3414624 -0.15544416
000290 cf d4 95 be 1a 2a 22 be 64 9f 2b 3e 88 e1 56 be
       -0.29263923 -0.15836373 0.16760021 -0.20984471
0002a0 73 d3 84 3e 41 90 ae 39 d4 05 73 3e ab d1 99 bd
       0.25942573 0.00033295344 0.23732692 -0.07510694
0002b0 4e b7 c5 bd fb dc ea bd eb 36 e7 bd 7c ee eb 3e
       -0.09654103 -0.1146793 -0.11289772 0.46080387
0002c0 6a 85 c9 be 06 9f 92 be e6 41 f6 3d 80 a9 f7 3e
       -0.393596 -0.2863695 0.12024288 0.48371506
0002d0 04 40 cb be 86 fb 23 3e 4f 44 bf 3e 97 45 28 bf
       -0.39697278 0.16013917 0.37356803 -0.65731186
0002e0 a2 8b c5 bd 2c 70 a0 be d9 06 de 3d 11 0a 13 3c
       -0.096457735 -0.3133558 0.1084115 0.008974568
0002f0 ba 23 25 be d4 20 e9 be 14 fc 2d 3e 07 e5 0b bd
       -0.1612691 -0.45532858 0.16990691 -0.034153964
000300 b3 64 9d 3d 38 72 a3 3e ec 26 44 3e 42 09 92 3d
       0.076852225 0.3192308 0.19155473 0.07130672
000310 63 90 27 3f 64 7c ea 3d 72 36 b2 3d 85 71 33 3e
       0.6545469 0.11449507 0.08701791 0.17523773
000320 09 d2 f9 3d dd cf 68 be 12 e9 17 3e 58 3e e7 be
       0.12198264 -0.22735544 0.14835003 -0.45164752
000330 0f 11 83 be b6 cb fb be 75 c1 4c 3e e1 d2 f7 bd
       -0.25598952 -0.49178857 0.19995673 -0.12100769
000340 f0 fa e2 3e a5 5f 3f be ac 79 46 be 36 2d 43 be
       0.44332075 -0.18688829 -0.19382352 -0.19060215
000350 d0 a8 84 3d 1a 1c 1b bf 8d a0 1b be e1 02 81 be
       0.06477511 -0.60589755 -0.15197964 -0.2519751
000360 5c d4 43 bd ca 8d c1 3e 81 07 fa 3d 98 66 2c bf
       -0.047809944 0.3780349 0.122084625 -0.67344046
000370 95 c5 89 be 44 fd 45 3d 53 ea 05 3e 88 a6 d6 3e
       -0.26908556 0.048337236 0.13077669 0.41923928
000380 59 b9 5f be 7e f5 b0 3e 58 98 f8 bd 1b 4e f7 3a
       -0.21848048 0.34562296 -0.12138432 0.0018867882
000390 c5 17 9c 3e 5c 70 f9 bd f2 fa 70 be 1a 90 d8 3d
       0.30486885 -0.12179634 -0.23533228 0.1057436
0003a0 7b 7d 88 bc 34 49 bb 3e 88 56 cf be 88 f2 b9 37
       -0.016661396 0.36579287 -0.40495706 2.2166656e-05
0003b0 ea 86 c1 bd e5 ae e3 bd c2 2c cc bd 74 a1 f1 3d
       -0.09449561 -0.11117343 -0.099694744 0.11798373
0003c0 49 a3 51 3e 40 1a 68 be c7 02 5d be 39 65 99 3d
       0.20472445 -0.22666264 -0.2158309 0.0749001
0003d0 d1 b7 2d be 19 73 ff be f0 f4 6a be f9 ec 84 3e
       -0.16964652 -0.498925 -0.22944999 0.25962046
0003e0 4f b2 80 be 78 3e 5b 3e 8c 5e 58 3c 3d 10 6e 3e
       -0.2513604 0.21410549 0.0132061355 0.23248382
0003f0 12 a9 48 be 71 73 b6 3e c3 aa b3 bd 9e 90 88 3e
       -0.19595745 0.3563495 -0.087728046 0.26672834

conv5.bias f4 [20]
000000 ae e1 bd 3d 47 67 27 be ec 30 4a be 39 ee 0b 3d
       0.092715606 -0.16347991 -0.19745225 0.034162734
000010 02 e0 e3 b9 ac 9a 65 3d 8b 46 9b bc 18 7d a1 be
       -0.00043463713 0.05605571 -0.018954536 -0.3154075
000020 2b 29 61 3e 92 9b 7d 3c c8 eb 87 3d d4 12 40 bd
       0.2198836 0.015478985 0.066367686 -0.046892956
000030 2b c2 c2 be 3c b7 98 3d 01 cc be bb 84 e2 4a b9
       -0.38038763 0.07456824 -0.005822659 -0.00019348605
000040 3a ec 41 3e 2a 9b e6 3b 6d 6f 7e be 87 c5 0d 3e
       0.1893777 0.00703754 -0.24847193 0.13844882

linear.weight f4 [10, 320]
000000 dd a6 80 bb d3 ac bd 3d b3 63 8c 3c 92 3b 52 bd
       -0.0039261417 0.09261479 0.017137384 -0.051326342
000010 e8 c7 e7 3d 23 5a 5d 3d 19 63 46 3d 7f c1 9f bd
       0.11317426 0.05404104 0.04843435 -0.07800578
000020 2c da 81 3d 9f 69 a7 bc b9 53 08 bd 29 df 47 3d
       0.06340441 -0.020436106 -0.03328297 0.048796806
000030 84 ba 54 bc 42 58 39 be 49 59 b8 bd 67 d0 02 3e
       -0.012983922 -0.18100074 -0.09001405 0.12774812
000040 f8 56 e6 3d 17 19 c0 3c 99 34 64 3e db 6a c4 3e
       0.11247057 0.023449464 0.2228569 0.38362774
000050 55 d9 e2 bd 81 34 bb 3d bf 2f ba 3b e1 24 cd 3d
       -0.11076609 0.09140874 0.0056819613 0.100168
000060 68 8f a8 bd 02 08 33 bb 43 38 97 bd 6d 4e 4e be
       -0.082304776 -0.0027318005 -0.07383778 -0.20147105
000070 2d 11 83 be 56 30 e8 3d ec 74 50 3d 18 c1 c6 bd
       -0.25599042 0.11337344 0.050892755 -0.097047985
000080 7f 34 94 bd e1 9b 2f be 3b 04 df 3d a5 6f 5d be
       -0.07236575 -0.17149307 0.10889479 -0.2162462
000090 86 74 c0 3d 2e 4f ca be 57 6f ab be a2 15 03 be
       0.09397225 -0.39513534 -0.33483383 -0.12801221
0000a0 ff d2 2b 3e 0c 04 28 bd 7f c8 09 bc db 21 d9 3e
       0.16779707 -0.041019484 -0.008409618 0.42408642
0000b0 83 4f e4 3d 11 87 78 be 72 e3 0b be 21 13 4c 3e
       0.11147978 -0.24270274 -0.13660982 0.19929172
0000c0 3e c6 88 bd 49 7f f2 bd f0 95 b8 bc ac 9b 09 3c
       -0.06678437 -0.11840684 -0.022532433 0.0083989315
0000d0 73 6b 1e 3d 33 9e 38 3d 3c c8 12 3b 37 4a e5 bc
       0.03867669 0.045072746 0.002239718 -0.02798949
0000e0 65 50 4a bb b6 87 40 bd 0f 12 44 3c 75 30 79 bd
       -0.0030870673 -0.047004424 0.011967196 -0.060837228
0000f0 cb 57 1d be 45 f7 74 bc f7 60 d6 bd c8 51 cc be
       -0.15365522 -0.014951532 -0.10467713 -0.39906144
000100 55 70 c4 2f 61 9a 79 2e 45 c0 41 af bf f5 02 b4
       3.573201e-10 5.675316e-11 -1.7621556e-10 -1.2196595e-07
000110 8c 11 51 39 f1 69 ca 2c 3d f6 1b 0f 70 40 ce 8f
       0.0001993833 5.752947e-12 7.689514e-30 -2.0337989e-29
000120 ed 62 08 38 85 b6 ab 2d 2d d1 50 18 65 50 9e 80
       3.251706e-05 1.9521504e-11 2.6988977e-24 -1.4538849e-38
000130 e1 4f b1 b1 f6 cf cc 2d fb f1 3b 1f 28 15 20 80
       -5.160459e-09 2.3284468e-11 3.9798952e-20 -2.946325e-39
000140 9d 07 85 3e 4f 6a 49 3d d0 9e 65 bd 8d 1a 9e 3d
       0.2598237 0.04917365 -0.05605966 0.07719908
000150 5e 50 71 3d 26 75 15 be 3c 2f a2 bd 86 4b 3c 3d
       0.058914535 -0.1459547 -0.079191655 0.045970462
000160 54 29 b6 be 51 9d 9c bd a0 a4 29 3e 7d b2 9d 3d
       -0.35578406 -0.07647193 0.16566706 0.077000596
000170 69 0f 5b bd 3d c2 95 bd 7c 41 9e 3c 81 a4 42 3c
       -0.053481493 -0.07312439 0.019318335 0.011880041
000180 45 5d f1 3d c5 9d 1a be e8 e4 c1 bd ac 5f b2 be
       0.11785368 -0.15099247 -0.094674885 -0.34838617
000190 06 09 66 3e 8d 1b d5 3d de 57 09 bd ec 92 65 be
       0.2246438 0.104056455 -0.033531062 -0.22419327
0001a0 85 24 cb bd f0 b9 dd 3d 2b 3f f4 bd 6d 24 ca bd
       -0.09919075 0.108264804 -0.11926111 -0.09870229
0001b0 5f 81 93 bc 2d 75 17 3e 84 9a 24 3d 18 dc 1c 3e
       -0.018006025 0.14790793 0.04018642 0.15318334
0001c0 fd 46 2c bd af fe a1 bd 90 1d d0 bd ae 7a 7c bb
       -0.042059887 -0.07909905 -0.101618886 -0.0038525271
0001d0 89 71 3e be 27 e4 3a 3d 7f c5 09 3d 80 bb d6 3d
       -0.18597998 0.04562774 0.033635613 0.104849815
0001e0 39 f4 3e 3d 01 1b db 3d 2e 0a 19 3d 36 9d 84 bd
       0.046619628 0.1069851 0.037363224 -0.06475298
0001f0 90 f8 58 3e 86 c7 17 3e 56 d0 8d 3d a3 10 b3 bd
       0.21188569 0.14822206 0.069245026 -0.087434076
000200 f9 08 1a bd 40 29 7a be 56 98 bd 3e a3 da b2 be
       -0.037606213 -0.24429798 0.37030286 -0.34932432
000210 9c 41 fb bc e3 36 de bd 24 7a a7 3d d7 62 a3 be
       -0.030670933 -0.108503126 0.08177593 -0.31911346
000220 b5 29 b4 3c dc 68 e1 3d 25 22 50 3e 83 f0 81 3e
       0.021992544 0.110063285 0.20325525 0.25378808
000230 44 10 fd ba ce 55 0a 3e 11 d7 16 3e e1 2b 62 3d
       -0.0019307216 0.13509294 0.14730479 0.055217627
000240 80 4d 37 be 89 e9 55 be c1 92 96 bc 88 59 80 3c
       -0.17900658 -0.20889868 -0.018380525 0.015667692
000250 fe 48 fb bc 5a ca 2f bc 69 95 73 be cb b7 d0 bd
       -0.030674454 -0.010729397 -0.23787464 -0.10191306
000260 eb 6c 14 3e bd 51 cc be ad 75 4c bd 3d 22 b2 3d
       0.14494674 -0.3990611 -0.049916912 0.08697937
000270 34 28 0e 3e 79 5d 20 3e 6f 03 1a be 85 46 99 3d
       0.13882524 0.15660657 -0.15040372 0.07484154
000280 db 5a 60 3e fd e7 3e 3e e2 45 29 bd 42 11 19 be
       0.21909659 0.18643184 -0.04132641 -0.1494799
000290 6f d1 95 3e 61 75 19 3e 53 3c b0 3d da 0b 44 bd
       0.29261348 0.14986183 0.08605256 -0.047862865
0002a0 fe 17 b3 be 3c 5d 7c be b7 73 10 bc 17 34 cd bc
       -0.34979242 -0.24644941 -0.008816651 -0.025049252
0002b0 08 9b 47 be 9c bf e3 3d 77 78 1e 3d 4f 0e 83 be
       -0.19492733 0.11120531 0.038689103 -0.25596854
0002c0 cc b8 bc 3d a8 7c 9f 3d 84 9e 25 bc 19 98 0e 3a
       0.09214935 0.07787448 -0.010108594 0.00054395344
0002d0 83 38 1d 3e 62 4d ef bc f8 d2 c3 3d 7e 93 0d 3e
       0.15353589 -0.029211704 0.095617235 0.13825795
0002e0 3b d0 31 3d fe 3b 39 bd 59 23 12 be ec 1a 1f 3b
       0.043411475 -0.04522323 -0.14271297 0.0024277521
0002f0 12 46 e2 bc 5d c8 22 bd 38 88 41 3d 95 3a 42 3d
       -0.027621303 -0.039741863 0.04724905 0.04741915
000300 db 53 27 be 8b 9a b9 3d f2 31 0f 3e 4c 6b 69 3e
       -0.16340582 0.0906268 0.13983896 0.22794837
000310 26 62 41 bd d5 e3 22 3e 5a ca cc 3e a4 26 6b be
       -0.047212742 0.15907224 0.39998132 -0.22963959
000320 a2 e3 13 ba 23 4e 49 bd e7 fe 2a 3c 42 99 43 3e
       -0.0005641525 -0.049146783 0.01043675 0.19101432
000330 cd 73 e7 3d 12 fb 91 bc d4 26 9b bc e4 8c e5 bd
       0.11301384 -0.017819915 -0.018939413 -0.112085134
000340 56 51 7f 3e 13 c2 a3 3d 38 09 9c bd 1b b8 f1 3d
       0.24933371 0.07996001 -0.07618946 0.118026935
000350 da 96 04 3e 0b d6 af bd 7a 67 b7 3d e9 66 94 bc
       0.1294817 -0.08585747 0.089552835 -0.018115478
000360 69 c1 81 bd 33 e9 16 be 19 54 60 3e 4f 4f e3 3c
       -0.06335718 -0.14737396 0.2190708 0.027747778
000370 50 bd e1 3d ca 46 00 3e 09 ec d7 bd 2f 17 a4 bd
       0.110224366 0.12527004 -0.10543067 -0.080122344
000380 fc ef 91 bc 2d 7b c8 bd bb d4 a5 3d 48 b7 a9 3d
       -0.017814629 -0.09789119 0.08097216 0.08286911
000390 a5 ce 43 3d e4 ee b3 bd 66 c6 dd bc 79 c7 53 3b
       0.047804493 -0.08785799 -0.027072143 0.003231494
0003a0 a3 0f c1 3e 7d 96 83 3d 35 82 dd 3d b9 cf 16 be
       0.37707242 0.06425188 0.10815851 -0.14727677
0003b0 17 ce ec be 29 79 04 be c3 fe a8 3c 40 6c e1 bb
       -0.46250984 -0.12936844 0.020629292 -0.0068793595
0003c0 3b bf 04 b8 1a 17 c8 b6 c3 07 d4 b2 23 2f 31 2a
       -3.164935e-05 -5.963154e-06 -2.4683578e-08 1.5737112e-13
0003d0 b3 9d 64 b8 a4 aa f7 b7 5c f7 ce b5 29 db 19 b2
       -5.4506305e-05 -2.9524155e-05 -1.5420187e-06 -8.955603e-09
0003e0 f5 a9 f9 b7 88 d5 86 b7 3b 7a b8 b4 cf be 1e 24
       -2.9762256e-05 -1.6073478e-05 -3.4361605e-07 3.442241e-17
0003f0 96 c2 a8 b6 bc 8d 15 b8 70 31 bf b6 9c 32 22 2d
       -5.029443e-06 -3.565637e-05 -5.697999e-06 9.219871e-12

linear.bias f4 [10]
000000 2e 17 f4 bd 10 92 5c 3d 0e d7 45 3e 9a 62 6d bd
       -0.11918484 0.053850234 0.19320318 -0.057955362
000010 d6 36 21 be 26 01 c0 3e 65 8f 03 3e 21 0a 1e be
       -0.15743575 0.37500876 0.1284767 -0.15433551
000020 35 48 1b 3d 1b 9c d7 be
       0.03791066 -0.42111287
