models/MNIST/mlp_num-layers=3_seed=013/099.pth (torch, 664231 bytes, 8 tensors)

linear1.weight f4 [128, 1024]
000000 8f 60 9e 81 18 43 66 81 b0 eb 4f 81 3c a0 ae 80
       -5.817859e-38 -4.2292466e-38 -3.8188993e-38 -1.6036858e-38
000010 0c 7b da 80 58 36 30 01 cb 4f ab 01 52 d7 28 81
       -2.0064279e-38 3.2365084e-38 6.2929977e-38 -3.1011211e-38
000020 e8 bf fb 00 cc 36 12 01 f4 65 9f 00 20 17 47 01
       2.3119553e-38 2.685528e-38 1.4638418e-38 3.656712e-38
000030 54 d8 cb 32 98 bf 2c 35 b4 ed 43 35 c1 32 b7 32
       2.3730685e-08 6.43538e-07 7.2989064e-07 2.1327084e-08
000040 a0 b5 2d a6 78 ca 2e 24 b0 00 69 80 38 45 d7 00
       -6.026758e-16 3.7901733e-17 -9.642974e-39 1.9769463e-38
000050 32 a3 34 01 b8 97 a1 80 fc e2 57 01 7f 96 b9 01
       3.3177866e-38 -1.4839941e-38 3.9652117e-38 6.817422e-38
000060 58 1c ff 80 ac ee 4c 01 40 69 ba 00 92 5e 80 01
       -2.342822e-38 3.764012e-38 1.7119159e-38 4.7155476e-38
000070 50 e1 bd 81 44 4b c4 00 90 da 67 80 58 f0 fb 00
       -6.975094e-38 1.8026757e-38 -9.537462e-39 2.3136929e-38
000080 88 16 c8 00 a0 15 ad 80 ca 60 44 81 d0 12 e2 80
       1.8375182e-38 -1.5895298e-38 -3.6068957e-38 -2.0761571e-38
000090 84 4a 23 02 fd 28 4d 83 9d 3d 5a af c1 82 18 bc
       1.1996734e-37 -6.0291138e-37 -1.9848874e-10 -0.009308518
0000a0 e9 b8 f8 bc b9 48 e5 bc 9f 74 ea ba 08 ac 20 3c
       -0.03036161 -0.027988778 -0.0017887539 0.00980664
0000b0 b1 3c 8f 3c f0 08 6d 3c ac 75 91 3c 7c 30 23 3c
       0.017484995 0.014467463 0.017756306 0.00996029
0000c0 bb 2f db 3c 94 27 b6 3c d5 b9 a0 3c 0b 40 83 3c
       0.026756158 0.02223567 0.019619862 0.016021749
0000d0 5d 97 34 3b 9d f6 a6 3b fe 81 12 38 62 df 39 37
       0.002755604 0.0050953166 3.4930177e-05 1.107887e-05
0000e0 75 f5 ad 3b 96 95 1f b0 a5 8f 68 2c 47 61 7b ab
       0.005308802 -5.805644e-10 3.3048922e-12 -8.9308113e-13
0000f0 86 30 97 01 50 5c f3 80 d0 79 66 81 f0 ad 2c 80
       5.553827e-38 -2.2349141e-38 -4.2331724e-38 -4.103159e-39
000100 2e 65 4d 81 20 40 52 00 28 36 49 81 ce a2 e8 00
       -3.7725146e-38 7.553514e-39 -3.6956725e-38 2.1364238e-38
000110 5d 68 f1 bc 25 0d f8 bc 39 7e 2b bd e1 71 5d bd
       -0.02946871 -0.030279705 -0.041868422 -0.05406368
000120 41 b6 46 bd 37 bc 8b bd 5d 29 d0 bd 03 8d ee bc
       -0.048513655 -0.068230085 -0.101641394 -0.029119974
000130 28 26 a0 3d c7 0b ce 3d 5b 84 e5 3d 57 5a 0c 3e
       0.07819778 0.1006084 0.112068854 0.13706337
000140 8d c6 fe 3d 33 da 9f 3d aa 51 86 3d aa c5 ad 3d
       0.12440214 0.0780529 0.06558545 0.08484967
000150 06 b7 dd 3d 0a 0b 99 3d 74 58 58 3c 29 44 b9 3b
       0.108259246 0.07472809 0.013204683 0.0056538773
000160 0f 0b 3e 3c 2d 6d a0 3b 25 ad db 39 a6 02 90 36
       0.011599316 0.0048958273 0.00041899938 4.2918427e-06
000170 d2 80 0f 9b 60 45 af 80 d6 62 6a 01 64 1f 0e 01
       -1.1870307e-22 -1.6096099e-38 4.3049924e-38 2.6103803e-38
000180 9e 9d 53 81 5c 39 9a 81 e5 90 90 34 5d 0d dd 36
       -3.8867664e-38 -5.665297e-38 2.6927515e-07 6.587869e-06
000190 64 da ba bc ed 3f 94 bc a9 49 83 bd fc 5d 0a be
       -0.022809215 -0.018096888 -0.06410534 -0.13512415
0001a0 68 ea 3e be a4 02 30 be bf 4d 0d be ba f4 36 3d
       -0.18644106 -0.17188507 -0.13799189 0.044666983
0001b0 2f db 5b 3e 28 c4 b5 3e 9c 66 96 3e 76 f9 54 3e
       0.2147033 0.35501218 0.2937516 0.20798287
0001c0 e9 66 13 3e a6 b4 3d 3e 4a a3 2d 3e 02 b3 7b 3d
       0.14394726 0.18525943 0.16956821 0.061450012
0001d0 e1 45 35 bc 8e 4c b0 bd 28 4d 33 be 0e 55 01 be
       -0.011064024 -0.08608352 -0.17509902 -0.12630102
0001e0 92 f7 b0 bd b5 24 c2 bc e2 6c b7 bc 76 7a 8f bb
       -0.0864097 -0.023699144 -0.022390787 -0.004378612
0001f0 03 a4 e0 ba b5 7a e6 97 53 b9 ee 80 e8 ad 12 81
       -0.0017138723 -1.4894377e-24 -2.192333e-38 -2.6940736e-38
000200 63 df 99 01 f8 65 54 80 3b 25 d3 32 f6 73 e4 b5
       5.652387e-38 -7.750761e-39 2.4580563e-08 -1.7021073e-06
000210 8c cc cf bb e5 8e c0 bd 07 82 76 be 06 03 7d be
       -0.0063415226 -0.09402255 -0.24073039 -0.24708185
000220 76 d0 b2 be 2c 93 a3 be 2b 31 0d be 33 c5 46 3d
       -0.34924668 -0.3194822 -0.13788287 0.048527908
000230 07 d6 0c 3e ec 23 46 3e 03 b8 46 3e be a7 12 3e
       0.1375352 0.1934964 0.19406132 0.14321801
000240 71 0e e6 3d 94 12 f0 3d da c8 b7 3b 43 a3 b8 bd
       0.11233223 0.117222935 0.00560866 -0.09015515
000250 ba 02 3f be 26 59 4d be 2a 67 a8 be 57 38 a5 be
       -0.18653384 -0.20053539 -0.32891208 -0.32269546
000260 5d 6c a0 be 5c f0 10 be 42 50 b1 bd be 16 ef bc
       -0.31332675 -0.1415419 -0.08657886 -0.029185649
000270 16 4d 00 ba 2e 49 c4 37 b5 3b 77 80 3d ae c9 00
       -0.0004894299 2.3399098e-05 -1.0949843e-38 1.852144e-38
000280 c6 3c 39 01 30 ac 3d 80 72 19 bc 36 c2 35 25 bd
       3.4022736e-38 -5.663735e-39 5.605799e-06 -0.04033447
000290 fd bf 84 bd 8f c3 22 be f6 96 82 be 2f f7 a7 be
       -0.06481931 -0.15894912 -0.255058 -0.32805774
0002a0 b0 ad ed be 0c dd d9 be 09 47 99 be e6 0d cc bd
       -0.46421576 -0.42551458 -0.29937008 -0.099635884
0002b0 17 36 39 3d fd 15 15 3e 63 96 bb 3d 28 ed fe 3d
       0.0452176 0.14559169 0.09159543 0.12447578
0002c0 b0 ad 1b 3e be e6 28 3e 12 2b 65 3c b2 1e 31 bd
       0.15202975 0.16494271 0.01398732 -0.043242164
0002d0 64 88 da bd 64 2d 5b be 22 22 bf be b6 e1 d6 be
       -0.10670546 -0.21404034 -0.3733073 -0.4196908
0002e0 c1 bf a4 be 8c 23 79 be a6 80 1a be e0 1d 00 bd
       -0.32177547 -0.24329966 -0.15088138 -0.03127849
0002f0 39 d9 88 bb a3 be 02 3a b3 f7 a4 81 93 86 38 00
       -0.0041762856 0.00049875135 -6.0599516e-38 5.191064e-39
000300 f9 15 33 97 00 16 e1 0f 2a 7f 16 bb 69 72 3a bd
       -5.7865753e-25 2.2195187e-29 -0.002296398 -0.045519266
000310 f9 bd 90 bd de 4c 08 be 4e 11 80 be 27 58 01 bf
       -0.070674844 -0.13310573 -0.25013202 -0.50525135
000320 a2 c0 1c bf d6 ba bd be af be 0c be b6 78 f1 bc
       -0.61231434 -0.37056607 -0.13744615 -0.029476505
000330 94 01 32 3b 25 34 da 3d c5 cd 68 3d 0f 36 30 3d
       0.0027161585 0.10654477 0.056836862 0.043020304
000340 02 29 b0 3c 8f cc b6 3d f9 fc ef 3d 23 eb e5 3c
       0.021503929 0.08925735 0.117181726 0.028066223
000350 ec 03 64 3c 79 f1 b7 bd 1b e8 73 be f7 d4 d0 be
       0.013916951 -0.08981604 -0.2381901 -0.4078748
000360 b4 8b d4 be 02 53 b6 be 23 76 24 be d1 04 66 bd
       -0.41512835 -0.35610205 -0.1606069 -0.056156937
000370 5c 1d bc bc ac e7 f9 ba 8c 1e 3f 9e 70 0c a2 80
       -0.022963218 -0.0019066236 -1.0117773e-20 -1.4881812e-38
000380 24 fb 59 17 84 e1 89 b9 83 34 ba 3a 3b 45 3d bd
       7.0433466e-25 -0.00026298699 0.0014206324 -0.0462086
000390 5c 36 96 bd c4 11 e2 bd 6c 7c 96 be f2 09 16 bf
       -0.07334587 -0.11038545 -0.293918 -0.58608925
0003a0 d4 45 1a bf 9d e9 99 be 04 59 b8 bd 82 c0 64 3b
       -0.602628 -0.30061045 -0.090013534 0.0034904783
0003b0 fa 22 51 3d f3 d3 f9 3d 47 d4 9d 3c d5 a2 91 bd
       0.051058747 0.12198629 0.01926626 -0.07111136
0003c0 6d 75 5f bd 0e 8e 2f 3d 0c ac d3 3d da d3 e5 3d
       -0.054555345 0.042860083 0.1033555 0.11222048
0003d0 aa 85 39 3d 74 86 a9 bd 02 31 df bd 2f cf c8 be
       0.045293488 -0.08277598 -0.108980194 -0.3922057
0003e0 e9 8c fd be 40 bb ec be 39 de 83 be 4d 9a 12 be
       -0.49521568 -0.4623661 -0.2575548 -0.14316674
0003f0 14 cd 6b bd 35 66 c8 bc 67 2d 23 3a bb e8 e0 01
       -0.057568625 -0.024462799 0.0006224722 8.2618556e-38

linear1.bias f4 [128]
000000 32 f8 e1 bb 24 d7 7e 3d 61 88 64 be 52 31 8c bd
       -0.0068960423 0.062216893 -0.2231765 -0.068453446
000010 49 ed 33 3d ce c5 01 3d f2 26 34 be a4 9e 97 3d
       0.043927465 0.031682782 -0.17592981 0.07403305
000020 ac c5 15 be 58 69 29 be 15 5e fb 3d d5 0d c1 3d
       -0.14626187 -0.16544092 0.12273804 0.094264664
000030 74 da 04 3e a5 76 d3 3c 3b 43 6a bd 24 82 9e bc
       0.12973958 0.02581341 -0.057193022 -0.019349165
000040 79 22 85 bd a0 c9 63 bd 4d 61 d0 3e d0 89 96 3d
       -0.06500716 -0.055612206 0.40699235 0.073505044
000050 04 2e fb 3d 0b 28 9a bc 8e 56 28 bd 3f 8e bf bd
       0.12264636 -0.018817922 -0.04109817 -0.09353303
000060 16 5e 0d be 28 b6 89 3d 5a ba 80 3e d9 9c 47 be
       -0.13805422 0.06724197 0.25142175 -0.19493426
000070 37 e9 53 3e c7 95 21 bb 2e 8c 03 bd 85 88 dd 3c
       0.20694433 -0.0024655925 -0.032116108 0.027042637
000080 47 75 bd 3d 31 c7 7f be 3d 0d 2b 3e d9 eb f9 bd
       0.092508845 -0.24978329 0.16704269 -0.122031875
000090 48 b7 18 3d c8 ca 94 3d fb 8e 43 bd ca 98 32 be
       0.037284166 0.0726524 -0.04774378 -0.17441097
0000a0 04 d0 b8 3c 6f b6 db 3d da 7a 56 be 59 25 eb bd
       0.022560127 0.10728156 -0.20945302 -0.11481733
0000b0 92 5f 7c 3d 38 8b 85 be bc aa 07 3c 2b 90 1f be
       0.06161458 -0.26082778 0.008280452 -0.1558234
0000c0 fd bb 33 ad 12 c8 85 3e 5a 59 6a 3d e7 90 61 bd
       -1.0216714e-11 0.26129204 0.05721412 -0.05506983
0000d0 80 5c 36 3d 7c 6c 42 3e 42 bb f7 be 15 7b 27 be
       0.04452181 0.18986696 -0.48385054 -0.16355546
0000e0 55 d6 ac 3d 23 39 82 3d 08 86 71 be 49 35 73 3e
       0.08439318 0.06358554 -0.23586285 0.23750795
0000f0 48 09 21 3e 94 52 9e bb 46 7b 23 be a9 02 03 3e
       0.15726197 -0.0048316214 -0.15964994 0.12793984
000100 37 33 8b bd fc b5 ad be fb 90 57 3d da 13 cf bd
       -0.06796878 -0.33927906 0.0526285 -0.10111208
000110 ae 26 b7 3d 1a eb b3 3e 9e fa 57 be b2 f0 6b 3c
       0.089429244 0.35140306 -0.21091697 0.014400648
000120 0f e6 ce 3d d9 f3 87 bd 6b 9e c8 bd 7d f7 24 3e
       0.10102474 -0.06638307 -0.09795841 0.16110034
000130 a5 b0 99 3e 52 68 b8 3b 70 c4 97 bd 97 d4 8b b6
       0.30017582 0.0056276703 -0.07410514 -4.1672715e-06
000140 34 c5 87 3d c0 c2 ef 3d a9 b5 00 3f d8 e1 8a 3e
       0.066294104 0.117070675 0.5027719 0.2712543
000150 9a 67 3b 3e cb 8d 18 3e 47 0f 98 3d 72 97 e2 3e
       0.1830124 0.1489784 0.07424789 0.4425617
000160 e2 29 fd 3d 15 ba 9a bd bf e0 fc bb 34 7c 27 3d
       0.12361504 -0.075550236 -0.0077172215 0.040889934
000170 f6 5e 84 3d 1c 96 fa 3c 92 25 77 be c3 e8 64 3e
       0.06463425 0.030589156 -0.24135426 0.22354417
000180 82 9a 81 3e 8d eb b1 3d 40 7c ba bd 4d 37 02 bd
       0.25313193 0.08687506 -0.0910573 -0.03179102
000190 27 99 ce 3b 7d 44 87 b8 99 8f e2 3d d5 57 5a bd
       0.0063048783 -6.4500586e-05 0.11062545 -0.05330642
0001a0 38 39 1d be c2 1e ad 3a 2c 4b 78 bc 5e 4f d8 bc
       -0.15353858 0.0013208019 -0.015154641 -0.026405033
0001b0 20 6f 83 3d cb 0b 09 3d 5c 35 30 3e 89 59 ec bc
       0.0641768 0.033458512 0.17207855 -0.028851287
0001c0 ef 1d c0 3b 0e 57 49 be 9a fe c6 3d 93 53 c0 bd
       0.0058629434 -0.19662115 0.0971653 -0.093909405
0001d0 05 bf 24 3d 8b 16 16 bd c4 ce 0e be f3 22 95 3e
       0.040221233 -0.036642592 -0.13946062 0.29128227
0001e0 3d 72 a0 3e 34 4c 61 3c db 86 96 3d 2a c4 ba 3e
       0.31337157 0.013751078 0.073499404 0.36477786
0001f0 af fd 2f bc 6e 9f c8 3c 69 b8 28 3d 02 41 21 bd
       -0.010741635 0.024490084 0.041191492 -0.039368637

linear2.weight f4 [128, 128]
000000 8d 79 97 bc 3d 20 c3 be 0c 01 29 bc 4f fc b0 3c
       -0.018490577 -0.38110533 -0.010315191 0.021604685
000010 5b 7a 11 3e e7 53 d7 bc fe 09 2b 3e b0 50 7c bd
       0.14206831 -0.026285125 0.1670303 -0.061600387
000020 b0 d5 f6 bc b6 55 5b 3e d8 ea 28 3e d0 27 31 be
       -0.030131191 0.21419415 0.16495836 -0.17300344
000030 20 8a 1d 3c 56 e3 b0 bc 78 a0 62 bd c1 dc a4 be
       0.009615451 -0.021592777 -0.055328816 -0.32199672
000040 bc 45 82 be 96 d8 25 3a da 73 bc 3e 97 67 be 3d
       -0.25443828 0.00063265243 0.36807138 0.09297102
000050 0e a5 90 3a bd ae 1c bb 4f 2d d1 bd cd 8b 8c bd
       0.0011035518 -0.0023907863 -0.1021372 -0.068626024
000060 6c 3e 94 bd b7 b6 7d be f8 86 b3 39 a3 a3 23 3d
       -0.072384685 -0.24776731 0.000342421 0.039950978
000070 ea e5 66 be a6 ce b3 3e c5 5c a7 bd 7e 8a cd 3d
       -0.22548643 0.35118598 -0.08171991 0.10036181
000080 f9 42 60 3e c4 de 0e bd 9a ac 68 3e 4d 9b 2f 3d
       0.21900548 -0.034880415 0.22722092 0.042872716
000090 67 51 1c bd 72 33 21 bd ae 43 18 3e 03 04 f7 3d
       -0.03816357 -0.039355703 0.14869568 0.12061312
0000a0 a8 76 9a be da 58 4d 3e 23 92 6f be bc 98 df 3d
       -0.30168653 0.20053425 -0.2339559 0.10917804
0000b0 47 cd 9c be 5e fd ce 3b 04 56 ac bd 03 0f 6d 3c
       -0.30625364 0.006316825 -0.08414844 0.014468911
0000c0 b0 9f ed b5 28 45 50 3c 2d a9 76 be b8 9c f8 bc
       -1.7704351e-06 0.012711801 -0.24087973 -0.030348167
0000d0 84 06 f5 bc 38 82 b9 3d 21 48 c9 3d 7e 10 79 3e
       -0.029910333 0.090580404 0.098282106 0.24322698
0000e0 a4 04 78 3c 62 0b 9c bd 63 9b b8 3d 50 02 cd 3d
       0.015137825 -0.076193586 0.09014013 0.10010207
0000f0 74 a9 ba bc ff 19 e4 bd 4a 87 27 3e a7 ab b3 3e
       -0.02278588 -0.11137771 0.16360202 0.35091898
000100 53 9a bc 3d 36 b4 96 be f0 4b 35 3e 98 28 b0 3d
       0.092091225 -0.29434365 0.17704749 0.08601493
000110 9d d5 c1 3e 7d 75 13 be 2f 9a c7 bc 80 f2 19 bd
       0.37858286 -0.14400287 -0.024365513 -0.03758478
000120 c5 72 c7 3c 3b 22 79 be b1 39 bb 3c 02 72 c1 be
       0.024346719 -0.24329464 0.022854658 -0.37782294
000130 ec a4 3d bc 6f 7f 4e 3d f1 e7 53 3d 46 12 e5 39
       -0.011574965 0.0504145 0.05173487 0.00043691898
000140 c7 b4 b0 3d f8 dc fb 3d 5a a9 9a 3d 1a 1c bf 3d
       0.086282305 0.12298006 0.075518325 0.09331532
000150 a5 d8 99 bd c8 61 33 3e bc c1 41 bd f3 30 19 3d
       -0.07512025 0.1751777 -0.0473039 0.037400197
000160 a7 cc 89 bd 18 7c b2 3c 07 b4 75 3e c7 61 c8 bd
       -0.067284875 0.021787688 0.23994456 -0.097842745
000170 a3 30 1d bd 28 bc 61 be e5 e5 28 be 58 7f d4 3d
       -0.03837646 -0.22044432 -0.16493948 0.103758514
000180 1e 4a d2 bd 5c de a9 3e 75 1e 88 3d 02 1a 83 3d
       -0.10268043 0.3317746 0.06646434 0.06401445
000190 e3 3c 5d bd 92 00 85 38 37 bd d0 bd 18 8f cd bd
       -0.054013144 6.3420404e-05 -0.1019234 -0.100370586
0001a0 a1 5b 20 3d 90 24 ee 3d b1 eb e9 bd f1 01 3d 3d
       0.039149884 0.116280675 -0.11421908 0.04614443
0001b0 7f 30 69 be 7b 9b f3 3d 3f 75 41 3e 85 6c 74 3b
       -0.22772406 0.1189489 0.18892382 0.0037296128
0001c0 95 81 47 3d 54 d5 93 3d ad 6f db 3d ca 62 e6 3c
       0.048707563 0.072184235 0.1071466 0.028123278
0001d0 e9 59 59 3c da 73 4b 3e 9a 23 25 be 15 55 30 3e
       0.013266065 0.19868413 -0.16126862 0.17219956
0001e0 56 df 11 3d f9 10 49 bd c5 a3 f2 3e b9 ab a3 be
       0.03561338 -0.049088452 0.4739057 -0.3196695
0001f0 7e 2f b2 3e ca 68 2d 3e 69 1a 77 be 37 a0 00 be
       0.3480186 0.16934505 -0.24131168 -0.12561117
000200 b7 39 01 be a5 16 e4 bd ce 31 bc 3d 68 1d 1d 3d
       -0.12619673 -0.111371316 0.09189187 0.038358122
000210 53 a5 77 3e 89 22 7d 3d 02 34 3e be a6 b7 0c be
       0.2418416 0.061800513 -0.18574527 -0.13741931
000220 83 5d 55 3e 51 0f 51 3e 2f a8 15 3e b0 74 ee 3d
       0.20836453 0.20415999 0.14614938 0.1164335
000230 03 01 ca 3d d9 41 4d 3c b0 a9 1f 3d d5 68 0f 3e
       0.09863474 0.012527906 0.038980186 0.14004834
000240 3e c0 32 be d9 39 db bd 9c 0d f6 bd f8 94 be be
       -0.17456147 -0.10704393 -0.120143145 -0.3722303
000250 a6 a9 61 3e f2 8f 59 3e dd 9f 90 3d 58 6f 2e be
       0.22037372 0.21246317 0.070617415 -0.17034662
000260 65 e9 db 3d f1 0c bd bd 19 08 77 be 63 31 85 3d
       0.10737876 -0.09230984 -0.24124183 0.065035604
000270 21 ab 0b be da a7 bd 3d 0b 84 8f 3d a0 0f c1 bd
       -0.13639499 0.09260531 0.07007607 -0.09426808
000280 e5 56 93 be ba ed 76 bc d5 96 22 bf 03 78 a6 3e
       -0.28777233 -0.015071327 -0.635114 0.32513437
000290 95 0a cd 3d bd e5 ba 3d c6 ed 0c 3e 4b d7 b6 be
       0.10011784 0.0912585 0.13762578 -0.3571113
0002a0 52 31 e9 3e 52 16 2c 3e 7d d6 88 3d 80 50 c6 be
       0.4554544 0.1680539 0.066815354 -0.38733292
0002b0 5f a8 40 3d 42 d1 47 be 7b fe 00 be 2f cd 1e bd
       0.04703557 -0.1951342 -0.12597077 -0.038769897
0002c0 07 ba 49 35 72 8e 9b bd 18 3b b9 bd 5e 8c c4 3d
       7.514904e-07 -0.07595529 -0.09044474 0.095970854
0002d0 e6 c7 82 bd e6 e4 b2 3d 3d 2e 02 be dd 40 9e bd
       -0.06385784 0.08735065 -0.12712951 -0.077272154
0002e0 cc 00 07 3e 9b 6d 7b be 22 87 32 3d e1 09 f3 3c
       0.13183898 -0.2455353 0.043585904 0.029667797
0002f0 04 b5 21 3e 21 96 20 be f1 57 8c 3c c9 e9 1c 3d
       0.15791708 -0.1568227 0.017131777 0.038308892
000300 49 2b c7 3e 68 28 19 3e 4f 92 59 bc 9e ea e2 3d
       0.3890021 0.1495682 -0.013279512 0.11079906
000310 72 c9 3f 3e b7 87 19 be 61 e0 f4 3d 9e 79 7f 3b
       0.18729189 -0.14993177 0.119568594 0.0038982402
000320 30 19 46 3e f6 e8 46 3c df 14 5f bc cd dd 16 3e
       0.19345546 0.012140503 -0.013615816 0.14733048
000330 63 c7 1f be dc fa e5 bd 48 be 17 3c 3f 00 98 3b
       -0.15603404 -0.11229488 0.009261675 0.004638701
000340 3f 93 04 be 38 40 e0 bd 2b e7 c0 be d2 fc 29 3e
       -0.12946795 -0.10949749 -0.37676367 0.1660035
000350 6d 16 4e 3e fe ad 94 bd e0 1f 09 bb e0 6e 2e be
       0.20125742 -0.07259749 -0.002092354 -0.17034483
000360 e9 4d 3d be 00 94 71 bd 9f a7 21 be 9f 84 43 3d
       -0.18486752 -0.058979034 -0.15786599 0.0477339
000370 aa da ca bd 1f 11 b0 3d 68 30 a3 3d 50 db ab 3d
       -0.09904988 0.085970156 0.07968217 0.0839144
000380 79 5e c7 bc 39 76 16 be 76 12 41 be f9 21 9b 3d
       -0.02433704 -0.14693536 -0.18854699 0.07574839
000390 c5 00 18 be ea 05 a7 ba 53 3c d0 bc 63 a0 5e 3c
       -0.14844044 -0.0012742851 -0.02541939 0.013588044
0003a0 f3 8c 87 3d 33 37 43 b9 41 07 51 3d 89 f3 96 3c
       0.06618681 -0.00018617212 0.05103231 0.018426673
0003b0 fd d0 07 be 48 af cb be 12 7e 3a be 28 2d 89 3e
       -0.13263316 -0.39782166 -0.18212155 0.26792264
0003c0 f8 41 32 3e 08 89 96 3e 9f 54 9c be 43 1f fa bc
       0.17407978 0.29401422 -0.3053331 -0.030532485
0003d0 46 07 81 be 4f a2 21 bd c9 af b6 3d cf 5d 47 3c
       -0.25200862 -0.03946143 0.08920247 0.012168362
0003e0 83 de 1f 3d 72 57 85 bb 48 c0 ea 3d 0a 9f 1a 3e
       0.039030563 -0.004069262 0.11462456 0.15099731
0003f0 92 79 6a 3e 5b fe 7d bd 87 f8 a5 be bc 91 24 3e
       0.22897938 -0.06201015 -0.32416174 0.16071218

linear2.bias f4 [128]
000000 82 b3 83 be 02 cb 7a be e7 56 48 3e 23 33 78 ba
       -0.2572289 -0.24491504 0.195644 -0.0009468069
000010 e2 05 60 bd 08 13 83 be 44 3a a6 3e 4e cd d9 bb
       -0.05469311 -0.25600457 0.32466328 -0.0066467887
000020 89 16 65 3e e4 6a 6f 3c 4f 66 a0 3e 02 6e 32 3d
       0.22371878 0.014612887 0.31328055 0.043561943
000030 c1 c5 7e 3d b0 83 41 a1 13 e4 00 3f 97 15 14 be
       0.06220031 -6.556523e-19 0.50348014 -0.14461361
000040 cd a9 05 3f e9 9a 12 be 37 bf 3d 3e cf f6 02 3f
       0.5221222 -0.14316906 0.18529974 0.5115785
000050 1f 5c dc 3e a7 bf 18 3e 1e 0d 80 3e 8b 2c 87 be
       0.43039033 0.1491686 0.25010008 -0.2640117
000060 28 0c 40 3e 14 8b e2 3d dd f9 25 bd 37 4c 9b 3e
       0.18754637 0.11061683 -0.04052149 0.30331585
000070 69 a6 7b 3e a8 f5 9e 3e 7c 93 4f 3e d4 7a 8d 3e
       0.24575199 0.31046796 0.20271105 0.27632773
000080 2a b9 90 be b4 a8 d5 bd c2 00 d1 ba d8 d3 99 3d
       -0.2826627 -0.10432568 -0.001594566 0.07511109
000090 47 80 b4 be c1 80 cd be be 38 a7 3e 32 22 b9 be
       -0.35254118 -0.40137294 0.32660478 -0.361589
0000a0 d7 2f 73 bd 15 ff 83 bd ad a2 92 3e f0 51 2f 3d
       -0.059371796 -0.064451374 0.28639737 0.04280275
0000b0 1e 23 a5 be ab 0d 61 bc 10 82 d5 b1 d7 72 a5 bd
       -0.32253355 -0.013736169 -6.2139023e-09 -0.080785446
0000c0 6c 79 b1 3d cc 48 df be 6a e5 2b 3d fa bf 5d 3e
       0.086657375 -0.43610227 0.041966833 0.21655264
0000d0 3e 81 b5 3e 73 cf 1b 3d c4 1a f3 3e 30 91 e8 3e
       0.35450166 0.038039636 0.47481358 0.4542327
0000e0 1d 59 c1 3e 1a a5 41 bd 98 c6 c5 bd aa af 1c 3e
       0.377633 -0.047276594 -0.096570194 0.15301386
0000f0 cd f3 23 3e d0 ad 8e be 57 3a eb 3e fe ab bd 3d
       0.16010971 -0.27866983 0.45942947 0.092613205
000100 57 f7 55 bc 02 ae 9d 3d 46 47 30 bb 6b dc 81 3d
       -0.013059459 0.07699205 -0.002689795 0.063408695
000110 50 c2 a6 3d 3b 7e d9 bd 77 e5 81 bd 8a a0 2a be
       0.08142531 -0.1061978 -0.06342595 -0.16662803
000120 64 7c cd a3 ff d5 e0 3e d8 6f 8f be 6d ca 5a 3e
       -2.2278826e-17 0.43913266 -0.28015018 0.21366282
000130 aa f5 d0 3e ef 2f 5f 3e a4 2b e0 bc 60 0d 73 be
       0.40812427 0.21795629 -0.02736456 -0.23735571
000140 b6 2e 6e 3e 4f 9e b3 3e ca b3 18 b4 29 e3 05 3e
       0.23260006 0.35081717 -1.422151e-07 0.13074936
000150 bd 5b 34 3f 5b af 15 3f 4f 4e 38 3d 59 9e 7e bd
       0.7045248 0.58470696 0.044996556 -0.06216273
000160 e0 d0 c7 3e fb db 7d be 25 c6 38 be 65 ee 03 be
       0.39026546 -0.24790947 -0.18044336 -0.12883909
000170 8c 3e c8 bc 53 11 39 3d 8e 4d 87 bd a5 55 e9 3d
       -0.024443887 0.045182537 -0.06606589 0.113932885
000180 7e 11 ab 9a bc 91 40 be cd f8 15 b6 02 1d 67 3e
       -7.07522e-23 -0.18805593 -2.2347551e-06 0.2256966
000190 af d0 78 be eb 7b 6a be 6b 9e 09 be b7 30 e4 3d
       -0.24298356 -0.22898833 -0.13439338 0.11142104
0001a0 65 79 f0 3d 68 be 15 be e3 86 59 bd 74 f1 e7 bb
       0.11741904 -0.14623415 -0.053107154 -0.007078344
0001b0 71 5b 6c 3e 30 65 a6 be 4b ec 94 3e 12 1c b8 3e
       0.23081757 -0.32499075 0.29086527 0.35958916
0001c0 dd 0e 8f 3d d3 c2 28 3d 2d 83 3d bc ee 92 34 3f
       0.06985257 0.041201424 -0.011566919 0.70536697
0001d0 ce ad 97 be 2c d6 cb 3e ba 1c aa be 4b fb b2 3e
       -0.2962479 0.39811838 -0.33225042 0.34957346
0001e0 c8 12 6a 3e bb 0f ab 3e 23 11 b2 bd 3e 58 ce bb
       0.22858727 0.3341044 -0.08694675 -0.0062971404
0001f0 d2 67 72 3e ab 24 b2 3e 4e d1 05 be 5f 61 44 81
       0.23672417 0.347936 -0.13068125 -3.6069375e-38

linear3.weight f4 [128, 128]
000000 4f 80 4f be 59 43 9a 3e 2a 90 ca bb f5 61 95 2e
       -0.2026379 0.30129507 -0.0061817365 6.793136e-11
000010 df 9d 90 bd 54 03 c4 be f7 4f 0b 3a ac 28 4c 3c
       -0.070613615 -0.3828379 0.0005314345 0.012460869
000020 88 fd 72 3e 85 7a 6c bc ee 34 0e bd 57 f6 24 bc
       0.23729527 -0.014433508 -0.034718446 -0.010068498
000030 4e 59 be 3d 94 a1 0a 33 c7 c2 77 bd 15 30 3a bd
       0.09294377 3.2277583e-08 -0.06048849 -0.04545601
000040 4c cc 1c 3e 94 ca a0 3d 28 b0 45 3e f3 c0 fc 3d
       0.15312308 0.07851139 0.1930548 0.1234149
000050 0f a9 42 be 5a 87 00 be a9 b4 0e bd a8 1f 00 3e
       -0.19009803 -0.12551633 -0.03484026 0.12512076
000060 23 42 0c be 4e 00 3e 3e 2c 46 01 be 76 7c 17 3c
       -0.13697104 0.18554804 -0.12624425 0.009245982
000070 d1 ba b7 3e b1 37 31 be dd d5 3a 3e 05 71 1c be
       0.35884717 -0.17306401 0.18245645 -0.15277489
000080 71 ea 6e bd fd 4a 4c 3e 81 08 b5 38 ca b5 05 3d
       -0.05832905 0.19950481 8.6323365e-05 0.03264407
000090 88 ce 85 3d 43 4a d5 bc 12 8f b6 bc d2 b4 1d 3c
       0.06533533 -0.026036387 -0.022285018 0.00962563
0000a0 c1 85 ee 3d 07 0e 2f 3e 73 16 75 3d 71 1f 06 be
       0.11646605 0.17095195 0.059835862 -0.13097931
0000b0 91 3a 78 bd cd 99 13 be 1a 34 5d 37 5c 66 f2 bd
       -0.06060273 -0.14414139 1.3184757e-05 -0.1183593
0000c0 64 f8 ce 3d a4 bf 0a be e1 97 6f 3d b1 00 7d be
       0.101059705 -0.13549668 0.058494452 -0.24707295
0000d0 69 55 16 be 97 68 c2 bc c7 1d 50 be de 1e c8 3d
       -0.14681019 -0.023731513 -0.20323859 0.097715124
0000e0 d7 da 0f 3c 95 b6 8a bb b6 fe b6 3d 5a 17 3a be
       0.008780203 -0.0042331913 0.08935301 -0.1817297
0000f0 95 de 11 3e 90 c4 68 3c b9 ad 80 bb dc 33 e9 3d
       0.14245065 0.01420702 -0.0039269594 0.113868445
000100 88 5f 29 bc d2 d5 13 3e 36 19 03 3e c8 92 f7 3e
       -0.010337718 0.14437035 0.12802586 0.48354173
000110 a6 d5 0d 3e a8 90 97 bc 5c a2 44 3e a4 30 14 bc
       0.13851032 -0.018501595 0.1920256 -0.0090448
000120 86 65 f0 28 86 36 41 bd a1 a2 81 bd 9d 0c ff bd
       2.6689381e-14 -0.04717114 -0.06329847 -0.12453578
000130 25 63 1d 3d fa ca f3 bb c3 23 e1 bc 9c 6b 90 bd
       0.03842463 -0.007439968 -0.027482873 -0.07051775
000140 2a 86 06 bd 05 c7 05 3e 78 77 ce 34 6d 6f 5d 3d
       -0.032842793 0.13064201 3.8457415e-07 0.054061342
000150 60 dd 82 3e 6d 78 2b 3e f4 74 86 3e ed 14 5c bd
       0.2555952 0.16745158 0.26261103 -0.053730894
000160 07 50 19 bc e5 b0 59 be fa ee 07 be 9a cd 33 3c
       -0.009357459 -0.21258886 -0.13274756 0.010974312
000170 16 35 26 be e4 70 3d bd 76 ca 16 3e 50 63 0d bd
       -0.16231188 -0.04625024 0.1472567 -0.03451854
000180 9a 91 85 9b 87 98 85 bd 0e cb b8 b1 9a 14 50 3e
       -2.2097097e-22 -0.06523233 -5.3781894e-09 0.20320359
000190 6b ef c9 be ee 37 1a be cf 94 53 bc ea 0e a7 3d
       -0.39440474 -0.15060398 -0.012913897 0.081571415
0001a0 18 62 de 3c 31 74 c0 3d 8a 05 8d 3d 04 38 39 3e
       0.027146384 0.09397162 0.06885822 0.18087775
0001b0 99 42 08 3e 4e 69 01 3d 5a 06 b5 3d b8 b2 c5 3d
       0.13306655 0.031594567 0.08839102 0.096532285
0001c0 9a c7 07 bd 0d 6d 8b bc 9b 13 da 3c f5 ba 8b bd
       -0.03314934 -0.017019773 0.026620677 -0.068227686
0001d0 ee c1 74 bd c4 e8 e1 3c 9f 58 b8 3d a8 70 50 be
       -0.05975526 0.027576812 0.09001278 -0.20355475
0001e0 ca b7 7c 3d 09 a6 96 bd d7 50 46 be f1 51 cf 3b
       0.061698712 -0.073558874 -0.19366775 0.006326907
0001f0 e6 52 96 bd d0 b5 04 3e 2e a9 8b be 1d 57 17 00
       -0.0734003 0.12959981 -0.2727751 2.143467e-39
000200 82 83 83 be 7f 0f 9e bc ea 05 c6 be 3b 92 88 37
       -0.2568627 -0.019294498 -0.38676387 1.6280557e-05
000210 f9 0c 4c 3e 8f a3 28 be 7b b5 29 3d 9d 14 37 be
       0.19926824 -0.16468643 0.04143284 -0.17878957
000220 47 8c e9 3c 1e 39 38 be 8c b7 2d 3e 1f cf d7 be
       0.028509272 -0.17990538 0.16964549 -0.42150208
000230 6a c6 99 bd fd f0 f7 32 26 97 1f 3e bc 62 8c 3d
       -0.075085476 2.8864173e-08 0.15585002 0.068547696
000240 33 6a 8b bc e9 bd 99 3d d6 9a bc bd 47 18 be 3e
       -0.017018413 0.075069256 -0.0920922 0.37127897
000250 25 a5 82 3d fa d7 be bc 60 ce 4e 3d 07 99 f9 be
       0.06379155 -0.023296345 0.050489783 -0.48749563
000260 39 12 87 bb 11 aa 96 3c b8 b3 b6 bd 5d 18 fb bd
       -0.0041220454 0.01839164 -0.089209974 -0.12260506
000270 2d 75 54 3d 6a 63 3d 3e 26 b0 b6 3e ee c8 cb 3c
       0.05186956 0.18494955 0.35681266 0.024876084
000280 5e a8 27 bf 4d c0 09 3e fb cc 2b 3a 40 a9 42 be
       -0.6549128 0.13452263 0.0006553677 -0.19009876
000290 87 90 b5 bd d3 21 22 3c b0 ba b0 ba 17 20 82 be
       -0.08865457 0.00989576 -0.0013483372 -0.25415108
0002a0 df f1 83 3e 44 f6 79 be bd a5 83 3d 8a d2 8c 3e
       0.2577047 -0.24410349 0.064280964 0.2750438
0002b0 27 3e eb 3e 8d b7 8e 3e 33 0f 9a b5 75 5f 94 be
       0.45945856 0.27874413 -1.1478318e-06 -0.28979078
0002c0 bf 01 08 be 75 10 35 3e cf f3 1e be 96 39 1e 3d
       -0.13281916 0.17682059 -0.15522693 0.038629137
0002d0 fa f3 4c 3e 8c 1c bf be 30 cc ab 3c c9 fd fb bd
       0.20014945 -0.37326467 0.020971388 -0.12304265
0002e0 7a 91 06 be f8 12 82 bc 8c 81 5b 3d 42 45 f8 bd
       -0.13141432 -0.015878186 0.053590342 -0.12122585
0002f0 5d bb e7 3c 2d 79 24 bd 52 51 d1 bd c5 78 62 3d
       0.028287584 -0.040154625 -0.10220589 0.055290956
000300 9a ff 68 bc a8 95 80 bc 78 bd dd 3d 18 6b a7 3d
       -0.014221096 -0.015696362 0.10827154 0.081747234
000310 ae 5a 77 bd c7 68 23 bf 0e c6 48 3e 1e e1 d2 3c
       -0.060389213 -0.6383175 0.19606802 0.02574211
000320 66 e3 71 b2 ac f7 68 be 78 d9 9f bd 25 9f c6 3d
       -1.4079751e-08 -0.2275073 -0.07805151 0.09698323
000330 e5 a8 ca bd 6d 53 40 3e c9 5d 43 bc ac 51 38 be
       -0.09895495 0.18781824 -0.011924216 -0.17999905
000340 87 76 13 3e 2a 12 7e 3d 8e cd c1 b7 24 63 da 3c
       0.14400683 0.06202904 -2.3103112e-05 0.026658602
000350 47 ee be 3d 97 35 30 3e 00 dd 94 be 79 77 90 3c
       0.093227915 0.17207943 -0.2907486 0.017635094
000360 c7 a6 32 3e 02 6d 89 be 2f 81 05 3e 9a e5 a5 3b
       0.17446433 -0.2684098 0.13037561 0.005062771
000370 45 a4 00 3e e9 fb 31 bd 1a 52 58 3d 76 cb c5 3d
       0.12562664 -0.04345313 0.052812673 0.09657948
000380 60 d3 13 19 b9 22 c7 bc 56 ab 18 b5 65 ab 79 3e
       7.642409e-24 -0.02430855 -5.687374e-07 0.24381788
000390 2c 6a 60 be 3c da 18 bd 91 bd 72 3e 8a 8f 0b 3e
       -0.21915501 -0.0373175 0.23705126 0.13628975
0003a0 12 37 8e 3e 45 8d ca 3c 77 20 0d bd 0d 75 f1 bd
       0.2777639 0.024725566 -0.03445479 -0.11789904
0003b0 14 5a 04 be a3 49 d2 3d 3e 06 da 3d 1a 4f 77 be
       -0.12924987 0.10267951 0.10645722 -0.24151269
0003c0 1c 8c 49 3d 3c 8f 48 3e a3 07 b2 bc 48 a1 91 3e
       0.049205884 0.1958589 -0.021732157 0.2844336
0003d0 fd cf 79 be b3 26 80 3c 69 20 ab bd 9e f5 8c bd
       -0.24395747 0.015643453 -0.08355791 -0.06882785
0003e0 5c 8d 8c 3d 02 d3 fc 3c fc 9c 96 bd 83 0e 09 be
       0.068629 0.030862335 -0.07354161 -0.13384442
0003f0 c7 01 60 3e 8f 85 12 3e 2f d7 dc 3d 56 c3 1a 80
       0.21875678 0.14308761 0.107832305 -2.457796e-39

linear3.bias f4 [128]
000000 1f 95 a2 3e e8 36 0b bd 20 cc 70 3e 04 f8 03 bd
       0.31754395 -0.03398791 0.23515368 -0.032218948
000010 df d3 29 bd eb 86 99 3d 55 03 c8 bd c5 68 4b be
       -0.04146182 0.07496437 -0.097662605 -0.19864185
000020 09 ed 85 be cf f1 a5 3e 7c 45 42 be 0f fe 4d 3e
       -0.26157406 0.32411048 -0.18971819 0.20116447
000030 0d f5 12 3f 10 e7 cb bc 91 b1 0a 3f b8 4e dd 3e
       0.5740517 -0.024890453 0.54177195 0.4322412
000040 e7 df f0 bd 56 6a 29 3f 4f ec 7e 3d 98 f7 e5 3e
       -0.11761456 0.6617788 0.06223708 0.44915462
000050 43 57 db 3d 44 ec 7b bd ca 2d 6d bd 7d 82 83 3e
       0.10710003 -0.061504617 -0.057904996 0.25685492
000060 e8 54 15 3e 50 16 46 bd b4 17 2d 3b 06 f2 0d bc
       0.1458317 -0.048361123 0.0026411833 -0.00866366
000070 aa e4 db 3e 1f b2 27 3f d3 73 29 3f f4 17 1b 3e
       0.42947894 0.65506166 0.6619236 0.15145856
000080 87 82 9a 3e 89 d6 00 3f d9 33 fe 3e db d4 e8 3e
       0.3017771 0.50327355 0.49648932 0.45474896
000090 57 cf da 3e a8 5e 06 bc f9 6f 2d be 79 ac 85 3d
       0.42736313 -0.008201279 -0.16937245 0.06527037
0000a0 18 f0 b8 be b0 8a d9 3d 94 f6 81 be 85 0c d3 3e
       -0.36120677 0.10622156 -0.25383437 0.4122049
0000b0 dc 6a 47 3b 44 89 e8 3e ed b1 b4 bc fe e5 7c 3e
       0.0030428683 0.45417225 -0.022057498 0.2469711
0000c0 12 11 bf 3e fe eb 88 be 74 ef 98 3d e3 36 04 3e
       0.3731771 -0.26742548 0.07467547 0.12911563
0000d0 11 6e 5b bd fd f1 73 3e 41 6b 08 3e 11 2e 5a be
       -0.053571764 0.2382278 0.13322164 -0.21306635
0000e0 2c 79 cd bc b9 2c 27 3e 03 55 45 b9 0b de 18 3e
       -0.025082193 0.16325654 -0.00018819053 0.14928453
0000f0 9e 13 02 3f 2e c0 ad b8 c9 a0 32 3f b3 aa 35 be
       0.50811183 -8.285079e-05 0.6977659 -0.17740898
000100 ec 32 30 be d3 ed 15 3e 32 c4 c7 3e f6 3e c1 3e
       -0.17206925 0.14641504 0.39016873 0.37743348
000110 88 5d 84 3e f7 7d 23 3d 25 11 77 be 1c 22 08 bb
       0.2585261 0.03991505 -0.24127634 -0.0020772284
000120 e2 bf b4 3c 1f 35 ad bd dc a6 c5 3e 45 fa 81 bd
       0.022064153 -0.08457398 0.38603866 -0.06346563
000130 b2 b1 8d bd 59 4c c5 3e b5 7b 3e 3e 5a 77 6c be
       -0.06918658 0.3853481 0.18601878 -0.23092404
000140 99 89 56 be 95 8d 1a bb c9 80 fe 3e 59 f7 97 3e
       -0.20950927 -0.0023582925 0.4970763 0.296809
000150 f9 0e 64 3e f4 b1 8d bd 9a 8b dd 3e 34 a4 8f 3c
       0.22271337 -0.069187075 0.4327057 0.017534353
000160 a3 6e 7e bd 83 33 10 be 27 81 41 bd bd ca ea 3e
       -0.06211723 -0.1408215 -0.04724231 0.45857802
000170 d3 9f 51 be 5d de 88 ba fc 22 bf b3 d6 74 e2 3e
       -0.20471124 -0.0010442246 -8.900494e-08 0.44229764
000180 76 a2 78 3d a0 62 5c bc 47 53 32 be 2e 61 05 3d
       0.06070181 -0.013451248 -0.1741458 0.03256338
000190 d7 62 f4 bd 7c 9f 11 bc c4 5c c6 bd 2e 52 78 b2
       -0.11932915 -0.008888122 -0.096856624 -1.4454185e-08
0001a0 d9 ff a7 bd 9d 5b 1c bf ff 27 4d 3e 96 6b 66 3e
       -0.08203096 -0.6107729 0.20034789 0.22501978
0001b0 9f 2e 1b 3f b1 76 75 be c8 e0 c3 bd 5e 1b da bc
       0.60618013 -0.23971058 -0.09564358 -0.026624378
0001c0 93 e9 1f ba d9 8c 6e 3e 8e 7d 1b 3f f3 50 11 be
       -0.0006100174 0.23295917 0.60738456 -0.14191036
0001d0 87 8f 27 b8 67 40 e3 3d 23 a4 12 3e 94 7d e9 3b
       -3.9949573e-05 0.11096268 0.14320426 0.007125566
0001e0 04 41 22 3e f3 b9 37 3f f3 dd 4c 3e 69 78 8d 3e
       0.15845114 0.7176811 0.20006542 0.27630928
0001f0 39 f9 78 3e c0 a3 16 3d 40 93 b0 bd d7 06 b5 3e
       0.24313821 0.036777258 -0.08621836 0.3535678

linear4.weight f4 [10, 128]
000000 7a 56 92 be b7 f8 a5 3c 6d 8d a5 be a6 9d 85 3d
       -0.285816 0.020260198 -0.32334462 0.0652421
000010 61 b5 17 3e f4 c2 6b be 00 62 51 be 86 c0 a8 3c
       0.14815284 -0.23023587 -0.2044754 0.020599615
000020 68 6f 1e 3e 73 4b d9 bd 89 9c 3c 3e a2 41 ec bd
       0.15472186 -0.10610094 0.18419088 -0.11535956
000030 63 1c af 3d 80 29 d5 bc f8 30 bc 3d ca 6a a2 be
       0.08550336 -0.026020765 0.091890275 -0.317221
000040 7b 43 36 bd af dd eb 3d 70 86 3f be c1 3b 60 3e
       -0.04449795 0.11516892 -0.18703628 0.21897794
000050 4d d0 be be 08 71 c3 bb e0 a9 0c 3d 61 44 43 3e
       -0.37268296 -0.005964402 0.034341693 0.19069053
000060 1a a7 66 3e 53 fe 57 bb 92 3b 75 be 19 4f 46 3e
       0.22524682 -0.0032957986 -0.23948506 0.19366111
000070 e9 95 d6 3d d4 8e ab be 52 b7 5f 3e a3 c5 41 3e
       0.10477812 -0.33507407 0.21847275 0.18923049
000080 8d c5 63 3e 64 fa 78 be 00 84 6c be c9 63 0f 3e
       0.22243328 -0.24314266 -0.23097229 0.14002909
000090 9f f0 de 3d c6 29 cd 3c 85 6e b3 bc a4 d0 d3 be
       0.108857386 0.025044333 -0.021903286 -0.41370118
0000a0 60 3d e6 be 0a 4b 91 bd 9f e9 a3 3e 33 83 1b 3c
       -0.449687 -0.07094391 0.32014176 0.00949173
0000b0 f4 51 2b be fa 9d 5f 3d 22 29 97 bd eb 57 3c bd
       -0.16730481 0.054594018 -0.07380892 -0.045982283
0000c0 80 6e c5 3d 83 55 24 be 35 a4 ba 3d c1 88 0a be
       0.09640217 -0.16048245 0.09113351 -0.1352873
0000d0 55 78 17 3d be a7 4d be 76 61 ac bc 1c ac c4 be
       0.036979992 -0.2008352 -0.021042567 -0.3841256
0000e0 64 21 7c bd d3 34 20 be db 33 88 bb 55 d7 0c be
       -0.06155528 -0.15645151 -0.0041565723 -0.13754018
0000f0 65 20 b0 be ec d5 e4 3b ff c5 27 3d f1 81 32 3c
       -0.34399715 0.0069835093 0.04096031 0.010895238
000100 8c 14 2b 3d 81 78 a7 3b 7b 40 95 3d 44 aa 5f bc
       0.041767642 0.0051108007 0.07287689 -0.013651434
000110 ad cb 2b be c0 43 46 be 71 50 ab be d4 51 53 37
       -0.16776915 -0.19361782 -0.3345981 1.2595632e-05
000120 c5 fa 04 3d 92 1d db bd a2 6f f7 3b a0 a0 35 be
       0.032465715 -0.106989995 0.0075511495 -0.17737055
000130 80 72 2d be 7b 7c a2 be 88 50 bc be b3 6c 1e be
       -0.1693821 -0.31735596 -0.3678019 -0.15471153
000140 41 30 0c bf bc 24 32 3c 50 ee c2 3d 7a d8 3b 3d
       -0.5476113 0.010873016 0.09518111 0.045860745
000150 ec 84 0b 3e 4a 48 86 be 94 d7 a4 bc 8b 4a 17 3e
       0.13624924 -0.26227027 -0.020122327 0.1477453
000160 51 9b 35 bf 12 23 b4 bd 0e 5b 1c 3d 47 42 c4 3b
       -0.7094012 -0.08795752 0.038172774 0.005989346
000170 4f 9f fa bc 26 80 d9 37 27 31 54 b6 10 7c 35 bd
       -0.030593542 2.592809e-05 -3.1619072e-06 -0.04430777
000180 9d d3 e1 b9 d2 85 3f 3d 54 75 21 3d 6b 5b ba 3d
       -0.00043073008 0.04675848 0.039418533 0.09099468
000190 3a 12 d5 3e 3e ae e8 bd 35 31 19 3e 27 ad 00 ba
       0.41615468 -0.11361359 0.14960177 -0.0004908614
0001a0 20 7b 4e be 0e f7 17 3e 7f c4 b3 3c a5 c9 20 be
       -0.20164156 0.14840338 0.021944283 -0.15701921
0001b0 c0 1b a9 3d cb d7 0b 3e 58 46 74 3e f5 a2 36 3e
       0.08257246 0.13656537 0.23854959 0.178356
0001c0 3b 63 31 3b 0d 01 ee be b1 20 70 be b2 ed 25 bf
       0.0027067203 -0.46485177 -0.23449971 -0.6481582
0001d0 ce fe 3f 3c 90 6b d8 3d 1e 15 bc be c9 dc 3d 3e
       0.011718465 0.10567391 -0.3673486 0.18541254
0001e0 1e 54 9c 3c ea 04 48 bd 84 32 33 3e f4 4b 9a 3c
       0.019083079 -0.04883281 0.17499739 0.018835045
0001f0 14 90 a0 be 9f e6 d1 bd 93 03 b6 3e 81 13 3c 3e
       -0.31359923 -0.102490656 0.35549602 0.18366815
000200 8c 88 4b be 16 20 b8 3e d2 88 8d bd 71 01 7b 3e
       -0.19876307 0.3596198 -0.06910862 0.24512269
000210 09 0b 8a 3e 3f db 0a 3e 11 d6 0c 3e 4d b5 d8 3d
       0.26961544 0.13560198 0.13753535 0.105814554
000220 41 f4 a1 3e 0e 18 3a 3d 9c dc 2e 3e 6c 43 81 be
       0.31631663 0.045433097 0.17076343 -0.2524675
000230 e5 dc 87 be 99 40 a8 be 6e 2e 3f be 73 08 88 bd
       -0.26535717 -0.32861784 -0.18670055 -0.066422366
000240 4a 77 b5 3e 0e ae 33 bd d1 4f 5a be e1 7f 58 be
       0.35442573 -0.043867163 -0.2131951 -0.21142532
000250 da 31 19 3e 84 39 83 be 49 71 2c 3e 5c a1 b0 be
       0.14960423 -0.25629818 0.1684009 -0.34498107
000260 36 00 e7 be b6 a0 62 bd 14 fd df bd 0c de 14 3e
       -0.45117348 -0.055329047 -0.10936943 0.14537829
000270 a8 8e 2f be ec 01 9f be 3b 45 74 be 3e f9 54 3e
       -0.17144263 -0.31056154 -0.23854534 0.20798203
000280 e1 27 14 bc 27 6b 76 be 80 d0 3e bc 51 22 9b be
       -0.009042711 -0.24064313 -0.01164639 -0.3029962
000290 18 27 d4 bd 8a 68 12 bd 3a 87 04 3e a0 84 73 bd
       -0.10359019 -0.035744227 0.1294221 -0.059452653
0002a0 22 02 08 3e 91 60 5b 3e d9 96 96 3e d1 dc f3 3d
       0.13282064 0.21423556 0.29411963 0.11907352
0002b0 53 44 da 3d e1 6e e8 be 22 d2 e6 be 10 85 09 bf
       0.10657563 -0.45397094 -0.45082194 -0.5371866
0002c0 7a 7f 6a be a7 7d 8a 3d d5 f7 5e 3c db b4 a6 bd
       -0.22900191 0.067622475 0.013608892 -0.08139964
0002d0 18 03 4e 3d 4e 2d de bb ec 53 c1 be 6a ca 4c 3e
       0.05029592 -0.006780303 -0.3775934 0.1999909
0002e0 c0 43 c8 bc 89 83 86 be eb c7 09 bc 6e 37 b4 be
       -0.024446368 -0.26272228 -0.008409481 -0.3519854
0002f0 7f 48 38 3e 2e 5b a0 3b d7 98 cc 3d b0 d6 1b 3d
       0.17996405 0.004893682 0.099900894 0.03804654
000300 e6 b3 9d 3d c4 19 a6 3d 8a e0 26 be 97 70 0a bc
       0.077003285 0.08110383 -0.16296592 -0.008449695
000310 b2 d7 5d bd e4 41 e4 3c 22 fc b0 3e 28 1e 7a bc
       -0.05416078 0.02786345 0.34567362 -0.015265979
000320 90 de 05 3e 31 d7 a4 3d bd 02 b5 be 28 ed cf 3d
       0.13073182 0.08048857 -0.35353652 0.10152656
000330 93 c0 41 be 61 4a 2f bb d6 db 91 be 2a bb aa 3e
       -0.18921117 -0.0026747214 -0.28488034 0.3334592
000340 66 dc e0 3d f9 7e 30 3b 5a 0d 19 be 1a 82 0c 3d
       0.10979538 0.002693115 -0.149465 0.034303762
000350 5e f5 bf bd b0 b3 25 3e f3 db 53 bb f0 58 b4 be
       -0.09372972 0.16181827 -0.0032327145 -0.35224104
000360 e7 26 3e 3e b4 c7 8e 3e 5a eb 38 3d 4e b7 b3 be
       0.18569528 0.27886736 0.045146324 -0.35100788
000370 98 47 73 3d 8a 28 d2 ba 5c 84 5e 39 c2 27 e8 3d
       0.05939445 -0.001603381 0.00021220878 0.11335708
000380 72 96 af be 96 c7 ef 3a 63 fd 10 bf 94 71 6c 3d
       -0.34294468 0.0018293734 -0.5663664 0.057725504
000390 f6 be 02 bf bc 3e 0b bd de a9 cd be 8d a0 19 38
       -0.51072633 -0.033995375 -0.4016866 3.6627567e-05
0003a0 15 2a b9 bc a4 72 97 3e 70 23 ae 3e 87 ca 19 3e
       -0.022603074 0.2957965 0.34011412 0.15018664
0003b0 25 fe b9 be f0 84 86 bb ed b9 01 bf 8e fe f5 bb
       -0.3632671 -0.004105203 -0.50674325 -0.007507152
0003c0 6b c0 56 bb e8 d2 88 3d 5d e2 3a bf 39 48 ef be
       -0.0032768499 0.06680852 -0.7300165 -0.4673479
0003d0 82 50 64 ba 39 a8 88 be 40 01 1e 3d 8d de 6d be
       -0.00087095064 -0.26690844 0.03857541 -0.23229428
0003e0 64 4d b6 bd 60 52 44 bc 9e 95 22 bf 5e 36 a9 3c
       -0.0890148 -0.01198253 -0.6350955 0.020655807
0003f0 86 3e ce 3d a9 b8 1d bc c5 53 a9 3e 6c 8f 79 3d
       0.10070519 -0.009626546 0.33071724 0.060927793

linear4.bias f4 [10]
000000 55 9d e4 3c 8d d3 e3 be 73 b0 a6 3d 76 c9 23 be
       0.027907053 -0.44497338 0.08139124 -0.1599482
000010 ac 40 da bd 0f 5b 0b bd 9c b3 4e bd 7c ed b2 be
       -0.106568664 -0.034022387 -0.050464258 -0.3494681
000020 3b 10 25 3f 86 c9 18 3e
       0.6447789 0.14920625
