models/FashionMNIST/mlp_num-layers=1_seed=012/099.pth (torch, 531335 bytes, 4 tensors)

linear1.weight f4 [128, 1024]
-1.2100829e-08 9.946562e-06 0.0013755434 0.02298977 0.0055990084 -0.010646632 -0.08308469 -0.086991906
-0.06614604 -0.025024803 -0.054437507 -0.05068549 0.018760417 0.17060013 0.14745258 0.04400539
0.08746868 0.16334148 0.0013762135 0.06446461 0.061184995 0.060612954 -0.08366613 -0.05159333
0.0033182602 0.005442422 -0.014249277 -0.011473487 -0.00031474762 -0.0025491326 -3.0765002e-09 -5.609393e-38
9.124866e-05 0.0042567872 -0.044704374 -0.023345325 -0.061609786 -0.1031025 -0.13272902 -0.076284766
-0.039028518 0.04893389 0.059201054 -0.093111575 -0.020863283 0.15358953 0.13610102 -0.019300876
-0.017155467 0.060614858 0.053340867 -0.0028286804 0.018811388 -0.0011972815 -0.025159232 -0.10135825
-0.113509014 -0.03791444 -0.015774358 -0.08369116 -0.057077788 -0.025289945 -0.0121813165 -6.698787e-07
0.0036336912 0.018964246 -0.023573328 -0.08513291 -0.08200755 -0.119252935 -0.2542105 -0.06610794
0.058018524 0.030766215 0.034667037 0.041010223 0.028483998 0.18292648 0.24203694 0.026174193
-0.13145688 -0.0431057 0.092428304 0.11379153 0.16719231 0.0065611713 -0.07673545 -0.08227625
-0.14625761 -0.11226575 -0.0074939984 -0.053451996 -0.07355009 -0.021783615 0.0003871417 -0.00015581245
0.026312875 0.05406322 0.0018284249 -0.027679604 -0.006794553 -0.16248697 -0.25193715 -0.13780887
-0.018619657 0.112059645 0.1043048 0.16120777 0.17391826 0.2311412 0.2217281 0.05722862
-0.10436714 0.062786125 0.19259863 0.22208773 0.28235957 0.009039531 0.0169187 -0.022992998
-0.08217971 -0.14381865 -0.09339718 -0.09991988 -0.09261622 -0.011854314 0.015676023 0.00024813457
-0.017348213 0.05689633 0.06900009 0.07189198 0.078408904 -0.043788474 -0.19415219 -0.13995337
-0.014023218 0.12865454 0.07871418 0.047845047 0.10451037 0.21533197 0.18183382 0.13034233
-0.037746456 -0.03189324 0.10785268 0.17817669 0.17138058 -0.012122308 0.03436647 0.017331665
-0.062690996 -0.08302506 -0.022139383 -0.091858506 -0.0799792 -0.020512568 0.018745055 -0.004666691
-0.0058346447 0.012404071 0.052430943 0.0706726 0.215981 -0.021090483 -0.20371547 -0.079761334
-0.031355776 0.052627917 0.15036285 0.028124202 0.10559019 0.12242061 0.19995882 0.114535734
-0.1235577 -0.14304002 0.015010652 0.041236266 0.04653047 0.0141462805 0.025680125 -0.08101802
-0.19945945 -0.16580895 0.04582906 -0.007666606 0.023985727 -0.020561328 -0.028220985 -0.0028183518
0.029101199 0.023837531 0.06563043 0.1892021 0.30155182 -0.033629596 -0.29657596 -0.14488432
0.0013442787 0.005579692 -0.049296215 -0.09358691 -0.030454945 0.05835874 0.103051215 0.036961205
-0.22451255 -0.29147258 -0.0738313 -0.065965116 -0.012869431 -0.037564877 -0.092860945 -0.13184042
-0.2967325 -0.2003544 -0.05072288 0.049766652 0.073761486 0.048007376 -0.0020138598 0.0070624286
0.033290006 0.014680014 0.057373926 0.22516313 0.29527387 -0.06733041 -0.30259925 -0.055833343
0.03632765 -0.033816736 -0.13743044 -0.22759505 -0.08287301 0.081913985 0.068035446 -0.09909895
-0.33672896 -0.41312873 -0.18287835 -0.089200415 -0.053104907 -0.19987133 -0.22859237 -0.08688347
-0.1987164 -0.24284035 -0.10357973 0.10528006 0.030744083 0.009694235 0.04558627 -0.0060526077
00000000: 02e4 4fb2 29e0 2637 944b b43a 0b55 bc3c
00000010: e377 b73b 366f 2ebc 4e28 aabd d028 b2bd
00000020: 9377 87bd d100 cdbc ddf9 5ebd 979b 4fbd
00000030: 72af 993c cdb1 2e3e cffd 163e ff3e 343d
00000040: c822 b33d fd42 273e 1062 b43a 0506 843d
00000050: 1e9d 7a3d 4a45 783d 2659 abbd 8753 53bd
00000060: 2b77 593b 5856 b23b cd75 69bc 4bfb 3bbc
00000070: b604 a5b9 590f 27bb 5d6a 53b1 c4b3 9881
00000080: c05c bf38 857c 8b3b ef1b 37bd b23e bfbc
00000090: 8b5a 7cbd 6727 d3bd 1eea 07be 303b 9cbd
000000a0: 5edc 1fbd e76e 483d ce7c 723d 48b1 bebd
000000b0: 7ae9 aabc 9346 1d3e 115e 0b3e df1c 9ebc
000000c0: 9f89 8cbc 4947 783d f47b 5a3d 6261 39bb
000000d0: 571a 9a3c 1aee 9cba bc1a cebc ea94 cfbd
000000e0: 6a77 e8bd 2c4c 1bbd 3a39 81bc 4566 abbd
000000f0: 66ca 69bd dc2c cfbc 2594 47bc b7d1 33b5
00000100: 3923 6e3b e85a 9b3c da1c c1bc 2a5a aebd
00000110: 93f3 a7bd e23a f4bd e127 82be 9a63 87bd
00000120: d5a4 6d3d 6e09 fc3c 06ff 0d3d 56fa 273d
00000130: 4657 e93c 1451 3b3e 88d8 773e 436b d63c
00000140: a29c 06be 9a8f 30bd 0d4b bd3d 890b e93d
00000150: 7634 2b3e 18ff d63b 7a27 9dbd 7380 a8bd
00000160: 8ec4 15be 96eb e5bd 3790 f5bb 7bf0 5abd
00000170: 6ea1 96bd 8d73 b2bc 48f9 ca39 9661 23b9
00000180: 198e d73c 6571 5d3d c2a7 ef3a 56c0 e2bc
00000190: d7a4 debb fc62 26be e8fd 80be c51d 0dbe
000001a0: 4088 98bc 877f e53d c19d d53d a613 253e
000001b0: a117 323e 47b0 6c3e b10c 633e 8f68 6a3d
000001c0: 70be d5bd 0396 803d 9338 453e f76a 633e
000001d0: 6f91 903e 8b1a 143c 1699 8a3c d05b bcbc
000001e0: d64d a8bd 3245 13be 0547 bfbd cba2 ccbd
000001f0: 93ad bdbd 9938 42bc 016b 803c 0f18 8239
00000200: d71d 8ebc 200c 693d eb4f 8d3d 1a3c 933d
00000210: d994 a03d 8b5b 33bd d5cf 46be f04f 0fbe
00000220: a4c1 65bc 04be 033e e634 a13d 2bf9 433d
00000230: 8809 d63d fc7f 5c3e a532 3a3e 7678 053e
00000240: 079c 1abd 7ca2 02bd dee1 dc3d f373 363e
00000250: 647e 2f3e a59c 46bc dbc3 0c3d 23fb 8d3c
00000260: 2364 80bd 0b09 aabd a75d b5bc 5020 bcbd
00000270: 23cc a3bd f909 a8bc 3b8f 993c 0beb 98bb
00000280: 8c30 bfbb 723a 4b3c d4c1 563d ccbc 903d
00000290: 202a 5d3e f3c5 acbc ca9a 50be e959 a3bd
000002a0: ea6e 00bd 5f90 573d b8f8 193e ba64 e63c
000002b0: ab3f d83d a8b7 fa3d 01c2 4c3e b691 ea3d
000002c0: d20b fdbd 1579 12be 3def 753c 5ce7 283d
000002d0: bc96 3e3d cdc5 673c 205f d23c c7ec a5bd
000002e0: 193f 4cbe d2c9 29be 41b7 3b3d 2738 fbbb
000002f0: b77d c43c 3b70 a8bc b22f e7bc 19b4 38bb
00000300: a365 ee3c ed46 c33c 3f69 863d 32be 413e
00000310: 0065 9a3e 30bf 09bd ced8 97be 8e5c 14be
00000320: 8232 b03a d9d5 b63b d4ea 49bd 7eaa bfbd
00000330: a67c f9bc 9309 6f3d 840c d33d a264 173d
00000340: 9ee6 65be e53b 95be dd34 97bd b818 87bd
00000350: 4eda 52bc a1dd 19bd e12d bebd 2d01 07be
00000360: 52ed 97be b429 4dbe cbc2 4fbd 1ed8 4b3d
00000370: 4310 973d 62a3 443d f6fa 03bb f26b e73b
00000380: 1a5b 083d 7184 703c ec00 6b3d 2a91 663e
00000390: 232e 973e 87e4 89bd 4aee 9abe 81b1 64bd
000003a0: 4dcc 143d 6b83 0abd 91ba 0cbe ad0e 69be
000003b0: 53b9 a9bd 85c2 a73d 2b56 8b3d 64f4 cabd
000003c0: bd67 acbe 9c85 d3be 7644 3bbe b5ae b6bd
000003d0: 8884 59bd 12ab 4cbe 1e14 6abe f6ef b1bd
000003e0: 507c 4bbe 24ab 78be 9c21 d4bd 129d d73d
000003f0: 04db fb3c 92d4 1e3c abb8 3a3d f454 c6bb

linear1.bias f4 [128]
-0.2587729 0.0395813 0.72983164 -3.088997e-05 -4.1579744e-21 0.98524994 0.41898876 0.4614697
0.76669407 0.08401041 0.036902364 0.76944184 1.038526 0.11180997 -0.23324004 0.9813975
0.9521209 -0.015378891 -0.45847273 -0.059948802 -0.72872543 0.47927013 0.18616928 0.658228
0.66492844 0.8065372 -0.047158815 0.4072035 0.20519376 0.6958535 -0.30527315 -0.12413484
0.48930603 -0.34724063 0.913232 0.33007255 0.13127485 0.4458391 -0.27781224 0.4140595
0.080326416 0.26038375 0.86831605 0.7021733 1.8734545 0.56533194 -6.3996967e-29 -0.009570608
0.36379045 -0.82361543 0.24181513 -0.1874417 0.67548406 0.73609483 -0.48354417 0.34953862
1.2401153 0.28013757 0.53223 0.500877 0.7054366 -0.40814224 -0.4008704 -0.16865456
-0.14267638 0.85076964 -0.14593399 -0.0274767 0.27305272 0.92255145 0.17003769 -0.37658688
-0.28576028 0.5045399 0.39591685 0.71570635 -0.29712227 0.37644073 0.12550756 0.15262116
0.5840342 0.3116712 -0.27779558 -0.034852695 -0.15600969 -2.3656434e-05 0.4505094 -0.28411055
-0.08710208 0.25846425 -0.20451547 1.0933747 0.4356318 -0.2991286 -0.37078565 0.32172292
0.58204526 -0.2536824 -0.052515008 0.3206901 -0.063181125 0.47627285 -0.59524643 0.5691999
-4.6367248e-08 -0.53887105 0.6572738 0.1606132 1.2755371 0.45357117 -0.3716865 0.27378774
0.12874116 0.16133161 -0.010169876 -0.05877675 0.44907942 0.45353577 -0.036659155 -0.41461942
0.5889224 0.495093 0.16406606 0.14562048 -0.0016948521 -0.035770975 -0.63713646 0.84615374
00000000: e27d 84be 0020 223d 3fd6 3a3f da8f 01b8
00000010: 7615 9d9d 5739 7c3f b285 d63e c245 ec3e
00000020: 1046 443f a60d ac3d ef26 173d 24fa 443f
00000030: 6cee 843f a0fc e43d 7ad6 6ebe de3c 7b3f
00000040: 32be 733f bef7 7bbc f0bc eabe e08c 75bd
00000050: c08d 3abf e562 f53e 29a3 3e3e a181 283f
00000060: c038 2a3f 3979 4e3f 9a29 41bd fa7c d03e
00000070: 501e 523e 7423 323f c34c 9cbe 683a febd
00000080: 5286 fa3e 86c9 b1be 93c9 693f 45ff a83e
00000090: ea6c 063e 0645 e43e 683d 8ebe 9bff d33e
000000a0: 2d82 a43d 0551 853e f649 5e3f a1c1 333f
000000b0: 5bcd ef3f 98b9 103f 6840 a290 0ace 1cbc
000000c0: be42 ba3e 76d8 52bf 639e 773e b8f0 3fbe
000000d0: 86ec 2c3f b670 3c3f 1a93 f7be baf6 b23e
000000e0: 19bc 9e3f 316e 8f3e 3a40 083f 7a39 003f
000000f0: 7e97 343f 05f8 d0be e33e cdbe c8b3 2cbe
00000100: c219 12be 0acc 593f b86f 15be d116 e1bc
00000110: 91cd 8b3e 552c 6c3f 5c1e 2e3e ffcf c0be
00000120: 2c4f 92be 8729 013f 9db5 ca3e 8838 373f
00000130: 6920 98be d7bc c03e 0e85 003e b948 1c3e
00000140: 4483 153f 5e93 9f3e 393b 8ebe b3c1 0ebd
00000150: 01c1 1fbe ce71 c6b7 2ba9 e63e f076 91be
00000160: 9362 b2bd 6d55 843e 816c 51be b4f3 8b3f
00000170: 220b df3e 6227 99be 9ed7 bdbe deb8 a43e
00000180: eb00 153f a9e2 81be fa19 57bd 7e31 a43e
00000190: 1b65 81bd 09da f33e 1262 18bf 16b7 113f
000001a0: 5425 47b3 74f3 09bf 1943 283f c977 243e
000001b0: cd44 a33f 7b3a e83e b14d bebe e82d 8c3e
000001c0: b9d4 033e 1d34 253e 8d9f 26bc e4bf 70bd
000001d0: bded e53e d735 e83e e927 16bd ff48 d4be
000001e0: 9ec3 163f d47c fd3e ef00 283e 891d 153e
000001f0: cd25 deba 9684 12bd 601b 23bf 889d 583f

linear2.weight f4 [10, 128]
0.05577418 0.12370921 -0.3543295 0.00034606337 -0.0013181902 -0.3490216 -0.18236873 -0.33251026
0.0961237 -0.10367454 0.16178177 0.11258472 0.0801659 0.030705968 0.24963808 -0.13499583
-0.40409464 0.008387891 0.17141476 0.36622286 0.03642167 -0.5431227 -0.039709944 -0.0039335103
-0.09287929 -0.12777314 -0.29234812 0.112561025 -0.04181792 -0.39842904 0.08986444 -0.067224145
0.20721579 0.302312 -0.4290949 0.010271588 -0.0851725 0.14775382 0.09483698 0.1860179
0.06567292 0.15509267 0.1455606 0.16884075 0.36034083 0.06907324 0.011833837 0.06114908
0.15542214 0.022443734 -0.37056363 -0.21861124 -0.20949249 0.10608009 -0.16005827 -0.017790198
-0.05668563 0.056021392 0.08441188 -0.47380602 0.12937729 -0.1310686 0.31538755 -0.2788742
0.011591189 -0.023878975 -0.274192 -0.02369978 0.1549142 0.18378389 -0.19041261 -0.23204951
-0.0026520116 -0.00912637 -0.2608565 -0.1835817 -0.14544389 0.025704619 -0.28476447 -0.17863108
-0.17287175 -0.10242277 -0.117274895 0.06543024 -0.012178178 -0.0061872182 -0.25657865 0.0058780294
0.16033219 0.053356536 0.06725369 -0.7014978 0.08675779 0.14758587 -0.041550737 0.053106733
-0.48577052 0.0449449 0.17498153 -0.33454674 0.09882422 0.057143066 -0.30298224 0.16657719
6.7325906e-34 0.064353034 0.04704583 0.055305097 -0.47986215 0.027037187 -0.0025737016 0.17395875
-0.32787415 -0.3274406 -0.37987044 0.071912184 0.0744827 0.3157517 -0.06365979 0.012260638
0.13080202 -0.42345425 -0.085396186 0.07282555 0.07204275 0.06347691 0.058004428 0.21167278
0.06323116 -0.3430924 -0.2698155 -5.590193e-08 4.6507e-05 -0.016959285 -0.46734893 0.22166099
0.043235034 -0.15202025 0.36860552 -0.3629813 -0.5941926 -0.7266063 -0.23031746 -0.65286195
0.0686079 0.00011688241 0.2594674 0.11620037 0.022484403 -0.16299121 -0.7657513 0.55144733
0.42859298 -0.5220073 -0.020850865 -0.18445045 0.06131335 0.28590152 0.32366404 0.14646208
-0.21880782 -0.02807344 0.23598367 -0.1885904 0.20729613 -0.102097735 -0.26405993 -0.05335928
-0.14726226 -0.34756917 0.026455272 0.11924502 0.25744212 0.038530767 -0.00024161885 0.070033416
0.17404911 -0.10417697 -0.13777159 1.0250472 -0.25105944 -0.13181359 -0.15832047 0.08898994
-0.81821626 0.0609231 -0.03775087 1.1480721 -0.90971935 0.42105973 0.08179995 0.30183104
0.2260506 -0.21309711 -0.541635 -0.385151 -0.0580969 -0.24165988 0.64445865 0.29584393
0.2522623 -0.06308015 -0.075421154 0.3363581 -0.46273118 -0.16073367 -0.4322128 0.03920828
-0.7593309 -0.7094708 -0.24871051 -0.043869015 -0.021551488 -0.015534812 0.22156069 0.07360918
0.3642246 -0.33345604 -0.016676497 0.11598963 -0.6215736 -0.023861427 0.4694444 0.29173094
-0.43683684 0.47695056 0.1614536 -0.096814595 -0.5011147 0.2889362 -0.70115095 -0.2395338
-1.4257836e-38 0.01723423 -0.1741482 0.060202323 -0.33616754 0.10929196 0.22896802 -0.26871625
-0.3366727 -0.050918017 -0.40361476 -0.2620833 -0.039278492 -0.2657863 0.48849043 0.12998879
-0.54445654 -0.686921 -0.7755499 -0.17284885 -0.2762384 -0.078162804 0.082669035 -0.13847794
00000000: 7773 643d 415b fd3d ad6a b5be d76f b539
00000010: 20c7 acba f6b2 b2be debe 3abe c93e aabe
00000020: 81dc c43d 5153 d4bd 1faa 253e d192 e63d
00000030: 052e a43d 158b fb3c 20a1 7f3e 593c 0abe
00000040: 7ee5 cebe 5d6d 093c 5a87 2f3e 9081 bb3e
00000050: e42e 153d 170a 0bbf e5a6 22bd ade4 80bb
00000060: 7f37 bebd f6d6 02be a7ae 95be 6586 e63d
00000070: 4449 2bbd e4fe cbbe d90a b83d d0ac 89bd
00000080: 6030 543e a3c8 9a3e 54b2 dbbe 2a4a 283c
00000090: eb6e aebd c74c 173e e439 c23d 7a7b 3e3e
000000a0: 867f 863d 9dd0 1e3e d70d 153e 97e4 2c3e
000000b0: 987e b83e 4576 8d3d b6e2 413c 7577 7a3d
000000c0: fb26 1f3e ecdb b73c 84ba bdbe a0db 5fbe
000000d0: 3385 56be 8540 d93d 51e6 23be c0bc 91bc
000000e0: 312f 68bd b076 653d 23e0 ac3d b496 f2be
000000f0: 7b7b 043e d936 06be 7a7a a13e 99c8 8ebe
00000100: f8e8 3d3c d79d c3bc e562 8cbe 0b26 c2bc
00000110: d4a1 1e3e d831 3c3e 86fb 42be 639e 6dbe
00000120: 5fcd 2dbb c586 15bc fc8e 85be d7fc 3bbe
00000130: 3eef 14be 7e92 d23c a6cc 91be 11eb 36be
00000140: 4b05 31be 07c3 d1bd d22d f0bd 4a00 863d
00000150: fb86 47bc 26be cabb 475e 83be 7c9c c03b
00000160: 1f2e 243e 628c 5a3d 4dbc 893d 5c95 33bf
00000170: 11ae b13d c020 173e 1b31 2abd 7286 593d
00000180: eab6 f8be 2518 383d 5c2e 333e b649 abbe
00000190: 5a64 ca3d d90e 6a3d 7d20 9bbe 3693 2a3e
000001a0: 8cba 5f08 86cb 833d 21b3 403d 9987 623d
000001b0: 7eb0 f5be 177d dd3c 8cab 28bb 3e22 323e
000001c0: 1fdf a7be 4ba6 a7be 617e c2be b246 933d
000001d0: 638a 983d 35aa a13e 1060 82bd d8e0 483c
000001e0: f7f0 053e ffce d8be 32e4 aebd 9025 953d
000001f0: 268b 933d 2f00 823d 0d96 6d3d c0c0 583e
00000200: 577f 813d cfa9 afbe 4225 8abe d218 70b3
00000210: 8310 4338 33ee 8abc 5c48 efbe 19fb 623e
00000220: 3817 313d 32ab 1bbe ddb9 bc3e afd8 b9be
00000230: 021d 18bf df02 3abf 57d8 6bbe f621 27bf
00000240: 4c82 8c3d c41e f538 e9d8 843e 76fa ed3d
00000250: 3631 b83c 2be7 26be 4708 44bf a72b 0d3f
00000260: 8a70 db3e 45a2 05bf 6fcf aabc 94e0 3cbe
00000270: b523 7b3d af61 923e 4bb7 a53e 28fa 153e
00000280: 280f 60be 45fa e5bc b4a5 713e d81d 41be
00000290: 7045 543e 9e18 d1bd dd32 87be 438f 5abd
000002a0: ebcb 16be 96f4 b1be bab8 d83c bc36 f43d
000002b0: 74cf 833e 70d2 1d3d 115b 7db9 ae6d 8f3d
000002c0: ee39 323e bc5a d5bd ff13 0dbe bf34 833f
000002d0: dd8a 80be 24fa 06be c31e 22be 5c40 b63d
000002e0: 9f76 51bf 808a 793d a8a0 1abd 07f4 923f
000002f0: 5ee3 68bf 2495 d73e bb86 a73d 9989 9a3e
00000300: cf79 673e 2136 5abe 97a8 0abf 8332 c5be
00000310: 04f7 6dbd b075 77be 3efb 243f db78 973e
00000320: 8628 813e 2a30 81bd 6876 9abd 2137 ac3e
00000330: 1aeb ecbe 5e97 24be ff4a ddbe dd98 203d
00000340: 8363 42bf e19f 35bf f8ad 7ebe ffaf 33bd
00000350: bf8c b0bc b985 7ebc cee0 623e 69c0 963d
00000360: a67b ba3e c0ba aabe 269d 88bc f98b ed3d
00000370: 731f 1fbf 0a79 c3bc 045b f03e c25d 953e
00000380: 14a9 dfbe dd32 f43e 1854 253e bb46 c6bd
00000390: 0e49 00bf 72ef 933e a17e 33bf 5948 75be
000003a0: 0c41 9b80 cd2e 8d3c e853 32be b696 763d
000003b0: 271e acbe 77d4 df3d 9876 6a3e 2d95 89be
000003c0: 5d60 acbe 698f 50bd 98a6 cebe c82f 86be
000003d0: 7ce2 20bd 2415 88be 6b1b fa3e c81b 053e
000003e0: 8161 0bbf 0eda 2fbf 708a 46bf 4aff 30be
000003f0: 1f6f 8dbe d213 a0bd 624e a93d 29cd 0dbe

linear2.bias f4 [10]
-0.19706771 -0.24461538 0.4380981 0.26726913 -0.42464906 -0.03795657 0.22472976 0.37971386
-0.0014407067 -0.7444377
00000000: 1ecc 49be 747c 7abe 654e e03e 80d7 883e
00000010: 9a6b d9be 5978 1bbd 8f1f 663e db69 c23e
00000020: 18d6 bcba 7893 3ebf
