models/MNIST/mlp_num-layers=2_seed=005/099.pth (torch, 597815 bytes, 6 tensors)

linear1.weight f4 [128, 1024]
00000000: dc84 6181 a801 bc00 84cd bf00 e79d 9001
00000010: c47d 1500 c05e 1981 d216 7881 9a80 7f81
00000020: a828 cc80 ecb7 0a81 b868 0380 707c ee00
00000030: be77 a001 a778 3c01 9a80 d600 f037 6401
00000040: 3e22 0c01 8950 051c 4215 d9a7 4fbe ee07
00000050: 68aa 1180 90cf f200 947b 7b01 a45f 7b81
00000060: 14d8 0181 607b 2481 74ad 9401 5834 fa00
00000070: 3c73 8380 581c 8381 dd01 8481 d001 ec80
00000080: 2dc4 8601 889b b780 c8e4 0e01 d00e f800
00000090: daee 5201 fc2d ee80 2292 73ba 1f11 06bd
000000a0: f624 10bd 50b3 e2bc 3d8a 9abc bb23 0cbd
000000b0: 1ba2 2cbd 8cd1 a1bc a79a 153b 9034 76bb
000000c0: 6ed9 f13b d885 493c 0352 2bbb 0e4c 62bb
000000d0: 6efd b8ba 5b17 69ba 7e95 8bb9 1aaf 49b7
000000e0: 2555 b1b8 5e02 82b6 ded6 9ba3 f797 2980
000000f0: eac9 0f81 1708 9201 107c ee00 1e1a ac01
00000100: 34ff d980 a0f9 1c01 b4e0 5c01 43aa 2794
00000110: 0c23 302e 97f9 48b9 acbb a8bc a7aa ccbc
00000120: c12d b3bd a26c 33be 8447 3dbe dd20 15be
00000130: 914c 10be b569 6dbd a92d 543c fe22 1e3d
00000140: 3714 973d e852 3e3e 886d ca3d 4c39 373c
00000150: 7319 683b ac8e 183c 4d18 eb3c b0b6 7c3c
00000160: 1a58 16bc e069 8abb 5928 54bb f3ff 6ab3
00000170: 5aaf d8b2 7dd1 a801 8a19 6181 bcd3 4381
00000180: 50c8 9800 db41 7f00 63cd 9981 f30e 4137
00000190: d6b8 183a a923 cdbc 0c91 b5bd 44cd 25be
000001a0: 4c05 3bbe 30d5 1fbe cb76 0ebe fff8 01be
000001b0: 562c 2cbd 96e7 ccbc 3338 abbd 1b5d 5fbd
000001c0: 6b54 923c 400f fa3d 5a99 6b3e e1e7 223e
000001d0: 6a3c 7f3d 0651 2b3d 720d 043e 690e 833d
000001e0: cd48 04bc 49e3 89bd 45ab c3bc 5b18 c6bb
000001f0: f831 b4bb 593d b9b8 193a 9401 685f 4d00
00000200: 687a 5380 3954 d63b add4 a63c a066 1e3b
00000210: da3e 28bd 3c1e adbd 5962 30be 8bba febd
00000220: a68b b4bd be6f 45bd 64c3 133d a313 71bd
00000230: a9ca 80bd 8576 9ebc 9eab 3a3d 4637 013d
00000240: e698 a73d a454 ed3d 3645 0a3e dbb9 3d3d
00000250: f077 0d3d 00d2 2d3d bcce 2a3d d5be a43d
00000260: 3777 a1bc 12b9 90bd 0aaa 0ebc 6656 50bd
00000270: 2e48 b5bb 13c0 3c3b 76d4 5fad f844 1ca8
00000280: c029 8480 4d8c 8f38 f45b 9c3c bd4b 863c
00000290: bb5d 1e3c 8510 76bd 7ad4 2bbe 3938 1cbe
000002a0: e754 573a 34a0 943c 5ad9 26bd cde3 603b
000002b0: f773 79bd 8707 57bd 60ef 2e3c 40c4 a13d
000002c0: 8eba c63d 3880 033e 71f7 9f3d 6c18 073d
000002d0: 33fb 443d aedc 543d aee0 763d ad47 523b
000002e0: 4321 a03c 459e c2ba 1778 ea3d 0d6b e53b
000002f0: 5c5a b13c 31ef 6f3b e48e 1fbc a9e5 74b9
00000300: 1411 0b81 a5d2 19bb 323e 73bc 79a4 abbc
00000310: da87 b7bc 06e6 2bbd 25cc 37bd e8f9 95bd
00000320: 2495 8bbc 0fb4 9a3a a3e5 36bd ef5b 88bd
00000330: 6912 023c 4d1d 0a3d 09a8 213c 52c6 e33d
00000340: 978f 313e 331c c73d 87bd ff3d 47cf d73d
00000350: 44fa b33d 4241 9b3d abd1 603d 3427 d73c
00000360: be67 893c 604c 8f3c 829f 853c 8bb7 70bd
00000370: af46 f7bc db46 c73c c390 cbbc 784e 9fbc
00000380: 1e2f 2016 214d 1cbc 730e 35bd 79ed 71bd
00000390: b4f5 29bd 7913 a3bd 0225 b0bc e1cd 9abd
000003a0: b08f b1bd a150 dabd a257 5dbd dd6c 53bd
000003b0: c734 e0bc 0aae 25bc c7c5 883c c434 e03d
000003c0: 576b ff3d 0677 c53d 05fd c13d 7439 ad3d
000003d0: fc50 b83d 5e19 b83d 74d9 913d 19dc 8c3d
000003e0: 20b1 033a 33e5 543d d822 e93d 1bec 8f3d
000003f0: bb24 9abc 739f 7bbb 31f0 40bd 638b 5cbc
-4.1421295e-38 1.7265667e-38 1.7614305e-38 5.3123825e-38 1.973662e-39 -2.8169642e-38 -4.556678e-38 -4.692837e-38
-1.8749026e-38 -2.5478554e-38 -3.13072e-40 2.1901488e-38 5.894654e-38 3.461671e-38 1.969893e-38 4.191712e-38
2.5738506e-38 4.41101e-22 -6.0252647e-15 3.5922113e-34 -1.622334e-39 2.229865e-38 4.6190082e-38 -4.6170038e-38
-2.3848586e-38 -3.021056e-38 5.4615507e-38 2.2977651e-38 -1.2071788e-38 -4.816247e-38 -4.8491816e-38 -2.1673827e-38
4.9505324e-38 -1.686169e-38 2.6245423e-38 2.2780517e-38 3.8742276e-38 -2.1873344e-38 -0.000929149 -0.03273117
-0.0351915 -0.027673393 -0.018864745 -0.034213763 -0.042146783 -0.01975324 0.0022827776 -0.003756795
0.007380656 0.012299977 -0.0026141412 -0.0034530195 -0.0014113614 -0.0008891725 -0.00026623526 -1.2021303e-05
-8.455877e-05 -3.8745775e-06 -1.6896133e-17 -3.81977e-39 -2.6409818e-38 5.364354e-38 2.1901353e-38 6.32203e-38
-2.0019852e-38 2.8831772e-38 4.0568835e-38 -8.4649236e-27 4.0048895e-11 -0.00019166466 -0.020597301 -0.024983717
-0.08748961 -0.17521909 -0.18484312 -0.14563318 -0.14091708 -0.05796214 0.012950339 0.03860759
0.073769026 0.18586314 0.09884173 0.011183094 0.003541556 0.009311359 0.028698111 0.0154244155
-0.0091762785 -0.004224047 -0.0032372682 -5.4715155e-08 -2.522545e-08 6.2014054e-38 -4.1344297e-38 -3.5967755e-38
1.4030854e-38 1.1686733e-38 -5.649804e-38 1.1507177e-05 0.00058258825 -0.025041418 -0.08865556 -0.16191584
-0.1826374 -0.15608668 -0.13912503 -0.1269264 -0.04203447 -0.025012773 -0.083603285 -0.05453215
0.01786252 0.1220994 0.23007718 0.15908767 0.062313475 0.041825317 0.12895754 0.06399233
-0.008073998 -0.06732804 -0.023885379 -0.006045384 -0.005499121 -8.832914e-05 5.444998e-38 7.105559e-39
-7.666257e-39 0.006540802 0.020365084 0.0024170056 -0.041075565 -0.084530324 -0.17225017 -0.12437924
-0.08815698 -0.04820227 0.03607501 -0.058856618 -0.06288654 -0.019343624 0.045573823 0.031546853
0.0818346 0.115884095 0.13502964 0.046319824 0.03453821 0.0424366 0.041701064 0.08044211
-0.019710166 -0.07066549 -0.008707533 -0.050863646 -0.005532286 0.0028801009 -1.2723258e-11 -8.674695e-15
-1.2137263e-38 6.8449044e-05 0.019086815 0.016393537 0.009665902 -0.060074348 -0.16780272 -0.15255822
0.00082142506 0.018142797 -0.040734626 0.0034315467 -0.06090161 -0.052497413 0.010677189 0.0789876
0.09703551 0.1284188 0.078108676 0.032982275 0.048091125 0.05196827 0.060272865 0.003208618
0.01954711 -0.0014848193 0.114486866 0.007001287 0.021649532 0.0036611075 -0.009738658 -0.00023355208
-2.554252e-38 -0.0023471501 -0.0148463715 -0.02095245 -0.022403646 -0.041967414 -0.04487242 -0.073230565
-0.01703889 0.0011802929 -0.044652592 -0.0665816 0.00793896 0.03371935 0.009866723 0.11121811
0.17339931 0.097221754 0.12487321 0.10537582 0.08787969 0.07580806 0.054887455 0.02626381
0.016773101 0.017492473 0.01631141 -0.05876879 -0.030185072 0.024325779 -0.024849301 -0.019446597
1.2939565e-25 -0.009539873 -0.044203233 -0.059064362 -0.041494086 -0.079626985 -0.021502022 -0.075587995
-0.08669984 -0.1065991 -0.05403865 -0.051617492 -0.027368916 -0.010112295 0.01669587 0.10947564
0.12471645 0.096418425 0.09472088 0.08458224 0.089998215 0.089892134 0.07121554 0.06877918
0.0005023647 0.051976394 0.11383599 0.070274554 -0.018816343 -0.00383946 -0.047104064 -0.013460967

linear1.bias f4 [128]
00000000: 94c7 d2bd 9c19 38be 26b9 b43d 30fa f2bc
00000010: 66fa 263e e2a2 ea3e e38f ab3e 9ab8 1d3b
00000020: 4bfe 0cbd 7e54 463d f2a9 003e c371 4cbe
00000030: a3cc 653e 3119 db3e 091f 753e 69e7 a2ba
00000040: 5ed1 82be c9c2 36af 7d8e 96be 520b a43e
00000050: 84cc 35be 170f 033f d973 0b3d ad19 ee3d
00000060: c770 08bd 68b8 e83d 5da6 cdbb e1fb 13bd
00000070: febe 9a3d c691 37bd df55 473e f568 6e3e
00000080: 679e b23d 2b39 dc3e 8bc1 a03b 6ad6 a03e
00000090: 4861 34bd 6eb5 5cbe e08d 8c3e 569a 543e
000000a0: 6f09 843e 57ae 1bbe 9aba 58be f031 b7bd
000000b0: b7fb ab3d 718e 46bd a586 e3ba 4aab c23e
000000c0: ffbd 7ebe 2786 cbbd c163 a13d 7c8a 2f3e
000000d0: b9b5 3b3d dbad dd3d 854f 8c3d 900b c33d
000000e0: 1441 5d3e 3588 5cbd ddde 9abd 2f9b bd3d
000000f0: ea75 a7be 8e30 a3bc 68e7 243e aee7 bd3d
00000100: e087 9db4 547e cebc 0108 be3e 292b 963e
00000110: f0c8 9b3e 6122 b83d 561e ab3e af7a dc3e
00000120: 3565 1fbb 265a 9c3e 1abe 063e 524b eebd
00000130: e562 3bbc 592e e83e 2743 09bd 0554 133e
00000140: a160 b2bd c9d1 1dbe 9d4a 6ebc 4d45 b43e
00000150: a824 c63e 5515 603d 3b01 263d cac1 803e
00000160: 9000 9c3e 6fa0 d4bd 3b45 46bd 1fb4 bc3e
00000170: a576 f03d 5052 813e a740 a13e 6da6 98be
00000180: f17a 063e 52b4 593d fad4 8f3e d64a dd3e
00000190: 3621 703e 6943 07be ce86 02bd 44cc 873e
000001a0: f14c 063e c426 583e 5fe7 333e e638 7abc
000001b0: 85ea 47bd 48e3 043e 57ad 2a3e 775c b6be
000001c0: de79 43be 6637 22be 6268 d5bd 93ef 753b
000001d0: 5240 b8be 67d9 18be 0af9 233d b838 fd3c
000001e0: 6a55 503e 3ef7 153e d3a7 923e 22c5 4dbd
000001f0: f279 b13e ca1d 83bd 5f64 bdbd 0c1f 6ebd
-0.10291973 -0.17978519 0.08824377 -0.029660314 0.16306457 0.45827395 0.33508214 0.002406633
-0.0344222 0.04842042 0.12564829 -0.19965272 0.22441344 0.42792657 0.2393762 -0.0012428585
-0.2555036 -1.6622005e-10 -0.29405585 0.32039887 -0.17753798 0.511949 0.034046028 0.11625991
-0.033310678 0.11363298 -0.0062759356 -0.036128882 0.0755596 -0.044816755 0.19466351 0.23282225
0.08721619 0.43012366 0.0049058846 0.31413585 -0.044038087 -0.21553585 0.27451992 0.20762
0.25788447 -0.15203224 -0.21164933 -0.08945072 0.0839762 -0.048475686 -0.0017358853 0.38021308
-0.24877165 -0.09937697 0.07880355 0.17142671 0.0458276 0.10824176 0.06851105 0.0952369
0.21606857 -0.053840835 -0.07562039 0.092581145 -0.3270715 -0.019920614 0.161039 0.09272705
-2.934239e-07 -0.025206722 0.37115481 0.29329804 0.3042674 0.08990932 0.33421582 0.4306235
-0.0024321799 0.30537528 0.13158455 -0.1163546 -0.0114371525 0.4534786 -0.033511307 0.1438752
-0.08709837 -0.15412058 -0.014544156 0.35209122 0.38699841 0.054707844 0.040528517 0.2514785
0.3046918 -0.10382163 -0.048405867 0.3685617 0.1174138 0.25258112 0.31494638 -0.29814473
0.13132836 0.053150482 0.28092176 0.43221158 0.23450169 -0.13209309 -0.03186684 0.2652303
0.13115288 0.21108538 0.1756873 -0.015272355 -0.04880764 0.12977326 0.16667686 -0.3561742
-0.19089457 -0.15841445 -0.104203 0.003752683 -0.35986573 -0.14926682 0.040032424 0.030910835
0.20345083 0.14645097 0.28643665 -0.05023683 0.3466335 -0.06402166 -0.0924766 -0.058135077

linear2.weight f4 [128, 128]
00000000: a9f8 99bd 3d0e 3c3e f538 983e dc4c 2b3d
00000010: c30b 4cbd 42ac c9bd c0a4 59bc 9db8 36be
00000020: d16d 5fbd b29f ffbe 3c0e f9bd 0d7c bdbd
00000030: 393f 453e 18f1 81be e1fb 9fbe 37b8 05be
00000040: 74fc 3b3d 73e6 8537 edfd 08bc ead6 753e
00000050: 983d 97be d6d9 953e 6fc2 03be cb13 cdbe
00000060: 4bd0 643d ff5d 89bd 3b77 223d eb14 663c
00000070: 4f93 8d3d e952 a8bd 41a0 c3be 01e3 11bd
00000080: 2ca7 a1bd dcfa dabd dc77 f33e ed7e 48be
00000090: 1e8c 2c3e 8f24 aa3d ce16 493e 6a0f 90bd
000000a0: 5f09 c8bd 1c99 483e 7e47 48bc d181 2cbe
000000b0: 1a56 ac3d 8af8 29be a73a c33b 63c2 063e
000000c0: dafe 9dbd 3e5e 02bd ff3c c1be 79c8 933e
000000d0: 14e7 acbe 6d86 febc ff2e 72be ffa6 29bd
000000e0: 308a 5b3e a4d6 1b3b 9911 90bd f245 923b
000000f0: 4857 48be 5b54 1dbe b252 dcbe f529 fcbd
00000100: cac5 58ab 10bc 08be ffad c93e f708 493e
00000110: f17d 9b3d 6b20 093f 7b2e 09be c9d1 403e
00000120: ee78 1cbc 348f d13e cd01 60be 44ea 473e
00000130: c01f e23c e80f 8cbd 1e92 c33d ba8e 003e
00000140: d4a5 b63c 16e7 03be 0930 1ebd f3f3 d4bd
00000150: 615f 25bc 3ddb ae3c e1bb 913d 1e43 6b3e
00000160: 8dc0 633e 0d9e f7bd f461 42be 7c3f e43d
00000170: 59f5 013d c1d5 50be 2003 c9bd 46a3 653d
00000180: 8aec 57be 9aa9 4ebd 0fd8 7dbe f995 3d3e
00000190: 6e18 253c d0c4 e0bd 4f1c 1f3d 858d dabd
000001a0: 11b2 81be 6004 4c3e 9fa2 09be 3da6 38bc
000001b0: e9f9 fe3e 6380 77bd 14be 51be ce4c 803e
000001c0: c99c c43d 2b29 3ebd 6a58 d93e a6ab ae3d
000001d0: e857 443e 35bb 453e 3719 cdbb 93e3 1abc
000001e0: 4ca2 e53d d9eb 9ebe 3d3d b3bd 5068 cdbe
000001f0: b12a 8e3e dcad c53d a9a5 853e c1d1 fe3d
00000200: eace bdbe 2a8a 3cbe 0f44 f0bc 8089 9f3d
00000210: 7ea8 aebe 8bd4 5fbd f824 bc3d 06d7 cbbe
00000220: 1fb7 803e f4e9 dcbd 4aa5 123d 74a6 bc3d
00000230: 4a54 c33d e518 8e3e 5443 173e 6f86 523e
00000240: da03 7c3c 96b4 26b5 ea9a 4b3e e662 35be
00000250: b4c8 efbb 9048 bbbb bd83 ee3c 930d 4c3e
00000260: d982 e53c 621e 723d 3d65 31bd ef15 823d
00000270: ac26 8bbd d3c7 99be c1b5 abbe e09d 183d
00000280: 5a54 f3bd 7e81 103e e34b 02be 6d0c 9d3d
00000290: 1a17 41be 8bca 803e aecb 75bd 93c5 13be
000002a0: eeb8 663d a699 ac3c f652 3ebe 8763 e8bd
000002b0: 567a 7f3e 7afa 9abd dc9c 06bb 6023 1f3d
000002c0: c464 83be 263c 843c 65fe cb3d b535 2ebe
000002d0: 44f5 d4be a9d3 b0bd 64c7 053e 1c8a bb3b
000002e0: 1186 0cbe ecd4 663e d5b8 573e 91c8 a7bd
000002f0: 4221 1cbe e9e2 44bd 8e9e 183f 764c 283d
00000300: c34a 63af 488e 4b3d afc8 67bc f6f7 f2bd
00000310: 65d6 cf3d bc19 dcbd d535 39bd 06da 48be
00000320: 7014 a5bc ae7d 94bc 1142 ee3d 15e9 ddbd
00000330: 6ae0 2ebd f8da 133d 5eef 1c3e fbcb dbbd
00000340: 0b06 583d 434b 203a d38f f2bc 14c1 bc3e
00000350: f971 ad3d a958 263d 264b 653c 5a41 35be
00000360: fb40 953e c04f 873e 51fa 64be 75bf 263e
00000370: c475 cbbc 37bb c3be f7ce dd3d 0c78 d73e
00000380: 9744 1e3b e852 27bf 9007 4c3d 90d1 2f3e
00000390: 7245 8a3d c8c8 49bd eef6 1c3b d187 82bd
000003a0: 58b3 763c 549e 1e3e d214 a5bc 2bed 993e
000003b0: 8c6d cebe 3663 6dbe 02c6 323e 07e4 1fbe
000003c0: 3635 07bf b3ea 77bd f417 4f3d 0380 83be
000003d0: 78eb a9bc 6df4 7fbd 3bee 9a3d f9de 783e
000003e0: ebd0 a33d c420 7ebd d2b5 193e a75c 933e
000003f0: 840f 933e 15cc 1abc 6f9f 733d 3e28 313e
-0.07518131 0.18364806 0.29730955 0.041821346 -0.049815904 -0.09847309 -0.013283908 -0.17843862
-0.05454809 -0.49926525 -0.12160918 -0.092521764 0.19262399 -0.25379252 -0.31246856 -0.13058554
0.045895055 1.5962147e-05 -0.008361322 0.24007764 -0.2953918 0.29267758 -0.1286714 -0.40054163
0.055862706 -0.067073815 0.03966449 0.014043073 0.069128625 -0.08218939 -0.38208202 -0.03561688
-0.07893214 -0.10692379 0.47552383 -0.19579668 0.16850325 0.08307754 0.19637606 -0.0703419
-0.097674124 0.19589657 -0.012224076 -0.16846396 0.0841486 -0.16598716 0.0059579196 0.1316009
-0.07714625 -0.031828158 -0.3774185 0.28863886 -0.3377005 -0.031069959 -0.2365074 -0.041419026
0.21439433 0.0023779059 -0.070346065 0.0044639045 -0.19564545 -0.1536421 -0.43031842 -0.1231269
-7.7013103e-13 -0.1335299 0.3939056 0.19632326 0.07592381 0.5356509 -0.13396637 0.18830027
-0.009550316 0.40929568 -0.21875687 0.19522959 0.02760303 -0.068389714 0.09549354 0.12554446
0.02229587 -0.12881121 -0.03862003 -0.10398092 -0.010093541 0.021344775 0.07115913 0.22974822
0.22241421 -0.12090693 -0.18982679 0.11144921 0.031728122 -0.2039404 -0.09815049 0.056063913
-0.21086326 -0.050454713 -0.24789451 0.18514241 0.010076625 -0.10975039 0.038845357 -0.10671524
-0.25331166 0.19923544 -0.13440941 -0.011270103 0.4980004 -0.060425173 -0.20482665 0.25058597
0.09600217 -0.04642598 0.42450267 0.08528833 0.19174159 0.19309695 -0.0062591094 -0.009453672
0.11212596 -0.31039312 -0.08751915 -0.40118647 0.27766946 0.09652302 0.2610295 0.12442351
-0.37071925 -0.1841208 -0.029329328 0.07789898 -0.34112924 -0.054646056 0.09186739 -0.39812487
0.2513971 -0.107868105 0.035802163 0.09211436 0.09537561 0.27753368 0.14771777 0.20559095
0.015381778 -6.2102606e-07 0.19883314 -0.17713508 -0.007317627 -0.0057154372 0.029115552 0.19927053
0.028016495 0.059111007 -0.04330944 0.0635184 -0.067944854 -0.30035266 -0.33537105 0.037259936
-0.11881323 0.14111897 -0.12724261 0.07668386 -0.18856469 0.25154528 -0.060008697 -0.14430837
0.056328706 0.021069359 -0.18586335 -0.11347108 0.24949011 -0.07567306 -0.0020540273 0.038852096
-0.25662816 0.016141962 0.09960631 -0.17012675 -0.41593373 -0.08634121 0.13064343 0.005723251
-0.13723017 0.22542161 0.21066602 -0.08192552 -0.15247062 -0.04806796 0.59616935 0.041088544
-2.067209e-10 0.049696237 -0.014146968 -0.11863701 0.101483144 -0.10747096 -0.045217354 -0.1961442
-0.020151347 -0.018126335 0.11633695 -0.108354725 -0.042694487 0.036097497 0.15325686 -0.107322656
0.052740138 0.00061147305 -0.029609596 0.36866057 0.08469004 0.040611897 0.013994968 -0.17700711
0.2915114 0.26428032 -0.22361113 0.16283973 -0.024836428 -0.3822877 0.10830491 0.42083776
0.002414977 -0.6536088 0.0498119 0.17169785 0.06751527 -0.049263746 0.0023950893 -0.06373561
0.015057407 0.15490085 -0.02015153 0.30063757 -0.40317953 -0.23182377 0.17458346 -0.1561433
-0.5281557 -0.06052656 0.050559953 -0.25683603 -0.020742163 -0.062488962 0.0756497 0.24303807
0.07998832 -0.062042966 0.15010765 0.28781626 0.28722775 -0.009448071 0.05947822 0.17300507

linear2.bias f4 [128]
00000000: 2181 71bd e162 c43d b055 613e 8cd2 0abf
00000010: 3bf7 a13c a682 853e 28ab 1034 7c56 db3b
00000020: 698b e13e f241 1f80 1bf5 b9be 1178 fb3e
00000030: 0131 d43e c50b 9bbd f28d 49bc 45e4 0ebe
00000040: 472a 2d3e e030 1abd f9da e0be fe9f d1be
00000050: 52cd 0b3e 8ac8 353e 1bf9 3d3d 2c55 c33e
00000060: 9198 f0bc ec79 b9bc 0c4c f13e 827c 583e
00000070: afb7 583e 00e9 dbbd 09cb 2dbf 16fe d53d
00000080: 0bd1 3b8f 37a0 263e c1fb c93e 7fa3 c73e
00000090: 3e7b c23e e9be c13e efc1 5b3e 8f18 4e3e
000000a0: 2850 42bd 8622 e6be 2009 e93d a2e5 1e3f
000000b0: e739 973d 8b7e 8ebd 49ba 733e aee3 ce3e
000000c0: 357a e93e ff4f 023e ac4e 87bd 5cd9 fd3c
000000d0: 39bb a7bd acc1 49bd a046 eeae 21fe 953e
000000e0: 5d9e 2dbe 79b6 063e eb93 ed3e 8092 0d3f
000000f0: 7efb 0bbe 2595 1e3e 3b09 013e 798a e23e
00000100: 5cf0 cf3e 801f b8be 7564 003f 4bb9 92bd
00000110: 4f3d 49be 0f17 4dbe 3eda 933d 0a7d afbb
00000120: 683e b03e 175c b33e 3f2c 073f feec e1be
00000130: ae5d a03e b5eb 3ebd 7367 1d3f c615 943e
00000140: eeac 763c a2a0 de3e 0f26 05b8 885e 413e
00000150: 042c 5bbe f11a 923e 463c 3fbe 8fcf d7be
00000160: 0bea 33bd d20c b83e c0f4 913e 64cd 4b3c
00000170: c293 863e 517f e33d c826 ae3e 61c4 16be
00000180: d776 e33d d7cc 263e 5276 df3d 9d1b 4e3d
00000190: ab55 b23e a3af 303e cfa2 ed3d 48fc af3d
000001a0: 0f88 79bd 8df8 f6be ab72 46bd f2eb 9a3d
000001b0: 7a1d df3e 875e 283f 16dd b7be be39 f0bc
000001c0: ac30 393e 1601 5c3e c288 8b3e c630 f3be
000001d0: 815a 773e 4fd8 1e3d 1797 82bd 8f0a afbb
000001e0: 629a 943e e9e5 653e 6a7c 40bd b1a2 79be
000001f0: f86b 9b3e cc8b c73e 84c4 4c3e ac95 8a3d
-0.058961038 0.09589172 0.22005343 -0.5422752 0.019771209 0.2607624 1.3473311e-07 0.0066936594
0.44051674 -2.870557e-39 -0.36319813 0.4911504 0.41443637 -0.07570604 -0.012301909 -0.13954265
0.16910659 -0.037644267 -0.43917063 -0.40942377 0.13652542 0.17752281 0.046380144 0.38150918
-0.029369624 -0.022641145 0.47128332 0.21141246 0.2116382 -0.107378006 -0.6788793 0.10448854
-9.260072e-30 0.16272055 0.39449885 0.38991925 0.3798465 0.37840965 0.21460699 0.20126556
-0.047439724 -0.44948214 0.113786936 0.6206914 0.07384091 -0.0695773 0.23801531 0.4040808
0.4560105 0.12725829 -0.06606802 0.030987434 -0.08190007 -0.049256966 -1.08355325e-10 0.29295447
-0.16954942 0.13155545 0.46401915 0.55301666 -0.13670155 0.15486582 0.12601177 0.4424627
0.40613067 -0.35961533 0.50153285 -0.07164248 -0.19652294 -0.20028327 0.07219361 -0.005355482
0.34422612 0.35031196 0.5280189 -0.44126123 0.31321472 -0.046611506 0.61485976 0.28922862
0.015055878 0.43481928 -3.1745116e-05 0.18883717 -0.2140351 0.2853618 -0.18675336 -0.42150542
-0.043924373 0.3594728 0.28507042 0.012439106 0.26284605 0.11108268 0.34013963 -0.1472335
0.11106651 0.16289078 0.1091124 0.050319303 0.34830984 0.172545 0.11603319 0.08593041
-0.06092077 -0.48236504 -0.0484492 0.07564534 0.43577176 0.6576924 -0.35910863 -0.029324409
0.18084973 0.21484789 0.27252775 -0.4749815 0.24155618 0.038780507 -0.06376474 -0.005341835
0.29024035 0.22450985 -0.04699365 -0.24378468 0.3035581 0.38973844 0.1999684 0.06766829

linear3.weight f4 [10, 128]
00000000: 1f72 6abd 834a 803e 8863 2d3e dfff 26bf
00000010: d7cf 09bf 3907 433e 7362 4fb6 df9b 0d3e
00000020: 3920 28bd 60f2 7eb0 6068 853e 8ba5 debb
00000030: 718d 0b3e add3 02bd e561 06bf 6df5 933e
00000040: 66de 2f3d 1e0d 7abe 1d80 443c 3c9d 723e
00000050: c731 f7be a134 c53d abd6 e3be 039e dd3d
00000060: 6e00 263e 1fbf e43c b81f 6dbe 77ef b93d
00000070: ef30 08bf 2108 c03d 1803 3ebd da98 3cbe
00000080: e3e7 6ab1 afcb 253e cfff 6bbe add0 613e
00000090: 2950 4abc 978b edbd 6f27 19be 7d73 8fbd
000000a0: 1f25 9abd e5f8 61be cf64 2cbf 006e 81bc
000000b0: 3c7a 8abd ac10 f03c 379e 643e 293f 783e
000000c0: 41fb ec3c a421 473e 855c b8be 6e57 a6be
000000d0: 4720 3fbe aef0 40bc 3e46 05bb 89b4 e1be
000000e0: f90c a9be a6cd a2bd a629 debc bc2c 55bd
000000f0: bb81 f5be 57d9 9a3e ce35 17be ebf6 3c3e
00000100: 0bfa 333e d179 40bf 3ffa 783d 3cfd 2dbf
00000110: b987 8c3e 87f2 163e b0c6 93be 608e 0a3e
00000120: 65c7 f23d 7587 623d 09d2 c0bb 5b5e e4bd
00000130: 3bbc 743d f662 17bf 41f4 363e 9c5e 46bf
00000140: e93e c33b f4d3 c63e 860e ffb9 2139 78be
00000150: 9bf6 9fbe 7183 483e 3079 5ebd f1ad 80bd
00000160: b054 6fbc 6bdf 8e3d 9eda 24bf 568d 823e
00000170: 8fb5 6a3d 4f26 45bc a693 b6be 17b8 6fbe
00000180: 15ec 463e 5bfa 96be 207f 4c3e c8e8 433e
00000190: 9351 d73d f4ef 8b3e c454 ce3d 137e 753d
000001a0: 3c42 8f3d 3274 67bc a1e0 3e3e ef25 373c
000001b0: 6003 423e 3c90 b6be 9c5f 18bf 47de 2c3d
000001c0: 7fdb de3d b4af edbe adc1 04bb 4633 dd3d
000001d0: 8bea 5d3e b8ed 4b3e 27fc 94be 664f e6be
000001e0: d5e3 03be 793f 04bf 1372 64be 45eb 373f
000001f0: d593 3dbc dcec 5b3e b907 123e 14a8 24bf
00000200: 026f dcbd f61a aabe b53f f63e 8e72 b43d
00000210: ab46 623d 4025 80be 41c6 9f36 6f7d 193d
00000220: 8b02 c7be bc8f 282d 3f9d fe3e b956 a13d
00000230: 00be a7be 6e45 92bd 2bd1 e23d a1e0 1b3e
00000240: c663 2d3e 7a1f 9abe b4a5 91be 1c36 723d
00000250: 1818 f13c f540 85be da28 aebd 3a17 aebe
00000260: de81 42bd b036 b43d d9cb 96be 0215 d93e
00000270: d19c f3bc 1b77 303e 610b 373d e3a5 b2be
00000280: 39f7 12b8 8e56 863e 7190 943c 054d 24bf
00000290: 1e89 bd3d c9c0 85bb 76a0 fabe e905 29bf
000002a0: 4f7e b9bc 0373 4cbe 17c5 433d 85d0 c23b
000002b0: b1eb 203d 9ca8 2a3e e7c2 4f3e 53e6 96be
000002c0: 7d17 35be 5a38 92be 7d0a d5bd e15a 8fbe
000002d0: f68a ca3e 1d78 24be 24a0 14bb 8686 cbbd
000002e0: 914b 17bc a163 44bf d155 a0be 1607 a3be
000002f0: 1275 903e 4270 0fbf 97f5 9a3e ce33 253e
00000300: 7631 d4bc af28 59bd 398e ecbe 972d 8e3e
00000310: 639d 393f 4d8e 423d db51 c63d ee93 0d3e
00000320: 79af 83be f72b 34bf 208d c8bc 7f62 683e
00000330: bda0 61bf 09a7 90be e720 073e cc89 85be
00000340: 8e92 3ebe 8913 46bd 5438 96bc 4dce dbbc
00000350: dfaf 3d3d 33ac 35bf f8cd 943e b351 343e
00000360: a570 e23c f15d 0dbe d83a 41bd 6134 5ebf
00000370: 7b9a 2a3d 535d f23e 6291 10bb ab8e e83d
00000380: ab3d babc e8d6 97be 63af 873e 8aa8 093f
00000390: 65d3 ff3d 03f5 0fbc f95d 573e eb42 d53d
000003a0: d10e 1bbe 0f69 e13e 5b77 d7be e6b0 a03a
000003b0: fb03 fabe a820 edbd 8aa6 853d 2cf2 debc
000003c0: c5cc dcbd e427 023f 5b7d 3abe 7187 5ebe
000003d0: edbe 65be 61cc 96be 8228 833e 1b67 7a3e
000003e0: 58ee 16bb eb39 c7be 64b7 dc3d 6459 b0bd
000003f0: 4be4 7ebd 3e8d 4bbe 217c 0abf b3cd 683e
-0.05723774 0.25056848 0.169325 -0.6523418 -0.53832763 0.19045724 -3.0902709e-06 0.13828991
-0.041046355 -9.27491e-10 0.26056194 -0.0067946366 0.13628174 -0.03194015 -0.52493125 0.28898183
0.042936705 -0.24419066 0.011993435 0.23692793 -0.48280165 0.09629179 -0.44499716 0.10821154
0.16211101 0.027923165 -0.23156631 0.090788774 -0.53199667 0.093765505 -0.04638967 -0.18417683
-3.4183294e-09 0.1619098 -0.23046802 0.2205226 -0.012348213 -0.1159889 -0.14956449 -0.070044495
-0.075266115 -0.22067602 -0.6734132 -0.015799522 -0.067615956 0.029304825 0.22325979 0.24242844
0.028928401 0.19446427 -0.36008087 -0.3248858 -0.18664657 -0.0117761325 -0.0020336057 -0.4408305
-0.3301771 -0.079493806 -0.027119469 -0.052044615 -0.4795054 0.30243942 -0.14766619 0.18453567
0.17575853 -0.7518588 0.06078553 -0.6796453 0.27447298 0.14740954 -0.28862524 0.13530874
0.11854438 0.055304963 -0.005884413 -0.111508094 0.059749823 -0.5913538 0.17866613 -0.7748811
0.005958427 0.38833582 -0.0004864821 -0.24240543 -0.31242833 0.19581391 -0.054314792 -0.06283177
-0.014607593 0.06976207 -0.64396083 0.25498456 0.057302054 -0.012033059 -0.35659522 -0.23410068
0.19425996 -0.2948788 0.1997037 0.19131768 0.10513606 0.27331507 0.100747615 0.059934687
0.06995055 -0.014126824 0.18640377 0.011178478 0.189466 -0.35656917 -0.5952089 0.042204168
0.10881709 -0.46423113 -0.0020257041 0.10800795 0.21671502 0.19914901 -0.29098627 -0.4498245
-0.1287988 -0.5165935 -0.22309141 0.7184337 -0.01157089 0.21477073 0.14260758 -0.64318967
-0.107633606 -0.33223695 0.4809548 0.08810912 0.055243175 -0.2502842 4.761649e-06 0.03747314
-0.38869128 9.58161e-12 0.49729344 0.07877869 -0.32762146 -0.07142149 0.11075052 0.15222408
0.16932592 -0.3010214 -0.28446734 0.059133634 0.029430434 -0.2602612 -0.085038856 -0.34002095
-0.047487132 0.08799493 -0.29452398 0.4239884 -0.029737862 0.17232935 0.044688586 -0.34892187
-3.5039357e-05 0.2623791 0.018135281 -0.6418002 0.09254669 -0.0040818197 -0.48950547 -0.66024643
-0.022643236 -0.19965748 0.04779538 0.0059452676 0.039287273 0.16665882 0.20289193 -0.29472598
-0.17684741 -0.28558618 -0.10402391 -0.27999023 0.39559144 -0.16061445 -0.002267846 -0.09937768
-0.009234325 -0.7671452 -0.31315473 -0.31841344 0.28214318 -0.56030667 0.30265495 0.16133043
-0.025902491 -0.053017315 -0.46202257 0.27769157 0.7250578 0.04749899 0.096835814 0.13825962
-0.25719813 -0.70379585 -0.024481356 0.22693823 -0.8813589 -0.28252438 0.13196145 -0.26081693
-0.18610594 -0.048358474 -0.018337406 -0.02683177 0.046310302 -0.7096588 0.29063392 0.17609291
0.027641604 -0.13805367 -0.04717526 -0.86798674 0.04165123 0.47336826 -0.002205931 0.11355337
-0.022734484 -0.29656148 0.26500997 0.53772795 0.12491492 -0.008786443 0.21031941 0.10413154
-0.15142371 0.44025466 -0.42083248 0.0012259751 -0.48831162 -0.11578494 0.065259054 -0.027215086
-0.10781244 0.5084212 -0.18211882 -0.21731354 -0.22436114 -0.29452804 0.25616843 0.24453394
-0.0023030248 -0.38911375 0.107771665 -0.086108 -0.062229436 -0.19878098 -0.54095656 0.22734718

linear3.bias f4 [10]
00000000: 3481 71be 3648 00bf d874 493e a4f3 aebe
00000010: 507d 5b3d ce57 76bd 506c 293e 6817 00bf
00000020: 2a1c 1d3f 87d6 c63e
-0.23584443 -0.50110185 0.19673479 -0.34170258 0.053586304 -0.06014233 0.16545224 -0.50035715
0.613711 0.38835546
