models/MNIST/mlp_num-layers=1_seed=042/099.pth (torch, 531335 bytes, 4 tensors)

linear1.weight f4 [128, 1024]
00000000: 50c1 6e01 83f4 9981 e022 8980 14a6 7680
00000010: c08c 0801 7003 2701 0cd9 b600 38a2 b800
00000020: 24be bf80 2c6c a200 b889 8981 98bd 9000
00000030: c439 1b81 18d6 b181 b4a9 f73b 8203 b03a
00000040: 90b0 3635 e23d d82a e648 0380 50a7 9001
00000050: ecee 5c00 7875 a600 a408 bd00 a4c9 4801
00000060: 4a26 5f01 9a7b 3e01 ae19 9401 24ee a000
00000070: aa40 9001 ac12 1301 d632 0a01 d80a 4881
00000080: 9f5c 8401 70dc e580 3857 6b81 c029 7d80
00000090: 28fe 2000 ec42 1fbb f4ee 46ba c37b 60ba
000000a0: 14aa e839 98bc c13c 095f aa3a e563 85ba
000000b0: 64e2 123b cd33 053c 8f0e 08bc cbe2 7cbc
000000c0: c8d2 edbc 8e1a 38bd ac12 e1bc ca92 0b3c
000000d0: 514e e0bb 0d1a 65bc 91a8 31bc bdf5 403c
000000e0: 3490 9a3c dab9 5d39 4491 1e01 e11d 8501
000000f0: 002b 1281 55f0 8501 a8a7 7b80 98f8 9200
00000100: fcfd 6f81 e8e0 7a00 3023 5301 365a e61f
00000110: 4a35 9eba 3bf3 62bc f02a cabc 9343 95bc
00000120: 4354 b4bc d3da efbc 3161 51bd a4c2 77bd
00000130: 5fd7 55bd ff10 e0bd 13cb 4dbe d74a 68be
00000140: 4894 17be 1f98 04bc 2c7e 113c 9239 713c
00000150: c7e0 1ebd 6685 d438 91fc e03c 9e79 003d
00000160: df12 2e3c 69c9 053c 85aa 8238 18da 8538
00000170: 3fe3 c0bb f27e 0481 c40e 8801 2ddc a181
00000180: 180a 3a81 c493 013b ca77 ad38 ff7d cd3a
00000190: 4fdd d53b 0e38 873c b615 793b daf0 28bd
000001a0: bb81 c8bc c997 cebd f19a 80be b841 5ebe
000001b0: 57b7 88be eafd a6be b284 d5be 94aa cbbe
000001c0: 3fa8 67be 8100 05bd 4bcb 073d 973a d4bd
000001d0: cdf6 11be 7006 ca3d 8564 0e3e 70df e83d
000001e0: 8f67 e03d 741f 5a3d d5ca 20bc bf3c b2bc
000001f0: cc1b 02bd e4b9 89bb 5418 b880 46f0 4201
00000200: cdb7 cf80 b94c 2335 c270 223c 9085 e2bc
00000210: cf35 003d afa3 953d 3d86 d73d ec76 c03d
00000220: baf1 bfbb 97ad 48be 84ef 00bf 2f4d 19bf
00000230: f12f 07bf 8f69 f3be 65a8 d7be c055 c3be
00000240: 425e 69be 13a2 a1bb 123f 4d3e 6722 133e
00000250: 96da dd3d bc33 4d3e 1613 803e 9190 bc3d
00000260: b781 273d 6284 48bd 2694 90bd 950a f3bc
00000270: 3d7c acbc 5d2a 5a3b 8078 1881 846b 7401
00000280: 0f34 b780 80a5 43bc e012 2fbd ad12 c4bc
00000290: ca02 963d 2927 b73d 852a 803e 9f28 813e
000002a0: b6c4 703e 0d78 4bbc 0cfb 95be 7c9b 08bf
000002b0: 9482 4abf 68a9 42bf c7ad 21bf 06f4 a4be
000002c0: 752f 67bd da43 3d3e ea24 ea3e 495f ac3e
000002d0: 4464 1e3e cd61 a83c f624 c7bd 666f e3bd
000002e0: 0d3c 35be dd76 65be e230 00be 83d1 913b
000002f0: 88d8 43b9 d65b e53b 570e 9d3a 40f7 5680
00000300: a55e bfb0 a2c2 9cbc c178 5bbd 8ee8 46bd
00000310: ebdf 943d 07bc 123e 4852 763e 773d 863e
00000320: 5801 983e 2827 103e c11c 95bd e958 ebbe
00000330: 9264 33bf 46bb 5dbf 2e4f 28bf 9499 6dbe
00000340: 0241 233d 8687 633e c651 943e 37cb a03e
00000350: 4be7 453e baff a2bd e563 bbbe bc93 dbbe
00000360: a32c fbbe 9d6a dbbe 2571 28be 2003 003d
00000370: c51a 643d fa9d 3ebc b7f5 8e3c 2230 6380
00000380: feaa 5fbc 9193 a9bc 7669 97bd 447c 81bd
00000390: 032e 96bd 80e4 3abd f753 123e 35c4 513e
000003a0: 02b7 be3e ea5f ab3e 45cf f13d 0f55 e9bd
000003b0: 603e 03bf f6a2 5cbf 4431 34bf 72b2 9dbe
000003c0: 16e8 053e c7f9 a23e 9678 cd3e e8ec aa3e
000003d0: d996 463e edfa 84bd 5c52 a1be 1d4c 02bf
000003e0: 08dc 03bf e78f 94be c32a 27bd 79fe 113e
000003f0: f214 033e 9427 4b3c f28d 003d fbf2 c139
4.385239e-38 -5.655418e-38 -1.2593974e-38 -1.0896166e-38 2.5080238e-38 3.0675522e-38 1.6791922e-38 1.6955924e-38
-1.760879e-38 1.4916155e-38 -5.052347e-38 1.3292325e-38 -2.851045e-38 -6.532674e-38 0.007558072 0.001342878
6.8057216e-07 3.8412248e-13 -3.01658e-40 5.313733e-38 8.534575e-39 1.5286832e-38 1.7360008e-38 3.6878869e-38
4.0986102e-38 3.4986168e-38 5.440346e-38 1.4779108e-38 5.2990034e-38 2.7013032e-38 2.538307e-38 -3.6741978e-38
4.8622047e-38 -2.1109407e-38 -4.322526e-38 -1.1494414e-38 3.02991e-39 -0.0024301363 -0.00075887074 -0.0008563364
0.00044377206 0.023649499 0.0012998293 -0.0010176866 0.0022412771 0.008130026 -0.008304252 -0.015434931
-0.029031172 -0.0449472 -0.027474724 0.008518884 -0.0068452735 -0.013983262 -0.010843412 0.011777339
0.01886759 0.00021145437 2.912424e-38 4.889936e-38 -2.6846816e-38 4.9201344e-38 -1.135591e-38 1.3497161e-38
-4.4079592e-38 1.1284612e-38 3.8779825e-38 9.755803e-20 -0.0012070325 -0.013851936 -0.024678677 -0.018220698
-0.022012835 -0.029279148 -0.05111808 -0.06048836 -0.052207347 -0.10940742 -0.20096998 -0.22684799
-0.14802659 -0.008092909 0.008880179 0.0147231985 -0.038788583 0.00010133795 0.027464183 0.031365983
0.010624616 0.008165696 6.230645e-05 6.382557e-05 -0.005886465 -2.433565e-38 4.99797e-38 -5.9457996e-38
-3.4170046e-38 0.0019771913 8.271595e-05 0.0015677809 0.006526626 0.016506221 0.0038007325 -0.04124532
-0.024475923 -0.100875445 -0.2511821 -0.21704757 -0.26702377 -0.32615596 -0.417028 -0.39778578
-0.22622775 -0.032471184 0.03315286 -0.103627376 -0.14254303 0.09864509 0.13905533 0.11370742
0.10957252 0.053252652 -0.009813984 -0.021757482 -0.03176479 -0.004203068 -1.6906459e-38 3.580456e-38
-1.9075883e-38 6.083388e-07 0.009914579 -0.027651578 0.031301316 0.07306611 0.10523651 0.093976825
-0.0058576735 -0.1959747 -0.5036547 -0.598834 -0.5280753 -0.47541472 -0.42120662 -0.3815136
-0.22789863 -0.004932651 0.2004359 0.14368592 0.108327076 0.20039266 0.2501456 0.09207261
0.04089519 -0.048954375 -0.07059507 -0.029668132 -0.021055335 0.003328941 -2.8004445e-38 4.489286e-38
-1.6824571e-38 -0.011941314 -0.04274261 -0.023934687 0.07324751 0.08943016 0.2503244 0.25226304
0.2351254 -0.012418759 -0.29293096 -0.5336225 -0.79105496 -0.76039743 -0.6315579 -0.32217425
-0.056441743 0.18482915 0.45731288 0.33666447 0.15467936 0.020554448 -0.097238466 -0.11105232
-0.17698689 -0.22408624 -0.12518647 0.0044500246 -0.00018677313 0.006999473 0.0011982423 -7.986549e-39
-1.3923979e-09 -0.019135777 -0.053581957 -0.048561625 0.072692715 0.14329539 0.24054825 0.2621877
0.29688525 0.14077437 -0.07280875 -0.4596627 -0.70075333 -0.8661388 -0.6574582 -0.23203117
0.03985692 0.22219667 0.28968638 0.3140504 0.19326513 -0.07958932 -0.3659965 -0.4288615
-0.49057493 -0.42854777 -0.16449411 0.03125298 0.055689592 -0.011634344 0.01745115 -9.108981e-39
-0.013651608 -0.020700248 -0.07393162 -0.0632253 -0.07332995 -0.04562807 0.14289843 0.20485003
0.37249 0.33471614 0.11807112 -0.11393177 -0.5126705 -0.8618616 -0.70387673 -0.30800205
0.13076815 0.3183119 0.40131062 0.3338387 0.19393481 -0.06493173 -0.31508148 -0.5089739
-0.51507616 -0.2901604 -0.040812265 0.1425723 0.12800959 0.012399573 0.03138537 0.00036992863

linear1.bias f4 [128]
00000000: b24b 1f3d 6ae4 dcbc 3f93 023d 19f9 febe
00000010: d166 cd3e c1a0 35bc 8699 0ebf 5e6c 943e
00000020: 5ecb b33d f2cc 8b3e 3cc1 993e e434 063c
00000030: f3a7 8d3d b7d5 543e 4846 743e 54f5 703e
00000040: d5bd 1a3d 0aea 2a3d e24b 613e ec47 9d3e
00000050: 442a bfbe 9e6f 07be 6056 963e 1607 743e
00000060: b2c3 923e e3b7 f63e f887 0c3f de38 6ebd
00000070: f03c e93b 7c82 1a3e 8c82 5b3e 1388 90be
00000080: 65c3 ec3e 0c75 c9bc 1aea 8ebd a8c9 8abd
00000090: 21b6 be3c 8dfc c93e 69c6 3e3a 7459 9ebd
000000a0: 2a72 e13d 84d2 e13e 8fc2 ac3e 0245 1abe
000000b0: 4f34 bb3d d864 553e 44e5 793e f00b 3b3e
000000c0: c852 74be 4ad6 f2be cfb5 e53e 2362 113f
000000d0: 9727 a53e 8b67 413f 5199 1cbe 84fe bf3e
000000e0: 9e50 07be 6eda a8bd 5d98 2ebe e80e 053d
000000f0: 335e fa3d 663d b73e b983 993e 8379 b5bc
00000100: 83f7 d23e 38a7 9e3e 75b3 5d3e 534a 0b3f
00000110: 00cd 18be 82ad 073f 4ee0 7cbc 4a79 343f
00000120: 20d5 363e b355 5ebe ea78 913e 6fa2 3c3e
00000130: f28e 1abe 7e6e 903d 7aa5 153e e589 56be
00000140: 2c60 ac3d eff4 103f 95e8 0f3f 3c75 e8be
00000150: 3c49 ddbc 3737 f5be 5004 0abe fdc5 47bb
00000160: c1dc d03d 6136 33bf 34ac 103e c60a a3bd
00000170: bb78 213e bc1c e13d db59 973e 827e bf3e
00000180: 6b1c 123d 9b48 22bc 501a 9dbd a8fa ef3e
00000190: 75f6 ec3e e6d9 fbbd 3116 87be 23ef 2c3d
000001a0: 88f1 583d d970 d2be 02f7 003f f18c c33d
000001b0: 2c0c 783e c79b a13e 2011 523d 8789 653e
000001c0: fd95 8a3e 10a3 a939 5173 cbbe d6ea 4ebe
000001d0: a63f efbd e558 173e dbe4 c63d 5905 e5bd
000001e0: 7c56 8ebd c4e8 8cbe 20ee 4abe ed66 5d3f
000001f0: 540a 93bd c72a f53e a187 f63e fd34 003f
0.038890548 -0.026964385 0.031878706 -0.4979942 0.40117505 -0.01108569 -0.5570301 0.28988928
0.087790236 0.27304798 0.3003024 0.008191321 0.069167994 0.2078465 0.23854935 0.23531085
0.037778694 0.041727103 0.22001603 0.30718935 -0.37336934 -0.13226172 0.29362774 0.23830828
0.2866493 0.4818717 0.5489497 -0.0581597 0.00711786 0.15088838 0.21436518 -0.28228816
0.46242824 -0.024591945 -0.06978245 -0.06776744 0.023280205 0.39450493 0.000727749 -0.077319056
0.11008103 0.44105923 0.33742186 -0.15065387 0.091408364 0.2083925 0.24403864 0.18266273
-0.23859704 -0.47429115 0.4486527 0.5679037 0.32256767 0.7554862 -0.1529286 0.37498868
-0.13214347 -0.08244787 -0.1705031 0.03248492 0.12224998 0.3578903 0.2998331 -0.022152668
0.4120446 0.30986953 0.21650489 0.54410285 -0.14921951 0.52999127 -0.015434338 0.7049757
0.17854738 -0.21712379 0.28412563 0.18421338 -0.15093592 0.07052325 0.14613906 -0.2095104
0.08416781 0.5662374 0.56214267 -0.45401943 -0.02701246 -0.47893688 -0.13478208 -0.0030483
0.101983555 -0.7000485 0.1412819 -0.07961039 0.15768711 0.10991809 0.29560742 0.37401205
0.035671633 -0.009905006 -0.07671034 0.46870923 0.46281782 -0.1229742 -0.26384118 0.042220246
0.052964717 -0.4110172 0.50376904 0.09548367 0.24223393 0.3156416 0.051285863 0.22415744
0.27067557 0.00032355683 -0.39736417 -0.2020677 -0.11682062 0.14780004 0.097116195 -0.111826606
-0.06950089 -0.27521336 -0.198174 0.8648518 -0.07179704 0.478842 0.48150352 0.50080854

linear2.weight f4 [10, 128]
00000000: 323d 2dbe 97cd 6d3e ae70 9ebf 8648 903c
00000010: 3c6f eb3d abfd 47be 2517 d23d 039f 053e
00000020: e2f8 923d 4ef2 c43d c781 ca3d 1cf0 7ebe
00000030: e13d 9abf 66da 8bbe 3f88 f93e 1857 dcbd
00000040: b674 0b3e 00e9 e2be ead2 60bd d1b0 c93e
00000050: 3cb5 0dbf b753 86bf 4a5b 02bf 80d2 e13d
00000060: 6394 03bd eb28 debe 343c cebd 9363 39bf
00000070: 212f 74bf 312d 183f 2ba8 453e 81e0 1f3e
00000080: 15e5 12bf e412 af3e 1cce 7b3e bc62 90bf
00000090: de5a 8a3e 519f 0e3e 5f15 1abf 5f12 383e
000000a0: 517c 35be 161a af3d 0f42 23bc 05ec 6dbd
000000b0: 0970 57bd 27a0 1bbf 9db5 ba3e 14d9 58bf
000000c0: 833c 83bf e666 753e 4321 36be 54bc 08be
000000d0: 9647 693d 9e75 083d 94fd ba3e 35cb 8a3d
000000e0: a92f 6f3e d861 ba3e 0fbc b5bd 711f 16bf
000000f0: c96d a1bf e4df 033e 5ef2 96bf 3a46 ba3e
00000100: a028 f43e 66eb 6b3c d6b6 223e b526 663d
00000110: 8f87 853e 7f2f 4cbb 5e9a 28be 7a2e f53d
00000120: 9aa7 203d 1612 e5be 2b5a a73d 8708 bbbe
00000130: b1b2 d1bf dd48 a33e c30a 1f3e 162d 4b3d
00000140: 9c4b a63c 9c75 d2bd 8c4c 88bf 1b32 d03e
00000150: 0641 87be ab0b 45bf b16b c53d 4079 50bd
00000160: 8568 4cbf 5420 ba3d 4160 1c3e c2de 713e
00000170: e475 ac3d dd32 063e 20d8 6c3e 0894 cf3d
00000180: b3bf 15bf 2165 2dbf 393a 62be 73ca ad3e
00000190: e6b7 32bd 17a6 a7bd 95ec b9be 521b 61bf
000001a0: 4104 0d3e 069e 83bc 73cf 113e 615c 093e
000001b0: f605 edbd 151d acbd 432f 0bbf fc19 43bf
000001c0: 0787 873d 799c 2dbe 1408 ccbe d3e7 85be
000001d0: bb3b cd3e c129 8f3e a5b0 d93e 379f 14bc
000001e0: 2030 9d3e cffa 17be 1ca2 0cbf ed96 0b3f
000001f0: 5cb3 40bf 5df6 883e 20c8 863d 3172 633e
00000200: 325b 573f 172d 06bf efb6 a53d 39d2 643e
00000210: ec46 45be d1e8 9e3d c551 bc3d 501a b6bd
00000220: 61de 053f af0d 36bc dacd 92be 4ecd 48bd
00000230: b8e6 af3d 66d2 b6be d795 b93d 4c9f 0bbe
00000240: 0e7d 15bf 9a1a 4f3e 63bd 3e3f 6a34 a2be
00000250: 7451 843e 4811 98be e2c8 0ebf 6609 863e
00000260: 0781 633c 0975 0bbd b4ab fabd 966b 063f
00000270: c9c8 573e d9c3 373e 386d 173f 77db d63e
00000280: 01f3 11bf d233 253e 0482 bb3e 3260 5cbf
00000290: 090f 56be 915f 00be 121a 81be c43c 0ebf
000002a0: 0f61 423e b16b b1bd c2f0 a83e fab8 cdbe
000002b0: d81b 47bf cdab 86bd 2fc4 82be 5552 33bf
000002c0: cb73 bebd 0a91 933e baaf cebd 6fd9 b43c
000002d0: d306 5abd 0a90 883f c19a 08bf a8ce eebe
000002e0: c552 1d3f efb8 40bd ac09 f13c e206 a33e
000002f0: 03a7 e5be f32a f8bc 4242 67bf faba 1abe
00000300: 4808 dcbe b8ec 44be bda8 343f fddc 0abe
00000310: 1859 8dbf e4cf cebd 8deb fc3e 8d90 c0bd
00000320: 804d aabc e4c0 333e dd8d 81be 08ef d43d
00000330: df24 bfbd e216 64bd 9a7d 07bf 547d 66bf
00000340: 457d 423f 4ac4 c5bd f6b8 38be 07ab 2f3f
00000350: df47 d9be 09f1 3a3e 0e3b 1f3e 7902 693b
00000360: 8bcf 8ebe 67b9 103f 8ce6 00bf a7f1 71bf
00000370: 1aeb 7abd c068 61be 3c3c 8c3e 61df a93e
00000380: e663 71be 9377 683e c3fc 73be 82e3 b8be
00000390: 5aae 5bbe 45b9 5ebd da98 a73e 6bf9 1bbd
000003a0: 652a a7be 6fab 233f 5e90 0a3f 655f 213f
000003b0: c1e1 0f3e da9d e93e 54f2 023f 5dcc 463f
000003c0: 64c4 cfbe 3297 a7be d1e6 13bf 49fb 073f
000003d0: b482 61bd 15cc a13e a39f 5f3e 82f4 013f
000003e0: 12bd d7be 537b b03e 71d6 fdbc ce9a 453e
000003f0: a16b 33bf 1383 a8be 9eeb 42be f9bf 58bf
-0.16917875 0.23222958 -1.2378137 0.017612707 0.11495826 -0.1953036 0.10258321 0.1304894
0.07176377 0.096165285 0.09888034 -0.24896282 -1.2050134 -0.27315062 0.4873676 -0.10758799
0.1361874 -0.4431839 -0.054888643 0.39392713 -0.55354667 -1.0494298 -0.50920546 0.11026478
-0.032123934 -0.43390593 -0.100700766 -0.72417563 -0.95384413 0.59443957 0.19302432 0.15612985
-0.573808 0.341941 0.24590343 -1.1280131 0.2702245 0.13927962 -0.6018886 0.17975758
-0.17723204 0.085498974 -0.00996448 -0.058086414 -0.05259708 -0.6079125 0.36466685 -0.84706235
-1.0252842 0.23965034 -0.17786126 -0.13353091 0.056953035 0.033315293 0.3652159 0.0677704
0.23358025 0.36402774 -0.0887376 -0.58641726 -1.2611629 0.12878376 -1.1792715 0.36381704
0.47687244 0.014399385 0.15890059 0.056189258 0.26079985 -0.003115624 -0.16465136 0.11971755
0.039222337 -0.4474036 0.08171495 -0.36529943 -1.6382657 0.31891528 0.15531449 0.049603544
0.020299725 -0.102763385 -1.064836 0.40663227 -0.26416796 -0.7697093 0.09639681 -0.050896883
-0.79846984 0.09088197 0.15271093 0.23620132 0.08420923 0.1310534 0.2312932 0.101356566
-0.58495635 -0.67732435 -0.22092523 0.3394352 -0.04363241 -0.08185976 -0.3631331 -0.8793231
0.13771154 -0.016066562 0.14239292 0.13414146 -0.115734026 -0.084039845 -0.5436899 -0.76211524
0.06617551 -0.16954221 -0.39849913 -0.2615343 0.40084633 0.27961543 0.42517582 -0.009071163
0.3070078 -0.1484177 -0.5493486 0.5452717 -0.7527368 0.2675046 0.065811396 0.2221153
0.8412353 -0.5241255 0.080915324 0.22345819 -0.19265336 0.0775925 0.09195284 -0.088917375
0.5229245 -0.011111661 -0.28672677 -0.04902392 0.08588928 -0.35707396 0.09061783 -0.13634986
-0.58393943 0.20224991 0.7450773 -0.31680614 0.25843394 -0.29700685 -0.5577527 0.26179045
0.013885743 -0.03404716 -0.12239781 0.52507913 0.21072687 0.17945804 0.5915103 0.41964313
-0.5701142 0.16133049 0.36622632 -0.8608428 -0.20904173 -0.12536456 -0.25215203 -0.5556147
0.18982337 -0.08663119 0.32996184 -0.40180188 -0.7777686 -0.06575737 -0.255403 -0.70047504
-0.092994295 0.28821594 -0.10092111 0.022076337 -0.053229164 1.0668957 -0.53361136 -0.4664204
0.6145442 -0.047051366 0.029423557 0.3184119 -0.44853982 -0.030293917 -0.90335476 -0.15110388
-0.42975068 -0.19230926 0.70569974 -0.13560863 -1.1042814 -0.10098246 0.4939846 -0.09402571
-0.020788908 0.1755405 -0.25303546 0.10397154 -0.093332045 -0.055685885 -0.5292603 -0.90034986
0.75972396 -0.0965658 -0.18039307 0.6862034 -0.42437646 0.1825601 0.15549871 0.0035554452
-0.27892718 0.565329 -0.50351787 -0.9450936 -0.061259367 -0.22012615 0.27389705 0.33178237
-0.23573264 0.22701864 -0.2382689 -0.36111075 -0.21453229 -0.054375906 0.32733804 -0.03807966
-0.32649532 0.6393346 0.54126537 0.63036186 0.14050962 0.45628244 0.51151013 0.77655584
-0.40579522 -0.3273254 -0.5777407 0.53117806 -0.05505629 0.31601015 0.2183824 0.50763714
-0.42136437 0.3446909 -0.030986043 0.19297335 -0.70086104 -0.32912502 -0.19035193 -0.8466793

linear2.bias f4 [10]
00000000: 6101 8a3d 7d9d 45be c33d 2b3d dbf8 a1be
00000010: 0eaa d23d f824 59be 7b59 813c 69a1 aebe
00000020: 4789 473f 4303 423e
0.06738544 -0.19298358 0.041806947 -0.31635174 0.102863416 -0.21205509 0.015789738 -0.3410752
0.77943844 0.18946557
