models/MNIST/cnn_num-modules=3_seed=038/099.pth (torch, 23817 bytes, 12 tensors)

conv1.weight f4 [32, 1, 3, 3]
000000 45 36 72 be bf 6f f3 3d ca 96 51 bc 9b a9 1b 3e
       -0.23653515 0.11886548 -0.012792299 0.15201418
000010 24 54 c2 3e b5 5f 07 3e b9 b6 da 3e 73 12 1f 3f
       0.3795482 0.13220103 0.4271753 0.62137526
000020 a6 bb 1a 3d 79 85 ca 3e 45 52 2a be 46 06 26 be
       0.03777661 0.39554957 -0.16632946 -0.1621333
000030 10 8c f3 3e 82 90 2e bf e5 97 8a bf 04 a8 d6 3e
       0.47567797 -0.6818925 -1.0827605 0.4192506
000040 de 38 17 3f 2e 03 16 bd 4f 02 31 bf 96 c3 24 3e
       0.5907115 -0.036624126 -0.6914415 0.16090235
000050 c4 e9 ab 3e 26 83 a6 3e d4 75 47 3e 8a 4a aa 3e
       0.33576787 0.32521933 0.19478542 0.33259994
000060 70 eb 1c 3f 94 87 48 be b8 54 17 bf 1f 96 1e 3f
       0.6129675 -0.19582969 -0.59113646 0.61947817
000070 c1 14 39 3f 67 5d 00 3f 41 3e 56 3f 42 89 ec 3e
       0.7229729 0.5014252 0.8368874 0.4619847
000080 3e b8 ad 3e 01 08 1a 3f c4 b7 52 3e 68 6f 2d 3e
       0.33929628 0.60168463 0.20577914 0.1693703
000090 d8 3f 97 be 5e 01 91 3f e3 44 2f 3f 35 41 ec bf
       -0.29540896 1.1328542 0.6846449 -1.84574
0000a0 ab 74 73 bf b7 15 64 bf a9 5e 91 3e b5 40 41 be
       -0.95099896 -0.89095634 0.28392532 -0.1887234
0000b0 85 56 4a bf 3d 1a 1d 3f 48 f7 2b 3d 4f 58 64 bf
       -0.7903827 0.6136816 0.041983873 -0.8919725
0000c0 a9 97 18 3f c7 6b f8 be ea 98 72 bf ef be 03 3d
       0.59606415 -0.48519728 -0.9476458 0.03216451
0000d0 e3 55 03 bf dd ae 71 bf 64 42 58 3f e4 a3 34 3f
       -0.5130293 -0.94407445 0.84476304 0.7056258
0000e0 b8 15 eb 3e 64 79 78 3e 2a b2 1f 3e e1 a1 ee bd
       0.45915008 0.24265057 0.15595308 -0.1165197
0000f0 22 70 11 bf a8 c3 2d bf fd 6a a4 bf 51 32 df be
       -0.56811726 -0.6787667 -1.284515 -0.43593076
000100 b3 ab 44 be a9 11 2d 3f 40 2a 1d bf 81 83 ae be
       -0.19206123 0.6760507 -0.61392593 -0.34084705
000110 78 b2 64 3f 48 4b 9f 3d e3 13 06 3e 16 ba a4 3a
       0.8933482 0.07778031 0.13093524 0.0012567665
000120 07 38 51 3e b6 85 14 be 01 db 67 bc eb b3 1c 3f
       0.20431529 -0.14504132 -0.014151336 0.61212033
000130 5c 3c 30 3f 38 d3 2f 3f df 12 22 bf 73 4f 2b bf
       0.688421 0.6868167 -0.63310045 -0.66918105
000140 e3 a8 fd bd bd bb 27 be e9 f4 47 bf f8 60 30 bf
       -0.12385728 -0.1638021 -0.7810808 -0.6889796
000150 a0 79 36 3e 47 32 b2 bd c5 8e 21 3f 83 c7 58 3d
       0.17819834 -0.08700996 0.63108474 0.052924644
000160 bf 6e bc 3e 0a 6f d3 3e f9 c8 f7 be 14 70 ae 3e
       0.36803243 0.41295654 -0.48395517 0.34069884
000170 71 e6 47 be 2a 8e 2c 3e 67 8b 4b 3f 00 8b 56 3c
       -0.195215 0.16851106 0.79509586 0.013094664
000180 47 03 64 3e f5 a2 f9 be 3f 0a e2 bc 34 c8 67 3e
       0.22266875 -0.4875714 -0.027592776 0.22634965
000190 ff f2 c3 3e 1a 52 01 3e 19 4e 85 3e d9 08 d0 3d
       0.3827133 0.12628976 0.26036146 0.101579376
0001a0 3c bc 0d 3e 62 32 64 3d 5b a9 25 3f 61 ca 0e 3f
       0.13841337 0.05571211 0.6471154 0.55777556
0001b0 f3 39 15 bf 91 8c 2a bf 3a 2d 97 be d4 28 21 3f
       -0.5829155 -0.6662074 -0.29526693 0.62952924
0001c0 54 77 98 bd 26 cf ab be ed 93 ea 3e b8 02 eb 3e
       -0.07444635 -0.3355648 0.45815983 0.45900512
0001d0 fa e8 0b 3e e5 69 31 3e 87 02 0c 3f a6 8e 1d 3f
       0.13663092 0.17325552 0.54691356 0.6154579
0001e0 97 c2 0d 3f b9 a9 0b be 24 51 8b be 49 29 29 bf
       0.55375046 -0.13638963 -0.27210343 -0.6607862
0001f0 be af ce be 0f 41 81 be 5a 95 e7 be a0 d0 1f 3e
       -0.40368456 -0.25244948 -0.45231134 0.15606928
000200 3b 0e ba 3e c6 35 32 bf 88 9a 75 be 74 97 89 3e
       0.36338982 -0.696133 -0.2398473 0.26873362
000210 b8 36 16 3f f7 21 91 3e 90 7e 22 3f 7d ef 24 bf
       0.58677244 0.28346226 0.6347437 -0.6442793
000220 5c 35 3d bf 45 53 76 bf 79 25 84 3e b3 ec ce 3e
       -0.73909545 -0.9622081 0.2580984 0.40414962
000230 98 19 9d 3e a1 fe 61 3e a8 c1 97 3e 6e b0 0c 3f
       0.3068359 0.2206979 0.29639935 0.5495671
000240 54 d3 64 3e 11 ba b8 3e 89 9a 92 bc 8f de 36 3f
       0.2234624 0.36079457 -0.017895954 0.7143335
000250 6b 79 a3 3e 5f 8e 5a 3e b7 fe da be e7 22 51 bf
       0.31928572 0.21343373 -0.42772457 -0.8169388
000260 61 b2 c4 bd c0 c1 cb be e3 ad 67 3d 41 45 bb 3e
       -0.096043356 -0.39796257 0.056562316 0.36576274
000270 82 b7 90 3f 65 23 1a 3f 99 22 c6 3e 4c 2a ae 3e
       1.1306002 0.6021026 0.3869827 0.34016645
000280 b2 89 6c be ad 76 22 bf 14 db ff 3e 71 a6 85 3e
       -0.23099402 -0.63462335 0.4997183 0.26103547
000290 83 1d 93 3e 44 0e 89 3e 49 08 b0 bd ca bb 84 3e
       0.28733453 0.26768696 -0.0859533 0.25924522
0002a0 46 da 27 3f 6c 55 97 3e b2 5e d7 3e fc 85 24 3d
       0.65567434 0.2955736 0.42064434 0.04016684
0002b0 3f 86 4f bf 27 cf 9a 3e 05 e7 55 3f 19 c3 5a bc
       -0.8106422 0.3023617 0.8355563 -0.013352179
0002c0 ae 41 91 3e 3d a6 7e bd 4f cd fe be 3b 9a ac 3e
       0.28370422 -0.062170256 -0.49766013 0.33711419
0002d0 94 ae bc 3e e8 9b f7 3e a5 8d ed 3e c0 9d 81 be
       0.36851943 0.48361135 0.4639713 -0.25315666
0002e0 80 de ca 3e 68 a8 99 bc 6f ea c4 3d de 20 2c 3f
       0.3962288 -0.01875706 0.09615027 0.6723765
0002f0 de 86 99 3e 37 77 1e 3e 74 16 82 3e 43 23 07 3e
       0.29985708 0.15475164 0.25407755 0.13197045
000300 06 18 c1 bd 92 91 bc 3e 62 59 87 3e 62 a1 5f 3e
       -0.0942841 0.3682981 0.2643538 0.21838906
000310 b9 65 08 3f 31 37 a4 3e 7c c3 20 be f7 c4 4f 3f
       0.53280216 0.32073358 -0.15699571 0.8115992
000320 c7 48 df 3e 26 4c c0 3d d5 65 89 3d 43 86 45 bf
       0.43610212 0.09389524 0.06708876 -0.7715799
000330 b0 d2 09 3f 4c a3 ac be 1b 5e 32 bf 17 cf 0e 3e
       0.5383711 -0.33718336 -0.69674844 0.13946186
000340 99 98 a4 3c b3 40 d9 3e 25 d5 81 3e a5 82 87 3d
       0.020092295 0.42432174 0.2535793 0.06616715
000350 8e 4c e9 3e b8 eb 32 3e 99 90 a6 3d cf 63 7f 3e
       0.4556622 0.17472732 0.081330486 0.24940418
000360 12 58 66 bd a9 51 03 3e ee ff b5 3e 8e 16 b8 bd
       -0.056236334 0.1282412 0.3554682 -0.08988677
000370 25 2d 5f bd 2d 1c 6f be c7 e5 a6 3e 5a 7d e0 3e
       -0.054486413 -0.23350592 0.3259718 0.43845636
000380 25 d0 e3 3d 9a 60 f2 3d 41 2b 96 3e c2 3a 0c be
       0.11123685 0.118348315 0.29329875 -0.1369429
000390 27 c5 4d be 16 b5 48 3f 80 e6 25 be 3e 5c 71 bd
       -0.20094739 0.78401315 -0.1620121 -0.05892586
0003a0 6c 44 b3 3e 66 ad 95 3e 4a a1 32 3f 4a 2b 12 3f
       0.3501314 0.29233855 0.6977736 0.57097304
0003b0 78 62 44 bf d3 21 e0 be cb a9 80 bd 24 1e 45 be
       -0.7671275 -0.43775806 -0.062823854 -0.19249779
0003c0 0a 09 d8 3d 09 42 26 be 9f 8d 8a 3e 72 b7 c4 bc
       0.10548599 -0.16236128 0.27061173 -0.024013255
0003d0 7b c2 f2 3e 1a 55 88 3d 01 66 99 bd 9a 49 0f 3e
       0.47414002 0.06656857 -0.07490159 0.1399292
0003e0 02 6c 9b 3e b5 cc a8 3e 81 10 12 3f 39 3a 28 3f
       0.3035584 0.3296868 0.5705643 0.6571384
0003f0 bf f3 14 3f cb cc a9 be 12 a2 5c bf a1 4b 4d 3f
       0.5818443 -0.33164057 -0.861848 0.80193526

conv1.bias f4 [32]
000000 c4 ae 57 bd 57 ca f0 3d d2 34 28 3e 84 68 3b 3f
       -0.052656904 0.11757343 0.164264 0.73206353
000010 77 70 9c 3e 26 eb ad 3e 50 22 60 bc 37 38 6a be
       0.30554554 0.33968467 -0.013680056 -0.22873007
000020 d7 c9 46 bc 7c 1d 90 3d 7c 07 a4 3b 5e c5 c7 37
       -0.012133083 0.07036874 0.005005775 2.3814555e-05
000030 80 87 ce 3b e6 e8 05 bd e3 6b d8 3b 45 0c c2 3d
       0.006302774 -0.032692812 0.006604658 0.094749965
000040 1e a4 5b bc 5c eb f4 3c 42 ac 4f bb d7 85 74 3d
       -0.013405828 0.029897384 -0.0031688367 0.059697952
000050 e1 d7 31 3c 29 6b 09 bb 55 a2 3f bc bd b3 60 bb
       0.010854692 -0.0020968413 -0.011696418 -0.003428682
000060 df f7 9e 3e 98 0b 60 be dd c2 3d 3e 5c a4 10 3a
       0.31048486 -0.21879423 0.18531366 0.00055176555
000070 ba 46 9b be ba 5d 34 b9 22 5d 21 be 18 9b 86 3e
       -0.30327398 -0.00017201054 -0.15758184 0.26290202

conv2.weight f4 [32, 1, 3, 3]
000000 df 21 5d 3e 27 eb 6c be f7 32 04 3f 90 0a d0 3e
       0.21594952 -0.23136579 0.51640266 0.4063306
000010 91 a2 b8 3b ac 77 0b 3d a4 69 ea 3d 35 92 17 3e
       0.005634614 0.034049675 0.114459306 0.14801867
000020 a2 f7 65 3e dd f9 23 bf ab cf 08 bf 14 2f af be
       0.22457746 -0.64053136 -0.53441876 -0.34215605
000030 b8 cc 0c bf f0 45 5e 3b 57 a7 6b 3e 9e e2 34 be
       -0.54999876 0.0033916198 0.23013054 -0.17664573
000040 2c 91 eb 3e 05 85 0d 3f bc 38 24 3f fe 11 e6 3e
       0.46009195 0.55281097 0.6414907 0.44935602
000050 d0 11 07 3e b3 bf e7 3e e4 16 47 3e 7b e7 c9 3d
       0.13190389 0.45263442 0.19442326 0.098586045
000060 97 e4 03 be 04 11 9e 3e d3 72 60 3e b8 09 4e bf
       -0.12880169 0.30872357 0.21918802 -0.8048358
000070 27 90 fa be 54 09 e4 3e 35 6d d7 be b4 f9 9d 3e
       -0.48938105 0.44538367 -0.42075506 0.3085457
000080 9a 6b e6 3e 53 ea b9 3e 03 10 8e 3e f5 7b a4 3e
       0.45003968 0.36311588 0.2774659 0.32125822
000090 6a a7 11 bf 04 9e 1c bf 8c f0 1b bf 8f b2 be be
       -0.5689608 -0.6117861 -0.6091392 -0.37245604
0000a0 85 40 25 bf 48 91 71 bf 44 c7 6d 3e 8e b4 af be
       -0.64551574 -0.94362307 0.23220545 -0.3431744
0000b0 d5 66 f0 be f3 a7 de be 9c 54 0e bf 8b 82 89 be
       -0.46953455 -0.4348751 -0.55597854 -0.2685741
0000c0 8f b0 c6 be f4 13 44 bf 00 b2 10 bf 62 f0 ad be
       -0.3880658 -0.76592946 -0.56521606 -0.3397246
0000d0 2b c4 0c bf f0 b6 22 bd 46 ad 12 3e 18 c5 e9 3c
       -0.5498683 -0.039725244 0.14323911 0.028536364
0000e0 59 da dd 3e a2 f0 81 be 2e 89 e6 be 46 f8 ef be
       0.4333065 -0.253789 -0.45026535 -0.46869105
0000f0 33 e0 39 bf 1b df f9 be 9c 43 af 3d f3 c9 e8 3e
       -0.72607726 -0.48803028 0.08557817 0.45466575
000100 11 cd 8a 3e 37 54 4e 3e 00 a4 76 3f 21 3a 56 3f
       0.27109578 0.20149313 0.96343994 0.8368245
000110 01 51 09 3f 6f 4c 45 3f b7 6a 88 3f 52 9d 9d 3f
       0.5363923 0.77069753 1.0657567 1.2313635
000120 de e4 fd 3e b0 4d 4c 3e 54 9b ed 3e ab d7 4c 3f
       0.49588674 0.1995151 0.46407568 0.80016583
000130 88 11 40 3f 1c 65 01 3f c0 b1 9d 3e 5a 56 64 3f
       0.7502675 0.50544906 0.30799675 0.8919426
000140 72 5f 0b 3f bd 41 1c bf 2b d5 10 bf 65 bc 3b bf
       0.54442513 -0.6103781 -0.5657527 -0.7333434
000150 24 5b b0 be e7 64 5b 3e 6a 8a 16 bf 7f 20 90 bd
       -0.34444535 0.2142521 -0.58804953 -0.07037448
000160 e0 bf 0a bd e0 13 db 3d 54 91 0b bf 6e 48 94 be
       -0.033874393 0.1069715 -0.5451863 -0.2896151
000170 20 5d 01 bf 29 4d 13 bf 5a 6f d3 be 63 01 2f be
       -0.5053272 -0.5753961 -0.41295892 -0.17090373
000180 cc f0 0c be 55 50 b0 be 62 4a 71 be ea 3d 01 bf
       -0.13763732 -0.34436288 -0.23563531 -0.504851
000190 21 0d 82 be 00 41 1b bf fa a9 6f be d7 ec 18 3e
       -0.25400642 -0.6064606 -0.23404685 0.14934097
0001a0 68 f9 2c 3e 45 76 dc bd aa 9c db be 74 a7 da 3e
       0.16892016 -0.107647456 -0.42892963 0.42705882
0001b0 fa 88 81 bd f8 c4 e7 be 64 74 28 bf 8b f9 ba be
       -0.06324954 -0.45267463 -0.658026 -0.3651851
0001c0 e5 1c 39 bf a4 ff 0f bf 20 1a 36 bf cd f5 39 bf
       -0.72309715 -0.5624945 -0.71133614 -0.7264069
0001d0 ec 7c 16 3e 3a 0c dc 3e 28 d2 e0 bd 16 ee 06 bf
       0.14696091 0.42978078 -0.10977584 -0.5270704
0001e0 81 d8 e5 3e d1 65 73 bd 16 61 50 3e ab 79 1b be
       0.44891742 -0.05942327 0.20349535 -0.15183131
0001f0 63 a4 eb 3d de dc 20 3f 34 88 7b be 51 07 86 be
       0.11505964 0.62837017 -0.24563676 -0.26177457
000200 e0 a3 16 bf 4a 88 9d be 28 3d be 3d 6a 89 13 be
       -0.58843803 -0.30768043 0.092890084 -0.14407888
000210 ff 9b b0 3e c6 83 2f 3e 88 70 55 be 37 0a 14 bf
       0.34494016 0.17140111 -0.20843709 -0.57828087
000220 90 f9 30 bf 52 7c f1 be 5b 44 d2 be e9 02 4e bf
       -0.691308 -0.4716516 -0.41067776 -0.8047319
000230 2b 96 05 bf ee 5f 0c bf ed 37 35 bf 79 d8 4b bf
       -0.52182263 -0.5483388 -0.7078846 -0.79627186
000240 65 af 97 bd 5c 97 1e bf ed 15 2e be d2 57 a5 be
       -0.07406501 -0.61949706 -0.17000552 -0.32293564
000250 d5 06 9d 3c 1e 06 fa 3d f4 7e be be c2 1f 12 bf
       0.019168297 0.12208198 -0.37206233 -0.5707971
000260 fc 01 e8 be 24 7e 3a 3d a9 4d 7a be fe 3d 31 3e
       -0.45314014 0.045530453 -0.24443687 0.17308804
000270 65 a4 75 3f 41 52 ef 3e 7e 18 2b 3f 51 f2 85 3e
       0.9595397 0.46742442 0.6683425 0.26161435
000280 02 ea ab 3c ed b8 a8 3d 8c a0 ae 3e e4 1e 94 3d
       0.020985607 0.08238397 0.34106863 0.072324544
000290 4a c6 6f be 4f d3 40 3f 67 8f bc 3e 9c 82 01 3f
       -0.23415485 0.7532243 0.36828157 0.5058992
0002a0 51 5e 33 be 75 16 b3 3e 63 2d 95 be bf b5 5e 3e
       -0.17516448 0.3497807 -0.2913619 0.21749018
0002b0 23 0f ce 3e 89 f6 30 3e ce c5 f4 3e b3 19 72 3f
       0.40245923 0.17281546 0.47807163 0.94570464
0002c0 2a b4 61 3f b2 23 05 3f 7b 9a 07 3f d9 83 30 3f
       0.88165534 0.5200759 0.52970093 0.68951184
0002d0 eb 5a 94 3e 74 d0 1c 3f 63 39 8a 3d e2 fd 57 be
       0.28975615 0.61255574 0.06749227 -0.21092942
0002e0 f8 7a 13 3f d5 7b a7 3e ba b3 3f 3e 1b e2 9e 3e
       0.5760951 0.32711664 0.18720904 0.3103188
0002f0 d6 85 fb be 73 26 29 3d ef ed b4 bd 97 2d f7 3d
       -0.49125546 0.041296434 -0.08834445 0.120692424
000300 93 74 84 3d 39 40 3e be cd 0f 32 bf f6 39 bc be
       0.06467547 -0.18579186 -0.6955536 -0.3676297
000310 e6 f5 97 be 1e 04 07 be 3d cd 6f bf 69 68 84 bf
       -0.29679793 -0.13185164 -0.93672544 -1.0344363
000320 72 0c 6f bf 13 9d b2 be 32 bb 8d be f3 f1 c3 be
       -0.93378365 -0.34885463 -0.2768188 -0.3827053
000330 8b 73 71 be 56 91 b5 be 6d ba 15 bf d3 e4 2d be
       -0.23579232 -0.35462445 -0.5848759 -0.16981821
000340 c5 95 06 3d 1e 36 a2 be e7 cc 13 bf ab 87 90 3c
       0.032857675 -0.31681913 -0.5773453 0.017642817
000350 33 37 27 bf 87 12 9a be 1c 97 45 bb ca e7 0d 3e
       -0.653186 -0.3009226 -0.0030149883 0.13857952
000360 29 a7 db 3e 96 b1 ff 3e df de be 3d e8 26 b2 3e
       0.4290097 0.49940175 0.09319853 0.34795308
000370 67 53 f2 3e d9 63 98 3d 3a a0 bf bd 59 af d4 bd
       0.47329256 0.074409194 -0.09356733 -0.103850074
000380 23 2f 8c be c0 0b 45 3d 9c be a6 3c e4 b7 9b 3d
       -0.27379712 0.04810691 0.020354562 0.07603434
000390 5a 46 38 3d 8a 1f 93 3e a6 8d 03 3f 4d cc b0 3e
       0.044988967 0.28735 0.51388013 0.3453087
0003a0 8d 23 06 3f b7 23 d0 3e a8 03 0c bf d4 9c c4 be
       0.52397996 0.40652248 -0.5469308 -0.384009
0003b0 42 e8 1b bf 7b 60 02 be 21 29 d2 be ca 62 e1 3e
       -0.6090127 -0.12732117 -0.41047004 0.44020683
0003c0 00 3d ae 3d 9c 69 00 3d 09 56 90 be 4e 4e 8c bd
       0.085077286 0.031350717 -0.2819064 -0.06850873
0003d0 12 4a 36 be 6d 6f d4 3d c3 21 3a 3e 58 7c 37 be
       -0.17801693 0.10372815 0.18176942 -0.17918527
0003e0 47 5b a3 be db 5a 09 3f 51 8d a1 3e 32 04 53 3f
       -0.31905577 0.5365426 0.31553128 0.82428277
0003f0 4f 4c fc be d8 6b eb be 7d e1 c4 bd 9b a4 fc bd
       -0.4927697 -0.45980716 -0.09613321 -0.123360835

conv2.bias f4 [32]
000000 34 18 0e 3e bd a6 06 bd 93 79 15 3e 90 8d 68 be
       0.1387642 -0.032873858 0.14597158 -0.22710252
000010 f7 70 28 3e 27 59 ad 3e 7f 50 61 3d 53 54 60 be
       0.16449343 0.3385708 0.055008408 -0.21907167
000020 55 07 82 bd 7a e7 21 bd 9c a9 57 3d 27 a8 2a 3d
       -0.06349055 -0.039527394 0.052651986 0.04166427
000030 3f ed 81 3e 37 1c af bd 4d e1 8d be 1f 11 36 3e
       0.25376317 -0.085503034 -0.27710953 0.17779969
000040 2c 21 7c 3e af 98 2b be c0 c6 7f 3e 0b 17 c8 3d
       0.24622029 -0.16757463 0.24978161 0.0977002
000050 1b 3d cc bd 33 e7 9e 3e e9 cd f9 3d a0 56 96 3d
       -0.099725924 0.31035766 0.12197477 0.07340741
000060 1e 09 04 be 2c ef 69 be c2 df ea 3d 9e df 80 3d
       -0.12894103 -0.22845143 0.1146846 0.062926516
000070 ba 96 c7 3d c6 35 72 bd 08 03 f2 bd 45 16 1b 3e
       0.09745546 -0.059133314 -0.118169844 0.15145214

conv3.weight f4 [20, 32, 1, 1]
000000 d9 0b 06 3e da ce d6 3e 56 f8 f8 3c f4 0a 2b 3e
       0.13090457 0.4195469 0.030391853 0.16703397
000010 0b c4 2d 3f 12 3d b0 bf dd 74 1a bf 65 4c 59 bd
       0.6787726 -1.3768637 -0.6033457 -0.05305137
000020 46 70 c1 3c 27 f1 97 3e 3e b7 8c be 0d f1 dd 3d
       0.023613106 0.29676172 -0.27483553 0.108369924
000030 31 d4 c8 3e 55 72 19 3e 0c 3d cd be ec f2 f1 3e
       0.3922439 0.1498502 -0.40085638 0.47255647
000040 3e 56 1c bf d2 03 83 3e 6a db 16 3d 62 53 9d 3e
       -0.61069095 0.25588852 0.036830343 0.3072768
000050 c3 f9 08 3e ca 89 93 bd 2f 91 ee be 5f 9e fb bd
       0.13376527 -0.072040156 -0.4659514 -0.12286066
000060 d5 c4 8a 3e 28 da a8 bd 90 d4 7c be d2 b8 f5 bd
       0.27103296 -0.08244735 -0.24690461 -0.11998142
000070 5a 55 0f 3f 48 3c 79 be a3 80 be 3e 1d 0c d2 be
       0.5598961 -0.24339402 0.37207517 -0.41024867
000080 f8 47 27 bc 77 2a cb 3c 6d 73 96 bc a6 0e 13 3c
       -0.01021003 0.024800522 -0.018365586 0.00897566
000090 a3 b8 77 3b 78 79 ed 3c 89 f5 b2 3c fb 71 0d bc
       0.003779926 0.028988585 0.021845596 -0.008633132
0000a0 02 55 10 bc ef 16 69 3c 66 87 93 3c d5 33 72 3c
       -0.00880933 0.014226659 0.018008899 0.0147828655
0000b0 b9 31 8f 3c 5c f6 0e bc 49 a2 03 3c 37 46 2f 3c
       0.017479764 -0.008725729 0.008034297 0.010697893
0000c0 a1 3b 52 3c e7 29 d8 bc 7a bf c9 bc 0e ed 97 bc
       0.012831599 -0.026387168 -0.024627436 -0.018545654
0000d0 83 38 9c bc 8e 51 8c 3a b0 73 1f 3d bc 85 3f 3c
       -0.019069916 0.0010705458 0.038928688 0.0116896
0000e0 64 da bd bc 1e e1 99 3b 98 e8 a2 3c d4 9f 30 bc
       -0.023175426 0.0046960255 0.0198863 -0.0107802935
0000f0 ce 3b 0e 3d b6 88 93 bc 88 0f 8b 38 57 66 be 3c
       0.034725003 -0.018009525 6.6309294e-05 0.023242159
000100 bc 0b ff bd 42 b7 c2 be 19 de 36 3d f3 f0 2d be
       -0.1245341 -0.3803044 0.044645403 -0.16986446
000110 0f 09 f8 3d ef fe f0 3e ee e5 de bd ae 17 40 bf
       0.12111103 0.470695 -0.10883699 -0.7503613
000120 bf bb 0e 3f d6 50 59 3e d0 20 46 3e 7e b8 c5 be
       0.5575523 0.21222243 0.19348454 -0.3861732
000130 e0 c5 11 be 3c c1 05 3f 17 f7 a2 be 44 18 0d 3e
       -0.1423564 0.5224798 -0.3182914 0.13778788
000140 24 90 86 be 69 94 25 be fe a0 ea 3e 2f b1 a6 3e
       -0.26281846 -0.16169895 0.45825952 0.32557055
000150 33 0f 4e 3e 69 d1 2f bc 84 52 18 bf 46 93 9f be
       0.20122986 -0.01073108 -0.5950091 -0.31167048
000160 9e 5e 6f 3e ad 5d ef be ff 75 1d bf 4d 03 80 be
       0.23375937 -0.46751156 -0.6150817 -0.25002518
000170 f3 4b 95 3e 9d 1e 23 bf b1 3f 38 be 24 e7 46 be
       0.29159507 -0.6371859 -0.17993046 -0.1942411
000180 35 d1 06 3e a6 0f 58 3e 85 cb 66 3e cc c0 58 bd
       0.13165744 0.2109972 0.22538574 -0.05291824
000190 ee 9a a9 be 27 6e 63 3f 03 fb ce be 0e 44 0a bf
       -0.33126014 0.88839954 -0.40425882 -0.54010093
0001a0 2e dc 15 3f ae ee 16 bf 62 15 51 be 5d f4 21 3e
       0.5853909 -0.58957946 -0.20418313 0.15815873
0001b0 37 31 d5 be 8d 75 bf 3d 1c cb 08 be 35 22 c1 be
       -0.4163911 0.09348593 -0.1335873 -0.3772141
0001c0 70 02 64 be 01 b1 c5 3e 20 30 18 3e e7 e1 c2 3e
       -0.22266555 0.38611606 0.14862108 0.38062975
0001d0 af 45 db be cc 2f 06 bd b5 38 4f 3e b6 fb 53 be
       -0.42826602 -0.032760426 0.20236476 -0.20701489
0001e0 52 e4 fb 3c c3 67 04 3d 94 bd 08 3e ab 2a 98 bc
       0.03074852 0.032325517 0.13353568 -0.018575033
0001f0 24 97 8c 3e 64 d6 46 be e5 0c 6d 3d c8 84 56 3d
       0.2745906 -0.19417721 0.057873625 0.052372724
000200 7a 03 4f bd 66 d4 e2 3e b4 ac a4 3e 08 ac b2 3d
       -0.050540425 0.44302672 0.32163012 0.087242186
000210 0d 0f c7 be 46 35 15 3f 98 53 3c bf a0 b5 7f bf
       -0.3887867 0.58284414 -0.73565054 -0.9988651
000220 d8 59 f8 3e 59 76 2e be cd 04 9f bd ee 56 b5 3e
       0.48506045 -0.17037334 -0.077645876 0.35417885
000230 f7 1b 88 be 49 98 d1 3d 26 5e 9b bd ae 24 2f bf
       -0.26583835 0.10234124 -0.07586317 -0.68415344
000240 c1 e2 d8 be 0d da 2c 3f 7f 14 22 3e a9 00 83 3e
       -0.423605 0.6752022 0.15828131 0.2558644
000250 5d 24 ee be 16 25 dd bd 92 b3 cc be a4 03 68 be
       -0.46512118 -0.10798089 -0.3998075 -0.22657639
000260 d3 ca 7d ba 06 11 42 be d0 19 a4 be d4 40 2f 3e
       -0.0009681407 -0.18951806 -0.32050943 0.17114574
000270 ca 06 71 3f 35 9b 6d 3e ee 4b 73 3c df 5e a4 be
       0.94150984 0.23203738 0.014849646 -0.3210363
000280 95 68 ad 3d 4f c9 44 3e ac 8d fa ba 34 94 1b bf
       0.08467213 0.19217418 -0.0019115708 -0.60773015
000290 60 b1 92 be 01 ad cb be 6f e2 92 bd 83 ee 96 3e
       -0.2865095 -0.3978043 -0.07172095 0.29478845
0002a0 3d 08 9f be 9b 07 84 3e c0 d3 a5 3e 1e c1 c1 3c
       -0.31060973 0.25787053 0.32388115 0.023651656
0002b0 c3 3d 74 3e 51 d0 ba 3e f0 88 35 be f2 b3 82 be
       0.23851685 0.36487058 -0.17728019 -0.25527912
0002c0 e7 34 a3 3e 30 5b a9 bd bb e9 61 3e 25 9f 31 be
       0.318763 -0.08269346 0.22061817 -0.17345865
0002d0 ea d9 ac be 50 4b 03 3e b5 b9 d2 3e 34 d9 e3 bd
       -0.33760005 0.12821698 0.41157308 -0.111254126
0002e0 dd ae ad 3d 3d 0b 95 bd df e4 14 be d0 a1 a9 3e
       0.08480618 -0.07277534 -0.14540432 0.33131266
0002f0 9c 83 21 be 1b 48 ab 3e 44 47 73 bd 95 93 1a 3e
       -0.15772861 0.3345345 -0.059394136 0.1509536
000300 1d f7 5f 3d e4 de 12 bf 56 0e ac 3c 89 31 84 bd
       0.054679025 -0.57371354 0.02100293 -0.064547606
000310 a4 55 ef 3c e8 ee 8f be 18 90 e8 bc 82 ea 8a 3f
       0.029215641 -0.28111959 -0.028389022 1.0852816
000320 07 61 50 be 9e 60 59 be eb e9 a0 bd 61 a4 15 3e
       -0.20349513 -0.21228263 -0.07857116 0.14613487
000330 b9 ba 75 3e f0 f2 80 3e 29 4b 4d 3e ab ad 79 3f
       0.2399701 0.25185347 0.20048203 0.9753062
000340 f8 98 b1 3e 49 34 6e be 0a 1d 3e be 5b 3e cb 3e
       0.34687018 -0.23262133 -0.18565765 0.3969601
000350 87 88 f7 3e 7b 39 74 be 47 5d 94 3e fe 9a 02 3e
       0.4834635 -0.23850052 0.28977415 0.12754437
000360 f1 b0 11 3e d2 6a ab 3e 2d 2e 01 3d 6f 70 db bc
       0.14227654 0.33479935 0.031538177 -0.026787011
000370 1a 9c 09 bf f5 6b 12 be a9 d8 80 bf 6b 50 10 bf
       -0.5375382 -0.14298995 -1.006612 -0.5637271
000380 0f 90 bc 9e 2c 0a 88 80 51 27 0f 9d 9f 0a 29 00
       -1.9964855e-20 -1.2493276e-38 -1.8946219e-21 3.769065e-39
000390 b2 10 7d 80 77 d5 4e 80 8c b8 00 81 2e 33 28 95
       -1.1485426e-38 -7.239745e-39 -2.3642293e-38 -3.3967703e-26
0003a0 51 62 18 a0 51 74 03 10 72 67 85 80 18 f7 67 23
       -1.2907431e-19 2.5924802e-29 -1.225123e-38 1.2574859e-17
0003b0 80 f6 cd 80 0f 56 01 81 28 42 90 80 b7 c1 b5 26
       -1.8914704e-38 -2.3755302e-38 -1.3248044e-38 1.2611904e-15
0003c0 b1 54 2f 01 7d 4d 54 9c 90 b3 3e a5 77 fa 78 95
       3.2203187e-38 -7.0245067e-22 -1.6540711e-16 -5.0280783e-26
0003d0 37 c2 c2 96 30 01 31 0e 07 fd 14 84 85 72 95 20
       -3.1464957e-25 2.1817506e-30 -1.75135e-36 2.5317364e-19
0003e0 e6 9d 68 9e 47 5c 78 00 9a c4 8d 80 5c e3 44 a3
       -1.231463e-20 1.1053362e-38 -1.3019332e-38 -1.06733265e-17
0003f0 07 f4 35 1b 60 f7 42 9a 4e 81 2c 28 ea d2 89 80
       1.5050819e-22 -4.0318088e-23 9.5759565e-15 -1.2657125e-38

conv3.bias f4 [20]
000000 a1 a6 e6 be 19 0f 94 bc ac 99 8f 3e 40 cc d0 bd
       -0.45049003 -0.018073605 0.2804693 -0.101952076
000010 f6 2f 38 be 85 61 2d bb fb bb 11 3e 8f 0f 72 00
       -0.17987046 -0.0026455831 0.14231865 1.0474828e-38
000020 f0 b8 90 3e e2 83 95 3e 6b fb 46 be 76 87 3c 3e
       0.28266096 0.2920218 -0.19431846 0.18411049
000030 24 b8 ce bd f3 9d e3 bc fe 00 67 3e d7 1a 6f bc
       -0.10093716 -0.027785277 0.22558972 -0.014593801
000040 a1 ff 96 3e 90 f5 0b 3e 02 ef f7 be ae 46 c2 3e
       0.29491904 0.13667893 -0.48424536 0.3794455

conv4.weight f4 [20, 1, 3, 3]
000000 30 00 5c be 5e de 65 be 89 1e ad 3e 16 ee 11 3e
       -0.21484447 -0.22448108 0.3381236 0.14250979
000010 bb f1 af be 17 05 54 3d 56 9e 1e 3f cd 0f c1 3e
       -0.34364113 0.051762667 0.6196035 0.37707368
000020 78 93 a8 3d 09 f6 1a bd a4 96 9e bc cc 96 0c 3c
       0.082312524 -0.037832294 -0.01935894 0.008580875
000030 21 72 ce bb 59 9b 29 bc 08 c3 dc 3c 66 88 26 bc
       -0.0063002263 -0.010351979 0.026948467 -0.010164356
000040 03 e7 5b bc db 79 25 3d e8 7a e5 3e 68 a8 50 3f
       -0.013421777 0.040399414 0.44820333 0.8150697
000050 fc 88 c4 3e 33 3d 53 be 98 d8 f2 3c b0 b2 63 be
       0.3838576 -0.20628814 0.029644296 -0.22236133
000060 b9 68 c1 3d 4e 4f cd be 2d 37 4a be 65 cd b0 be
       0.094438024 -0.40099567 -0.1974761 -0.34531704
000070 bc ef cc bd 6f 3d f9 3e 77 c3 52 be b3 6d 74 3e
       -0.10006663 0.48679683 -0.20582376 0.23869972
000080 e1 30 c6 3e e1 8d bb 3e 05 7a e9 3d 0a 72 17 3f
       0.38709167 0.36631683 0.114002265 0.59158385
000090 eb 8f 01 bf 48 96 9a 3d 50 ab dd 3e e8 23 36 3f
       -0.50610226 0.07548195 0.43294764 0.7114854
0000a0 45 78 fb 3d ad 81 b3 3e b4 f8 62 be 63 61 a8 be
       0.12278799 0.35059872 -0.22165185 -0.328868
0000b0 a3 a3 aa be 90 e5 08 3b 65 41 e4 3e 66 cc 82 3e
       -0.3332797 0.0020888783 0.44581142 0.2554657
0000c0 5c 2d bc 3e 87 66 e0 3c bd 85 a6 3e 31 67 81 3e
       0.36753356 0.027392639 0.3252391 0.2527404
0000d0 e4 0f 0f 3f 2b 33 40 3e 2c 99 43 be 51 76 2b 3e
       0.5588362 0.18769519 -0.19101399 0.16744353
0000e0 90 9a 3d be a5 42 67 bc 39 a1 14 bd f7 13 25 3f
       -0.18515992 -0.01411501 -0.036286566 0.6448359
0000f0 19 03 a1 be 1c 2f ca be 3e 05 8d be eb d2 92 aa
       -0.31447676 -0.39489067 -0.27543062 -2.6081164e-13
000100 21 13 62 ae 86 eb 3a ae 1f 61 ac ac 2e df 85 af
       -5.140344e-11 -4.250069e-11 -4.8993166e-12 -2.4351138e-10
000110 41 cc 92 af 6a 93 1b ae 46 8b 70 af 0d 01 ee af
       -2.6702376e-10 -3.537385e-11 -2.1877353e-10 -4.3292694e-10
000120 c2 d9 07 3f 5c 06 b9 3e a6 96 e3 be 07 42 03 3f
       0.5306665 0.36137664 -0.44450873 0.51272625
000130 cb 23 f3 3e 38 88 b2 bd d8 06 c0 bd 77 85 b1 bd
       0.47488245 -0.08717388 -0.09376305 -0.086680345
000140 a9 c8 59 be d5 2e 0c bf 37 b0 2a 3e 62 bb e9 3e
       -0.21267952 -0.5475896 0.16668783 0.45650774
000150 88 04 bc be 7a 8f 1a be b8 0c d3 be 05 74 32 3e
       -0.36722207 -0.15093794 -0.4122064 0.1742707
000160 a8 35 ae 3e b6 93 18 be a7 92 8b be 35 9e 79 3e
       0.3402531 -0.14900097 -0.27260324 0.24376757
000170 44 c4 f6 3e c9 69 af 3e 85 80 bc 3e 9d 54 d3 3e
       0.48196614 0.34260395 0.36816803 0.41275492
000180 ba c9 a9 3e 27 7a b7 3e 54 d7 2c 3e 6b 9f 6c 3e
       0.33161718 0.35835382 0.16879016 0.23107688
000190 98 70 65 3e 9d d5 26 3f 01 e9 1b be 8d 7e 9f be
       0.22406232 0.651697 -0.15225603 -0.31151238
0001a0 6b 84 17 bf fd 72 8b be 35 f9 4a be e4 35 19 3e
       -0.5918643 -0.27236167 -0.19821627 0.14961964
0001b0 57 e7 1b 3f 05 4e cb 3e b6 0d 11 3f aa 2c 43 3d
       0.6089987 0.39707962 0.56661546 0.047650017
0001c0 37 8d 98 3e 9b 50 91 3e ae 51 b0 3d 73 44 c2 3e
       0.29795238 0.2838181 0.08609329 0.37942848
0001d0 15 22 87 3e f0 0d b7 be 2d cc ed be be 04 83 bd
       0.2639319 -0.3575282 -0.46444836 -0.06397389
0001e0 fb a3 14 bf a3 2a f3 be 27 b1 10 bf 0a 6c 06 bf
       -0.58062714 -0.47493467 -0.56520313 -0.52508605
0001f0 d4 78 ea bd a4 49 75 3e a7 28 b2 3c df 38 80 be
       -0.114488274 0.23953873 0.0217479 -0.2504339
000200 8f a6 dd 3d c6 a7 70 3e 40 13 15 3f a2 08 0c 3d
       0.10822784 0.235015 0.582325 0.03418792
000210 53 d3 74 3e 91 7c fd be 55 a3 35 bf d3 78 84 bc
       0.23908739 -0.495091 -0.7095235 -0.016170895
000220 c5 8c 07 3d 34 4b c0 bb 2e 51 ab ba d1 9e c0 3b
       0.033093233 -0.00586834 -0.0013070458 0.0058783074
000230 e0 d0 c9 ba a1 47 7f bd 4c 02 a3 ba 2c 47 6e 3c
       -0.0015397333 -0.06232417 -0.0012436598 0.014543336
000240 fa f2 16 bd 2e aa 97 bc 2b 99 b4 be 9b aa f2 be
       -0.036852814 -0.018513765 -0.35273108 -0.47395787
000250 f5 64 8e bd 47 d3 cb bd 5b c5 c3 be e1 9e 9c 3e
       -0.0695285 -0.09952407 -0.38236508 0.30589965
000260 eb 6e 10 3f 88 fe fc 3e 04 3e 3f 3e e7 52 84 3e
       0.5641925 0.49412942 0.18676001 0.258445
000270 02 53 9f 3d db d8 ad 3d 4c c3 7d bd 88 e5 3b 3f
       0.07779504 0.084886275 -0.061953828 0.7339711
000280 15 26 b9 3e 2f 05 c6 3e 5c 4b 1b be c1 27 c3 3e
       0.36161867 0.3867583 -0.15165466 0.38116267
000290 2f 4f c0 be 54 cd 8c 3e dc 21 3b be c7 bd 84 3e
       -0.37560412 0.27500403 -0.18274635 0.2592604
0002a0 31 0d f7 be af ea 2d be 66 65 dc 3e b1 b2 ba 3d
       -0.48252252 -0.16984056 0.4304611 0.09116114
0002b0 5b 5a 05 3f 57 a2 15 3f 11 b7 f0 bb bb c3 1c 3e
       0.52090997 0.58450836 -0.007346042 0.1530904
0002c0 93 5b c1 3e 19 f1 15 bf 92 76 09 3e 89 2c 7d be
       0.37765178 -0.5857101 0.13424137 -0.2472402

conv4.bias f4 [20]
000000 a3 3e d6 bd fb 9b d4 3e 5e a4 e6 bd ae 43 87 3d
       -0.10461166 0.41525254 -0.11261819 0.06604706
000010 a5 5f 02 be ac 9e a9 be 3b 1a a5 3e 42 ba 94 3e
       -0.12731798 -0.3312887 0.32246575 0.29048353
000020 78 6a b5 bd 35 ff d0 be cb ae 01 be 4d c0 db bd
       -0.08858198 -0.40819708 -0.12664334 -0.10730038
000030 92 27 3e 3e b5 09 ed 3d ba 6d 1d 3d 6d 01 c2 3e
       0.18569782 0.11574117 0.03843472 0.37891713
000040 9e 38 86 bc 2e 81 16 be 49 67 3a 3e e7 5d 24 be
       -0.016384419 -0.14697716 0.18203463 -0.16051446

conv5.weight f4 [20, 20, 1, 1]
000000 21 89 d9 3e 6b bb 9c 3c 31 f4 c9 bd 40 20 68 bd
       0.42487434 0.019132337 -0.09861029 -0.05667138
000010 c1 db 88 be be 4f 9b 3d c1 62 fe be 9f bc 44 bd
       -0.2673016 0.07583569 -0.49684718 -0.048031446
000020 29 2d 8d 3e b0 94 8b be 7e d5 19 be f5 b7 26 3e
       0.27573517 -0.27261877 -0.15022847 0.16281112
000030 aa b6 46 be c3 a6 20 3e 20 05 31 3e 44 07 a2 bd
       -0.19405618 0.15688615 0.17287111 -0.07911542
000040 52 48 a3 3e cb e2 21 be 63 9b 36 be 5e 0e 24 be
       0.31891114 -0.15809171 -0.17832713 -0.16021106
000050 eb 77 2f be 12 bb 82 3d df 55 bc be 5d 16 16 bd
       -0.17135589 0.06383337 -0.36784264 -0.03664242
000060 c8 43 2a bf ef a5 2d be 72 e7 f9 bd 1d 43 4a 3e
       -0.66509676 -0.1695783 -0.12202348 0.19752164
000070 d5 41 40 be 8f fa 8a 3e 29 96 66 3e 50 65 08 3d
       -0.18775113 0.27144286 0.22518219 0.033299744
000080 41 b9 bb bd 13 f6 1b 3d 39 b2 46 3f 9e 70 29 3e
       -0.09166194 0.03807647 0.77615696 0.16546866
000090 ba e8 01 be 77 c9 1c 3e a3 d0 a6 be b3 e8 88 3e
       -0.12686434 0.15311228 -0.32581052 0.26740035
0000a0 da f4 00 3e c0 7e c1 bd b2 5a 47 bd d9 c8 0c 3e
       0.12593403 -0.09448004 -0.04867048 0.13748492
0000b0 c9 4c a8 3e d0 b1 dc be 69 a1 ee bd 51 31 25 3d
       0.32871082 -0.4310441 -0.1165188 0.040330235
0000c0 4e 77 a6 bc 14 2f 83 be 66 8e e6 3d b0 c4 c1 3d
       -0.02032056 -0.25621855 0.11257629 0.09461343
0000d0 ac ed 11 be 16 43 5e 3e 6c 42 92 bc b9 61 a1 3c
       -0.14250821 0.21705279 -0.017853938 0.019699918
0000e0 f8 6a a1 bc 1c 6c ae 3b c3 6f 4e 3e 3e 24 d6 3e
       -0.019704327 0.0053229462 0.20159821 0.41824526
0000f0 ff 0d 92 be 7b 0f 9f bd 8a b1 0b bf 3f dd ad be
       -0.28526303 -0.077666245 -0.5456778 -0.3395786
000100 34 e3 01 bf e6 ed 3c be a6 f3 89 be a5 b2 1e be
       -0.5073731 -0.18450126 -0.26943702 -0.15497835
000110 76 7a 1a bd 5f 27 ac be 70 3b 52 be 63 ab 72 3e
       -0.037714444 -0.33623788 -0.20530486 0.23698191
000120 8a ab 6a be c3 84 bb be ab 7a 94 bd 9f fd 41 3e
       -0.22917 -0.36624727 -0.072499596 0.18944405
000130 7a f2 af 3e b1 eb b9 bd 4d b2 13 3d c3 cd d1 3e
       0.34364682 -0.09078158 0.036058713 0.40977296
000140 c1 53 69 3e c9 d9 88 bd 93 ef 09 be 39 58 ea 3e
       0.22785856 -0.06682164 -0.13470297 0.45770434
000150 88 45 69 be e9 c8 63 bd b5 d7 08 be af dc 91 bd
       -0.2278043 -0.055611525 -0.13363536 -0.0712217
000160 46 98 c4 be a7 0d d3 3e 94 08 ab be 71 d2 02 3f
       -0.38397425 0.41221353 -0.33404982 0.5110236
000170 68 85 cc be 70 71 e0 be e1 91 19 bc c1 7a ee bd
       -0.3994553 -0.43836546 -0.009373159 -0.11644507
000180 7a eb 11 be e1 7a d1 bd 2c 22 3a 3e 1a ef 76 be
       -0.14249983 -0.102285154 0.18177098 -0.24114648
000190 ab 8e 5c 3d 79 c8 9d 3e 68 f5 01 be 01 b3 61 3e
       0.053846996 0.3081701 -0.12691271 0.22040941
0001a0 37 c8 01 bf 51 4a 50 bd 5c 7b 48 3e 28 18 19 3e
       -0.5069613 -0.050852124 0.19578308 0.14950621
0001b0 e2 47 c7 3d 92 b2 9b bd 1d e9 ce 3e 87 71 93 3e
       0.097305074 -0.07602419 0.40412226 0.28797552
0001c0 c3 3a 9c be 81 ae 99 3e a9 61 23 bf f2 46 0d 3e
       -0.30513582 0.30015948 -0.6382089 0.13796595
0001d0 2d d9 02 be f7 31 50 3d 0e 84 d7 3e 3c 04 51 be
       -0.12778158 0.0508289 0.42092937 -0.20411772
0001e0 e0 6d 06 3e 83 c9 20 be 25 fd 1d bf b6 df 06 be
       0.13127851 -0.1570187 -0.6171439 -0.13171276
0001f0 d4 ca 64 bd 1d db bf bd 25 48 09 3e 88 af c4 bd
       -0.055857494 -0.093679644 0.13406427 -0.096037924
000200 1c 9e c0 3d bd c7 d8 bd dc 98 de bd ad 48 b1 3d
       0.09405157 -0.10584972 -0.10868999 0.0865644
000210 76 72 18 bd 8b 92 34 bc 09 9c 93 bd 2a fe 8f be
       -0.037218533 -0.011021267 -0.07207496 -0.281236
000220 aa 19 cb be 74 d4 6b 3e 1f 56 8f 3e 05 99 11 3e
       -0.39668018 0.23030263 0.27995393 0.14218529
000230 60 5d e2 3e 13 e3 6e bc b0 a1 87 3d 2d 6d 4b be
       0.44211864 -0.014580506 0.06622636 -0.19865866
000240 8a 52 7f be 48 b7 27 3e 12 a5 64 be db 88 1b bb
       -0.2493383 0.1637851 -0.22328594 -0.0023732695
000250 7c 6c b4 be 2f 9b 8f bd 51 e4 b4 be 18 62 18 be
       -0.35239017 -0.07012021 -0.35330442 -0.1488117
000260 fe e1 ed 3d 2d b5 cc 3e d6 a5 9f 3d 79 10 86 be
       0.1161537 0.39981976 0.077953026 -0.26184443
000270 70 7a 02 bf 66 1d 07 3e 5c 83 26 3d eb c7 3d 3e
       -0.50968075 0.13194808 0.040652618 0.18533294
000280 91 e3 4c bf 59 df 47 be cc 16 26 bd 65 a4 31 be
       -0.8003474 -0.19518794 -0.040549085 -0.17347868
000290 d7 90 82 bd ac ab 8e 3e c2 35 ac 3e c2 c3 8d be
       -0.06375282 0.2786535 0.33634764 -0.27688414
0002a0 7a 64 36 3e 05 61 b7 3c 8d 42 d1 bd 0c 27 ba 3c
       0.17811766 0.02238513 -0.10217772 0.022723697
0002b0 11 6f 65 bd 2a af ce bd c7 13 a4 3b ad ad 13 be
       -0.056014124 -0.10092004 0.0050072405 -0.14421721
0002c0 2b bf ac be 0a 11 9e bd c7 55 0d 3d 02 e1 79 3e
       -0.337396 -0.07718094 0.03450563 0.2440224
0002d0 24 be 1e 3b b9 89 5e be a1 79 a5 bc 54 99 92 3e
       0.002422222 -0.21732225 -0.020199599 0.28632605
0002e0 5d 5b bc be 0d b1 52 be e9 f5 09 3f ca 3b 00 be
       -0.36788455 -0.20575352 0.53890854 -0.12522808
0002f0 5a 9f a8 be 44 0f 0c be ae ea 4f be 8c ad 22 be
       -0.32934076 -0.13677698 -0.20304367 -0.15886515
000300 0f 2f 2e bd 44 a8 7b 3d f0 18 01 3e 95 8b 30 be
       -0.042525347 0.061439767 0.12607169 -0.17240746
000310 6d c5 66 bc 86 39 5c 3e 54 04 c4 3d d8 20 b6 3e
       -0.014085156 0.21506318 0.09571138 0.35571933
000320 64 d9 9d 3e 36 18 c9 be f3 ee 41 3f 33 9d 50 3d
       0.30829918 -0.39276284 0.7575523 0.050931167
000330 43 08 19 3e 49 b7 97 be 29 89 0d bf 78 44 ba be
       0.14944558 -0.29632023 -0.55287415 -0.36380363
000340 e6 d5 05 be f9 c6 8c 3e 05 f6 e6 bd 0e 39 7c 3e
       -0.13069877 0.27495554 -0.11277393 0.2463114
000350 b8 58 d5 3d fc b0 2d be 0b 4e 38 be e2 47 c6 be
       0.104173124 -0.16962045 -0.17998521 -0.38726717
000360 2d ae e1 3e 09 b8 02 be bd ff 8e be 8a c6 f5 be
       0.44078198 -0.12765516 -0.27929488 -0.48003036
000370 75 e0 03 3e 77 ef 17 3d 9b 3f 3a 3e 69 9d 82 3e
       0.12878592 0.037093606 0.18188326 0.2551072
000380 45 88 cb bc 6a c4 e6 bd 01 41 54 3d d6 7d da 3b
       -0.024845252 -0.11267932 0.051819805 0.006667833
000390 90 52 31 be 1c ef 23 be 5f ca 84 bd bc f6 5f 3e
       -0.17316651 -0.16009182 -0.06483912 0.21871465
0003a0 b7 36 42 be 5d cd 55 3e 6e 23 ed bd 65 75 85 bd
       -0.18966185 0.20879121 -0.11579023 -0.06516532
0003b0 6e bf 18 3e 8e 21 13 3f 0c 75 66 bd cd 43 c4 be
       0.14916775 0.57473075 -0.05626397 -0.38332978
0003c0 99 6c ce 3d 76 f0 87 be 37 7b 74 be cc c0 e7 3d
       0.10079307 -0.26550645 -0.23875128 0.1131607
0003d0 3b d7 6a bd dc 10 b2 be 6a 1d 0a 3e 56 0b 84 3d
       -0.057334166 -0.34778488 0.13487783 0.06447475
0003e0 bf f0 e2 3d 76 a6 25 be 92 fc 8f 3e bf 6b 67 3d
       0.11081075 -0.16176781 0.28122383 0.05649924
0003f0 08 b4 e2 be 99 ff d0 3e 51 c1 0f 3e da 62 8a be
       -0.44277978 0.40820006 0.14038588 -0.27028543

conv5.bias f4 [20]
000000 64 38 23 3e 16 fe d7 bd 13 d6 e9 bd 7f 35 a5 3d
       0.1593948 -0.1054651 -0.114177845 0.08066844
000010 67 d8 aa be 14 4c bf 3d 2c 6b d1 be 75 73 ce bd
       -0.33368227 0.093406826 -0.40902078 -0.100806154
000020 ff 4f 5b be b0 8d 25 be 8b 05 c9 be f1 d7 d2 bd
       -0.21417235 -0.1616733 -0.3926204 -0.10295094
000030 88 9a b3 3c f1 61 82 bd 33 07 49 be 4e 1b ed ba
       0.021924272 -0.06366337 -0.19631653 -0.0018089802
000040 9a 66 d3 bd 7d 2e e9 bd 33 80 86 3e 6b 75 40 be
       -0.10322304 -0.1138582 0.26269683 -0.18794791

linear.weight f4 [10, 320]
000000 7e fc a8 be 33 1e fc 3b 5e a8 3f 3d a5 e7 88 3e
       -0.33005136 0.0076940297 0.046791427 0.2673923
000010 41 77 a7 be 53 f9 a5 3a 93 db b5 3e 75 a2 4b bc
       -0.3270817 0.0012662805 0.35519084 -0.0124288695
000020 b5 0d 8c be c9 bb bf be c5 e3 72 3c a9 55 97 bd
       -0.27354208 -0.37447956 0.014824812 -0.07389385
000030 71 6f b3 bd 77 98 3e bf b4 4e 03 bf 0e 46 ba be
       -0.0876149 -0.7445139 -0.51291966 -0.36381572
000040 2d be eb 3d b8 58 29 be 2d 80 e8 bd 99 cb 95 3c
       0.115108825 -0.1653775 -0.113525726 0.01828556
000050 52 37 5a 3e 2d 35 13 bd 3d 65 04 bf 50 0e 27 bd
       0.21310166 -0.035939384 -0.5171698 -0.040785134
000060 39 e6 82 3d da bc 40 bd 71 37 4a be 59 5c 97 bd
       0.06391568 -0.047055103 -0.19747712 -0.07390661
000070 22 91 ed 3c 3b 91 ef 3d 5e 41 28 bf fe 26 77 3d
       0.028999869 0.116976224 -0.6572474 0.06033992
000080 7f ba 16 bc 24 00 ed 3d df 2c 84 3e b9 2c 8b be
       -0.009199738 0.115722924 0.25815484 -0.27182558
000090 e0 0c a6 bd d3 ad 30 3d 60 e6 6c 3e 66 39 8e 3e
       -0.081079245 0.04313452 0.23134756 0.27778167
0000a0 d1 de 42 3e 79 63 e4 3c 2e 8a 84 3d ea 55 a9 3e
       0.1903031 0.027879464 0.06471668 0.3307336
0000b0 eb b6 4e bc 65 e1 4b bd 35 07 b2 3d ef 9f 7e 3e
       -0.012616853 -0.0497755 0.08692781 0.24865697
0000c0 6d d9 c3 bd 80 e9 31 be 7b 58 d2 bd cc 98 65 3e
       -0.09562955 -0.1737423 -0.102707826 0.22421569
0000d0 35 10 70 be c0 30 51 3e da 89 65 3e 7b f9 62 3d
       -0.23443682 0.20428753 0.22415867 0.055413704
0000e0 1a 84 23 be 14 bd d0 3e 41 48 12 3e 25 e4 93 be
       -0.15968361 0.40769255 0.14285375 -0.28884998
0000f0 75 68 3a 3f 05 fa 6b 3e e9 ab 14 bf 9d 2b 19 bf
       0.7281564 0.23044594 -0.58074814 -0.59832174
000100 26 70 44 bd b9 fb 26 3e 55 fe c1 3e 5e 19 06 3e
       -0.047958516 0.16306962 0.37889352 0.13095614
000110 bc 5f 18 bf 09 b3 2c be 8f b5 f4 3e 8a ee 60 3e
       -0.5952108 -0.16865171 0.47794768 0.21965995
000120 4a 29 e2 be ef 56 0a bf 40 7d 87 3e 8e d8 98 bd
       -0.44172126 -0.540389 0.26462746 -0.074631795
000130 99 58 23 bd 5e 34 80 3c 7e 96 25 bf 8a ba 49 3c
       -0.039879415 0.01564997 -0.6468276 0.012312541
000140 ca d4 e6 3d 05 91 e2 3d 08 ec 90 3d f1 40 64 3e
       0.11271055 0.110628165 0.070762694 0.22290398
000150 01 b3 98 bd 2d e9 97 bd 08 d8 9d bd 9f da 59 3e
       -0.07456017 -0.074175216 -0.0770722 0.21274804
000160 a3 be 07 3d 13 e8 28 3e c9 95 c5 3c d9 50 8c 3e
       0.03314079 0.1649478 0.024119275 0.27405432
000170 89 de 9a 3d b4 48 4f 3e 1e 00 20 bd 90 7c 6f bd
       0.075619765 0.20242578 -0.03906261 -0.0584684
000180 ae cd 14 3e 42 74 1e 3d f5 10 b2 be c2 65 6f be
       0.14531586 0.03868509 -0.34778562 -0.23378661
000190 eb b0 63 be fd f1 30 bc d6 b9 56 be 40 bd ab bd
       -0.22235458 -0.010799882 -0.20969328 -0.08385706
0001a0 6a b6 ee 3d 5b bb 47 bc ea ef 09 be cc d9 dd bb
       0.116558865 -0.012190665 -0.13470426 -0.006770348
0001b0 62 07 6e 3e 95 23 04 3f 7a e4 ac 3e be 73 42 3e
       0.23245004 0.51616794 0.33768064 0.18989465
0001c0 04 e2 bf 3e 8d 2d 1a bf 32 8a 2f bf 4e ba 53 be
       0.37477124 -0.60225755 -0.68570244 -0.20676538
0001d0 2f b1 b0 3e 48 f3 a4 3c ab db 4c 3e 1a f6 1d 3e
       0.3451018 0.020135537 0.20005672 0.15425912
0001e0 42 7e 93 3e 37 15 4a 3d c5 8e 47 3d 58 eb ac 3d
       0.28807265 0.04933664 0.04872014 0.08443326
0001f0 d7 97 94 3c cf ae 53 bf 4b 24 17 bf b9 c3 09 be
       0.01813881 -0.8268861 -0.59039754 -0.13453569
000200 23 60 8c bf 6b e5 cf bc 70 b3 a0 be 6e ef 05 be
       -1.0966839 -0.02537795 -0.313869 -0.13079616
000210 37 45 4a 3d 92 98 6a 3e 61 ad 54 be 79 3e c2 be
       0.049382415 0.22909763 -0.20769264 -0.37938288
000220 b1 d7 ee 3e 2d 91 04 3d 48 97 25 bd 74 53 9f 3d
       0.46648934 0.032365013 -0.040427476 0.07779589
000230 72 0e 04 be 29 0b cc be d2 73 97 bd 51 d7 f8 bd
       -0.12896135 -0.39852265 -0.07395138 -0.12150443
000240 54 a5 68 be 62 56 b3 bd f3 6c 6e 3e 82 57 a2 3e
       -0.22719318 -0.087567106 0.23283748 0.31707388
000250 02 d4 52 be e3 65 c5 bd b9 09 a8 3e 23 82 8d bc
       -0.20588687 -0.09638574 0.32819918 -0.017273968
000260 02 31 82 3e e9 06 db 3c d6 c5 12 3e de 11 03 be
       0.25428015 0.026736693 0.14333281 -0.12799785
000270 7f 4d 74 bc 99 63 be bd 71 69 1a bf 5c a6 6c be
       -0.014911055 -0.092963405 -0.6031714 -0.23110336
000280 74 ad 09 be 39 51 3d bd ec e9 75 bc 4a 46 01 3e
       -0.13445073 -0.046220038 -0.015009385 0.1262447
000290 e8 67 ec be e9 bc 53 be d0 b6 91 3c e2 0f 58 3e
       -0.46173024 -0.20677532 0.017787367 0.21099809
0002a0 3c 1c 19 3d d6 c2 f0 3d a6 25 3d bd 53 dd f2 be
       0.037380442 0.11755912 -0.046178482 -0.47434482
0002b0 83 2a 02 3e 72 33 87 3e a6 be 48 3e 8c 92 bc 3d
       0.1271153 0.26406437 0.19603977 0.09207639
0002c0 a5 11 a5 bb 83 9d 78 3e 2b 7b 99 3c 13 b3 69 be
       -0.005037504 0.24278836 0.018735489 -0.22822218
0002d0 0b 03 93 bd f7 02 d6 3d 44 55 bd bd ed 47 19 bf
       -0.07178315 0.10449784 -0.09244779 -0.59875375
0002e0 46 0d 36 bd 0d 14 a0 bd df 02 28 be 81 88 b1 be
       -0.044446252 -0.078163244 -0.16407345 -0.34674457
0002f0 37 3b 4f be a9 69 8d 3d e9 43 3a bd 68 5d 23 be
       -0.20237432 0.06904919 -0.04547492 -0.159536
000300 7b f1 3e be fd 2e 41 be 13 3b ee bd 19 65 e0 be
       -0.18646805 -0.18865581 -0.11632361 -0.4382713
000310 18 99 b2 bd 91 cd 9d bd 2e c5 a7 3d 4e 7d 5b 3e
       -0.087206066 -0.07705224 0.08191906 0.21434519
000320 6d ca 46 3e 12 79 c9 bc 6e 81 4c bd eb 9d cf 3d
       0.19413157 -0.024593864 -0.04992812 0.10137542
000330 02 6c 35 3e 8a 01 b4 3d fb c8 ca bd 9d b5 89 3e
       0.17716983 0.08789356 -0.09901615 0.26896372
000340 23 d4 c4 bd 5f 98 e6 bd ff 15 41 be 58 d4 99 3c
       -0.09610774 -0.11259531 -0.18856047 0.018778011
000350 ba 95 8d bd 8f f5 89 bd 92 f5 1d bd 51 bc f7 bd
       -0.06913324 -0.0673629 -0.038564272 -0.120964654
000360 e1 35 13 be c6 7e 72 3d 16 37 d0 bc e1 22 11 be
       -0.14376022 0.05920293 -0.025416892 -0.14173461
000370 90 51 17 bc 16 68 74 bd 74 87 c3 be ab 07 db 3e
       -0.009235755 -0.059669577 -0.3818928 0.42779288
000380 ff 96 0a bd 39 34 ba 3c 32 2a 1b bd 6a 4d 3a be
       -0.033835407 0.02272998 -0.037882037 -0.18193594
000390 ea c8 8b 3d 43 5c c0 3e c2 42 83 bd e2 d2 44 bf
       0.06825431 0.3757039 -0.064092174 -0.7688428
0003a0 db b3 44 3e 6a 13 1f be 3c 55 7c 3d f3 99 ce be
       0.19209234 -0.1553475 0.061604723 -0.4035183
0003b0 22 33 b7 3d 18 f7 09 be 1b 2d 3e bf 03 cd 20 3f
       0.089453 -0.13473165 -0.74287575 0.62812823
0003c0 67 9c 33 9f 21 86 57 27 6e 45 9b b6 d7 66 cc af
       -3.8034097e-20 2.9909955e-15 -4.6274426e-06 -3.7180456e-10
0003d0 18 a7 2a 3c 77 2f 8c 00 df 9b f6 00 28 d5 9f 01
       0.010415815 1.2873997e-38 2.2647448e-38 5.871324e-38
0003e0 72 de f2 3a fb f8 a2 81 f6 5d 2c 81 f4 d4 4d 01
       0.0018529429 -5.986667e-38 -3.1658824e-38 3.780534e-38
0003f0 7f 4a 85 80 ea 5d 9d 85 20 c1 82 2f 3d 7e db 32
       -1.2240845e-38 -1.4798708e-35 2.3784086e-10 2.5552362e-08

linear.bias f4 [10]
000000 b4 a2 2c 3e 4e d5 70 3e 2a 8f ab 3d ec a1 8f 3b
       0.16858941 0.2351887 0.08376916 0.0043833163
000010 ee f9 b5 3d 56 ae c0 3d 1e 3b e9 bd 7e 45 d4 bc
       0.08885561 0.09408252 -0.11388229 -0.025912043
000020 cc 4f 2f be f5 dc 90 bd
       -0.17120284 -0.07073394
