models/FashionMNIST/cnn_num-modules=4_seed=016/099.pth (torch, 15277 bytes, 16 tensors)

conv1.weight f4 [32, 1, 3, 3]
0	0xbf17bf12	-0.59275925
1	0x3e56f627	0.20992337
2	0x3eeb8a07	0.46003744
3	0xbf313ed5	-0.692365
4	0x3f2700ff	0.65235895
5	0xbd74e3e4	-0.059787646
6	0xbdd6c3cf	-0.10486566
7	0xb8b2411c	-8.499829e-05
8	0xbe6d18c8	-0.23153985
9	0x811b019f	-2.8470167e-38
10	0x812d545a	-3.18356e-38
11	0x80924c1f	-1.343529e-38
12	0x8172275e	-4.4476625e-38
13	0x81a9c757	-6.2366834e-38
14	0x81abbf91	-6.3090364e-38
15	0x818f0437	-5.253595e-38
16	0x80d282c8	-1.933237e-38
17	0x81930d72	-5.4018565e-38
18	0x3f0c0c46	0.5470623
19	0x3eb2d7fb	0.34930405
20	0x3eafec67	0.34360048
21	0x3effd700	0.4996872
22	0x3f21b86f	0.6317205
23	0xbe80fcf5	-0.2519299
24	0x3f4e5601	0.8059998
25	0x3ebe8752	0.37212616
26	0x3db7ce73	0.08974924
27	0xbebc4f6e	-0.3677935
28	0xbee0d425	-0.43911853
29	0xbef5c347	-0.48000547
30	0x3ca648a0	0.020298302
31	0xbe673d27	-0.22581922
32	0x3d28e42d	0.04123323
33	0x3ec8aa4c	0.39192426
34	0x3f24b8e2	0.6434461
35	0x3ec425d1	0.38310102
36	0x3e3ac798	0.18240201
37	0x3eb66bf8	0.3562925
38	0xbe8b26b5	-0.2717797
39	0xbd9572e2	-0.07297303
40	0x3dd6b7a4	0.104842454
41	0xbef69fdf	-0.48168847
42	0x3f61af95	0.8815854
43	0x3ef707b1	0.48248056
44	0xbe9b994e	-0.303904
45	0xbea7f4e3	-0.3280402
46	0x3f1b222a	0.60599005
47	0xbe8bcd22	-0.2730494
48	0x3e0a9745	0.13534267
49	0x3ebe57e6	0.37176436
50	0xbf0363c6	-0.5132412
51	0x3c3cfb3d	0.011534509
52	0x3f088072	0.5332099
53	0xbf09dc6a	-0.5385195
54	0x3d5a579a	0.0533062
55	0x3e7de6bd	0.24795051
56	0xbc2850be	-0.010273157
57	0x3f1286e0	0.5723705
58	0xbba38f30	-0.0049914345
59	0x3cf2e3d7	0.029649658
60	0x3e17f3d1	0.14839102
61	0x3ea2bf63	0.3178664
62	0x3e8ff99a	0.28120118
63	0xbd2e25a2	-0.04251636
64	0x3df998a0	0.12187314
65	0x3e20d2ef	0.15705465
66	0xbeac0dbf	-0.33604237
67	0xbe7f53ae	-0.24934265
68	0xbe246be2	-0.16056779
69	0x3ee3844e	0.44436878
70	0x3e94fe85	0.29100433
71	0xbd427936	-0.047478877
72	0xbf18b9d7	-0.5965857
73	0xbf582d00	-0.84443665
74	0xbec1209b	-0.37720188
75	0x3e91b95d	0.28461733
76	0x3dcf8548	0.10132843
77	0xbf04e8f2	-0.51917946
78	0x3ee37515	0.44425264
79	0x3e8e5476	0.27798814
80	0x3ec5cb4c	0.38631666
81	0x3eac99f1	0.33711198
82	0x3e931903	0.2873002
83	0xbec961c8	-0.39332414
84	0x3e639f05	0.2222863
85	0xbea937f8	-0.33050513
86	0x3e998669	0.2998536
87	0x3f0dc65e	0.5538081
88	0xbe7bd547	-0.24593078
89	0x3d97eb87	0.0741797
90	0x3ea53370	0.32265806
91	0x3eca14f3	0.39469108
92	0x3e9b9a7d	0.30391303
93	0x3bfeeee8	0.0077799447
94	0xbf4dc8e2	-0.8038465
95	0xbed72625	-0.4202129
96	0xbf90b3ee	-1.130491
97	0xbfe4f579	-1.7887412
98	0xbf97a59c	-1.1847415
99	0x3e781b20	0.24229097
100	0xbeb7d8ad	-0.35907498
101	0x3e72bb60	0.2370429
102	0x3aca055c	0.0015412974
103	0xbedd90c1	-0.432745
104	0x3eedcf37	0.46447155
105	0xbdd71806	-0.10502629
106	0xbcf49c8c	-0.029859804
107	0x3f006dea	0.50167716
108	0x3dac7891	0.08421434
109	0x3da8d368	0.082434475
110	0x3ca56cbf	0.020193456
111	0x3eaff081	0.34363177
112	0x3cc70a38	0.024296865
113	0xbeac7fce	-0.33691257
114	0x3efc23c3	0.49246034
115	0x3ef5279b	0.4788178
116	0xbe047b5c	-0.12937683
117	0x3f97fa99	1.1873351
118	0x3f23a413	0.6392223
119	0x3e8cbceb	0.27487883
120	0x3f07c968	0.53041697
121	0x3f3bdb6b	0.7338168
122	0xbe957f81	-0.2919884
123	0x3f0230da	0.5085579
124	0x3e35d73a	0.17757884
125	0x3ddc5654	0.10758653
126	0x3e9a98dc	0.30194747
127	0x3e8243ec	0.25442445
128	0x3ef79cd8	0.4836185
129	0x3e1e0117	0.15430103
130	0x3ee1f5af	0.44132754
131	0x3ed144af	0.40872714
132	0xbb1af135	-0.0023642306
133	0xbd452bfa	-0.048137642
134	0xbe2d99d0	-0.16953206
135	0x3ec175a2	0.3778506
136	0x3eeb177e	0.4591636
137	0x3eeed5aa	0.46647388
138	0x3e75acfb	0.23991768
139	0x3f028ecb	0.50999135
140	0x3eeeba3b	0.46626458
141	0x3ee5a8f4	0.44855464
142	0x3f123e16	0.57125986
143	0xbd9e0fff	-0.07717895
144	0xbd60bca3	-0.054867398
145	0x3e8b9db9	0.2726877
146	0xbe6c7578	-0.23091686
147	0xbceede00	-0.029158592
148	0xbfd57e55	-1.6679178
149	0xc07d6fd0	-3.9599495
150	0x3da696d0	0.08134234
151	0xbfe24328	-1.7676744
152	0xc093850c	-4.609991
153	0x3ed9afb2	0.42516857
154	0xbe9c70c8	-0.30554795
155	0xbcea940b	-0.028635046
156	0xbefc8aff	-0.49324796
157	0xbd54329b	-0.051806074
158	0xbe6d6d9a	-0.23186341
159	0x3e5b8813	0.21438627
160	0x3f13a3f4	0.5767205
161	0xbed24b32	-0.41072994
162	0x009ae31d	1.422414e-38
163	0x055a0687	1.02515096e-35
164	0x000573fc	5.00785e-40
165	0x01458c1a	3.6283703e-38
166	0x81320dee	-3.270343e-38
167	0x00e408fa	2.0941713e-38
168	0x000fada8	1.439829e-39
169	0x0071a8a5	1.043791e-38
170	0x81bc42b5	-6.9156013e-38
171	0x3e589d6e	0.21153805
172	0x3ed36fb6	0.41296166
173	0x3da22557	0.07917278
174	0x3aa18770	0.0012323689
175	0x3f031309	0.5120092
176	0x3e5faa48	0.21842301
177	0x3d4eb944	0.05046965
178	0xbe50acc8	-0.20378411
179	0xbe32f4b7	-0.17476164
180	0xbe82533a	-0.25454122
181	0xc07011ba	-3.751082
182	0xbf1ca461	-0.6118832
183	0xc0414238	-3.0196667
184	0xc0963335	-4.693751
185	0xbf9fb4ec	-1.2477088
186	0xbf23cbd6	-0.63982904
187	0xbfad3193	-1.3530754
188	0x3fb2ec3c	1.3978343
189	0xbf7f47aa	-0.99718726
190	0x3f094dfb	0.53634614
191	0x3ec4efdc	0.38464248
192	0xc05a245d	-3.4084694
193	0xbd12b56f	-0.03581756
194	0x3e41e4f7	0.18935
195	0xc08cdcb8	-4.401943
196	0xbf2779b0	-0.65420055
197	0xbecb902b	-0.3975843
198	0x3e8a9033	0.2706314
199	0x3ed211fe	0.41029352
200	0x3fbaa3dd	1.4581257
201	0x3f0a5c29	0.54046875
202	0x3f4cba0e	0.79971397
203	0x3f2506cd	0.644635
204	0x3ee6c05e	0.4506864
205	0x3f064b8d	0.5245903
206	0xbe902ed5	-0.2816073
207	0x3f145b6c	0.57952
208	0xbe75cd09	-0.24003996
209	0xbec15932	-0.37763363
210	0x3f1227bd	0.57091886
211	0xbe8b6240	-0.27223396
212	0xbeb22cb4	-0.3479973
213	0x3c145b82	0.00905502
214	0x3de2a75e	0.11067079
215	0xbe4edeb3	-0.2020214
216	0x3e559460	0.20857382
217	0x3f06a907	0.52601665
218	0x3ed41a60	0.41426373
219	0x3ea6d486	0.32584018
220	0xbe27de77	-0.16393457
221	0x3e0762ce	0.13221285
222	0xbef14e9b	-0.47130284
223	0xbed1d8cd	-0.40985718
224	0xbef656a2	-0.4811297
225	0x3f1d831e	0.61528194
226	0x3f03b78e	0.5145196
227	0x3e9fab2f	0.3118529
228	0x3ede1eba	0.43382818
229	0x3e01f78b	0.12692086
230	0xbd227056	-0.039657913
231	0x3f0d3d97	0.55172104
232	0x3e1e6184	0.15466887
233	0x3ed04d6e	0.40684074
234	0xbfdf1ee0	-1.7431297
235	0xc047a54d	-3.1194642
236	0xbfb488b7	-1.4104222
237	0x3ef2c14e	0.47413105
238	0xc02056b8	-2.505293
239	0xc015c048	-2.339861
240	0x3f87bf64	1.0605283
241	0xbf39f3b2	-0.72637475
242	0xbdddb54e	-0.10825597
243	0x3ed7439f	0.42043778
244	0x3ed6be68	0.41942143
245	0x3e947dfd	0.2900237
246	0x3d92a9fb	0.071613275
247	0x3e6cb779	0.23116864
248	0x3e06f9e8	0.13181269
249	0xbd317196	-0.043321215
250	0x3c6ca76a	0.0144442115
251	0x3cca6c06	0.024709713
252	0x3e7436e5	0.23849066
253	0x3e99693e	0.29963106
254	0x3f0c658c	0.5484245
255	0x3c31b3d6	0.010846099

conv1.bias f4 [32]
0	0x3ef53e1e	0.47898954
1	0xa003b601	-1.1156352e-19
2	0x3ea66ab2	0.32503277
3	0xb9b92100	-0.00035310537
4	0x3e1341a7	0.14380513
5	0xbb7dc89d	-0.003872431
6	0x3ea98484	0.33108914
7	0x3ef11ac5	0.47090736
8	0x3ead76eb	0.3387979
9	0x3e6b7970	0.22995543
10	0x3e80745e	0.2508878
11	0x3f2e6f79	0.68138844
12	0x3e97b70a	0.29631835
13	0x3e34201a	0.17590371
14	0x3e2421a2	0.16028455
15	0x3d255ff6	0.04037472
16	0x3f07e42f	0.53082556
17	0x3e8503c4	0.25979435
18	0x99b09f36	-1.8262278e-23
19	0x3f34457a	0.7041851
20	0x3f04774b	0.51744527
21	0x3e163c52	0.14671448
22	0x3d970f1b	0.07375928
23	0x3c8b1529	0.016977863
24	0xbde67936	-0.11253588
25	0x3e2486f0	0.160671
26	0x3e86cc00	0.26327515
27	0x3ef8346f	0.48477504
28	0x3e92a474	0.28641093
29	0x3eb18b80	0.34676743
30	0xbdc736b0	-0.09727228
31	0xbd9c1955	-0.07622019

conv2.weight f4 [32, 1, 3, 3]
0	0x3f8b16d5	1.0866343
1	0x3e822faf	0.25427005
2	0x3e5e6b04	0.2172051
3	0x3ea85e61	0.32884505
4	0x3ea50908	0.32233453
5	0x3ef8ad7a	0.48569852
6	0x3e98f1bb	0.29871926
7	0x3f4f5ca8	0.8100076
8	0x3e867af0	0.2626567
9	0x81a8f28b	-6.2061486e-38
10	0x812c235a	-3.1616774e-38
11	0x016c0292	4.3348198e-38
12	0x00164ef7	2.048708e-39
13	0x0123ba32	3.007196e-38
14	0x00c78ba3	1.8325356e-38
15	0x00d8a167	1.9894367e-38
16	0x0169237e	4.2820806e-38
17	0x012393c8	3.00444e-38
18	0xbe3a918a	-0.18219581
19	0xbf056ea1	-0.5212193
20	0x3e8b3a4f	0.27192923
21	0xbe6d7d9f	-0.23192452
22	0xbeb853a2	-0.36001307
23	0x3f0cd65e	0.550146
24	0xbeef52fb	-0.46742997
25	0xbf02dcd2	-0.51118195
26	0x3f04c80d	0.51867753
27	0xbef9773c	-0.4872378
28	0xbf99daa0	-1.2019844
29	0xbf535ee5	-0.8256667
30	0xbf191d8c	-0.5981071
31	0xbf7840fe	-0.9697417
32	0xbf3a1211	-0.7268382
33	0xbf7e6342	-0.99370205
34	0xbf05db32	-0.5228759
35	0xbf5fe2ee	-0.8745564
36	0xbd1f9bcb	-0.038966935
37	0x3f3a423b	0.7275731
38	0x3efd4b69	0.49471596
39	0x3cc22b21	0.023702206
40	0x3d547398	0.05186805
41	0x3ee2c37c	0.44289768
42	0x3ec9f8e3	0.39447698
43	0x3e245238	0.16046989
44	0x3d5b04a2	0.053471215
45	0x3f93434e	1.1504915
46	0x3feda430	1.8565731
47	0x3f1cef03	0.613022
48	0x3fe0ce22	1.7562907
49	0x4029b04c	2.6513853
50	0x3f8df5d9	1.1090652
51	0x3f0111da	0.50417864
52	0x3fae96ed	1.3639809
53	0x3e14c7e4	0.14529377
54	0x3e9fa75b	0.3118237
55	0x3ef43c0e	0.47702068
56	0x3cc2287d	0.023700947
57	0xbd42dd8d	-0.04757457
58	0x3d7a180b	0.061058085
59	0x3e98b319	0.2982414
60	0x3e3488d3	0.1763032
61	0xbe7cc672	-0.24685076
62	0x3e120581	0.14259912
63	0x3ee1fd58	0.44138598
64	0x3e958e90	0.2921033
65	0x3e2428fb	0.16031258
66	0x3de58543	0.11207058
67	0x3d285de5	0.04110517
68	0x3e8df74d	0.27727738
69	0x3e846fe0	0.25866604
70	0x3ec9aeca	0.39391166
71	0x3e454c18	0.19267309
72	0xbed8a19b	-0.42310795
73	0x3e46a84e	0.1940014
74	0x3f83f0d1	1.0307866
75	0xbf0a936e	-0.5413121
76	0xbf4b3656	-0.79379785
77	0xbf3145df	-0.6924724
78	0xbf02c662	-0.5108396
79	0xbf6612c0	-0.8987236
80	0xbf2d5d26	-0.6772026
81	0x3eadde12	0.3395849
82	0x3e40a1b8	0.18811691
83	0x3ded25e3	0.11579492
84	0xbe94f120	-0.29090214
85	0x3e281a86	0.16416368
86	0xbee1195f	-0.4396467
87	0xbed6065b	-0.41801724
88	0xbe3e1cd9	-0.18565692
89	0xbe684d56	-0.22685751
90	0xbf6ccb47	-0.92497677
91	0xbf67f072	-0.90601265
92	0xbee9373a	-0.45549947
93	0xbf3327ae	-0.6998242
94	0xbf2ff28e	-0.68729484
95	0xbf0cd155	-0.55006915
96	0xbf2f6148	-0.68507814
97	0xbefc08d4	-0.49225485
98	0xbec7ba82	-0.39009482
99	0x3e6ee7c0	0.23330593
100	0x3ead91a3	0.33900174
101	0x3effeaf4	0.49983943
102	0x3f12b488	0.5730672
103	0x3e82a683	0.25517663
104	0x3f2bc885	0.67102844
105	0x3ea46c7c	0.32114017
106	0x3e821712	0.25408226
107	0x3e868c4a	0.26278907
108	0x3e993319	0.29921797
109	0x3e17d13c	0.1482591
110	0x3dd8f0a6	0.10592775
111	0x3f136235	0.5757173
112	0x3de4902d	0.11160312
113	0xbe40d4e5	-0.18831213
114	0x3e9a94f7	0.30191776
115	0xbdc5faca	-0.09666975
116	0xbe8ae437	-0.2712724
117	0x3f5d2265	0.86380607
118	0x3db53f23	0.08849933
119	0xbe2d7b2c	-0.16941518
120	0x3ec03a76	0.37544602
121	0xbea0b03d	-0.3138446
122	0xbd8ba82c	-0.068191856
123	0x3e4fdacd	0.2029831
124	0xbe029d6a	-0.12755361
125	0xbef70933	-0.48249206
126	0xbf24e1fe	-0.64407337
127	0xbf049df5	-0.51803523
128	0xbe4ef1dc	-0.2020945
129	0xbdb5d8fd	-0.08879278
130	0x3daf2bb3	0.08553257
131	0xbeae6090	-0.34058046
132	0x3e8e6320	0.2781
133	0xbe39e8d3	-0.18155222
134	0x3e5968ca	0.2123138
135	0xbe65f39f	-0.22456215
136	0xbe8e6102	-0.27808386
137	0xbeb29ba9	-0.34884384
138	0x3e498175	0.1967829
139	0x3e9d925a	0.3077572
140	0x3e445bee	0.19175693
141	0x3eea41e5	0.457534
142	0x3ec27784	0.37981808
143	0x3e9adb18	0.3024528
144	0xbedf4c85	-0.43613067
145	0xbf95a467	-1.1690797
146	0xbf9d7368	-1.2300844
147	0xbf6a47a5	-0.9151557
148	0xbf9fc4f4	-1.248198
149	0xbf990f9e	-1.1957891
150	0xbe329a76	-0.17441735
151	0xbeae145a	-0.33999902
152	0xbd88e44c	-0.06684169
153	0x3f27484b	0.65344685
154	0x3e4bf063	0.19915919
155	0x3d74f5dd	0.059804786
156	0x3f9a67d1	1.2062932
157	0x3e5e426b	0.21705024
158	0xbe01aaa2	-0.12662748
159	0x3fa28914	1.2698083
160	0x3c906db6	0.01763044
161	0x3e6ca856	0.2311109
162	0x80b61bda	-1.6724052e-38
163	0x9914f60f	-7.701112e-24
164	0x9b7bc775	-2.0826681e-22
165	0x817429f8	-4.4845833e-38
166	0x01b0a122	6.4883404e-38
167	0x004a577c	6.82721e-39
168	0x819e1fd6	-5.8085716e-38
169	0x81b6d64a	-6.716373e-38
170	0x0083cb37	1.210335e-38
171	0x3e2ab5bc	0.16670889
172	0xbdd25ced	-0.102716304
173	0xbf0e532f	-0.5559568
174	0xbd6713ad	-0.05641525
175	0x3f1135dc	0.5672281
176	0xbee299b6	-0.44257897
177	0xbf03ea59	-0.5152946
178	0xbc3fb116	-0.011699935
179	0xbef076d8	-0.4696567
180	0xbf13fd01	-0.5780793
181	0xbf9a24e4	-1.2042508
182	0xbf7d4ef0	-0.98948574
183	0xbf5b2e81	-0.85617834
184	0xbfabf64a	-1.3434536
185	0xbf561f48	-0.8364148
186	0xbf02faad	-0.5116375
187	0xbf758a20	-0.9591389
188	0xbf73d757	-0.9525046
189	0x3f866648	1.0499964
190	0x3f68df9d	0.90966207
191	0x3cc82eac	0.024436317
192	0x3fb181e4	1.3867764
193	0x3f88f3a8	1.0699358
194	0x3e4775cc	0.1947853
195	0x3f8a4601	1.0802613
196	0x3f65031f	0.8945789
197	0x3edd4cb8	0.43222594
198	0x3e2059ba	0.15659228
199	0x3e8dee2e	0.2772078
200	0xbecafb97	-0.39645073
201	0x3f1f6810	0.6226816
202	0x3c375b12	0.011191146
203	0xbf740b1d	-0.9532946
204	0x3eab8029	0.33496216
205	0x3dc56c19	0.096397586
206	0xbe8ad5c0	-0.27116203
207	0xbe640b27	-0.2226988
208	0xbf4cbb06	-0.79972875
209	0xbf8ea7e0	-1.1144981
210	0xbf34e497	-0.706613
211	0xbf81ddd1	-1.0145818
212	0xbfb5a33d	-1.4190441
213	0xbde9c24a	-0.11414011
214	0xbed3393a	-0.41254598
215	0xbf19539f	-0.5989322
216	0x3ee70139	0.4511812
217	0x3f9ee8d2	1.2414801
218	0x3f1eb3e7	0.6199326
219	0x3f863136	1.0483768
220	0x3fa90a42	1.3206255
221	0x3f23ef79	0.6403728
222	0x3fbac0eb	1.4590124
223	0x3f61f712	0.88267624
224	0x3e936b62	0.28792864
225	0x3d274153	0.040833782
226	0x3f194d6d	0.5988377
227	0xbd408b4a	-0.047007836
228	0xbe31c3e0	-0.17359877
229	0xbe20e035	-0.15710528
230	0x3f0a6734	0.54063725
231	0xbed75f89	-0.42065075
232	0xbe59548e	-0.21223661
233	0x3e99ca8b	0.3003734
234	0x3ef8e1fa	0.48609906
235	0x3f542888	0.82874346
236	0x3edd2898	0.43195033
237	0x3f552b9d	0.83269674
238	0x3fa492c6	1.2857292
239	0x3f402643	0.7505838
240	0x3f6a6b2c	0.9156978
241	0x3f8beefe	1.093231
242	0x3ea65dc2	0.32493407
243	0x3f08efac	0.5349071
244	0x3e7fe367	0.24989091
245	0x3d89b0bd	0.06723163
246	0x3e052cf9	0.13005437
247	0x3ecf08ea	0.40436488
248	0xbd4dd9e7	-0.050256636
249	0x3ea8ccb7	0.32968685
250	0x3d9f2996	0.07771604
251	0x3e9664c3	0.2937375
252	0xbecc8468	-0.39944768
253	0xbeb54060	-0.35400677
254	0xbbebd954	-0.0071975384
255	0xbf194c18	-0.59881735

conv2.bias f4 [32]
0	0x3f2264a0	0.6343479
1	0xbd3e3724	-0.046439305
2	0x3d4d04f2	0.050053544
3	0xbdc6d661	-0.09708858
4	0xbdd058b7	-0.10173171
5	0x3ea29bbf	0.3175945
6	0x3e3f6039	0.1868905
7	0x3ecfac34	0.40561068
8	0xbefed4d9	-0.49771765
9	0xbea4426b	-0.32081923
10	0xbdc0de77	-0.09417432
11	0x3f7337bb	0.9500691
12	0x3e918acd	0.2842621
13	0x3f1f19a3	0.62148494
14	0x3cefc315	0.029267827
15	0x3e30c186	0.17261323
16	0xbe664e0a	-0.22490707
17	0x3ea25304	0.3170396
18	0x3ea525b7	0.32255337
19	0xbe1f1580	-0.15535545
20	0x3eccf549	0.40030888
21	0xbf3db7e2	-0.7410871
22	0xbe9961e6	-0.29957503
23	0xbcff3b9e	-0.031156357
24	0x3dd35610	0.103191495
25	0xbccefc6a	-0.025266845
26	0xbde3032d	-0.1108459
27	0x3eee0b53	0.46493015
28	0xbedcb0fe	-0.43103784
29	0x3e288108	0.16455472
30	0xbe76e9d8	-0.24112642
31	0x3e889c1b	0.266816

conv3.weight f4 [20, 32, 1, 1]
0	0x3dd7960b	0.10526665
1	0xbccde181	-0.025131943
2	0x3c9c7ea5	0.019103358
3	0xbcdabb1b	-0.026700547
4	0xbdcfe375	-0.10150806
5	0x3ceb9113	0.0287557
6	0x3e90dfc7	0.2829573
7	0x3db92cd3	0.09041753
8	0x3e617876	0.22018608
9	0xbd93f701	-0.07224847
10	0xbee88902	-0.4541703
11	0xbcbcfbdc	-0.023069315
12	0x3db66019	0.08905048
13	0x3f0a6993	0.54067343
14	0xbeca2ce5	-0.39487377
15	0x3ddce3f8	0.10785669
16	0xbf7c4fee	-0.98559463
17	0xbda7c821	-0.081924684
18	0xbb50255a	-0.0031760545
19	0xbdec02b3	-0.11523952
20	0xbf3120d4	-0.69190717
21	0xbf3292f0	-0.6975546
22	0x3e288c74	0.16459829
23	0xbed94c47	-0.42441007
24	0x3dcfa77e	0.101393685
25	0x3ea6f729	0.32610443
26	0x3ef0c6f2	0.47026783
27	0x3e669ebb	0.22521488
28	0xbddb0cc1	-0.10695792
29	0x3d0f719f	0.035020467
30	0xbe550c8c	-0.20805568
31	0x3ddffe2f	0.109371535
32	0x3f19978b	0.5999686
33	0xbe975cc2	-0.29562956
34	0xbe94c464	-0.29056084
35	0x3ec16ab4	0.3777672
36	0x3d90b7c2	0.07066299
37	0x3d277dff	0.040891644
38	0x3e98ccde	0.298438
39	0x3e5c97ca	0.21542278
40	0xbefa92e8	-0.48940206
41	0xbea23e1e	-0.31688017
42	0xbe6f4fc4	-0.23370272
43	0x3f1c3010	0.6101084
44	0x3f057043	0.5212442
45	0x3f212c6e	0.6295842
46	0xbdd0cdc6	-0.10195498
47	0x3da4df78	0.08050436
48	0x3f313e7d	0.69235975
49	0x3e502c82	0.20329478
50	0x3ec8bd36	0.39206856
51	0xbedf1029	-0.43567017
52	0x3f0841da	0.5322548
53	0xbef28ade	-0.47371572
54	0xbe3a2274	-0.18177205
55	0x3ecfaa57	0.40559646
56	0xbebed168	-0.3726914
57	0x3dca5e6b	0.0988129
58	0xbf474ae3	-0.77848643
59	0x3e7f70dd	0.24945398
60	0xbea1d45f	-0.3160734
61	0x3e998bfe	0.29989618
62	0x3ed24ef6	0.41075867
63	0x3e8eeed5	0.2791659
64	0x3ee37fc4	0.44433415
65	0xbe150c99	-0.14555587
66	0x3d57ec4a	0.052715577
67	0x3f097038	0.5368686
68	0x3ec3c111	0.38233235
69	0x3ef0bb2b	0.47017798
70	0x3e253c56	0.16136298
71	0x3e5220e7	0.20520364
72	0xbee00889	-0.43756512
73	0xbe101838	-0.14071739
74	0x3f4014c8	0.7503171
75	0x3e6db69a	0.23214188
76	0x3e2dcb80	0.1697216
77	0x3e68ba97	0.22727428
78	0xbecc9dc6	-0.39964122
79	0x3e319bf7	0.17344652
80	0xbd9829c9	-0.07429845
81	0x3e454a88	0.19266713
82	0x3e954483	0.29153833
83	0xbe685730	-0.2268951
84	0x3f0a2f69	0.5397859
85	0xbdeeb782	-0.11656095
86	0x3d02f592	0.031972475
87	0xbe926fc2	-0.2860089
88	0xbf490624	-0.78524995
89	0x3ec3c690	0.3823743
90	0xbefc9c84	-0.49338162
91	0x3e987c79	0.29782465
92	0xbeb4c129	-0.3530362
93	0x3e7a21d9	0.24426974
94	0xbe8a8854	-0.27057135
95	0x3e252a43	0.16129403
96	0xbd4e58af	-0.050377544
97	0x3d14d3d8	0.036334842
98	0xbe873406	-0.26406878
99	0xbeb27713	-0.3485647
100	0x3e23bfcc	0.15991133
101	0xbefbfe31	-0.4921737
102	0x3e397a6b	0.18113105
103	0x3e9f14ac	0.3107046
104	0xbe6787fb	-0.22610466
105	0x3e5f6c46	0.21818647
106	0xbf015f6c	-0.5053623
107	0xbe17d43b	-0.14827053
108	0x39c4012f	0.00037384915
109	0x3dd7a0b2	0.10528697
110	0xbec370fc	-0.38172138
111	0xbcdc179a	-0.026866723
112	0x3d60867d	0.054815758
113	0x3ef2e865	0.47442928
114	0xbb533adb	-0.0032231126
115	0x3dd1340a	0.10215004
116	0x3f046d1f	0.51729006
117	0xbe9ebdd2	-0.31004196
118	0x3ca21168	0.01978369
119	0x3e848582	0.25883108
120	0x3ef0554b	0.46940073
121	0x3e64912a	0.22321
122	0xbbb57998	-0.0055381767
123	0x3e3ea0ec	0.18616074
124	0xbbcb725d	-0.0062087015
125	0xbda07117	-0.0783407
126	0x3dbe06c7	0.092786364
127	0x3ed5a98b	0.41730914
128	0x3d1d9188	0.038468868
129	0x3bd23d1a	0.0064159753
130	0x3ec32035	0.3811051
131	0xbed0eb40	-0.40804482
132	0xbe97e161	-0.29664138
133	0xbead968c	-0.3390392
134	0x3def3dca	0.11681707
135	0xbc2f030f	-0.010681882
136	0x3e31e51d	0.17372556
137	0xbd87db70	-0.06633651
138	0xbec0ed29	-0.3768094
139	0x3d87da00	0.06633377
140	0xbe9d3388	-0.30703378
141	0xbe0ac52b	-0.13551776
142	0xbe799c6c	-0.24376076
143	0x3eb37797	0.35052177
144	0x3e0d913e	0.13824937
145	0xbdbf5eb4	-0.09344235
146	0xbde5c74e	-0.11219655
147	0xbef54edc	-0.47911727
148	0xbe5dbd43	-0.21654229
149	0x3dbad4c0	0.0912261
150	0xbf3f81d9	-0.74807507
151	0xbc06ef7c	-0.008235808
152	0xbc18f223	-0.009335074
153	0x3e542c69	0.20720066
154	0xbe3a138d	-0.1817152
155	0x3e3c1e89	0.18371023
156	0x3e50bd18	0.20384634
157	0x3d405857	0.046959247
158	0x3e041fbb	0.12902729
159	0x3f19c04f	0.60059065
160	0x3de811ee	0.11331545
161	0x3df2f1eb	0.118625484
162	0x3e1a47a1	0.15066387
163	0xbeae3faa	-0.34032947
164	0xbe8eab44	-0.2786504
165	0x3dacb728	0.08433372
166	0x3e14a260	0.14515066
167	0xbd778452	-0.060428925
168	0xbd9134ac	-0.070901245
169	0x3ce74278	0.028229937
170	0xbf1b79d4	-0.6073277
171	0x3bb82bb3	0.0056204437
172	0xbbc641fa	-0.0060503455
173	0x3d718beb	0.058971327
174	0xbf07a3ed	-0.52984506
175	0xbee4a128	-0.44654202
176	0xbe874dfd	-0.26426688
177	0x3b85c41a	0.004082215
178	0x3d7e16cd	0.062033463
179	0xbe12178c	-0.14266795
180	0xbe5fd2c0	-0.21857738
181	0x3df5e57b	0.120066606
182	0x3e085e3e	0.133172
183	0xbc4ba050	-0.012428358
184	0x3ef986b6	0.4873559
185	0x3e1aba1c	0.15110058
186	0x3ea8aac9	0.329428
187	0x3e0fbd91	0.14037158
188	0x3de6e093	0.11273303
189	0xbd3cb913	-0.046074938
190	0xbc0818f5	-0.0083067315
191	0x3d807b0b	0.062734686
192	0x3e090ecf	0.13384555
193	0xbe331d87	-0.17491733
194	0xbe136a81	-0.14396097
195	0x3e74fb60	0.23924017
196	0x3b814a31	0.003945612
197	0xbe258f05	-0.16167839
198	0x3eae8f18	0.34093547
199	0x3e3ca0d4	0.18420726
200	0xbef36876	-0.47540635
201	0x3d2e939f	0.04262125
202	0xbdbcaa34	-0.09212151
203	0x3e9d560f	0.3072972
204	0x3e1cb10f	0.15301917
205	0x3e71be8f	0.23607849
206	0xbe3ec5fb	-0.18630211
207	0x3e3eb5bc	0.18624014
208	0x3d4b718e	0.04966884
209	0x3e363581	0.17793848
210	0x3e838d57	0.2569377
211	0x3dcb867e	0.09937762
212	0x3f3b50ed	0.7317036
213	0x3e7e50d9	0.24835528
214	0x3e408ed9	0.18804492
215	0x3e56d0cc	0.20978087
216	0xbf332d89	-0.69991356
217	0x3eba8033	0.36425933
218	0xbea69244	-0.32533467
219	0x3eac3ffd	0.3364257
220	0xbeb248fa	-0.34821302
221	0x3e76f846	0.24118146
222	0xbdc6b95f	-0.097033255
223	0x3e2ab66b	0.1667115
224	0xa5cb6c07	-3.528809e-16
225	0x011a72aa	2.83676e-38
226	0x29d87f50	9.614412e-14
227	0x00154270	1.952379e-39
228	0x972dc0b0	-5.614252e-25
229	0x9dbc7725	-4.988638e-21
230	0x9f5ba932	-4.651501e-20
231	0xa21fb7cc	-2.164582e-18
232	0x0e309140	2.176361e-30
233	0x8000acc7	-6.1981e-41
234	0x807d7c4e	-1.1524029e-38
235	0xae2d8e63	-3.946211e-11
236	0x9b7f8f43	-2.1139396e-22
237	0xa427d1d9	-3.63901e-17
238	0x2357c056	1.1695902e-17
239	0x95b3ce1b	-7.26227e-26
240	0x21e434fb	1.5463905e-18
241	0x89a49730	-3.962374e-33
242	0x8005d84a	-5.36767e-40
243	0x24b3b9b2	7.7943456e-17
244	0x1b6fbd85	1.9830854e-22
245	0x017dc8c9	4.6612817e-38
246	0x00c60ab1	1.8187264e-38
247	0x13b2cd5c	4.5136017e-27
248	0xa0b52eed	-3.0693646e-19
249	0x925e7803	-7.0198774e-28
250	0x008298dd	1.1993452e-38
251	0xab8acae3	-9.861802e-13
252	0x2d04e4f2	7.554167e-12
253	0xa7d5ae13	-5.9308108e-15
254	0x2d7345c1	1.3828439e-11
255	0x1a238af2	3.381985e-23

conv3.bias f4 [20]
0	0x3de1956f	0.1101483
1	0x3ec93aac	0.39302576
2	0x3e12ce05	0.14336403
3	0x3daa674e	0.08320485
4	0xbc29bdda	-0.010360206
5	0xbde7a334	-0.113104254
6	0x3e9597a6	0.2921726
7	0x00464584	6.453422e-39
8	0x3ed840a0	0.42236805
9	0x3eba5160	0.3639021
10	0x3e363082	0.17791942
11	0xbd8b66ac	-0.068066925
12	0xbdce9faf	-0.10089051
13	0x3f1cd47c	0.61261725
14	0x3ea278b2	0.31732708
15	0x3c7a5b54	0.015280563
16	0x3d805910	0.06266987
17	0xbd820163	-0.06347921
18	0x0072f024	1.0555393e-38
19	0x3debc0e9	0.11511404

conv4.weight f4 [20, 1, 3, 3]
0	0x3f005611	0.50131327
1	0x3eb85d82	0.3600884
2	0xbde95d93	-0.11394801
3	0xbebe0c49	-0.37118748
4	0xbea3d329	-0.3199704
5	0x3e48e0f6	0.19617066
6	0xbe744092	-0.23852757
7	0x3e85de4c	0.26146162
8	0x3e562970	0.20914245
9	0xbe9b3fb9	-0.30322054
10	0xbef9e31e	-0.4880609
11	0xbee26aa5	-0.44221988
12	0xbca1d2fb	-0.019753924
13	0xbe4f7a32	-0.20261458
14	0xbea777b8	-0.32708526
15	0x3e9a74e2	0.301673
16	0x3f1d0d5c	0.6134851
17	0x3f0107e1	0.5040265
18	0x3ebf72c3	0.37392244
19	0xbda22f4d	-0.07919178
20	0x3d36a28c	0.04458861
21	0x3f4fbbe1	0.81146055
22	0x3e39e38a	0.18153206
23	0xbe94b05a	-0.29040796
24	0x3eb4a898	0.35284877
25	0x3e82d5a9	0.25553635
26	0xbdadc60c	-0.0848504
27	0xbe478f25	-0.19488199
28	0xbf31d9bd	-0.6947287
29	0xbf5d6021	-0.86474806
30	0x3c20516d	0.009785038
31	0xbf6eab2b	-0.9322993
32	0xbf379db6	-0.7172502
33	0x3d0a0bef	0.033702787
34	0xbe1d1a8b	-0.15342157
35	0xbee21ed7	-0.44164154
36	0xbdb53f82	-0.08850004
37	0xbeea40d3	-0.45752582
38	0x3f0f5eeb	0.5600421
39	0xbf021482	-0.5081254
40	0xbf83995e	-1.0281179
41	0x3e93b115	0.2884604
42	0xbd8e8f3d	-0.06960914
43	0xbe605f59	-0.21911372
44	0xbe527782	-0.20553401
45	0x3d9a8484	0.075448066
46	0x3e77966c	0.24178475
47	0x3eb4de5c	0.35325897
48	0x3d8f8e8c	0.070096105
49	0x3ea3bd11	0.31980184
50	0xbe183ff9	-0.14868154
51	0x3f5893d1	0.8460055
52	0x3f1d79ed	0.6151417
53	0x3ee5148d	0.44742242
54	0xbf0555da	-0.52084124
55	0xbeaa9d34	-0.3332306
56	0x3f09deb3	0.5385544
57	0xbecb5e32	-0.39720303
58	0xbe51315b	-0.20428984
59	0x3f22b3b6	0.6355547
60	0xbe099aea	-0.13438001
61	0xbea17448	-0.31534028
62	0x3d7f6f2f	0.062361892
63	0x1aa73c94	6.916745e-23
64	0x1d07fcc9	1.7997788e-21
65	0x1fa98584	7.179517e-20
66	0x94174538	-7.637203e-27
67	0x9f78d738	-5.2694068e-20
68	0x2aa0e299	2.8578943e-13
69	0x1c963e59	9.942284e-22
70	0xa8b71b92	-2.0329038e-14
71	0x2e0c72ba	3.1934212e-11
72	0x3ea5bc7e	0.3237037
73	0x3f0c3c8b	0.5477988
74	0x3eef6fbc	0.46764934
75	0xbe6e3e91	-0.23266055
76	0x3f2caff7	0.67456
77	0x3f13ce1a	0.5773636
78	0xbe8d4b69	-0.27596596
79	0x3ed1dd4c	0.4098915
80	0x3e2bfa22	0.16794637
81	0xbefc0d1a	-0.49228746
82	0xbf08dc94	-0.53461576
83	0xbebc38fb	-0.36762223
84	0x3d1fd5bc	0.039022192
85	0xbb87d13f	-0.004144817
86	0x3e50742a	0.20356813
87	0x3f21ce2d	0.63205224
88	0x3f25ab18	0.64714193
89	0xbe933700	-0.287529
90	0x3ec52996	0.3850829
91	0x3f2d6552	0.6773273
92	0xbe957c96	-0.29196614
93	0x3edc8a64	0.43074334
94	0x3e8a08a6	0.26959723
95	0xbd8039aa	-0.062609985
96	0x3f117b99	0.5682922
97	0x3f0b2921	0.5435963
98	0xbd31b842	-0.043388613
99	0xbe3ec06c	-0.1862809
100	0x3c91ca1e	0.017796572
101	0x3ec05d61	0.37571242
102	0x3f07d9b8	0.5306659
103	0x3f23df75	0.64012843
104	0xbef56428	-0.47927976
105	0x3f43ec72	0.7653266
106	0x3df4ff3f	0.11962747
107	0xbea1fc34	-0.31637728
108	0x3f016eea	0.50559866
109	0xbe806cc2	-0.25082976
110	0xbd73c145	-0.059510488
111	0x3e8d386b	0.27582106
112	0x3eda1d22	0.42600352
113	0x3d150976	0.036385976
114	0xbed15ded	-0.40891972
115	0x3eb5d288	0.35512185
116	0x3f0b0510	0.543046
117	0xbf03861c	-0.5137651
118	0xbda0d5a6	-0.0785325
119	0x3e4197c2	0.18905547
120	0xbf1c9b7f	-0.6117477
121	0x3c7467dc	0.01491734
122	0x3f1063c7	0.5640225
123	0x3e14688b	0.14493005
124	0x3e3f40f6	0.18677124
125	0x3eccd534	0.4000641
126	0xbf1fadc5	-0.62374526
127	0xbf101e69	-0.562964
128	0x3e2c1909	0.16806425
129	0x3ecc104d	0.39856187
130	0x3f0c63a6	0.5483955
131	0x3ebc2cb9	0.3675287
132	0x3f218fb5	0.63109905
133	0x3e187743	0.14889245
134	0xbe87da78	-0.26533866
135	0xbee77f03	-0.4521409
136	0xbf780e23	-0.9689657
137	0xbfb4099a	-1.406543
138	0xbf0a8584	-0.5410998
139	0xbfbc0bdf	-1.4691123
140	0xbfa2cecc	-1.2719359
141	0xbf52b90e	-0.8231362
142	0xbfa936ec	-1.3219886
143	0xbfccc4c1	-1.5997545
144	0xbe4837db	-0.19552557
145	0xbe2e9114	-0.1704753
146	0x3e1f2a9c	0.15543598
147	0xbeda828d	-0.42677727
148	0xbeb8b29b	-0.36073765
149	0x3f02c201	0.51077276
150	0xbea9e1f2	-0.33180195
151	0x3ebfd42b	0.3746656
152	0x3f3fd3f7	0.7493281
153	0x3e8d7327	0.27626917
154	0x3e22f27b	0.15912811
155	0x3ed086be	0.407278
156	0x3e84d61b	0.259446
157	0x3e903a5f	0.28169534
158	0x3ef233fe	0.47305292
159	0xbf547ce6	-0.8300308
160	0x3d8dc43e	0.06922196
161	0x3d7a4d87	0.061109092
162	0xb1d4b46f	-6.190525e-09
163	0xb143d626	-2.8497964e-09
164	0xb0864e82	-9.772096e-10
165	0xb19668e1	-4.377498e-09
166	0xb10a32d2	-2.011053e-09
167	0xaf4ad385	-1.844694e-10
168	0xae64d91e	-5.2034037e-11
169	0xada8f40e	-1.920777e-11
170	0xabb6358d	-1.2946741e-12
171	0x3e064a83	0.13114361
172	0x3e36b8e6	0.1784397
173	0x3e8b2945	0.27179924
174	0x3ee94aae	0.4556479
175	0xbe7ad9e5	-0.24497183
176	0x3ca71a30	0.02039823
177	0x3f079994	0.52968717
178	0xbe64c40c	-0.22340411
179	0xbda2cf77	-0.07949727

conv4.bias f4 [20]
0	0xbef4d9ce	-0.47822422
1	0x3eb11c91	0.34592107
2	0x3e410bba	0.1885213
3	0x3eb4738a	0.352444
4	0x3ed81ccd	0.42209473
5	0xbe48c419	-0.19606055
6	0xbe848a89	-0.25886944
7	0xbee0ec06	-0.43930072
8	0xbe42fd8e	-0.19042036
9	0xbe0cd07b	-0.13751404
10	0xbd0d29be	-0.034463637
11	0xbeed1b16	-0.46309727
12	0x3c3e1136	0.011600783
13	0xbe9186da	-0.28423196
14	0xbd40e863	-0.04709662
15	0xbd33c00d	-0.043884326
16	0x3e8c2924	0.27375138
17	0x3d27c774	0.040961698
18	0x3edc4cda	0.43027383
19	0xbe6e3825	-0.23263605

conv5.weight f4 [20, 20, 1, 1]
0	0xbe362c71	-0.1779039
1	0x3e9ce43d	0.30642882
2	0x3d8fcec5	0.0702186
3	0xbe963046	-0.29333705
4	0xbdf6006e	-0.12011801
5	0x3f005ab3	0.50138396
6	0xbe334056	-0.17505011
7	0xbebf6816	-0.373841
8	0xbe0fe276	-0.14051232
9	0x3e410a74	0.18851644
10	0x3e5b2cc7	0.214038
11	0xbdc72076	-0.09722988
12	0xbe739bb7	-0.23789869
13	0xbe2b0231	-0.16700055
14	0x3ed82007	0.42211935
15	0xbee3798d	-0.44428673
16	0x3f1eba55	0.6200307
17	0xbca8d2ab	-0.020608267
18	0x3e97c0ba	0.29639226
19	0x3e31ff82	0.17382625
20	0x3ee38df7	0.44444248
21	0x3d8330f0	0.064058185
22	0xbdd1a04f	-0.102356546
23	0x3e96c436	0.29446572
24	0x3e68b905	0.2272683
25	0x3ed110bc	0.4083308
26	0x3e987305	0.29775253
27	0xbd497a78	-0.04918906
28	0x3cd7b717	0.026332421
29	0xbe54d968	-0.20786059
30	0x3ebd0c8e	0.3692364
31	0xbe509cf2	-0.2037237
32	0xbd3a934d	-0.045550633
33	0x3e8835f6	0.2660367
34	0x3d824fe7	0.063628964
35	0x3e6d2b45	0.23161037
36	0x3edb27f8	0.4280393
37	0x3edeaa98	0.43489528
38	0x3dc13c6a	0.09435351
39	0x3d96fcd0	0.07372439
40	0xbd190798	-0.037360758
41	0x3d26183d	0.04055046
42	0xbd050c93	-0.032482695
43	0x3ccebb2e	0.025235739
44	0x3cd22267	0.02565117
45	0xbd1ecad8	-0.038767666
46	0x3aecefda	0.0018076852
47	0x3cb0ce12	0.021582637
48	0xbd3aac4c	-0.04557447
49	0x3cee22f2	0.029069398
50	0xbd21a94e	-0.039468102
51	0xbc337089	-0.010952123
52	0xbd28a7c0	-0.041175604
53	0xbc61f012	-0.013790147
54	0xbc40cb5c	-0.011767235
55	0x3d0c1c30	0.03420657
56	0xbbd66784	-0.0065431017
57	0xbd266d29	-0.040631447
58	0xbcace0a2	-0.021103207
59	0xbd12ae7e	-0.03581094
60	0xbe4e1484	-0.20125014
61	0x3e7de876	0.24795708
62	0x3f08ecdb	0.5348641
63	0x3e54c6dd	0.20778985
64	0x3dd12df3	0.10213842
65	0xbcecaaed	-0.028890098
66	0xbec72d38	-0.38901687
67	0xbda4013c	-0.08008048
68	0x3c648b9f	0.013949304
69	0x3e1616ea	0.14657179
70	0x3e73391c	0.23752254
71	0x3d626928	0.055276066
72	0x3eafaa92	0.34309822
73	0xbecbc551	-0.39798978
74	0x3c5b8b40	0.013399899
75	0x3ce73b4d	0.028226519
76	0x3ebf7a85	0.37398162
77	0x3e489fb1	0.19592167
78	0x3e45e049	0.19323839
79	0x3eb5a32b	0.3547605
80	0x3e9d660a	0.30741912
81	0xbdc30830	-0.09523046
82	0xbeb487a3	-0.35259733
83	0x3d55eaf3	0.05222602
84	0xbf055d6c	-0.52095675
85	0x3e477659	0.1947874
86	0x3e0b9f18	0.13634908
87	0x3df66e37	0.120327406
88	0x3da77385	0.081763305
89	0xbe763358	-0.24043024
90	0x3c111da1	0.008857162
91	0x3e6477ec	0.22311372
92	0x3d7c766f	0.061636385
93	0x3e85eade	0.26155752
94	0x3d1d8f94	0.038467005
95	0x3dc81e61	0.09771419
96	0xbe81a5b9	-0.2532175
97	0x3e8c41c0	0.27393913
98	0xbe1a7b94	-0.15086204
99	0x3b3edae8	0.0029122178
100	0x3e101fb6	0.14074597
101	0x3e20080a	0.15628067
102	0xbf08670e	-0.5328225
103	0x3f0a2e1c	0.5397661
104	0xbde5ea07	-0.11226278
105	0x3e206fa1	0.15667583
106	0x3e070606	0.13185892
107	0x3e70b7f5	0.23507674
108	0xbe7fc34d	-0.24976845
109	0xbec782c2	-0.38966948
110	0x3e0d809b	0.1381859
111	0x3f14932f	0.58037084
112	0xbee5d608	-0.44889855
113	0xbde4e664	-0.11176756
114	0x3c6d4ed9	0.014484131
115	0xbea880b9	-0.32910708
116	0x3e39dcab	0.18150584
117	0x3e0f5363	0.13996653
118	0xbe5626aa	-0.20913187
119	0x3e96009d	0.29297343
120	0x3ba49883	0.0050230636
121	0xbd107383	-0.03526641
122	0x3d382032	0.04495258
123	0xbdfe8a8e	-0.12428771
124	0x3f58fb41	0.84758383
125	0xbebd4a8f	-0.36970946
126	0xbe31201e	-0.17297408
127	0xbe68489c	-0.22683948
128	0xbe8cac0a	-0.27475005
129	0xbea211c9	-0.31654194
130	0xbd80ca21	-0.06288553
131	0xbdd03dd1	-0.101680405
132	0x3e122cb2	0.14274862
133	0xbef2b597	-0.47404167
134	0xbcaa518d	-0.02079084
135	0xbedb150e	-0.427895
136	0x3d72a05b	0.05923496
137	0xbf0f8bcc	-0.5607269
138	0x3eab13e6	0.3341362
139	0xbe9f6c2a	-0.3113721
140	0x3ee5bba6	0.44869727
141	0x3e925a1a	0.28584367
142	0x3ecac66b	0.39604506
143	0x3dcc776c	0.099837154
144	0x3e50a868	0.20376742
145	0xbe495846	-0.1966258
146	0x3b2232ec	0.002474959
147	0x3db4b634	0.08823815
148	0xbd886319	-0.066595264
149	0xbdf6998b	-0.12041005
150	0x3eb86e59	0.3602169
151	0xbca9bade	-0.020718988
152	0x3ef50c41	0.4786091
153	0x3d3a6ceb	0.04551403
154	0x3d1ce6f6	0.0383062
155	0xbd9e0265	-0.077153005
156	0xbe001973	-0.12509708
157	0x3f12ee56	0.5739492
158	0xbe8030de	-0.25037283
159	0x3edb47d9	0.42828253
160	0x3ef8ceff	0.48595425
161	0x3dd05429	0.10172302
162	0xbe301555	-0.17195638
163	0x3dbdd67f	0.092694275
164	0xbde6a9fb	-0.1126289
165	0xbe327679	-0.17428006
166	0x3ec7941a	0.3898018
167	0xbe6f8ee9	-0.2339436
168	0x3edfa368	0.43679357
169	0xbc3bbb25	-0.011458193
170	0x3e99bb79	0.30025843
171	0xbdc1d4e8	-0.09464437
172	0x3e4ace80	0.19805336
173	0x3dafb66b	0.08579715
174	0x3ef180c9	0.47168568
175	0xbf20e408	-0.6284795
176	0xbe87e09a	-0.26538545
177	0xbd830a5d	-0.06398461
178	0x3e6edc5f	0.23326252
179	0xbc478efb	-0.012180085
180	0x3e2b75cc	0.16744155
181	0x3ea38bdb	0.3194264
182	0x3e157176	0.14594063
183	0xbe3864b8	-0.18007171
184	0x3d797a31	0.060907546
185	0xbcc24f9b	-0.0237196
186	0xbe40108b	-0.1875631
187	0xbe18de71	-0.14928605
188	0x3a07941e	0.00051719125
189	0x3e99e54e	0.30057758
190	0x3ce1a637	0.027545078
191	0xbe8954e6	-0.26822585
192	0xbd6c7cf5	-0.057736356
193	0xbeff7c98	-0.49899745
194	0x3e67d4c1	0.22639753
195	0xbf65aab6	-0.8971361
196	0x3e5af2c1	0.21381666
197	0x3e7af650	0.24508023
198	0x3d91bc40	0.07115984
199	0x3e7ebf98	0.24877775
200	0x3ef8a5f2	0.48564106
201	0x3f536af0	0.8258505
202	0xbd63e58c	-0.055638835
203	0x3ea0226a	0.31276256
204	0x3f3fad7e	0.74874103
205	0xbef7a843	-0.4837056
206	0xbe5cd763	-0.21566539
207	0xbe573185	-0.21014984
208	0xbe586c36	-0.21135029
209	0x3e6af6bf	0.22945689
210	0x3d9e111c	0.07718107
211	0x3eb59e80	0.35472488
212	0xbecf05a6	-0.40433997
213	0xbd83683f	-0.06416368
214	0xbb603521	-0.0034211355
215	0xbd39426b	-0.045229357
216	0x3d0204ea	0.031742968
217	0x3e2d03fc	0.16896051
218	0x3df33a57	0.11876362
219	0x3e3673d7	0.17817627
220	0xbeea2641	-0.4573231
221	0xbee44aa9	-0.4458821
222	0x3e4e06da	0.20119801
223	0x3ec77096	0.38953084
224	0x3ef7ac06	0.4837343
225	0xbd5c8de5	-0.05384626
226	0xbe1c6d72	-0.15276125
227	0xbe86f698	-0.2636001
228	0xbddf8e25	-0.10915784
229	0xbebf8cf2	-0.3741222
230	0xbdec63f7	-0.11542504
231	0x3e641dbf	0.22276972
232	0xbec561ee	-0.38551277
233	0xbf14bdd9	-0.58102185
234	0xbe190363	-0.14942698
235	0x3edeb6f9	0.43498972
236	0xbd5c7624	-0.053823605
237	0x3e3434d1	0.17598273
238	0x3e8fa819	0.28057936
239	0x3e48e2d7	0.19617783
240	0x3edce6d3	0.43144855
241	0x3e8408ab	0.25787863
242	0xbd9da52a	-0.07697518
243	0x3f394a9b	0.72379464
244	0xbe74eb3f	-0.23917864
245	0xbe33a811	-0.17544581
246	0x3e593a7c	0.21213716
247	0x3eaaf518	0.33390117
248	0xbec61ecf	-0.3869538
249	0x3f0a2ae0	0.5397167
250	0x3ddcf098	0.10788077
251	0x3e7885df	0.24269818
252	0x3befeea7	0.0073221507
253	0x3e7468ff	0.23868178
254	0xbe2bff5c	-0.1679663
255	0x3dd96025	0.10614041

conv5.bias f4 [20]
0	0x3ed6fd13	0.41989955
1	0x3e994a73	0.29939613
2	0xbd0ea63c	-0.034826502
3	0x3e319e56	0.17345557
4	0x3df9f4e2	0.12204911
5	0xbeb377ec	-0.3505243
6	0x3e62efc5	0.22161777
7	0xbde8f7d9	-0.11375398
8	0x3e337cbe	0.17528054
9	0xbd892ce3	-0.066980146
10	0x3e4d114e	0.20026132
11	0x3e90c608	0.28276086
12	0xbecb3a43	-0.39692888
13	0x3e675d62	0.22594216
14	0xbe8b5874	-0.27215922
15	0x3d726760	0.059180617
16	0x3e8c987d	0.2746009
17	0x3e2b0daf	0.16704439
18	0x3d1a76b7	0.03771087
19	0x3dd6e14d	0.104921915

conv6.weight f4 [20, 1, 3, 3]
0	0xbe94b72d	-0.29046002
1	0xbdab6c90	-0.08370316
2	0xbe1035f4	-0.14083081
3	0x3f085708	0.532578
4	0xbc191977	-0.00934445
5	0xbdeb7654	-0.11497179
6	0xbf3ebe49	-0.745091
7	0xbeab7d9f	-0.3349428
8	0xbd3c00ee	-0.045899324
9	0xbeb4d989	-0.35322216
10	0x3eb1eecf	0.3475251
11	0x3eff4d60	0.4986372
12	0xbf1c21b8	-0.6098895
13	0xbe451fc4	-0.19250399
14	0xbe935d3f	-0.2878208
15	0xbe40115f	-0.18756627
16	0xbd584950	-0.05280429
17	0x3eac2295	0.33620134
18	0xbc7e33de	-0.015515296
19	0x3aff27ee	0.0019466856
20	0xbccd3c61	-0.025053205
21	0xbc4bb172	-0.012432443
22	0x39dff99a	0.00042719842
23	0xbca77343	-0.020440703
24	0x3ad83405	0.0016494995
25	0xbbfb4554	-0.0076681767
26	0xbd15c822	-0.036567815
27	0x3e8f8829	0.2803357
28	0xbe8a5c15	-0.27023378
29	0xbf0b79b4	-0.5448258
30	0x3ece49e8	0.4029076
31	0xbd90eedd	-0.070768096
32	0xbe5ccc04	-0.21562201
33	0xbeca2dcf	-0.39488074
34	0xbf162887	-0.5865559
35	0x3db08648	0.08619362
36	0xbe74260e	-0.23842642
37	0xbe8d201b	-0.27563557
38	0xbe422890	-0.18960786
39	0xbe37e2e1	-0.17957641
40	0xbed71654	-0.42009223
41	0xbeefecfd	-0.46860495
42	0x3d4f752b	0.05064885
43	0xbde1b59e	-0.11020969
44	0x3db82334	0.089910895
45	0xbedd6efc	-0.43248737
46	0xbd3bff9e	-0.045898072
47	0xbf7c4fac	-0.9855907
48	0x3ecd6407	0.40115377
49	0xbd87aa86	-0.06624322
50	0xbd96166f	-0.073284976
51	0x3ee1aa97	0.44075462
52	0x3f380729	0.71885926
53	0x3e12792d	0.14304037
54	0x3c137eba	0.009002382
55	0xbf9daab3	-1.2317718
56	0xbf9eb85e	-1.2400014
57	0xbf38468e	-0.7198266
58	0xbe867048	-0.2625754
59	0xbf20d67b	-0.6282727
60	0xbe2e2168	-0.17004931
61	0x3f1d36eb	0.61411923
62	0x3de11a54	0.1099135
63	0x3ee1a038	0.4406755
64	0xbe246803	-0.16055302
65	0x3e98b166	0.29822844
66	0x3e7a0f67	0.24419938
67	0xbda54f09	-0.080717154
68	0xbf1e2097	-0.6176848
69	0xbe10d7d7	-0.14144836
70	0xbec26d11	-0.37973836
71	0x3d90a468	0.07062608
72	0x3f13b7f6	0.5770258
73	0xbec8deb5	-0.39232412
74	0x3de468d2	0.111528054
75	0x3db5d6d9	0.088788696
76	0xbe8bbe40	-0.27293587
77	0xbe5cb3dd	-0.21552987
78	0xbe11f5ae	-0.14253876
79	0xbe357fc9	-0.17724527
80	0x3e4baebe	0.19890878
81	0xbf1f5af1	-0.6224814
82	0xbe189984	-0.14902312
83	0x3e2fa303	0.17152028
84	0xbe8c9266	-0.27455443
85	0xbeec6fb3	-0.4617897
86	0xbdbf4e14	-0.09341064
87	0x3ec383f4	0.3818661
88	0xbef1e633	-0.4724594
89	0xbdb4b1b2	-0.08822955
90	0xbb923806	-0.004462245
91	0xbe8a206d	-0.26977864
92	0x3f3a2ef4	0.72727895
93	0x3e38d219	0.18048896
94	0x3c099cb5	0.008399178
95	0x3ed31fa6	0.41235083
96	0x3eeeaa59	0.4661434
97	0xbe3eddcb	-0.18639295
98	0xbf26b679	-0.6512218
99	0xbf12faaf	-0.5741376
100	0xbe3ea908	-0.18619168
101	0x3f048a63	0.5177366
102	0xbf28ba8d	-0.65909654
103	0x3e41861f	0.1889882
104	0x3efd7312	0.49501854
105	0xbd065ec5	-0.032805223
106	0x3e638088	0.22217
107	0x3e7b6dbe	0.24553582
108	0xbf315c94	-0.6928189
109	0xbf107244	-0.56424356
110	0xbd867d86	-0.065669104
111	0xbe1fcff3	-0.1560667
112	0xbedb6db6	-0.4285714
113	0xbdeed6ea	-0.11662085
114	0xbe4d050d	-0.20021458
115	0x3f02ab36	0.510425
116	0xbf04f8c0	-0.5194206
117	0x3e9dc306	0.30812854
118	0xbf254a6f	-0.645667
119	0x3f00d0b4	0.50318456
120	0xbea3f943	-0.3202611
121	0x3d4e5be9	0.05038062
122	0xbcb3d426	-0.021951746
123	0xbd349d80	-0.044095516
124	0x3e907bab	0.2821935
125	0x3e9a578f	0.30144927
126	0x3eb879de	0.36030477
127	0xbec5aa4e	-0.38606495
128	0xbe8ac726	-0.27105063
129	0xbe79d134	-0.24396211
130	0xbe56a124	-0.20959908
131	0xbe7fbef5	-0.24975188
132	0x3d23bcdc	0.039975032
133	0x3edd6914	0.4324423
134	0x3e3d4cac	0.18486279
135	0x3c697235	0.0142484205
136	0x3edf9c6f	0.43674037
137	0xbe9b8748	-0.3037665
138	0xbed574bd	-0.41690627
139	0x3e54c80a	0.20779434
140	0xbeab303f	-0.33435246
141	0x3e53b844	0.2067576
142	0xbf2d609a	-0.6772553
143	0xbefc6998	-0.49299312
144	0xbe786fbb	-0.24261372
145	0x3d190103	0.03735448
146	0xbe1f2677	-0.15542017
147	0x3b3f0b5b	0.0029151055
148	0x3ed20503	0.4101945
149	0xbb79825c	-0.0038072085
150	0xbe067071	-0.1312883
151	0xbf193b80	-0.59856415
152	0xbe9c2355	-0.30495706
153	0xbe003062	-0.12518457
154	0xbe3a2a76	-0.1818026
155	0x3eb98640	0.36235237
156	0xbec4d747	-0.38445494
157	0xbf2ef461	-0.6834164
158	0xbdbac8f9	-0.09120364
159	0x3f03f3e4	0.5154402
160	0xbeaccf09	-0.33751705
161	0xbe9b25df	-0.3030233
162	0xbe931900	-0.2873001
163	0x3e65b4ed	0.22432299
164	0xbec26b6b	-0.37972578
165	0xbd96516b	-0.07339748
166	0x3eef8421	0.46780494
167	0xbe3a75fd	-0.18209071
168	0x3ed7de91	0.42161992
169	0x3e19573b	0.14974682
170	0x3f152f9f	0.5827579
171	0x3d87def1	0.066343196
172	0x3ebecf10	0.3726735
173	0x3f0de114	0.55421567
174	0xbde46318	-0.11151713
175	0x3e75a31b	0.23988001
176	0x3ed57772	0.41692692
177	0xbd9f171c	-0.0776808
178	0xbe2b22b5	-0.16712458
179	0x3e62c636	0.22145924

conv6.bias f4 [20]
0	0x3d7c9231	0.061662856
1	0x3e93ebb1	0.28890756
2	0xbecd5d4b	-0.4011024
3	0x3e82168b	0.25407824
4	0x3e538c2d	0.20658942
5	0x3f030b96	0.51189554
6	0xbed1911c	-0.40931022
7	0xbd577d88	-0.05260995
8	0xbe0f9031	-0.14019848
9	0x3d47eab0	0.0488078
10	0x3e3ab93f	0.18234728
11	0x3e50f069	0.20404209
12	0x3edad2b8	0.4273889
13	0x3e136cae	0.14396927
14	0x3e5cd923	0.21567206
15	0x3dc65506	0.09684186
16	0x3e777891	0.24167086
17	0xbe26331d	-0.16230436
18	0xbe945387	-0.28969976
19	0xbeaceb02	-0.33773047

conv7.weight f4 [20, 20, 1, 1]
0	0x3eabcea7	0.335561
1	0x3e3a6a69	0.18204655
2	0x3db04999	0.08607788
3	0x3cf2f679	0.029658543
4	0x3f0b0682	0.54306805
5	0x3f1724dc	0.5904062
6	0xbe330bf3	-0.17485027
7	0x3e762f8a	0.24041572
8	0xbe81d3ba	-0.25356847
9	0xbe6f11eb	-0.23346679
10	0xbd6a9735	-0.05727311
11	0xbd98e536	-0.074655935
12	0x3d0756ae	0.03304165
13	0x3d420f76	0.047378026
14	0xbe134f5f	-0.14385746
15	0x3e30925f	0.17243336
16	0xbe9597d7	-0.29217407
17	0x3e550994	0.20804435
18	0xbe97c182	-0.29639822
19	0xbde36956	-0.111040756
20	0xbe6031ec	-0.21894044
21	0x3d1e2970	0.038613737
22	0xbe409243	-0.18805794
23	0x3db30120	0.08740449
24	0xbe4a42ad	-0.19751997
25	0x3f18cb16	0.59684885
26	0x3f3f9f9d	0.74852926
27	0x3e292a96	0.16520151
28	0x3d00ceb3	0.031447124
29	0x3e8c7a1e	0.27436918
30	0x3e98b631	0.298265
31	0x3e331b26	0.17490825
32	0xbe87198f	-0.26386687
33	0xbd462446	-0.048374437
34	0x3e97cc91	0.2964826
35	0xbec1c287	-0.37843725
36	0xbd51a682	-0.051184185
37	0x3d250581	0.040288452
38	0x3e0ce1b1	0.1375797
39	0x3de846d4	0.113416344
40	0x3d1e6410	0.038669646
41	0x3eeed756	0.46648663
42	0xbd058512	-0.03259761
43	0xbcf39d6d	-0.029738152
44	0xbe860f79	-0.2618368
45	0x3d8f16cb	0.06986769
46	0xbd537e50	-0.051634133
47	0x3e9fc95a	0.31208307
48	0xbe9fec06	-0.3123476
49	0xbd97f395	-0.074195065
50	0xbe5819a9	-0.21103539
51	0x3d89d0fe	0.06729315
52	0x3de3a0d4	0.1111466
53	0x3e0a76c2	0.13521865
54	0x3e473481	0.19453622
55	0x3ec23476	0.3793065
56	0x3e718daa	0.23589197
57	0x3e5ba4fb	0.21449654
58	0xbe614e59	-0.22002544
59	0x3e8d3684	0.27580655
60	0x3d6ba068	0.057526022
61	0xbdabc317	-0.0838682
62	0x3e5a2004	0.21301275
63	0xbe3e7784	-0.18600279
64	0xbdac9cf7	-0.08428376
65	0xbefc1f34	-0.49242556
66	0x3f99047b	1.1954492
67	0x3e1a1302	0.15046313
68	0x3f1a39af	0.6024427
69	0x3cc8a297	0.024491591
70	0x3e18e7cf	0.14932178
71	0xbc690e46	-0.014224594
72	0x3e59cfa7	0.2127062
73	0xbe1e0e32	-0.15435103
74	0x3cf8c98b	0.03036954
75	0xbdde35cd	-0.108501054
76	0xbd3ec5a1	-0.046575192
77	0x3dcfcaed	0.10146127
78	0xbe273eea	-0.16332594
79	0x3e1ed212	0.15509823
80	0xbd2e5ae4	-0.04256715
81	0x3ea52751	0.3225656
82	0x3cdbdbd1	0.026838215
83	0x3e72c68c	0.23708552
84	0xbc613cac	-0.013747375
85	0xbf3110b4	-0.6916611
86	0xbe76328f	-0.24042724
87	0x3e8f7a04	0.28022778
88	0xbe84541f	-0.2584543
89	0xbe56bd8f	-0.20970748
90	0xbe360f42	-0.17779258
91	0x3e1fdf88	0.15612614
92	0xbe3579c5	-0.17722233
93	0x3cadcf05	0.021216879
94	0x3d901b14	0.07036415
95	0xbcb2996a	-0.02180167
96	0x3e8deead	0.27721158
97	0x3f57964c	0.8421371
98	0xbe441a64	-0.19150692
99	0x3dcfe3ae	0.10150848
100	0xbe48f36f	-0.19624113
101	0x3e95e84d	0.29278794
102	0xbe9cba4b	-0.3061088
103	0x3d875b34	0.066091925
104	0x3f2413a6	0.6409248
105	0x3eed64f8	0.46366096
106	0xbe744806	-0.238556
107	0x3eb41ad7	0.35176727
108	0xbc9d7105	-0.019218931
109	0xbdc48025	-0.09594754
110	0x3ecf421b	0.40480122
111	0x3ea373c7	0.3192427
112	0xbd15deb1	-0.03658933
113	0xbdbdc686	-0.09266381
114	0x3e8010d9	0.25012854
115	0x3e301ce1	0.17198516
116	0xbeb44fa9	-0.35217026
117	0x3dae7aac	0.085194916
118	0x3e8c4b38	0.27401137
119	0x3e3a46d6	0.18191084
120	0x3f02e720	0.5113392
121	0xbdbca75c	-0.09211609
122	0xbc13ea1f	-0.009027987
123	0x3ea35143	0.31897935
124	0xbcb96c28	-0.02263458
125	0xbf10dc92	-0.56586564
126	0x3e41b967	0.18918382
127	0xbdb2e2d7	-0.087346725
128	0x3e4b1734	0.1983307
129	0x3e5efa64	0.21775204
130	0xbd8b3548	-0.06797272
131	0x3cd3f471	0.025873395
132	0xbe917f8c	-0.28417623
133	0xbcc95db4	-0.024580814
134	0x3e20032b	0.15626208
135	0x3ee664e5	0.4499885
136	0xbe402c66	-0.18766937
137	0xbcc265e3	-0.023730224
138	0xbddbf23b	-0.10739561
139	0x3ec73793	0.38909587
140	0x3e242e61	0.16033317
141	0xbe02e1c5	-0.12781437
142	0x3e4736c1	0.1945448
143	0x3db935ad	0.09043441
144	0xbe44d5eb	-0.19222228
145	0x3ea03044	0.31286824
146	0x3e4eeb77	0.2020701
147	0xbede5334	-0.43422854
148	0xbe6961ff	-0.22791289
149	0x3e32a5c7	0.17446052
150	0xbe3a0843	-0.18167214
151	0x3e844dc1	0.25840572
152	0x3f72398e	0.9461907
153	0xbe1dc5de	-0.15407512
154	0xbdabfc37	-0.083977155
155	0x3f139286	0.5764545
156	0x3f38a8db	0.72132653
157	0x3ee93965	0.455516
158	0x3dd82a5c	0.105549544
159	0x3e99641f	0.299592
160	0x3e7d5fe8	0.24743617
161	0x3e29a3a0	0.16566324
162	0xbe843c68	-0.25827336
163	0x3e2ccd22	0.16875127
164	0xbd82aa69	-0.063801594
165	0x3e6ad01f	0.22930954
166	0x3e53c4d9	0.2068056
167	0x3e3a3fcd	0.181884
168	0x3f000964	0.5001433
169	0x3d9e8cfb	0.07741734
170	0xbe409691	-0.18807437
171	0xbd242265	-0.040071864
172	0x3fb1502d	1.3852593
173	0xbd868778	-0.06568807
174	0x3e35f308	0.1776849
175	0xbe3339e3	-0.17502551
176	0xbca9ed13	-0.020742929
177	0xbe6ee7a6	-0.23330554
178	0xbdcc7d7d	-0.099848725
179	0xbd82314a	-0.063570574
180	0x3e3e44e5	0.18580969
181	0xbe2b3ec6	-0.16723165
182	0x3ea8855e	0.3291425
183	0x3d577bea	0.052608408
184	0xbd582eed	-0.052779127
185	0xbd8ee03e	-0.069763646
186	0x3e072845	0.13198955
187	0x3dc7a2a7	0.0974782
188	0x3dd21b87	0.10259157
189	0x3ba7fd2a	0.005126615
190	0xbd780971	-0.06055588
191	0xbe0d3a23	-0.13791709
192	0xbe0f0d29	-0.13969864
193	0xbbf0fea6	-0.007354575
194	0xbe4f4926	-0.20242748
195	0xbe3bd7a3	-0.18343978
196	0xbf4384b3	-0.7637436
197	0x3ec20bf1	0.37899736
198	0xbf243b31	-0.6415282
199	0xbebb693b	-0.36603722
200	0xbe3c3f08	-0.1838342
201	0x3e2ad942	0.1668444
202	0xbd896ece	-0.067105874
203	0xbe296a1c	-0.16544384
204	0xbbf0ae2e	-0.0073449826
205	0xbe997586	-0.29972476
206	0xbe07c0ab	-0.13257091
207	0x3e47a2c5	0.19495685
208	0x3da116c9	0.07865674
209	0x3f03f18c	0.51540446
210	0x3e26d591	0.16292407
211	0xbe518443	-0.2046061
212	0x3df7b993	0.12095942
213	0xbf466af6	-0.7750696
214	0x3e9c13be	0.30483812
215	0xbd42d79f	-0.047568914
216	0xbdcb618a	-0.099307135
217	0x3d45ffa7	0.048339512
218	0x3df514c5	0.11966852
219	0x3eca99ac	0.39570367
220	0x3dfd0477	0.12354367
221	0xbba51666	-0.0050380705
222	0xbe2d2e98	-0.16912305
223	0x3f0102ed	0.5039509
224	0x3e1c2787	0.15249453
225	0xbed969d3	-0.4246355
226	0x3eb006ad	0.34380093
227	0x3e5d4bc7	0.21610938
228	0xbc9b7a4f	-0.01897922
229	0x3c1e5839	0.009664589
230	0xbe68d34b	-0.22736852
231	0x3ee3848e	0.4443707
232	0xbed9584a	-0.42450172
233	0xbdd35687	-0.10319238
234	0x3efd62c2	0.4948941
235	0xbeb05a7b	-0.3444403
236	0xbd498b60	-0.049205184
237	0x3db67bb1	0.08910311
238	0xbe82591f	-0.2545862
239	0x3ed52f8c	0.41637838
240	0xbe74e0e8	-0.2391392
241	0x3edf9fc9	0.43676594
242	0xbec93742	-0.3929997
243	0xbe8977a4	-0.2684909
244	0xbe3b7ed5	-0.18310101
245	0x3be46c9d	0.0069709555
246	0x3d873dee	0.06603609
247	0x3dd14d44	0.102198154
248	0xbe0a6da3	-0.13518386
249	0xbe000acf	-0.12504123
250	0x3c3ad6c6	0.011403745
251	0x3d554554	0.05206807
252	0x3efe4106	0.49658984
253	0xbecfff41	-0.4062443
254	0x3e86474b	0.26226267
255	0x3e6a64b9	0.22889985

conv7.bias f4 [20]
0	0x3ddb3de3	0.10705163
1	0x3e3dc1a1	0.18530895
2	0x3e5e000c	0.21679705
3	0xbeac2829	-0.3362439
4	0x3d2ba24f	0.041902836
5	0x3dde5e6c	0.10857853
6	0x3d6bd31b	0.057574373
7	0xbe0622e0	-0.13099241
8	0x3c31abf1	0.010844217
9	0xbece03ec	-0.40237367
10	0x3e2494a1	0.16072322
11	0xbe1eb179	-0.15497388
12	0x3ed2d949	0.411814
13	0x3e558946	0.20853147
14	0xbee1fc61	-0.44137862
15	0xbda3b389	-0.07993228
16	0xbf054de8	-0.52072
17	0xbe7b06e3	-0.24514346
18	0xbd0cef4f	-0.03440791
19	0x3f06e790	0.52697086
