models/MNIST/cnn_num-modules=4_seed=014/099.pth (torch, 15277 bytes, 16 tensors)

conv1.weight f4 [32, 1, 3, 3]
00000000: 943e 4cbe 0ae4 6bbf 563b 893d edfb 523f
00000010: d1fb 2b3f 33d8 2e3f f291 24be 8b44 27bf
00000020: 0312 a3be 2d47 223e 2c0c 773d b662 f73e
00000030: f3a7 3bbf f3ba 693e 95dc c43e 2e15 7abf
00000040: 7827 69bd ba3b 233f e71d 003e 4460 cc3c
00000050: f95d b1bb 3827 643f 3c31 de3c 56b1 46bf
00000060: bba2 a33e 7821 92be 6824 babe ce4b 383f
00000070: 7cee 2bbf bd0b 79bf 737f 313f c849 7b3e
00000080: 5b44 af3e bc41 7ebe 9bba a13e cf72 153f
00000090: 3a43 f03e 939f 1ebf 2bf8 1cbf b03f c23e
000000a0: 6706 133f f2f6 e6bc c288 39bf 1fe6 0bbe
000000b0: 5062 cd3e 2e31 2bbf fe1e a03e 1056 813e
000000c0: a55c 5fbf 7d5e d43e e3d0 ec3e 996e ef3e
000000d0: 9855 9b3e 0307 18bf b0c9 84be e6a5 963f
000000e0: 8db2 ab3c 2ccd 663d 7d5b 853e b7a1 53be
000000f0: 542b 6fbe 258e cf3d e0e7 7dbd 734b 413f
00000100: c2bc a9be 643f 97be c69b 5e3f 9a49 92be
00000110: 755b 28bf 0943 afbd 6ef3 d1be b34c 823e
00000120: 8ffa 07bf 52e5 8e3e 6389 183f 22b6 26bd
00000130: cef2 243f 660b 8bbe 3520 043f 9ba3 b73e
00000140: 657e 85bf 356b d23e f137 f03e e648 8a3e
00000150: a26b 0c3f a19f f83e 70d4 ae3c 6ec4 c03d
00000160: daae b8be 57fe 81bf e1ec 51bf 8e1a 2ebf
00000170: 9c80 ed3d 1b1c 13be 631e 103f 57a1 203f
00000180: f7fe e73d e7e8 9b3e ad10 0e3f f112 c53e
00000190: c298 113f 612b e33e 4b61 0abe 7786 b33e
000001a0: f2c8 0e3f 602c 903e 8eaa a43e 83dd 153f
000001b0: 3caa 0c3f 0335 45be 6b09 3dbf 23db e53e
000001c0: 0f32 14bf ede7 74bf fbcf 353f 6f7e 373f
000001d0: fef1 343d 74ae 0fbf f858 ed3d b283 a23e
000001e0: 917d 1ebf bbfa b1be 9102 373f ae5a bfbd
000001f0: 6e3a fa3e f4a4 803e 85a2 243e 1234 0f3d
00000200: 3655 e83e 24be 0cbf 901c 4fbf 1f51 143f
00000210: 4ff6 92bd 808d 03bf 577c 2f3f f66b 103f
00000220: 2e82 de3e 7452 c6bf d2c2 3b3f a3f7 1f3f
00000230: fe33 9dbf 62f0 fbbe c281 c1bf 14a7 64bf
00000240: e97a b2be edb9 50bd 72d9 3c3d 13fb bdbe
00000250: 7330 0f3e d81f 203f 83fe 0cbf cad8 31bf
00000260: 697f 343f 999f 353d f252 203e bbd3 373f
00000270: a4d3 93be 019d 08bf 2a09 4d3f 953c 2dbe
00000280: cfcc 6fbe 8b5c 7f3e f28a 903d 5d94 b73e
00000290: 9b74 523f 59a4 903b cf3c 123e 731e 03be
000002a0: aa52 84bf 8c7f 0ebf 2963 f6be c915 1fbc
000002b0: 04bf 98bb 9f4b ab3a 37ad 1abb ea31 d43b
000002c0: 9d08 353c 4820 d1bb 3075 503b 6ce9 dd3b
000002d0: 0921 2fbf c1c0 83bf 28c4 9b3d 46fa f33e
000002e0: be4d ad3e 8763 b23d 9bc6 9f3e 490e 0b3f
000002f0: 577d 1bbe 4fb8 013e 38fc 5e3e 5151 183f
00000300: 680f c63e fe17 06be 1cb0 85be 8fc2 c1be
00000310: 2d0a 5abe f52d 41be 0b87 913e 11c5 86bd
00000320: ffcc 1f3f e23f 9d3c 8fce b33e 5493 123f
00000330: c69a 283e cfc2 db3d 14a6 453f 0f8d 4fbe
00000340: e38e 05bf 0c1f 383f b14c 413f dfc4 f83e
00000350: efe5 0f3f 851a 1d3f 1371 02bf a6d8 63be
00000360: 9b74 ac3e 77c2 1a3f 84db 023f 8005 573e
00000370: 0fb7 273f b85d ec3e 1aa8 783f 6161 e73e
00000380: f719 09bf 57b2 423e 6d03 c23e c263 493f
00000390: 3d8e c6be 7954 bd3e 9f77 2f3f 2753 aabf
000003a0: 9dcd 2ebf 1f93 d6be 7cd2 d73e 9045 2c3f
000003b0: 596b 243f f3e1 583d 83fa 0f3e bfd8 863d
000003c0: 1ae1 983e e247 5d3f f009 1d3f bfd6 84ba
000003d0: 077d ffba 1141 24bb 3b23 60ba 1032 7eba
000003e0: 0b42 8eba ebce b9b9 6982 48b9 8197 78b9
000003f0: e03a fabe eeed e6be 460b 7bbe 4ae3 5fbf
-0.19945747 -0.92144835 0.067007706 0.8241566 0.67181116 0.68298644 -0.16071299 -0.65338963
-0.3184968 0.15847464 0.060314342 0.48317498 -0.73303145 0.22825222 0.3844954 -0.9768857
-0.056922406 0.6376301 0.12511407 0.024948247 -0.0054128137 0.89122343 0.027123086 -0.77614343
0.3196009 -0.2854116 -0.363559 0.7199067 -0.67160773 -0.97283536 0.693351 0.24539864
0.3423184 -0.24829763 0.3158768 0.5837831 0.4692629 -0.6196224 -0.61316174 0.37939215
0.57431644 -0.028193925 -0.724743 -0.13662003 0.4011407 -0.6687192 0.31273645 0.25260973
-0.8725074 0.4147834 0.46253118 0.46764067 0.3033874 -0.593857 -0.25935125 1.1769378
0.020959163 0.05634801 0.26046363 -0.20667158 -0.23356372 0.10134534 -0.06198871 0.7550575
-0.33151823 -0.2954055 0.8695644 -0.2857178 -0.6576455 -0.08557708 -0.41006035 0.25449142
-0.531167 0.27909333 0.59584635 -0.04070104 0.6443299 -0.27157134 0.51611644 0.3586701
-1.0429198 0.41097417 0.4691768 0.27008742 0.54851735 0.48559287 0.021341532 0.09412466
-0.360709 -1.0155743 -0.82002074 -0.6800927 0.11596796 -0.1436619 0.56296366 0.62746185
0.113279276 0.30451128 0.55494195 0.38491014 0.56873715 0.44369033 -0.13513677 0.35063526
0.5577537 0.28158855 0.32161373 0.58541125 0.5494726 -0.19258504 -0.73842496 0.4489375
-0.57888883 -0.9566639 0.7102048 0.716773 0.044176094 -0.5612557 0.11589235 0.317411
-0.6191035 -0.34761605 0.7148829 -0.09343468 0.48872703 0.2512585 0.16077621 0.034961767
0.4537751 -0.5497763 -0.8090296 0.5793628 -0.07175886 -0.51387787 0.685491 0.56414735
0.43458694 -1.5493913 0.7334415 0.6248724 -1.2281492 -0.49206835 -1.5117724 -0.8931744
-0.34859398 -0.050958563 0.04610581 -0.37105617 0.13983326 0.6254859 -0.55075854 -0.6947142
0.7050691 0.044341657 0.15656641 0.7180745 -0.28872406 -0.5336457 0.8009211 -0.16917641
-0.23417972 0.24937646 0.07057752 0.3585538 0.82209176 0.004414123 0.14281009 -0.12804584
-1.0337727 -0.5566337 -0.48122528 -0.009709784 -0.0046614427 0.0013068801 -0.002360178 0.006475677
0.011049417 -0.006382022 0.003180813 0.006772211 -0.6840978 -1.0293199 0.07605773 0.4765188
0.33848375 0.087103896 0.3120621 0.5431867 -0.15184532 0.12667964 0.21775901 0.5949908
0.3868363 -0.1309509 -0.26110923 -0.3784375 -0.21292944 -0.18865187 0.28423342 -0.06580556
0.62422174 0.0191955 0.3511853 0.57256055 0.16465291 0.10730516 0.7720654 -0.20268653
-0.5217115 0.71922374 0.75507647 0.485877 0.56210226 0.6136859 -0.5095379 -0.22250614
0.33682713 0.6045298 0.51116204 0.20998192 0.655137 0.46165252 0.971315 0.45191482
-0.53555244 0.19013344 0.3789324 0.78667843 -0.38780394 0.3697851 0.685419 -1.3306626
-0.6828249 -0.4190912 0.42152774 0.67293644 0.642263 0.052949857 0.14060406 0.0658431
0.2985924 0.8643781 0.6134329 -0.00101348 -0.0019492217 -0.0025063197 -0.00085501716 -0.0009696791
-0.0010853423 -0.00035440116 -0.00019122068 -0.00023707563 -0.48873043 -0.451034 -0.24516019 -0.8745619

conv1.bias f4 [32]
00000000: e12b 133f fd58 55be 4013 943d 7840 a63d
00000010: d942 b13e 14b1 113e c8fe 213e 415a 663d
00000020: 978d 9b3e 66f5 183d 7151 fcbd 99f3 853d
00000030: a5e5 443e e0ff 84be 6f91 fe3d fa1f b83d
00000040: 651f a83e bafa d33e 54f5 433f 719d 15bd
00000050: f4c0 323c 5447 0f3f afed 963e 4d0f 673e
00000060: 7b49 cabe aea8 253e a768 be3d f060 0abb
00000070: 6a85 14bc 522a 2d3f df1b bf3e 14f9 633e
0.5748883 -0.20834728 0.07230234 0.08117765 0.34621313 0.14227706 0.15819848 0.056238417
0.30381462 0.037343405 -0.12320221 0.06540603 0.19228227 -0.25976467 0.12430083 0.08990474
0.32836452 0.41402227 0.76546216 -0.0365271 0.010910261 0.55968213 0.29478213 0.2256443
-0.39509186 0.16177627 0.092973046 -0.0021114908 -0.0090650115 0.676427 0.3732595 0.22262985

conv2.weight f4 [32, 1, 3, 3]
00000000: 6045 09be b320 7bbc 945a 69be 457f 1dbf
00000010: 556c edbe 244b 8bbf 099f 14bf 5ace 4fbf
00000020: 98cd 5abf db28 29bf 44db 3abf f449 94bf
00000030: 39bd 0f3e e401 dbbe a73b cabe 8b13 bebe
00000040: 21cc 0dbf 4b79 c53d e7d7 163f 1a1f bd3d
00000050: 4c72 c0be 9e13 de3e 31b0 e33e 5012 12bc
00000060: d4c4 543f 1c51 d13e 5a8a 29bd 2aba 833e
00000070: f26f c93e e2e4 4b3f b621 303e 3af6 063f
00000080: 47ce 243f f35f 873f be0b c63e aa06 bdbe
00000090: 8867 48bf 75ff 1cbf 8b65 c5be a1ef 58bf
000000a0: f381 43bf fae4 3ebe a35e 8cbe e59a 14bf
000000b0: 3e6d f5be b3bd c53e 8f83 983e 6a66 143f
000000c0: 9dd4 a43e c2c2 ad3e 7d6f 5a3f 9b6c ecbc
000000d0: cda9 413e 9298 533f abae 43bf 089c 31be
000000e0: 6471 24bf f651 2fbf 90c6 92be eb04 5e3d
000000f0: 8b9d 87be dcbd 2bbf a407 c6be c0cb 463f
00000100: d391 e13e 76fc 0a3f d33d 263f ef4f f13e
00000110: 0001 f63e 7248 513f 423d 2b3f 014c 1b3f
00000120: 2c68 1fbf a7c7 afbe 7913 b3be 6b62 95be
00000130: c1cf 07bf bce7 49bf 0961 09be 983b fcbe
00000140: 3e80 39bf 7a87 07be 11de 58bf 5b09 6ebd
00000150: 267c 103f 4fc6 463e 4d97 f13e 8127 c03e
00000160: 22b7 083f 672c 9ebd e7f4 ef3e 5cbf 203f
00000170: b466 493f 4ce5 54be c0b7 883e ea04 113f
00000180: 12a7 e7be 10be f5be 3d13 4abe 2568 a0be
00000190: be61 cebe 597a febe 57b8 f23d fb4d 4cbe
000001a0: a45c c6be 4f9a cbbe aa0f 9b3e 89a5 77be
000001b0: 7a48 66bf 7c0c 1cbf 80ee eebe 3c0c ddbd
000001c0: ee90 00be 6fd7 e63d 282b fa3e 0c05 7d3f
000001d0: 0537 723f 009f 32bf 16d1 8fbe 88ec 823e
000001e0: 9052 f1be 9ee0 13bf 9b09 57be cd05 5dbf
000001f0: 505b 83bf cdd3 50be c608 84be bdfa 14bf
00000200: fb54 98bf 4fb4 fe3e 40ef 62bd 74d8 f5be
00000210: e95e a6be a58a eebe adcf 2cbf 6f55 0cbe
00000220: 0082 b23d b60b 373f ab34 363f b184 2f3f
00000230: 4f54 2a3f 16d1 943e e255 9b3f b9fb ec3f
00000240: 7186 023f 1516 893e 158b 13bc 355a 3b3f
00000250: 97e9 843f c300 713f bbf0 f23e 11d6 523d
00000260: 0949 4b3f f4de 8f3e 71e1 603b d53f 493f
00000270: 4756 d13e 5267 6fbe e368 583e af48 ab3e
00000280: 41fd 4e3d 0642 f5be 52ea 80be 6a40 15bf
00000290: 69e5 2bbf 5047 0f3c 30e8 0abf 106e 873c
000002a0: 92d5 513f 16ac 683f 42d0 613f 51da 5bbc
000002b0: 3404 02bc 77e1 de3a 683e 103b eb2d 0a3c
000002c0: d237 443c 4d69 363c b755 513c 88a3 ca3b
000002d0: 9453 263f d82c 543f 58be 9d3f c703 823e
000002e0: 2bf1 833e 5471 4a3e 5d55 083f 5f06 5dbe
000002f0: cb6e 833d 9268 90be 99b9 afbe c7a5 c13e
00000300: 56e4 febe 1324 fabe b8f8 01bd 4dc3 98bd
00000310: 3bf7 f4be b3b4 bebe 8a61 d13d 8535 d33b
00000320: 6c80 9b3e 77d3 583d 74ab 123f 4e14 413f
00000330: 557f d73c 00ab 4a3b 9fb7 2a3f 8c09 23bf
00000340: db38 e0bd 4bf4 d5be 1457 503b b577 4abf
00000350: 427c 3abf 626a be3e e97d dabd 0253 08bf
00000360: 924e 5ebd 80f8 b93d 0a6b bd3e 1328 213e
00000370: f216 d53e 1ee4 4fbc 0064 643f 2335 3c3f
00000380: ebf0 c13d 815a 883d 62d5 e4be bd35 ffbe
00000390: 48d9 37be c0c0 d8be 02fe 34bf 317a 6fbf
000003a0: 7f15 83bf df26 d6be a0af 203f c870 5d3f
000003b0: df92 d93e 3fed b7be 5ffe d73e d6db d23e
000003c0: 2562 93bd 5937 523e 4dc3 0b3f d08d 27ba
000003d0: ca5b c2ba 91bd 53bb a9ec d0b9 08e3 e3b9
000003e0: b650 06ba 42da 59b9 c141 3bb9 348f 95b9
000003f0: 8738 5ebf 5ae3 e6be a612 d2be 5288 febe
-0.1340537 -0.01532762 -0.22788459 -0.6152232 -0.46371713 -1.0882306 -0.5805517 -0.8117424
-0.8546996 -0.66077965 -0.7299082 -1.1585069 0.14037026 -0.4277488 -0.39498636 -0.37124285
-0.553896 0.096422754 0.5892319 0.09234448 -0.37587202 0.43374342 0.4447036 -0.008915499
0.83112836 0.40882194 -0.041391708 0.2572797 0.3934322 0.7964612 0.1720036 0.5271946
0.64377254 1.0576156 0.38680834 -0.36919147 -0.78282976 -0.61327296 -0.38554034 -0.84740645
-0.7637016 -0.18642035 -0.27415952 -0.5804885 -0.47934908 0.38621292 0.2978787 0.5796877
0.3219346 0.3393765 0.8532637 -0.02886038 0.1891243 0.8265468 -0.764384 -0.17344677
-0.6423552 -0.6848444 -0.28667116 0.05420391 -0.26487383 -0.6708658 -0.38677704 0.7765465
0.44056568 0.54291475 0.64938086 0.47131297 0.48047638 0.8175117 0.66890347 0.6066285
-0.6226833 -0.3433201 -0.34975794 -0.2917665 -0.5305138 -0.78869224 -0.13415922 -0.49264216
-0.7246131 -0.13235274 -0.84713846 -0.05811439 0.56439435 0.19411586 0.47185746 0.3753014
0.5340444 -0.07723313 0.46866533 0.6279199 0.7867234 -0.20790595 0.2670269 0.56648123
-0.45244652 -0.4799657 -0.19733901 -0.31329456 -0.40308946 -0.4970272 0.11851566 -0.19951622
-0.38742554 -0.39766166 0.30285388 -0.2418424 -0.8995434 -0.6095655 -0.46666336 -0.10793349
-0.12555286 0.112715594 0.4886105 0.98835826 0.94615203 -0.69773865 -0.28089207 0.25571084
-0.47133303 -0.57764614 -0.20999758 -0.86336976 -1.0262241 -0.20393296 -0.25787944 -0.58195096
-1.1900934 0.4974694 -0.055403948 -0.48016703 -0.32494286 -0.46590152 -0.6750439 -0.13704465
0.08716202 0.71502244 0.71174115 0.68561846 0.66534895 0.2906577 1.2135584 1.851432
0.5098639 0.2677466 -0.009005328 0.7318452 1.0383786 0.9414179 0.47449288 0.05147368
0.7940832 0.28099787 0.003431406 0.78613025 0.40886137 -0.23379257 0.21133761 0.3345389
0.05053449 -0.47901934 -0.25178772 -0.58301413 -0.6714693 0.00874503 -0.5426054 0.016531974
0.8196651 0.9088758 0.882084 -0.01341875 -0.007935572 0.001700445 0.0022009853 0.008433799
0.011976199 0.011133504 0.012776784 0.006184045 0.6497128 0.82880926 1.2323713 0.25393507
0.25769934 0.19769794 0.53255254 -0.21584462 0.064176165 -0.2820478 -0.34321287 0.3782179
-0.49783581 -0.48855647 -0.031731337 -0.07459126 -0.47844872 -0.37247238 0.10223682 0.006445589
0.30371416 0.052936044 0.57292867 0.7542161 0.026305834 0.0030924678 0.66686434 -0.6368644
-0.10948344 -0.41787943 0.0031790184 -0.7908891 -0.7284585 0.3719054 -0.10668547 -0.5325166
-0.05427415 0.09080601 0.36995727 0.15737943 0.41619068 -0.012688665 0.8921509 0.7351858
0.094697796 0.06657887 -0.44694048 -0.49845687 -0.1795398 -0.42334557 -0.70700085 -0.93545824
-1.0240935 -0.4182653 0.6276798 0.86500216 0.42494866 -0.35923192 0.42186257 0.41183347
-0.07196454 0.20528926 0.5459488 -0.0006391676 -0.0014828381 -0.0032309035 -0.00039849177 -0.00043465965
-0.0005123721 -0.0002077604 -0.00017858205 -0.0002852619 -0.86805004 -0.4509533 -0.41029853 -0.4971338

conv2.bias f4 [32]
00000000: edbb 8cbd ee73 ad3e 6bcb eebd 4249 4abe
00000010: 1a4d cbbe 5b7e eabd 31fc 1abd 12c5 f2bd
00000020: ef93 2f3e a157 013e 5215 563c 0e19 203e
00000030: dbf8 e8bd 7115 dc3c 2472 753e da38 023e
00000040: cf72 873d 0d0c 073e 27c6 12bd d862 96be
00000050: f52a 1dbe d32e b6be 72a8 c43d 302c 8e3e
00000060: 716f de3d 00ad ab3e f4fe 383e 5ad3 073e
00000070: c629 b23e 6949 543e 2b23 2ebe bccd c8bd
-0.068717815 0.3387751 -0.11659893 -0.19754508 -0.3970726 -0.11449882 -0.037838165 -0.118539944
0.17146276 0.12631084 0.013066607 0.15634558 -0.113755904 0.026865693 0.23969322 0.12717
0.06613695 0.13188191 -0.035833504 -0.29372287 -0.15348418 -0.355826 0.09602441 0.27768087
0.108610995 0.33530426 0.18066007 0.13264218 0.34797496 0.20731129 -0.17005603 -0.09804866

conv3.weight f4 [20, 32, 1, 1]
00000000: 5736 b6be 7162 cdbe d0c3 8a3d 334e 663e
00000010: 1029 85be 8d62 b53e fa05 02be 05e9 18be
00000020: da51 b6be ccee dabd 182a ef3d 279c 01bf
00000030: 22f7 f4be 2a80 473f 85d9 333d bfd9 b1bc
00000040: b87c 4cbe 8bda f53e 3dd1 fd3d 9af8 55be
00000050: 8560 5ebd 085d 51be fa30 a53e a8f7 c3be
00000060: bfa1 a93e 4ad9 9d3c f484 013f 164c e93c
00000070: 4b8e b63d 95ab 0fbe 6186 8ebd 06dc 7dbd
00000080: 6d5c 99bd a1c1 06bf ac81 35bd 862b a9be
00000090: a004 5abe 5f9d 39bf 1efb 79be f686 a93d
000000a0: 864b f3bd 1690 083f 3cc5 febe 4ce8 0e3f
000000b0: d3be 8fbf 87d9 593f 77cb e23e c15f 803f
000000c0: f132 f7be 87b0 be3e 2534 253e a3b2 e4bd
000000d0: e967 813e 1122 1abe 8573 c4bd 4c26 db3c
000000e0: 8bef 893e 5a73 02be 5b5e 08bf bcc7 ab3d
000000f0: acfa 0e3f 1e0c 283e ce09 733e 1c3d 9abd
00000100: 07b0 6b3c 55a4 e9bd a119 c5bd 7c39 f93e
00000110: 6655 e6be d0fb bd3e 0e33 7fbe 0855 c63d
00000120: 6611 00bf 7c1c debd 146b f2be 8f66 e83c
00000130: 73fa 173f 8d06 d2be 8eff 6abf 9f1f 8abe
00000140: 227f ccbe ed41 293e 9a64 5fbe 7c84 0dbc
00000150: f563 fd3e 2221 c0bd ebc1 2fbe 0489 7cbe
00000160: 2d19 123d 2367 cf3e 06b6 293e 46ed d23d
00000170: 053a f3be 1fb6 503f f5d6 01bf 9d50 0bbe
00000180: 4525 60bf c5b0 973f 44ba 403e 36bc 3e3f
00000190: 64ed 2cbe f0d7 d03e a5ad e7bd a1dd ffbe
000001a0: f456 aabe 629c d03e db85 363e e458 753d
000001b0: 6c8e 833e 1045 963e fff4 6cbe c6cd 91be
000001c0: ee8b bbbe ee38 33bb fb76 3c3f 4a27 f6bb
000001d0: 9e12 183f a022 9abe 48fc 793e 2990 01bf
000001e0: e323 bdbe b75a 09bf df84 d2be 356c 203c
000001f0: 2204 60bf 9c8c 3b3e 347c 1cbe 3896 93be
00000200: 95a8 01bd b12b d73e 278d 00bf 20ad 19bf
00000210: 7dc2 87be d0ec 92be 40ab ad3e 8491 6fbe
00000220: 5d69 6c3e e961 34bf 4271 9bbe 34c9 0f3e
00000230: e24c a63d 219d fabe d8f7 213f 58ec 853e
00000240: 184d 2a3e 2551 e3bd 0f79 05bf f94a 49bd
00000250: 4677 2fbf a0b3 63be 1e12 363d 907e 6bbd
00000260: b7f3 f23c 6be4 323f 6b24 973e 602c 9c3d
00000270: 05cd 07be 7e35 afbe 8de7 563e 827a e9be
00000280: b69b e4be 073a e63e 42e8 e83e 0485 823e
00000290: ddcf dbbe f1e1 663e c928 54be 6add 08be
000002a0: c5f0 40be ebb0 683e d921 d93d cc54 80be
000002b0: 3da5 c93d 6b5b 743e 572c 093e c23f 353f
000002c0: df6c 16be d56a 8d3e 2473 323f 1765 2c3d
000002d0: 9f74 6f3e e075 5ebd 9c06 a03e 3b5a 8ebe
000002e0: c057 6d3e 2912 0abf 7336 c1bd 3914 13bd
000002f0: 2672 20bd 1f16 013c dd7a da3d e100 c93e
00000300: 2e50 ae3c 9b2a 203d 1907 96bb b801 acbc
00000310: 2b4b c93c 8009 efbc c12c 9f3c bf51 30bc
00000320: 85fb b63c 55c3 fbbb 905b dbbc e074 c53c
00000330: 7c55 f33b 7b08 bc3c 59d3 0c3d 6481 9fbb
00000340: 074f 0bbd 614a a8bc 24cb 30ba ae62 1c3c
00000350: fe51 f9bc c989 9e3c e80a d9bc e897 bc3c
00000360: acf6 6ebc 691d fa3c 56ba c5bc cfb4 5dbb
00000370: 3650 bb3c 794f cb3c e5da d2bc f46d a13c
00000380: 5df2 debe 0caf 423f 925d 17bd 5e96 3e3f
00000390: e027 ddbe 358a c73d 0443 0c3e cc6b d3be
000003a0: c15c 12bd 26cc dc3e a710 0a3f 2f14 3cbe
000003b0: 0207 0cbf 4646 5b3f 42db 073f 1f89 02bf
000003c0: 0c76 39bf 19bc 783d 52ae 8eb7 0616 42bd
000003d0: cced fb3e 7816 ca3d 494d 963e f08c cebe
000003e0: bfd0 f9bd b85d a0be b775 a33d 7995 b2bd
000003f0: 9cae 62be 7ef5 273f 325d 113f 84ee cfbe
-0.35588333 -0.40114167 0.067756295 0.22490768 -0.2600789 0.3542675 -0.12697592 -0.1493264
-0.35609323 -0.10690078 0.116779506 -0.50628895 -0.47844797 0.7792994 0.043908615 -0.021710275
-0.19969451 0.48018298 0.12393425 -0.20895615 -0.054291267 -0.20445645 0.3226393 -0.38274884
0.33131215 0.01926865 0.50593495 0.028478663 0.08913859 -0.14030297 -0.069592245 -0.06197741
-0.07488332 -0.52639204 -0.044313118 -0.33041018 -0.21290827 -0.72505754 -0.244122 0.08277695
-0.11879639 0.5334486 -0.49759853 0.55823207 -1.123011 0.85097545 0.44295856 1.0029222
-0.48281053 0.37244055 0.16133173 -0.11166885 0.2527459 -0.15052058 -0.09592346 0.02675166
0.2694057 -0.12739316 -0.53268975 0.08387706 0.55851245 0.16410872 0.23734209 -0.07531187
0.01438523 -0.11408297 -0.09624029 0.4867667 -0.4498703 0.3710618 -0.2492182 0.09684187
-0.5002655 -0.10845277 -0.4734732 0.028369216 0.5936653 -0.41020623 -0.91796196 -0.2697725
-0.39940745 0.16529055 -0.2181572 -0.008637544 0.49490324 -0.093813196 -0.17163818 -0.24661642
0.03566854 0.40508375 0.16573343 0.102991626 -0.47505203 0.81527895 -0.50718623 -0.1360497
-0.8755687 1.1850821 0.18821055 0.7450594 -0.16887432 0.40789747 -0.11312417 -0.49973777
-0.33269465 0.4074431 0.178245 0.059899226 0.25694597 0.29349566 -0.23140334 -0.28477305
-0.36630195 -0.0027347165 0.7361905 -0.007512008 0.5940341 -0.30104542 0.24412644 -0.50610596
-0.36941442 -0.53654045 -0.41116998 0.009791424 -0.87506306 0.18315357 -0.15281755 -0.28825545
-0.031654913 0.4202552 -0.5021538 -0.6002979 -0.2651557 -0.286963 0.33919716 -0.23395354
0.23087068 -0.704619 -0.30359846 0.14041597 0.08120133 -0.48948005 0.63268805 0.26156878
0.16630971 -0.110994615 -0.52137846 -0.049143765 -0.6854137 -0.2223649 0.04445087 -0.057493746
0.029657228 0.6987979 0.29519972 0.07625651 -0.13261802 -0.342205 0.20986767 -0.4560128
-0.44650048 0.44966146 0.454897 0.25492108 -0.42932025 0.22547127 -0.20718683 -0.13365713
-0.18841846 0.22723739 0.10602159 -0.25064695 0.0984597 0.23862998 0.1339582 0.7080041
-0.14689969 0.2762057 0.6970694 0.042088594 0.23384331 -0.054311633 0.31255043 -0.27803215
0.23178005 -0.5393396 -0.094342135 -0.035907958 -0.03917136 0.007878809 0.106679656 0.39258483
0.021278467 0.03910313 -0.004578483 -0.020996913 0.024571976 -0.029179335 0.01943052 -0.010761677
0.02233673 -0.0076831975 -0.026777059 0.024103582 0.007425962 0.022953263 0.034381244 -0.0048677195
-0.034010913 -0.02054328 -0.00067441375 0.009545011 -0.030434605 0.01935281 -0.026494458 0.023021653
-0.014585178 0.030531602 -0.024136703 -0.0033829694 0.022865396 0.024818169 -0.025739143 0.01970575
-0.43544284 0.7604835 -0.03695447 0.7444819 -0.43194485 0.09743158 0.1369744 -0.4129318
-0.03573299 0.43124503 0.5393166 -0.18367074 -0.54698193 0.85654104 0.53068936 -0.5099048
-0.7244575 0.06072626 -1.7008893e-05 -0.047384284 0.49204862 0.09867567 0.2935584 -0.40341902
-0.12198018 -0.31321502 0.07981437 -0.08719916 -0.2213692 0.65608966 0.5678283 -0.4061166

conv3.bias f4 [20]
00000000: e005 313d d1d9 a8bd 4c91 fd3d 4ec3 14be
00000010: 6797 ae3e de18 883c 9d73 88bc 1092 9c3d
00000020: 9fe3 7cbe adaf 103e 28cb b3be 3268 bebb
00000030: fe31 65b0 c908 1b3e a9a9 653e 89df a43e
00000040: d93c a43e 9b81 993e 652d 983e d8c8 503e
0.043218493 -0.0824467 0.12381229 -0.14527628 0.34099886 0.01661342 -0.016656691 0.07645047
-0.24696206 0.14129515 -0.35115933 -0.005810761 -8.338076e-10 0.1514007 0.22428001 0.32201794
0.32077673 0.29981694 0.29722133 0.20389116

conv4.weight f4 [20, 1, 3, 3]
00000000: 6c17 653e c6b3 a9be e785 863e c499 ac3e
00000010: 1b8a 923e eb1d 413f fe30 723c 71f6 a7bd
00000020: fc31 a83e 750a 69bf bdaf 1ebf 047c 553b
00000030: 8845 ccbe be4c c4be 3491 d0bd fcc2 07be
00000040: e659 23bf 71ba 8cbf 8ea8 053f ddab f63e
00000050: 4a14 f13d 0c0e 823e 372c 883e 7977 b13e
00000060: fbd6 c93e 3295 e13e ac2d 003f ecda 4bbe
00000070: 8880 afbd d071 c1bd 3aa1 a63e f4ec 20bf
00000080: 139d d13e 74a4 b2be 1040 54bf 34fb 79be
00000090: 3d50 83be 2209 cabd 3e22 84be 74c8 22bf
000000a0: e38f 52be 37ac 3bbf cca7 e7be f2ea 423d
000000b0: 3fd1 cdbe 6e1a 4dbe 9071 9c3c c807 3e3e
000000c0: 9b7a 72be 2c6a e0be 5c55 f5bd b1c0 403e
000000d0: 30f5 fd3e ac28 f23d 42e3 b7bc d984 dcbc
000000e0: bc74 0fbd a0cf 91bc 4f5e 90bc 7305 e0bc
000000f0: 04fc 71bc 6265 87bc c0c9 fdbc 93d5 2e3e
00000100: dc6d 553e ef25 d6be d796 cd3e a83b b4be
00000110: 7746 ddbd 35bd 0b3f b7f3 7c3e 0ac9 81be
00000120: f680 f03e ac66 2b3e bdc4 f1be 8753 b73d
00000130: ba91 f9be acce e1be 91de 613e a0bf 953e
00000140: af8a cd3e ef28 c13e fd06 783e 721b 3cbc
00000150: 0c4d 5dbe afd2 073f 74cf 0a3f 7e7e c0be
00000160: ff95 09bf 9529 3fbc 4bb8 f63e 5392 403f
00000170: a144 ec3e f4ca b5be ef5a 6f3d 46ef 863d
00000180: b95e 95bd 92e7 19be bd87 353e 8c49 8dbc
00000190: 03fd a9bc cfd1 5abc fbb7 bcbc 1ed8 b5bc
000001a0: 8892 91bc 9e09 debc dc4e cabc c651 dabc
000001b0: bc92 e1b3 0491 542a 7955 57b0 e3a0 83b9
000001c0: 6be0 54b7 8316 50a7 4ffc bfb8 1559 8db7
000001d0: 33da deb5 b008 953e 11be 9a3d 959d 113f
000001e0: a4da c3be bc50 67be d99a 1a3f eec5 e9bd
000001f0: e0cc 07bf 2b2d 1a3f 7ed5 15bf 65b1 b9bd
00000200: fc12 ba3d 62bb 883d d280 3abe 431d 09be
00000210: 99b4 623f 92e3 7c3e ea63 bd3b 6fb8 8abe
00000220: 49a7 7dbe ab85 17bf b1be 3abe a47b e53c
00000230: 9f4f 8bbe 321c 593e 5b65 453f 431e 593e
00000240: ccb0 ebbd 7607 46bd e955 1b3f 15e9 143f
00000250: 22ef ea3e 45c4 413f e9bc bb3e 2a9c a33e
00000260: 3362 87bd dfdc c03e d887 d83e 5399 f83e
00000270: 545d ae3e 1499 203f 399d 6f3f fd6f 8d3d
00000280: ec61 a93e d8dc df3e dedf e23e 8d94 4ebe
00000290: 4a7a f5be 07ab 963e 7bd6 33be 741f e23d
000002a0: 0a4a 56bc 7e7b d73e 2788 493f a2df 2b3f
000002b0: b42a da3e 9a26 13be 49b9 1b3f 6427 833e
000002c0: 6a3d 8c3e 826e 99bc 7928 a03c 41dc 4abe
0.22372216 -0.3314497 0.26274034 0.33711064 0.2862099 0.75436276 0.014782188 -0.08201302
0.32850635 -0.9103158 -0.61986905 0.003257514 -0.39896798 -0.383398 -0.10183945 -0.13257974
-0.6380905 -1.0994397 0.5221032 0.48177996 0.11771448 0.25401342 0.26596233 0.34661463
0.3942183 0.4405914 0.5006969 -0.19907731 -0.08569437 -0.09445536 0.3254488 -0.6286156
0.4094015 -0.34891093 -0.8291025 -0.24412233 -0.25647154 -0.09865023 -0.25807375 -0.6358712
-0.20562701 -0.73309654 -0.45245206 0.047587343 -0.40198705 -0.20029613 0.01909712 0.18557656
-0.23679583 -0.43831003 -0.11979172 0.18823506 0.49601126 0.11824164 -0.022447232 -0.026918815
-0.035023436 -0.017799199 -0.017623095 -0.027346348 -0.014769558 -0.016527835 -0.030979991 0.1707366
0.2084269 -0.41825816 0.40154144 -0.35201764 -0.10804456 0.5458558 0.24702345 -0.25348693
0.4697339 0.16738385 -0.47220412 0.089514785 -0.48743993 -0.4410299 0.22057559 0.2924776
0.4014487 0.37726542 0.24221416 -0.011481153 -0.21611422 0.5305585 0.542228 -0.37596506
-0.537445 -0.011667629 0.4818748 0.75223273 0.4614611 -0.35506403 0.05843633 0.065886065
-0.072934575 -0.15029743 0.17727561 -0.017246984 -0.020750528 -0.013355686 -0.023036947 -0.02219778
-0.017770067 -0.027104195 -0.024695806 -0.02665032 -1.050407e-07 1.8879695e-13 -7.833801e-10 -0.00025106137
-1.2688436e-05 -2.8878002e-15 -9.154586e-05 -1.6849992e-05 -1.6603793e-06 0.2910819 0.075557835 0.56881076
-0.38252747 -0.22589391 0.6039253 -0.11414705 -0.5304699 0.6022517 -0.5852889 -0.090670384
0.09085652 0.066763654 -0.18213204 -0.13390069 0.8855682 0.24696186 0.005779733 -0.27093837
-0.24770845 -0.59188336 -0.18236805 0.028013058 -0.27209184 0.21202162 0.7710778 0.2120295
-0.11508331 -0.04834696 0.60677963 0.58168155 0.4588557 0.7569011 0.36667565 0.3195508
-0.06610527 0.3766851 0.4229114 0.48554477 0.3405558 0.6273358 0.9359928 0.06906126
0.3308252 0.43723178 0.44311422 -0.20173855 -0.47944862 0.29427359 -0.17562287 0.110411555
-0.013079176 0.42086405 0.78723377 0.6713811 0.42610705 -0.14370194 0.608296 0.2561599
0.27390605 -0.018729452 0.019550549 -0.19810583

conv4.bias f4 [20]
00000000: 6677 503e cb15 c23c d1a2 e2bb 9546 383f
00000010: 3d9f 68bc 82bd 22bd b376 bb3e 78e4 1f3d
00000020: 8ed9 29be 6fe2 34bd 4217 28be ee41 28bf
00000030: 36d2 b1be 33af 93bc 6003 17bf 2e4f ea3e
00000040: ba95 2dbe 41e6 4a3e 3c06 d2be 7573 e4bd
0.20358047 0.023692032 -0.006916382 0.719827 -0.014198122 -0.03973151 0.36613998 0.039036244
-0.16586897 -0.044161256 -0.16415122 -0.657256 -0.3473069 -0.018027877 -0.58989525 0.45763534
-0.16951647 0.19814397 -0.4102038 -0.11154834

conv5.weight f4 [20, 20, 1, 1]
00000000: fbe0 113e 7e53 393e 34a7 d53e a452 0ebf
00000010: a614 373b a608 523d 21b3 61bd d118 153e
00000020: 5fad 653e c2da 0fbf ff16 afbe d30f 5bbc
00000030: 7dba 02be f23f bb3e 059b d2bd e176 f93d
00000040: b7a0 4dbe fd94 6bbf e69d 33bf 309c 3e3e
00000050: bae8 2d3e f841 2d3f 02cc 1dbe 1390 95be
00000060: db4a 333e 5974 573e 55fd 0dbe 8a53 b73e
00000070: 7bb7 5b3d 7868 1fbe c858 9d3e 00a8 4c3e
00000080: 1685 7b3d b73c b4be acb8 eb3e 13e3 483e
00000090: e920 a5be b6bf 243e a8b8 2f3d 4a77 4bbe
000000a0: 4a40 fe3c 274b cbbd 3c70 dbbd b80e 53be
000000b0: 34f1 ce3d a727 583e f2d0 a73d 84f1 713e
000000c0: ef44 09be 1d10 163e ab1d 75bd bb32 f93c
000000d0: 1472 cebd 10e3 0e3f 53cc a1bd 5b96 2c3f
000000e0: 00f5 c3bd 430f 6f3e e6d3 0ebe 517b 283e
000000f0: ab86 003e f51b 803e d104 74be 9ec8 423d
00000100: 28bf 9abe e443 38bf 1671 74be 78c0 803d
00000110: fcba 90be e42d 91bb 9b93 8ebc 092c 8c3e
00000120: 3ef2 653e a027 1cbe 036e 6b3e fba4 05be
00000130: e769 20be 9e79 e3bd 21f2 b13e 3b75 c4bc
00000140: 2541 06af cd1a 4880 2c72 06ac 80ce 9c26
00000150: 982f 6a06 5087 cd80 5c3f 6201 2bd0 9200
00000160: 6249 499d a4d2 ba93 846d e588 55f9 2701
00000170: 21b3 a581 868c 1612 2186 d180 5a1b 3e80
00000180: 69e2 8aa3 157d 699e 3f20 4e00 3895 99a4
00000190: 8cd8 4dbd 4244 82be 969e 0e3e 38c5 0bbf
000001a0: 0f41 653e 786f 183f 5deb 22bf 9f45 2bbf
000001b0: 29e9 203d 9da6 373e e0c7 5f3e 6d42 073f
000001c0: fcaf f63e 6472 873e 5e18 b93e aa63 f03e
000001d0: 6800 c1bd 0463 a1bc 306a 903e aead 05be
000001e0: 6b8f b5ba 353e 0bb4 7e20 c7b8 8757 0b39
000001f0: c487 8934 1eb3 1b33 ba9d edb2 2048 df33
00000200: 6e18 4bb0 fb91 90b4 a5a4 79b4 4151 24b3
00000210: 6bbf 8332 8ce3 9333 085a 8133 5a96 9133
00000220: 78fd e534 39ac a8b6 80d1 fb32 3884 19b4
00000230: 977f 9f3d 0759 80be 07c1 7c3d 0fa9 f43e
00000240: 211a 37be c54a d33e d4a4 853e 47c7 5ebe
00000250: 7e53 d0be 3d3b 53bd 9ad1 f23b 37a3 2bbe
00000260: 2a8c c2bc dd48 883e 42a4 3e3d f9cd bb3e
00000270: b44c c3be 5987 0a3f b510 6f3e 76c9 cabd
00000280: 0e03 bcbc f45e af3e 683c 8a3e b2fb cfbe
00000290: 11a6 403f 0157 96bd 51c4 4cbe cde0 4abb
000002a0: 1cd5 09bd e8cf f33e 20f8 2e3e 0300 973e
000002b0: 1c18 913e 9f9d 743e 5f7d 3a3f 0e24 273f
000002c0: ece4 df3e 55da 35bf 6d80 283f 5023 313e
000002d0: d82a 92be 2f7e 7fbe cd23 393e 451f d4be
000002e0: 3c7f 9bbe bebe bebc fe3d acbd 973a ac3e
000002f0: 8a17 813e 77bd 94bd 0988 f03e ea8d bf3d
00000300: 48d8 2a3e 63dd f83d 6e0e bebd cd02 a2be
00000310: b092 edbe 1bd0 163d dc24 1ebe 4450 1ebb
00000320: b862 6dbc 4011 1fbf 67f9 c53e 947f 00bf
00000330: f90b a43e e0c9 9a3e 4073 96be 36d7 92bc
00000340: 3612 133e 9d38 073f 2d1d 0c3f 6a31 a83e
00000350: 9304 6a3e d093 e63d 0ce7 a03e 5d4d 1b3e
00000360: 14b3 893e 737d 0ebf 5f81 213f 9c68 163e
00000370: 9858 6f3e e08c 863e 628c a1be b723 b83e
00000380: 00eb b4be 9a84 3fbd fa3a d3bc 38cd 353d
00000390: 3dd5 38bf 3446 7bbc 97d6 40be 3bfb e1bd
000003a0: 6dd7 edbd 3341 85be d036 cdbd b374 a2bd
000003b0: 0a48 41bd c8d1 b0bd bb14 38bc af21 bfbc
000003c0: 5be7 083e 8f17 49bf c6fc ff3d d8be 9ebd
000003d0: bda3 473e a694 b53d ecbc e6bd 183e 63be
000003e0: 220b 64bd cb18 1fbd 708e d63e b0dc 723e
000003f0: b3e5 b73d 1c5d 273c 9c96 8cbe 579f 04bf
0.1424598 0.18098256 0.41729128 -0.5559485 0.0027935891 0.05127778 -0.05510247 0.14560248
0.22429417 -0.5619317 -0.34197232 -0.013370472 -0.12766452 0.36572224 -0.10283474 0.121808775
-0.20080839 -0.92024213 -0.7016281 0.18614268 0.1698331 0.67678785 -0.15409854 -0.29211482
0.17509024 0.21040477 -0.1386617 0.35805923 0.053641777 -0.15567195 0.30731797 0.19985962
0.061406218 -0.35202572 0.4603933 0.19617872 -0.3225167 0.16088757 0.04290071 -0.19869724
0.031036515 -0.099264435 -0.107147664 -0.20611084 0.101045996 0.21108876 0.0819415 0.23627287
-0.13405202 0.14654584 -0.059842747 0.030419698 -0.100803524 0.5581522 -0.079003 0.67416924
-0.095682144 0.23345666 -0.1394802 0.16453291 0.12551372 0.2502133 -0.23829962 0.047554605
-0.30223966 -0.7197859 -0.23871264 0.062867105 -0.28267658 -0.0044305194 -0.017404368 0.27377346
0.2245569 -0.1524949 0.22991185 -0.13051216 -0.15665399 -0.11107181 0.34755042 -0.023981681
-1.2210373e-10 -6.62177e-39 -1.9105923e-12 1.0880646e-15 4.4045475e-35 -1.8874818e-38 4.1555102e-38 1.3482659e-38
-2.6640067e-21 -4.716071e-27 -1.3808183e-33 3.0851943e-38 -6.0868465e-38 4.7504863e-28 -1.9241735e-38 -5.703613e-39
-1.5057878e-17 -1.2360784e-20 7.174736e-39 -6.660596e-17 -0.050255343 -0.25442702 0.13927683 -0.54597807
0.22388099 0.5954509 -0.63640386 -0.6690311 0.03928486 0.17934652 0.2185359 0.5283573
0.4818114 0.2645446 0.36151403 0.46951038 -0.094239056 -0.019700535 0.28206015 -0.13054535
-0.0013851946 -1.2968015e-07 -9.4951116e-05 0.0001328868 2.561702e-07 3.6251656e-08 -2.7662157e-08 1.0397366e-07
-7.3885686e-10 -2.6928305e-07 -2.324983e-07 -3.8258126e-08 1.5337454e-08 6.8866115e-08 6.023407e-08 6.7794375e-08
4.2838997e-07 -5.0268395e-06 2.9315515e-08 -1.4297336e-07 0.07788008 -0.25067922 0.061707523 0.4778523
-0.17881061 0.41267982 0.26102316 -0.21755706 -0.406887 -0.051570166 0.0074102404 -0.1676148
-0.023748476 0.2661809 0.046543367 0.36680582 -0.38144457 0.54112774 0.23346217 -0.09901707
-0.022950675 0.3425213 0.2699921 -0.40621716 0.752534 -0.073408134 -0.19996764 -0.0030956746
-0.033650503 0.47619557 0.1708684 0.29492196 0.28338706 0.23888253 0.7284755 0.6528939
0.4372934 -0.71036273 0.6582096 0.17298627 -0.28548312 -0.24950479 0.18080063 -0.41430107
-0.3037051 -0.023284312 -0.084102616 0.3363845 0.2521327 -0.072627 0.46978787 0.0935324
0.16684067 0.12151601 -0.09280096 -0.31642762 -0.46400976 0.03681956 -0.15443748 -0.0024156729
-0.014488868 -0.62135696 0.3866684 -0.5019467 0.32040384 0.30232143 -0.29384804 -0.017924886
0.14362416 0.5282076 0.5473202 0.328502 0.22853307 0.11258662 0.31426275 0.1516623
0.26894438 -0.5566017 0.6308803 0.14688343 0.2337364 0.26279354 -0.31552416 0.35964748
-0.3533554 -0.046757318 -0.025784958 0.044385165 -0.72200376 -0.015336562 -0.1883186 -0.110342465
-0.11613355 -0.26026306 -0.1002022 -0.07932415 -0.047187842 -0.086337626 -0.011235411 -0.023331491
0.13369505 -0.7855157 0.124993846 -0.07751244 0.19496055 0.08866243 -0.11266503 -0.22191656
-0.05567468 -0.038842004 0.41905546 0.23716998 0.089793585 0.01021507 -0.27458656 -0.51805633

conv5.bias f4 [20]
00000000: 76b7 863e c59d 66be f8cb c73c fe38 a7be
00000010: 34ac 1c81 2976 3fbf 60ea 6533 c466 253e
00000020: df8e 4bbe c235 deb9 0437 d4bd f4a7 923e
00000030: 85dc 063e e51d ef3d 2522 883d 2eb8 123d
00000040: 4f12 b5be 58b7 07be 73f0 303e 053c bf3d
0.26311845 -0.22521122 0.024389252 -0.3266067 -2.8776224e-38 -0.74789673 5.353138e-08 0.16152483
-0.1987872 -0.00042383192 -0.10362056 0.28643763 0.13170059 0.11675624 0.066471376 0.03582018
-0.3536553 -0.13253534 0.17279224 0.0933762

conv6.weight f4 [20, 1, 3, 3]
00000000: e55e d93e 7d1d d4bd 1c19 37bf a305 0abc
00000010: fe1b 31be 3bcd f4be 1aa4 52bd ea4a fa3d
00000020: c184 553e dd77 ecbe 7712 e4be 5bb6 3d3e
00000030: 7ff7 0e3f ec20 973e 6266 96be d1e9 92be
00000040: 26d5 28be 27b6 13bd 4fb6 433f 21f7 d73d
00000050: db49 d73e f580 833e b0aa efbd b6bd aabe
00000060: 6e17 8cbd b03e 233e 76ab 903e 3ac1 f23e
00000070: 907f 1bbe 34ef 823d f14f 203f f6eb f83d
00000080: f309 063f 9a5a 073f 0e95 c83d 9491 a1be
00000090: fbd6 fc2e 3d25 2328 fc96 7014 d8ca 3f30
000000a0: 999b a22b ac65 9a26 c589 162f 9bef 69ab
000000b0: c03b 87a7 16cc 123f 0ada 6b3e ec91 3ebe
000000c0: d572 21be 49c6 8cbe 272a d93e 8e6f 6b3e
000000d0: f75f 01be 02dd 7dba c54d 51b1 2d53 47b2
000000e0: 648a 2e31 94f8 76af 1882 bf31 2be2 3e32
000000f0: be7f c6b1 b6c2 1031 27d5 5b31 2953 dfbe
00000100: d39c 0fbf 8da4 25bf 91bb ebbd af5b 523e
00000110: 0077 1cbf 5eb7 59be ddc0 2dbe 1e11 c5bd
00000120: ef80 943e a4f7 493e a842 aa3e 5f6d d03c
00000130: ed3e f63d 115a 4a3e 0dd3 39bf ad27 22bd
00000140: 258a c33d 2e69 d93e 3818 e13e 2cee 163e
00000150: 74b6 33be 21cb 85be ef53 4a3e f977 aabe
00000160: 921a 0ebf 17e7 4bbe 9353 8cbe 612f 2dbe
00000170: 4696 313e 9ef9 fbbe d045 83be 0aa2 393e
00000180: e236 c23e 157d 833e e594 9d3e 4704 95be
00000190: a12a 00bf 98b8 c5bd b336 8bbe 4c88 27bf
000001a0: ff97 3abf 79e4 4e3e 0de5 12bf 5f89 ebbe
000001b0: 4cdc e1be 6530 32be 08fa 67be a344 c4bd
000001c0: d719 3c3d d2e6 893f 58fd 6bbe 63ec 14bc
000001d0: e360 833e f645 abbe 20ac 98bd 4958 ff3a
000001e0: d8a6 0dbf 69a4 97be c06d c5be dad9 823e
000001f0: 47ce 7dbd 1fc6 ae3e 2e3d 1abe 8726 01bf
00000200: fa3e 18bf cf08 5c3e 986f 8c3e f2e3 953e
00000210: 97cd 08bf 823a ffbc 503b 133e 3f6b 003f
00000220: 4a53 bfbd 91ec a33e 7157 35be ccd5 94bd
00000230: d2b3 30bd 2396 24bf 7f5c 91be 7659 5dbe
00000240: 8d5e 2dbf 647f 8f3e 712f 233e 6737 b33d
00000250: 4071 6dbd 9776 203d b02d 93bf 0b8c 21bf
00000260: 1811 89bd 730d 273e 677e bebe 1088 fcbe
00000270: bfd0 073f 568c 85be 7480 42bd db43 47be
00000280: 9845 b73d 2b61 43bc 28b0 9a3e 6e7b 9ebe
00000290: 880e a5be 4601 45bf d612 04be 50b4 103e
000002a0: 7305 4f3e 7cf4 16bd f6cf d23e 8187 953c
000002b0: 3afe a2be 98cb 71be 6c5c 69be aa80 05bd
000002c0: 2c67 04be 485a 313e 7366 d13e 8ed8 383f
0.4245521 -0.10357187 -0.7152269 -0.008424195 -0.17295834 -0.47812828 -0.05142603 0.1222132
0.20851423 -0.46185198 -0.44545338 0.18526594 0.558464 0.29517305 -0.29374987 -0.28694013
-0.1648756 -0.036062386 0.76450056 0.10545183 0.42048535 0.25684324 -0.11702478 -0.33347863
-0.06840406 0.15941882 0.28255814 0.47413045 -0.1518538 0.063932806 0.6262198 0.12154381
0.5235893 0.5287262 0.09794055 -0.3155638 1.14978214e-10 9.056392e-15 1.214668e-26 6.9773654e-10
1.1553979e-12 1.0713455e-15 1.3691366e-10 -8.311075e-13 -3.753481e-15 0.5734266 0.23032394 -0.18610352
-0.15766461 -0.2749503 0.42414972 0.22991773 -0.12634264 -0.0009684117 -3.045771e-09 -1.16022365e-08
2.5398998e-09 -2.2461882e-10 5.5736216e-09 1.111088e-08 -5.777081e-09 2.1065438e-09 3.1989857e-09 -0.43618134
-0.5609867 -0.6470421 -0.11510385 0.20542787 -0.6111908 -0.21261355 -0.16968103 -0.096224055
0.2900462 0.19723374 0.3325398 0.025442777 0.12023721 0.1976092 -0.7258766 -0.03958862
0.09547833 0.42463058 0.4396379 0.14739293 -0.17550069 -0.26131538 0.1975858 -0.33294657
-0.55509293 -0.19912373 -0.27407512 -0.16912605 0.17342481 -0.4921388 -0.256392 0.18128219
0.37932497 0.25681368 0.3077766 -0.29104826 -0.50065047 -0.09654349 -0.2719017 -0.6544235
-0.7288818 0.20204343 -0.57380754 -0.46003243 -0.44113386 -0.17401274 -0.22653973 -0.09583404
0.04592308 1.0773566 -0.23045862 -0.009089562 0.25659856 -0.33451813 -0.07454705 0.0019481267
-0.5533271 -0.29617622 -0.38560295 0.25556833 -0.0619643 0.3413553 -0.150624 -0.50449413
-0.59471095 0.21487735 0.2742889 0.2927547 -0.53438705 -0.031155828 0.14378095 0.50163645
-0.09342058 0.32016423 -0.17709137 -0.07267341 -0.04314024 -0.6429159 -0.2839088 -0.21616158
-0.677224 0.2802688 0.15936066 0.087508015 -0.05796933 0.039175596 -1.1498318 -0.63104314
-0.066927135 0.16313724 -0.37205812 -0.49322557 0.53052896 -0.2608363 -0.047485784 -0.19459479
0.08948821 -0.011925022 0.30212522 -0.30953544 -0.3223765 -0.7695507 -0.1289781 0.14131284
0.20216922 -0.036854252 0.41174287 0.01825309 -0.31834584 -0.23612821 -0.22789162 -0.032593407
-0.12929982 0.17319596 0.40898475 0.72205436

conv6.bias f4 [20]
00000000: 448f bc3e 9f1e a83e fa5d d0be e1e6 31bf
00000010: 3b3f 0a3f 606c 3abe 0495 2cbf 87fa da3d
00000020: 7641 12bd 362d 4abe 9617 323f 2eda ac3e
00000030: e348 a63e 65db 46bc 7ba4 703e 9f50 963d
00000040: 06a5 2b3c 5d99 3b3e ed94 09be b6e1 cd3e
0.36828053 0.32835862 -0.40696698 -0.6949292 0.5400273 -0.18205404 -0.6741488 0.106923155
-0.03570696 -0.19743809 0.6956724 0.33760208 0.32477483 -0.012137269 0.23500244 0.07339596
0.010476356 0.18320222 -0.13435717 0.40211266

conv7.weight f4 [20, 20, 1, 1]
00000000: 1dd1 e73e 2435 923e ce83 e4bd 15af 093e
00000010: 3adb 1abd 37ef adbe f4b8 593e 1dd9 6bbe
00000020: d254 6cbd 9308 8f3e 7d3d fb3d c734 ed3e
00000030: 84dd f03c 52fd 87be 0cd3 a83e 8d40 fcbd
00000040: 4f36 afbe 9ba1 ac3e b5db 0f3f 932b 9cbc
00000050: 9d75 e1be 5d70 ff3d a120 e4be 21dd bb3e
00000060: 7217 86be c553 3abf 8a39 b03c 96cc d3bd
00000070: 2661 f83d 713e 8fbe f2b4 6bbd bbc3 2e3e
00000080: 3fda aa3c 0ba2 a23e 7e4d 91bd 7ac0 473c
00000090: 0e07 e1be 2b7e ab3e 6162 173e 325f d33d
000000a0: a464 d33e 613b 4cbf 2848 503c fb73 c3be
000000b0: 3f3a 1a3e f240 00be 0d8f 843a c656 66be
000000c0: 5091 b63d 63d8 8ebe 4f21 60bc 95c7 8b3e
000000d0: 8d22 60be ed93 9b3e e2f8 733e 63bc a7bd
000000e0: a21a 1f3f 6521 b9be 0bd2 2bbe 78fd 543e
000000f0: 3586 e5bd de26 8bbc 132b 90be 842b 0fbe
00000100: 747f 22be abcf 743d 19bb dc3e c778 aebd
00000110: cd58 4cbd 8cd9 2fbd 2862 e1be 27da 0bbe
00000120: b156 96be 8c50 c8bd 95c8 453e 0f56 c7bd
00000130: 2f97 b83c c07d 61be a03c 0fbf 6229 81bd
00000140: df13 12bf eabc 60be 2ea6 0c3d 71c6 a73c
00000150: 6f33 9bbd 2aeb e73e 9840 453e b4d9 9c3d
00000160: 98dd 693e 57b9 74bd 0f48 4c3e d2b2 503e
00000170: 6227 2bbe 2c29 d93e d2ef b03e ac0d 3abe
00000180: ee27 a03e f475 e43e 3376 963d 2d9e d1bb
00000190: 81dc bfbd 14bf 83be 3125 153f 399f 7a3e
000001a0: f29f 0e3d 7e23 143e 027e 08bd 6dbc bcbe
000001b0: b274 c33b 3976 d73e 9862 9abd f064 cc3e
000001c0: 49d0 743e f84c f2be 439b a4bd 7996 d23e
000001d0: 082d dd3d b565 08be 1da2 76be fd4c 033e
000001e0: 61df dfbd 8dca 173e df32 7abc 5c69 73bd
000001f0: 430e 1fbf 63cf 9e3e 5a49 ec3e f527 aabd
00000200: 36ed 243e a8bb cc3c b69c f7be fc7f f03d
00000210: e935 edbe 3d58 593e cd50 ffbd 6f37 80be
00000220: fb18 603d 13ef 97be 7acb 863e 975a 7b3e
00000230: 288d 3ebe 8706 4b3d 5706 fbbd 2d29 233f
00000240: ce12 79be 348a 93bb cee1 723e 00d2 093e
00000250: 9f25 8e3e 72a5 90be 984e 00be 47be b5bd
00000260: 6710 ac3e 9a61 23bd 6a5b a73e 5144 a23d
00000270: edc9 c6bd 2dc7 04be 0376 6abd 2c99 d5be
00000280: d985 e33d f91c 1cbe 8284 5dbe cbab c7bd
00000290: 0f33 5abe 9870 1f3e 208e f33e 0e14 723e
000002a0: 4052 4ebf fe21 9a3e b8a0 8c3d fb68 c03d
000002b0: 2c61 c0bc ce54 71be 3d7b e73d 99e3 98be
000002c0: 80dd 833d da27 60bd d1d1 bc3c 6cd0 dfbd
000002d0: 18c5 a5bd 41d3 94bd c01f 17bf b20b 253f
000002e0: d734 4a3e 4b82 84be fead 95bc ccb9 b93c
000002f0: ce74 15be b8ec 16bf 1541 debd 64a5 ca3e
00000300: 1e4f 633e be4d bd3e 6e10 f1bd 9a33 043e
00000310: 4503 073d dc8b 46be 83a4 7c3e 7bb5 d6be
00000320: 2d46 fa3e e0f7 913e 5afd eabd ee6a 9ebd
00000330: f333 893c 3ab5 b0bd bd6b c3bc 74ae 97be
00000340: 078a 333d f162 163f 57c5 b6be 5245 cf3e
00000350: 6db2 b7bd fa9a 803b b7d6 183e 10a5 1abc
00000360: bfd9 223f 63fb 843e 7a90 dd3d 171b cd3d
00000370: 4e25 7cbe 65d1 a2be 9f1a 6fbd 706c e2be
00000380: e1af 74be 4949 41bc 58c4 91bd 8cd7 013f
00000390: 4e2e 073e eac7 e6bd bb0d b5be 5625 02be
000003a0: 38d9 abbd 7311 c3bd 67d7 acbe 1417 e6bd
000003b0: 7bbb 01be b4d6 58be bff7 4a3e abb7 133e
000003c0: dcbd d7bb 08ef a4be 19e5 713e 4fe9 713e
000003d0: 0923 24be 831f 22bf 2307 773d 4575 9bbe
000003e0: 940c a23c 173b bcbe b5dc 5abe 63fd bf3d
000003f0: 139b 59be 501b 37be 0c7a 2abd 9fad 70bd
0.45276728 0.28556168 -0.11157952 0.13445695 -0.037806727 -0.3397157 0.2126196 -0.23032041
-0.05769808 0.2793623 0.12267587 0.46329328 0.029402502 -0.26560456 0.32973516 -0.123169996
-0.34221122 0.33717045 0.5619462 -0.019063747 -0.44035044 0.124726035 -0.44556144 0.36692145
-0.26189762 -0.7278407 0.021511812 -0.10341756 0.121279046 -0.27977327 -0.05754561 0.17066853
0.020856021 0.31764254 -0.070948586 0.012191886 -0.43950695 0.33494696 0.14783622 0.103208914
0.4128772 -0.79778105 0.012712516 -0.38174424 0.15061282 -0.12524775 0.0010113433 -0.22494039
0.08914435 -0.27899465 -0.013679816 0.27300707 -0.2188818 0.30386296 0.2382541 -0.08190229
0.62150013 -0.3615829 -0.16779344 0.20799816 -0.112072386 -0.016986307 -0.28157863 -0.13981444
-0.15868932 0.05976836 0.43111494 -0.0851913 -0.049889375 -0.04293208 -0.440202 -0.13657437
-0.29363015 -0.09780988 0.19314797 -0.09733211 0.022533027 -0.22020626 -0.5595188 -0.06306721
-0.5706157 -0.21947065 0.03433817 0.020480366 -0.075781696 0.45296603 0.19262922 0.07658711
0.22838438 -0.059747066 0.19949363 0.20380715 -0.16714242 0.42414224 0.34557968 -0.18169278
0.31280464 0.4462124 0.073467635 -0.00639703 -0.0936823 -0.2573172 0.58259875 0.24474801
0.034820504 0.14466664 -0.033323295 -0.36862507 0.005964839 0.42082384 -0.075383365 0.3992076
0.2390758 -0.47324347 -0.08037426 0.41130427 0.10799605 -0.13320048 -0.24085279 0.12822337
-0.10931278 0.1482336 -0.015270918 -0.05942665 -0.62131137 0.31017599 0.46149713 -0.083084024
0.16106114 0.024991825 -0.48361748 0.11743161 -0.46330193 0.21225066 -0.124665834 -0.25042292
0.054711323 -0.29674587 0.26327115 0.24546276 -0.18608534 0.04956677 -0.122570686 0.63734704
-0.2432358 -0.004502559 0.2371895 0.13459015 0.27763078 -0.28251225 -0.12529981 -0.08874183
0.33606264 -0.039888002 0.3268693 0.079231866 -0.09706483 -0.12966605 -0.05724145 -0.41718423
0.11109514 -0.15245427 -0.21632579 -0.09749564 -0.2130854 0.15570295 0.4756937 0.23640463
-0.80594254 0.3010406 0.06866592 0.093950234 -0.023483835 -0.23567507 0.11302803 -0.29861143
0.06438732 -0.054725505 0.023049267 -0.10928425 -0.08094233 -0.07266856 -0.5903282 0.6447097
0.1974672 -0.25880656 -0.018271443 0.022671603 -0.14595339 -0.58954954 -0.10852257 0.39579308
0.2219815 0.36973375 -0.11770712 0.1291031 0.032962102 -0.1938929 0.24672131 -0.41935334
0.48881665 0.28509426 -0.11474104 -0.07735239 0.016748404 -0.08628316 -0.023855085 -0.29625285
0.043832805 0.5874472 -0.35697433 0.40482575 -0.08969579 0.0039247246 0.14925657 -0.009438768
0.63613504 0.25973043 0.10818572 0.100149326 -0.24623606 -0.3180038 -0.058374997 -0.44223356
-0.23895217 -0.011797258 -0.07117528 0.50719523 0.13201258 -0.11268599 -0.35362038 -0.12709555
-0.083910406 -0.095248125 -0.3375809 -0.112348706 -0.12669174 -0.21175653 0.1982107 0.14425533
-0.0065839123 -0.32213616 0.2362255 0.23624156 -0.1602899 -0.63329333 0.06030954 -0.30362907
0.019781388 -0.36763832 -0.21373256 0.093745016 -0.21250562 -0.17881513 -0.0416203 -0.058759328

conv7.bias f4 [20]
00000000: 7f62 11be 6b75 8ebd 8cd3 d33d b39f f5be
00000010: c52c 15bd ff29 593d 88d3 ddbe fae8 92be
00000020: e762 95be 6a38 b43d 3273 3a3e 80ba 643c
00000030: 1f69 ad3d 474e 66be b08c 013d 0f50 40be
00000040: 049e 323e efa0 453c ba22 f9be c285 97be
-0.1419773 -0.069559895 0.10343084 -0.47973403 -0.03641965 0.053018566 -0.43325448 -0.28693372
-0.2917702 0.08799823 0.18208006 0.013960481 0.08467316 -0.22490798 0.03162831 -0.1878054
0.1744309 0.012062295 -0.48659307 -0.29594237

linear.weight f4 [10, 20]
00000000: 0df0 17bf 4f60 82be 3af2 e33e 91c3 803e
00000010: 65f3 f53e 7381 43be eb86 c1be abf6 6b3e
00000020: f464 a23b 2306 c53e fb67 27bf 4539 0439
00000030: d93d 933e 9664 53be d291 48be 2c53 7fbd
00000040: a564 8bbe 1d8f dc3e c409 75ba be66 6dbe
00000050: 21e4 9e3d 80e3 09be c129 2a3e 64c3 c7be
00000060: ccc8 f4be d3f2 7f3e 0adf 7dbd ac91 ad3c
00000070: 9fee 3fbf 73d8 16bf cd24 d43d a672 07be
00000080: 19d6 753e a373 87bd b1e4 dd3d 5bdb 76bc
00000090: c6e6 e63d 7dc4 5c3d 8524 503d 0e55 523d
000000a0: 49ca 37bd ea4f 64bc c071 51be 0960 03be
000000b0: ce4e 72bd 0ec3 c33d 26ba 60bd d596 6e3e
000000c0: 7c64 00be 70a7 f4bd 598b 913e 9225 49be
000000d0: bc47 42be 7776 92be 3bb0 313e 1a20 723e
000000e0: d53e a6be 9ed0 b0bd cd86 8c3e 09e0 bc3e
000000f0: a387 5d3e 60cb 233e abc0 0bbf bf5a 9f3e
00000100: e720 9bbd 24e5 bdbd 4d1a e93e 3e7f 41bc
00000110: 567b 9abe 18b7 5abe 214d c53d 3e6e 8b3d
00000120: 4976 1ebe 7a14 fe3e 23d9 b9be 9f3f 203e
00000130: 52ad 173d f6ac ff3c 092f c43e cdb6 4ebd
00000140: ecc7 81bc 5fb3 febe 56a9 383e 3b9e 5cbe
00000150: 25d2 dbbe 0121 6f3e ec32 2bbe 0ce0 dfbe
00000160: 139c 9b3e 31c6 63be 1fc4 0e3c 4477 12bd
00000170: c725 3fbe f764 ad3c 1e24 823e 6889 f63b
00000180: ba6f 533e c42a c3be 0b90 2cbe c30f c13d
00000190: 0101 153b 3ab2 2e3e d26a 393e cc13 9a3e
000001a0: 3b49 03b9 4553 a7be 0d45 3abc 4744 18bd
000001b0: 4af0 cabd 41d2 8d3e 90c9 a93e dd96 133c
000001c0: fac0 0a3d c7b8 713e ffe1 8a3e 13aa 19be
000001d0: d297 33be 83d9 f43d ea1b 05be 0792 84be
000001e0: e193 cb3e 8e2a eebc 8f8e 183e 8249 873e
000001f0: 2b04 67be edad 2bbe a922 0dbd 618d 5c3e
00000200: 65ae 703e cc2b bc3e 9c70 37bd f2b4 a0bd
00000210: b333 9a3d 7eff bdbe 0cd0 62bd 4580 52be
00000220: 5f61 e3be b0e5 403e 9f03 8ebe ecf6 0a3e
00000230: 7d11 99be 19d5 493e 92af 20be 90f0 9dbd
00000240: 2caf 273e 8540 8d3e fb7e 48be f9b6 b2be
00000250: c060 00bf c86c eabc 2815 553d 2f0b db3d
00000260: 02a8 6abe 2673 b33c 3613 2e3e bf60 a93e
00000270: e0d8 0b3e df2e cdbe ddbd 453e c685 6dbe
00000280: 90df 253e e557 90bc 5ecf 9ebe 8b9d 87be
00000290: 3303 313e 9455 85be c3aa 3e3e 1a47 4e3d
000002a0: 5892 9cbd 2e44 e1bd 68ed 963e 54f0 173f
000002b0: 1bb9 653e 7f43 1fbf 5999 67be 0df3 63be
000002c0: a9d3 a23d 7137 e13d 6b23 d03d 27ed e4bd
000002d0: 7cda d3be b8f6 ab3e 9e1b 073d 85c1 5abd
000002e0: 7564 7c3e ab8a c93d e3d2 6b3e eb8f c9be
000002f0: 6342 e43e 65a6 fbbc 8aec 45be e165 99bd
00000300: 3a97 c6bd c6ec 513e e88f 38be 02e2 d1be
00000310: f502 363d ca27 99be 9deb 25bc ef45 30be
-0.59350663 -0.25464103 0.44520742 0.25149205 0.48037258 -0.1909235 -0.37798247 0.23043315
0.004955882 0.38481244 -0.65393037 0.00012609836 0.28758124 -0.20643839 -0.19586876 -0.06233518
-0.27225223 0.43077937 -0.00093474635 -0.23183724 0.07758356 -0.1346569 0.1661749 -0.3901626
-0.47809446 0.24994974 -0.061980285 0.021187626 -0.7497348 -0.58924025 0.10358582 -0.13227329
0.24007453 -0.06613853 0.10834635 -0.015066947 0.11274485 0.053898323 0.050816078 0.051350646
-0.04487065 -0.013935069 -0.20453548 -0.12829603 -0.059157185 0.09558688 -0.054865025 0.23299725
-0.12538332 -0.11945999 0.28426626 -0.19643238 -0.18972677 -0.28606007 0.17352383 0.23645058
-0.32469812 -0.086335406 0.27446595 0.36889675 0.21633773 0.1599555 -0.54590863 0.3112392
-0.07574635 -0.09272221 0.45527878 -0.011810122 -0.30172223 -0.21358907 0.09633852 0.068081364
-0.1547481 0.49624997 -0.36298475 0.1564927 0.037030526 0.031210404 0.38317135 -0.0504673
-0.0158424 -0.49746224 0.18033347 -0.21544735 -0.42933765 0.23352434 -0.16718644 -0.43725622
0.30392513 -0.22243573 0.008713751 -0.03575827 -0.18666755 0.021166308 0.2541818 0.0075237043
0.20648089 -0.38118565 -0.16851823 0.094268344 0.0022736194 0.17060176 0.18107155 0.3009323
-0.00012520414 -0.32680717 -0.011369002 -0.03717449 -0.09909113 0.27699474 0.33161592 0.009008137
0.033875443 0.23605643 0.27125546 -0.15006284 -0.17538384 0.119555496 -0.1299893 -0.2589266
0.3976126 -0.029073026 0.14898132 0.2642327 -0.22560184 -0.16765566 -0.034456883 0.21538307
0.23504026 0.36752164 -0.044785127 -0.078470126 0.07529392 -0.37108988 -0.05537419 -0.20556743
-0.44410226 0.18837619 -0.27737138 0.13570756 -0.29896155 0.19710197 -0.15691975 -0.07711899
0.16375417 0.27588287 -0.19579689 -0.34905222 -0.5014763 -0.028616324 0.05202213 0.106954925
-0.22915652 0.021905493 0.16999516 0.33081624 0.1365695 -0.40074822 0.19310708 -0.23195562
0.16198564 -0.017620036 -0.31017584 -0.26487383 0.17286377 -0.26041853 0.18619828 0.050360776
-0.076451 -0.10999332 0.29478002 0.59351087 0.22433893 -0.62212366 -0.22617091 -0.22260685
0.07950527 0.10996903 0.101630054 -0.11178046 -0.41377628 0.3358667 0.032985322 -0.05340721
0.24647696 0.09840902 0.23029666 -0.39367613 0.445819 -0.030718992 -0.19328514 -0.07490135
-0.09696813 0.20500478 -0.18023646 -0.40992743 0.044436414 -0.2991317 -0.010126975 -0.17214178

linear.bias f4 [10]
00000000: abe6 323d c902 c03e 4960 1fbd d1f5 10bd
00000010: 43a0 a1bd 3061 71be eefc 39bd dce9 f03e
00000020: b847 7cbc 59cd 22be
0.043677013 0.37502125 -0.038910184 -0.03539068 -0.078918956 -0.2357223 -0.04540723 0.4705342
-0.015397958 -0.15898646
