models/MNIST/mlp_num-layers=1_seed=002/099.pth (torch, 531335 bytes, 4 tensors)

linear1.weight f4 [128, 1024]
000000 98 62 39 80 b0 07 f6 80 f8 ea c4 80 cc e0 01 81
       -5.269992e-39 -2.259429e-38 -1.8084048e-38 -2.3854842e-38
000010 8c bc 02 01 d8 df da 00 ac e7 a3 01 f3 e3 aa 81
       2.4012505e-38 2.0100438e-38 6.0209176e-38 -6.277523e-38
000020 b8 82 0a 80 7c af 6c 80 78 4f b4 80 a8 a8 7b 01
       -9.65248e-40 -9.981186e-39 -1.6558897e-38 4.6222424e-38
000030 34 d0 6c 81 d4 4f 86 01 57 16 39 b3 6f f3 ca ba
       -4.3495733e-38 4.9338374e-38 -4.3093987e-08 -0.0015483926
000040 56 5a da ba fc 08 ab b6 39 04 b7 35 2f d8 96 2a
       -0.0016659002 -5.097243e-06 1.3635791e-06 2.679536e-13
000050 a1 6e a3 81 8c d9 2f 81 08 91 40 80 d4 51 95 00
       -6.003549e-38 -3.2298506e-38 -5.929499e-39 1.3712843e-38
000060 f8 58 43 00 d8 78 16 81 86 61 a8 01 4c 75 28 80
       6.184894e-39 -2.763735e-38 6.185339e-38 -3.715498e-39
000070 10 e6 56 00 d4 5f 80 81 d4 97 45 80 bc ea 82 01
       7.980384e-39 -4.715728e-38 -6.391115e-39 4.8091285e-38
000080 3c 19 5c 81 04 d5 bf 80 7c 75 6d 81 e8 74 41 80
       -4.0425723e-38 -1.7616995e-38 -4.3614316e-38 -6.011245e-39
000090 4c 7e 9a 80 67 d7 3c 01 f8 d2 a3 01 89 60 5b 3c
       -1.4187973e-38 3.468469e-38 6.017947e-38 0.013389715
0000a0 f4 bc 98 3c ce c2 89 38 97 ee 5c 1d 8a fc 42 37
       0.018644787 6.568954e-05 2.9240106e-21 1.16221e-05
0000b0 6a 1d 15 3b 67 39 46 3b d0 6a 60 3b 63 8b 14 bc
       0.0022753128 0.0030246617 0.0034243353 -0.0090664355
0000c0 a7 b2 14 bb a1 42 81 39 b1 72 cd 3a 2e 85 15 3b
       -0.0022689493 0.0002465444 0.001567444 0.0022814977
0000d0 fc d8 06 3b 24 5a 2a 3c 99 4d 5e 3c 12 19 d9 3b
       0.002057611 0.010397468 0.013568305 0.006625303
0000e0 ac ba a2 b8 b1 97 f1 ba 14 9a 22 21 c4 78 a1 80
       -7.759532e-05 -0.0018432048 5.5091656e-19 -1.4828837e-38
0000f0 0c 85 7e 80 c4 27 73 81 3c 91 07 81 a0 ef 85 80
       -1.1619001e-38 -4.4660582e-38 -2.4899785e-38 -1.2300082e-38
000100 9d ee ba 01 40 85 6a 00 83 1d f3 80 dd 0e 2e 00
       6.8668e-38 9.782364e-39 -2.2326612e-38 4.229765e-39
000110 71 5a d8 bc 12 ab 49 bd 2f 32 93 bd 82 e8 9b bd
       -0.026410313 -0.04923541 -0.07187306 -0.07612707
000120 fb e4 93 bd 9f bb af bd f0 0e ae bd a7 1c 9f bd
       -0.07221409 -0.08580708 -0.08498943 -0.07769137
000130 ec 67 83 bd 0a 55 00 be 5c a6 e9 bd 9b 54 a4 bc
       -0.06416306 -0.1253244 -0.11408684 -0.020059874
000140 86 23 c0 3c f0 fe 9b 3d 6a 4c 91 3d a9 5e 81 3c
       0.023454439 0.07616985 0.07094653 0.015792208
000150 5d a2 53 bb fb b7 c8 3c 5d 84 1b 3d 64 9b df bb
       -0.003229282 0.024501791 0.03796803 -0.006823944
000160 a8 f7 f0 3b cc 65 26 3c 0e 30 19 3b 65 9f 2e 29
       0.0073537417 0.010156106 0.002337459 3.8774014e-14
000170 6c 46 cb 30 68 28 0b 00 d4 97 48 80 2c 55 32 81
       1.4790209e-09 1.024685e-39 -6.666621e-39 -3.2754544e-38
000180 68 35 6e 80 b7 13 94 01 b7 20 ec 80 f8 47 73 af
       -1.0121063e-38 5.4394903e-38 -2.1684913e-38 -2.212629e-10
000190 5b 53 04 bb ac 28 8b bc 3d df 93 bc c7 cc b3 bc
       -0.0020191285 -0.016987167 -0.018050784 -0.021948231
0001a0 4d af 35 3c 50 3b 58 bd d1 20 fc bd 78 5e 30 be
       0.011089158 -0.05279094 -0.12310947 -0.17223537
0001b0 9a ee 65 be 08 12 50 be 0e 45 ec bd 43 bc d4 3c
       -0.224543 -0.20319378 -0.11536609 0.025968676
0001c0 2f 3a 10 3e e4 f8 df 3d 33 37 71 3d 77 69 bc bd
       0.14084695 0.10936144 0.058890533 -0.09199803
0001d0 e0 78 23 be 36 0a 81 bd de e9 1f bd 3b c2 92 bb
       -0.15964079 -0.06300776 -0.039041393 -0.0044787205
0001e0 34 b7 05 bd 21 24 c9 bc 13 66 cc bc 02 9a f5 ba
       -0.03264542 -0.02455336 -0.024951017 -0.0018737915
0001f0 89 a4 67 3a dd 35 8a 81 f8 56 08 81 60 cb 0a 81
       0.00088364683 -5.0770484e-38 -2.5041652e-38 -2.549251e-38
000200 0d cf 8f 81 1a 67 95 00 67 7b 81 2f aa 1c ae bc
       -5.2827007e-38 1.3720475e-38 2.3552646e-10 -0.021253902
000210 44 30 f0 bc c9 80 f0 3c fb b6 11 3c d4 89 6f 3d
       -0.02931989 0.029358285 0.008893724 0.058481053
000220 c4 00 04 3e 62 b4 9d 3d 5c 03 f5 3b cc 57 32 3d
       0.12890917 0.07700421 0.007477207 0.04354076
000230 d7 69 0e 3d 49 24 e8 bb e1 66 9b 3d d2 08 e1 3d
       0.034768905 -0.0070844037 0.07587982 0.109880105
000240 e3 96 ab 3d 4f ae 33 3b 37 6c 06 bd 95 bc 92 bc
       0.08378389 0.0027417128 -0.032818045 -0.017912189
000250 f2 db 9c bd d8 e5 ae bd b8 8b 2c bd d9 9d 90 3b
       -0.07659139 -0.08539933 -0.042125434 0.004413348
000260 87 ae d4 3c 6c 0a 04 3d c4 a8 d4 bc 1f 20 0e 3b
       0.025962127 0.0322365 -0.02595938 0.0021686626
000270 13 7a 3c bc 7c d9 87 01 fa 47 48 01 b0 c9 a9 00
       -0.011503714 4.990324e-38 3.678584e-38 1.559255e-38
000280 04 21 7c 81 d8 5a 34 00 d2 9b 61 ba d3 0e 98 ba
       -4.6308778e-38 4.808034e-39 -0.0008606288 -0.0011601098
000290 f2 7d 12 bd 8e 12 e9 bb 67 fd 5b 3c 85 d4 ec 3d
       -0.035764642 -0.0071128076 0.013427115 0.115639724
0002a0 4b b3 e2 3d 76 65 02 bc b0 13 4b bd 31 3c 15 3d
       0.11069354 -0.0079587605 -0.049579322 0.036434356
0002b0 3c 72 c9 bb 9c 41 c2 bc c7 b1 d0 3c 94 e5 ff 3d
       -0.006147651 -0.023712926 0.025475396 0.124949604
0002c0 0a 29 37 3d b7 64 9f 3d 85 4d 2e 3d 57 34 9e bd
       0.044716872 0.07782882 0.042554397 -0.07724827
0002d0 fb be 5c bd f0 5c ca bd 29 83 8f bd c0 b2 a5 bd
       -0.05389307 -0.09881008 -0.07007439 -0.080907345
0002e0 ab d9 d8 bd 67 c0 8b bd 16 53 00 bd ba 51 d4 bc
       -0.10588392 -0.06823807 -0.031329237 -0.025917877
0002f0 2e 0f 02 bc e8 8f aa 31 bd e8 53 01 fb e1 61 01
       -0.007938189 4.9640114e-09 3.892156e-38 4.1488106e-38
000300 90 47 da 00 f4 6b 8f 0c 92 96 4f b6 27 0c b0 bb
       2.004581e-38 2.209761e-31 -3.0933047e-06 -0.0053725424
000310 ee 52 21 bc 1b b3 9f bc 80 23 0a 3c 6d 39 83 bb
       -0.009846432 -0.019494584 0.008431315 -0.0040046484
000320 8b 8d b7 bc e5 82 fc bd a4 14 dc bd 62 12 fb bd
       -0.02240636 -0.12329654 -0.107461244 -0.122593656
000330 e4 b1 4e be 1d 74 e1 bd 1c b1 8e bd ef 95 57 3d
       -0.20185047 -0.11008475 -0.06967375 0.052633222
000340 fb a5 0c 3e b9 2c 0b 3e 8d 77 1f 3e 44 93 25 3d
       0.13735192 0.13591279 0.15572949 0.040423647
000350 df c5 cf bd 08 97 2a be 3f 77 9f bd a1 7c 5d bd
       -0.10145163 -0.16659176 -0.07786416 -0.054073934
000360 f9 a0 5d bd de b5 ab bd 77 6d b2 bd a9 f7 47 3c
       -0.054108594 -0.08384298 -0.08712285 0.012205043
000370 12 5c 9e bb ef c1 a2 3b 11 43 b9 bc c7 8d 25 80
       -0.004832753 0.0049669663 -0.022614988 -3.448773e-39
000380 4e 12 4e 81 3e ee cd b8 a9 c4 28 b9 87 5b 76 bd
       -3.7849357e-38 -9.819538e-05 -0.0001609499 -0.06014588
000390 1a be b0 bc da a7 46 bd d0 5a 95 bd 1f 6e 06 be
       -0.021575022 -0.04849992 -0.07292712 -0.13127945
0003a0 2d 8b 3a be 2a 47 22 be 5b 40 47 be 66 3a 50 be
       -0.18217154 -0.1584746 -0.19458143 -0.20334777
0003b0 ea ed 87 be c4 d6 0b be 86 97 d2 bd ce 9c 74 3d
       -0.26548702 -0.13656145 -0.10282807 0.059719853
0003c0 c5 32 62 3e 41 29 4e 3e 13 b0 fa 3d 6b 42 20 3d
       0.2208968 0.20132925 0.12240615 0.03912584
0003d0 9e 12 aa bd d7 d7 17 be 74 54 b4 bd cc 56 d8 bc
       -0.08304332 -0.1482843 -0.08805171 -0.026408575
0003e0 96 d2 43 bd 21 5c 85 bd 73 3e 41 bd f0 37 5c 3d
       -0.047808252 -0.06511713 -0.047178697 0.053764284
0003f0 b4 42 dd ba 22 89 ef 3b e5 3c 89 bc a0 7b 64 81
       -0.0016880841 0.0073100487 -0.01675267 -4.1965683e-38

linear1.bias f4 [128]
000000 5e ea 8e 3e af dc 17 3f fa ab 45 3e ce 34 13 3d
       0.27913183 0.5932111 0.19303885 0.03593903
000010 ec b5 79 be e7 e1 bc be e3 6b 82 3e c2 9a c5 be
       -0.24385804 -0.368911 0.25472936 -0.38594633
000020 ed cf 9f be fa fb 9b 3e 4a 3c c4 be 4c db 05 3e
       -0.31213322 0.3046568 -0.38327247 0.13071936
000030 28 49 16 bd 9a af d8 3e 53 c0 27 3d af b2 9c be
       -0.03669086 0.42321473 0.0409549 -0.30605075
000040 b8 7e c5 bc d5 fa 33 be 75 8d be bd 50 6e 53 3e
       -0.024108276 -0.17576154 -0.093043245 0.2064755
000050 c8 5f 2e be c0 a6 5b 3f 91 72 dc 3c ed a6 fe bd
       -0.17028725 0.85801315 0.026910098 -0.12434182
000060 f7 24 b4 3e 4a 7f 4b be b2 b6 aa be 2d fa e6 3d
       0.35184452 -0.19872776 -0.3334251 0.11278186
000070 84 b8 8e be 0b f3 ef bd 39 32 9a 3d 59 1e 71 3e
       -0.2787515 -0.11716279 0.075291105 0.23546733
000080 05 c9 82 3e 08 77 ae bd 11 bc b8 3e 8a f2 95 bd
       0.2554399 -0.08518797 0.36080983 -0.07321651
000090 8f 8e ef 3e ee a0 3c bd e5 a7 06 3e 50 c8 0e 3e
       0.4678845 -0.046051912 0.13149984 0.139436
0000a0 ad 76 81 be b6 80 30 bc 57 94 88 be 35 e8 82 3e
       -0.25285855 -0.010772875 -0.26675674 0.25567785
0000b0 34 23 43 3d 45 2b 32 3d 2c 41 04 3f 59 2e 90 3e
       0.047640994 0.043498296 0.51661944 0.2816036
0000c0 d9 e8 04 3d 39 df 8e 3c 6e 02 31 3b 54 bb 00 3f
       0.032448623 0.017440425 0.0027009505 0.5028584
0000d0 50 7b 97 3e 95 74 ef bd cd 7e 77 3e eb 69 cf 3e
       0.29586267 -0.11692158 0.24169464 0.40510496
0000e0 75 b8 8e be 8e d6 b4 3c a5 12 be bd f2 4c 33 3e
       -0.27875105 0.022074964 -0.092809 0.17509821
0000f0 c6 8d cd bd 9f e4 81 bd 6f 20 97 3e 6b 6e af bd
       -0.10036807 -0.06342434 0.29516932 -0.085659824
000100 58 9f 8a 3e 14 ef a2 be b6 ce bf 3e f1 76 21 bd
       0.27074695 -0.31823027 0.37462395 -0.039420072
000110 c2 8a 17 be 95 3e 97 3c 35 d3 63 3d 0b d9 1e 3f
       -0.14799026 0.018462459 0.055621345 0.6204993
000120 a3 18 8c 3e 2a 8f f4 3d 86 81 37 bd 81 fe 1b 3f
       0.27362546 0.11941369 -0.044801258 0.6093522
000130 e0 7e 31 3d 08 7f 8d 3b 40 e3 80 3d 03 ee 71 3e
       0.043333888 0.004318122 0.062933445 0.2362595
000140 b4 3f e2 3e 31 c0 bd be 2c 63 e2 3b 5b 80 a5 bc
       0.44189227 -0.37060693 0.006908795 -0.020202806
000150 37 69 8a 3e 94 bc f0 3e 88 94 2d bf 6d a7 39 3e
       0.27033398 0.47018874 -0.67804766 0.18130274
000160 23 80 ca 3e 52 99 aa be c4 fe 41 3c 57 58 08 3f
       0.39550886 -0.333201 0.011840526 0.53259796
000170 86 2c 74 3e 78 0c 55 3e 36 ec 2e bf b3 ef 17 3e
       0.2384511 0.20805538 -0.6832918 0.14837532
000180 ec f7 89 3e 2b ca 80 3d 41 f6 cf 3e 86 2f a5 3e
       0.26946962 0.062885605 0.40617564 0.3226282
000190 9c 35 c6 3d 4a bf 62 bc b6 da 18 3e c5 90 1f be
       0.09678194 -0.013839552 0.14927182 -0.15582569
0001a0 c5 dd db 3e 80 04 9d be 61 6b 06 3e ef 8c 57 bd
       0.42942634 -0.30667496 0.131269 -0.05262464
0001b0 e4 14 4a 3e fc ab 97 3e 13 5f 9d 3d f7 09 da be
       0.19734532 0.296234 0.076841496 -0.42585728
0001c0 f3 1b b2 3e 08 09 82 bd 3a 17 96 3e f0 63 f5 3b
       0.3478695 -0.06349379 0.29314595 0.00748872
0001d0 9f 7b 3b bd 40 ac 56 3e 6b 4c 0c bd 31 b9 87 be
       -0.04577219 0.20964146 -0.034252565 -0.26508477
0001e0 37 fb de 3e 49 71 a8 be 75 36 57 3e 31 00 8c 3c
       0.43551037 -0.3289893 0.21016867 0.017089935
0001f0 a1 1c b2 bd d4 59 67 3e 99 d1 d5 3c 1c 7b 1c 3d
       -0.08696867 0.2259286 0.02610092 0.038203344

linear2.weight f4 [10, 128]
000000 a4 b3 e6 3d 07 27 c2 bd 0f 8c 0f 3f c0 f9 59 bb
       0.112647325 -0.094801 0.5607309 -0.0033260435
000010 e4 7d a9 be 75 c3 19 be 16 5e 20 3e 77 c1 d6 bc
       -0.3310386 -0.15015967 0.15660891 -0.026215298
000020 0f 60 ec 3d 3a ed f7 3e 9f ed 59 be 38 b0 b0 3e
       0.11541759 0.48423177 -0.21282052 0.34509444
000030 0b b4 5b bd be 11 b1 3d 87 12 8a 3e 78 f4 0e bf
       -0.0536385 0.08645962 0.2696726 -0.5584178
000040 68 1c 1e bf 1f cd cb be f4 1b 86 be fb c2 01 bf
       -0.61762094 -0.39804932 -0.26193202 -0.5068814
000050 65 e3 df bd 3a 3f 0d 3f 09 f0 a0 be e5 00 2c be
       -0.10932044 0.551746 -0.31433132 -0.16797216
000060 86 1a 71 be 16 bf 0e 3e 8b 32 be be 87 db 37 bf
       -0.23545274 0.13940081 -0.37147936 -0.7181935
000070 5c 94 97 bd 72 76 1b bf c5 a3 b5 be bf 93 9e be
       -0.07401344 -0.6072761 -0.3547651 -0.30972096
000080 f3 ad 26 3e 21 7c e0 3d 6e 81 2b 3f 2b 24 c5 3e
       0.16277294 0.10961176 0.6699437 0.38504156
000090 16 d1 bc 3d 36 9c 8b 3d 9e fe 29 bf 0e 81 99 bf
       0.092195675 0.06816904 -0.6640414 -1.1992509
0000a0 01 02 ea 3e a2 be 52 bf 0c b5 2f 3d a3 3d 94 be
       0.45704654 -0.8232213 0.04289727 -0.28953275
0000b0 de 73 66 be 8a 26 09 bd 4a 1f fa 3d 23 74 a7 3e
       -0.22505137 -0.03348402 0.12212999 0.32705793
0000c0 f6 79 06 3f 2e 2a b4 be 0c 8b f4 3e 2f 32 b5 3e
       0.5252985 -0.3518843 0.47762334 0.3538985
0000d0 f4 62 7b bf 62 33 0d 3e 0c 91 19 bd d7 33 06 3d
       -0.98197865 0.13789132 -0.037491843 0.032764282
0000e0 90 0e 83 3e df 85 6a bf d1 77 3e bf e3 9d 10 be
       0.25597048 -0.9161052 -0.74401575 -0.14122729
0000f0 87 cf 71 bf da 00 7e bf 5e bc 14 3f 26 1e 4e bf
       -0.94457287 -0.9922005 0.58099926 -0.8051475
000100 03 a9 94 3d 7a 91 f9 bd 43 e4 85 3d a7 7c b8 bc
       0.07258799 -0.121859506 0.06537678 -0.022520376
000110 6c bf 26 3e 8e 98 ca 3d af 62 a5 bc d8 55 bb 3b
       0.16283959 0.09892379 -0.020188658 0.0057170205
000120 52 0a e6 be 10 c7 ce 3e 00 15 87 bd bc 99 22 be
       -0.4492975 0.40386248 -0.06595802 -0.15878958
000130 75 03 ed be 43 b9 56 bf 7e a0 74 3e 1d 27 da 3e
       -0.462917 -0.83876437 0.23889348 0.42607966
000140 90 fe 03 bf 3b cd a9 3e b2 4b 8e be 96 50 e3 be
       -0.51560307 0.3316439 -0.27792126 -0.4439742
000150 0c 2b ce 3e 82 a5 4c be c4 85 3c bd f1 a1 9c 3d
       0.40267217 -0.19985011 -0.046026006 0.07648075
000160 ec d2 94 bf 2a 01 18 bf 2a b2 bd 3e 83 7b 8b be
       -1.1626868 -0.59376776 0.3704999 -0.2724267
000170 c0 fd 85 bf 29 5e f2 be c2 c7 b9 bd b4 ea 4c 3e
       -1.0468063 -0.47337463 -0.09071304 0.20011407
000180 c2 e6 68 3e d9 9f e3 be c0 c5 26 3d ea ae 88 bd
       0.22744277 -0.44457892 0.040715933 -0.06673987
000190 b2 20 b0 be 3b e3 89 3e 70 44 cf 3e bd 7a 12 3e
       -0.34399945 0.26931176 0.404819 0.14304633
0001a0 c3 d4 ca bc 2a 57 a9 3c fe ae 24 3e 8f a1 30 bf
       -0.024759656 0.020671446 0.16082379 -0.6899652
0001b0 11 e1 88 3e d4 d4 b1 ba c5 ee 8b bd 97 bc 71 be
       0.26734212 -0.0013567456 -0.06832651 -0.23607098
0001c0 62 ee a0 bf 36 2b 22 3e b0 e6 ab bd f6 0d 9b 3e
       -1.2572749 0.15836796 -0.083936095 0.3028409
0001d0 65 22 9b bf c2 01 ec 3e 72 08 11 bd cd 0e 30 bf
       -1.2119871 0.4609509 -0.035408445 -0.68772584
0001e0 6e 79 db 3d c1 f8 c2 bd 44 17 4c be c3 97 79 3e
       0.1071652 -0.09520102 -0.1993075 0.24374299
0001f0 25 30 82 bf a5 e9 91 3e c6 f9 2d 3e ec 9a 55 3d
       -1.0170943 0.2849857 0.16989812 0.0521497
000200 5f be 3d 3f 83 ca d5 bd b0 c3 11 3d 9b ed 19 3f
       0.7411861 -0.10439017 0.035587013 0.6012818
000210 43 91 20 3e 4e dc d9 ba eb 61 fc bd 89 88 97 3e
       0.15680413 -0.0016621442 -0.12323364 0.29596356
000220 7b e6 9c bd 45 f1 ee 3e 2d dc 8b 3e 80 a6 2b 3e
       -0.07661148 0.4666845 0.27316418 0.16762733
000230 e5 e2 24 3e 0f c0 50 bd 1d b6 10 3e 2e b7 32 bf
       0.16102178 -0.05096441 0.1413197 -0.6981076
000240 00 bf 55 39 f3 0d 27 bf b8 70 3e bf 6b d8 d4 be
       0.00020384416 -0.6525566 -0.74390745 -0.41571364
000250 b2 d3 fb 3e ef 25 d0 bd 57 72 85 bd 41 2b 2c 3f
       0.49184948 -0.10163485 -0.06515949 0.672535
000260 f0 e0 16 3f 24 0f 88 bd e1 e5 c6 3c f0 36 d8 be
       0.5893698 -0.06643513 0.024279537 -0.42229414
000270 2f e7 ba 3e 15 f9 4b bf 44 af e9 bd 5c f1 77 be
       0.36504504 -0.79676944 -0.114103824 -0.24213165
000280 68 97 00 3f e4 ae d8 3e 95 3b f5 be 0d fe 87 be
       0.5023103 0.4232093 -0.4789702 -0.26561013
000290 5b 19 30 bf 93 48 fe 3e bf 46 94 bd 33 5e 1a 3e
       -0.6878869 0.49664745 -0.07240056 0.15074997
0002a0 ab 16 40 3e cc 07 59 3f 4c eb 96 be e8 50 1c 3e
       0.18758647 0.8477752 -0.29476392 0.15265238
0002b0 33 df 4d 3f e2 f8 05 3f 30 71 29 be 16 52 3c 3c
       0.804187 0.5233289 -0.16547084 0.01149418
0002c0 da 03 ea bd 5d b2 09 3f 44 88 f4 be f9 6c e2 bc
       -0.11426516 0.53787786 -0.47760212 -0.027639853
0002d0 83 98 32 bd 9c f6 1b be 06 b6 0f 39 4b 1f 19 be
       -0.043602478 -0.15230793 0.00013705352 -0.14953344
0002e0 c1 15 2b be bc d8 9a 3e 13 7d 7b bf 75 0f 3f bf
       -0.16707517 0.3024348 -0.98237723 -0.7463296
0002f0 63 7e e9 3d 54 ba 4c be cb d3 19 bf c5 eb f7 3e
       0.114010595 -0.19992954 -0.60088795 0.48422065
000300 67 5e 33 3f 36 45 40 3f 98 51 df 3e 73 81 ac 3c
       0.7006592 0.7510561 0.4361694 0.02105782
000310 78 e2 2e bf 0e 3a a7 be e8 a8 b7 3e b2 1a c1 bd
       -0.68314314 -0.3266148 0.35871053 -0.0942892
000320 c5 12 9d 3d a9 01 ac be e9 3b 3a bd a5 38 15 bd
       0.07669596 -0.33595017 -0.04546729 -0.036430974
000330 02 87 aa be 32 be cf be 3f 9b dc be ce 32 50 3d
       -0.33306128 -0.40574795 -0.43087193 0.0508297
000340 de 12 e1 be bc dc 2a bf 2c c8 bf be 9f a4 28 3f
       -0.43959707 -0.66743064 -0.37457407 0.6587619
000350 46 c3 2c bf 7f 3f 97 be 5a 3b 40 3d 49 2b 09 be
       -0.67485464 -0.2954063 0.046931602 -0.13395418
000360 75 a7 b8 3e 23 9c fb 3e 18 2d d8 3d cc 02 45 3f
       0.3606526 0.4914256 0.10555476 0.7695739
000370 eb e1 ce 3e aa f9 7d be 9e 42 4f be e2 fa 4c be
       0.40406737 -0.2480227 -0.20240256 -0.20017579
000380 91 d3 13 3c 59 2c d1 3e b2 12 23 be 6a f8 b5 be
       0.009022609 0.40854147 -0.159251 -0.35541087
000390 26 c5 cf 3d 15 e8 50 bf 7b 9d bb 3b e1 fb d6 be
       0.10145025 -0.8160413 0.0057255602 -0.41989043
0003a0 60 da 90 bd 88 ca e4 3e 43 40 2b 3d 41 dd b5 be
       -0.07072902 0.4468577 0.04180933 -0.35520366
0003b0 63 67 4b 3d 7c 4e 03 be c2 18 76 3e a4 b4 06 3f
       0.049659144 -0.12822908 0.24032882 0.52619386
0003c0 47 4c 38 3f 0f 45 ed be 2a a6 56 bf 16 7a a8 3d
       0.7199139 -0.4634175 -0.83847296 0.08226411
0003d0 58 ce 75 bf ae 23 da be 08 47 3c 3e 10 40 50 be
       -0.9601798 -0.42605346 0.18386471 -0.20336938
0003e0 96 ba c7 3c bc ca d8 bc ab 61 77 bd 7f 3c 4b be
       0.024380963 -0.026463859 -0.060395878 -0.19847296
0003f0 0f b4 44 bf 68 8a 40 bf 83 74 68 be 34 5e 9b be
       -0.7683725 -0.7521119 -0.22700696 -0.3034531

linear2.bias f4 [10]
000000 a6 2e 20 3e f5 95 a5 be 26 6d 26 be b7 78 a7 be
       0.15642795 -0.3234097 -0.16252574 -0.32709286
000010 36 6c b1 3d 98 04 1d bc 55 97 1e 3b 55 5c 04 bf
       0.08663218 -0.009583615 0.0024199088 -0.5170339
000020 eb cb 38 3f fd 5d 8e 3e
       0.72186154 0.27806082
