models/FashionMNIST/cnn_num-modules=2_seed=026/099.pth (torch, 58727 bytes, 8 tensors)

conv1.weight f4 [32, 1, 3, 3]
000000 a7 dc db 3e c6 35 19 3f f3 4b 27 3f 39 67 e6 3e
       0.42941782 0.59847677 0.65350264 0.45000628
000010 ab 0c 01 3f 38 29 e8 3c 74 72 93 be a1 54 bd bd
       0.50409955 0.028339967 -0.28798258 -0.09244657
000020 ab 31 c0 3e 43 cb 9c 3e 52 23 13 bf b6 b0 98 3e
       0.37537894 0.30623826 -0.5747577 0.2982232
000030 e7 65 0f 3f 5b 4f d4 be 7b 65 1a be 37 7e 14 3e
       0.56014866 -0.41466793 -0.15077774 0.14501272
000040 c2 d8 06 bf d1 af c1 3e 88 39 9a 3e 4b d2 32 be
       -0.52674496 0.3782945 0.30122018 -0.17463033
000050 cf a7 06 bf 67 96 b7 3d 6c c4 c2 3e f4 a5 c2 bd
       -0.52599806 0.08964234 0.38040483 -0.09504309
000060 05 9e 52 bd f1 ca a6 3e 32 55 a9 3e c4 d8 20 3e
       -0.05142023 0.32576707 0.3307281 0.1570769
000070 a1 ad 94 3c 92 12 85 3f 90 cf 63 3e 9e 3d 67 3f
       0.018149199 1.0396292 0.22247148 0.90328395
000080 bd a5 1a 3f 89 18 14 3f c5 49 33 3f 5b 45 08 bc
       0.60409147 0.5784994 0.7003444 -0.008317317
000090 b2 8e aa be 17 42 9e 3e 79 51 b5 3d 31 a8 c4 be
       -0.33311993 0.30909798 0.0885343 -0.3840957
0000a0 bf 1c 01 3d ab a9 e8 3e 77 0d 05 bf 7d ef 69 be
       0.031521555 0.45441946 -0.5197367 -0.22845264
0000b0 55 ab 13 3f 70 4c ae 3d 1f d5 b7 be 25 fd 0a 3f
       0.57683307 0.08510673 -0.35904786 0.5429252
0000c0 9c 8d 22 3f 4f 23 33 bf 01 06 d6 3d d0 c5 7e 3e
       0.6349733 -0.6997575 0.10450364 0.24880147
0000d0 3c 7d 8b be a8 62 da be fb 1b 49 bf 74 29 cf bf
       -0.27243984 -0.42653394 -0.7855832 -1.6184525
0000e0 a6 b5 30 bf d8 6b 93 bf a2 88 c2 be 47 36 36 3e
       -0.69027174 -1.1517286 -0.37994868 0.17794143
0000f0 07 3e e2 be 81 d1 15 3f 2c 4a b4 3e 99 f6 8b be
       -0.44187948 0.585228 0.3521284 -0.27336577
000100 1e db 67 3e ec 69 97 3d 0e 04 2f bf b9 9a c9 3e
       0.2264218 0.0739325 -0.6836556 0.39375857
000110 67 b5 92 3e f8 bf 08 bf 1e 5b b2 3e 7c 7b 3a 3e
       0.28654024 -0.5341792 0.34835142 0.18211168
000120 5e 95 ce bd b2 ab 64 be ac 6d 39 3e af 92 2f 3c
       -0.10087083 -0.22331122 0.18108243 0.010716124
000130 fb 5f 90 3e 9a 4d af 3e db 60 a2 3e 57 12 f5 3e
       0.28198227 0.34238893 0.3171452 0.47865555
000140 5f 86 3a 3f 53 3a 82 3e a7 d0 e9 3e 08 fa b3 3e
       0.72861284 0.25435123 0.45667002 0.35151696
000150 1e af cc 3d 41 e9 1f 3e 9a 9b 15 bd f5 b8 cc 3d
       0.099943385 0.15616323 -0.036525346 0.09996215
000160 2c ac 9b be 5c 42 21 bd ff 55 77 bd 8e fb a7 3e
       -0.30404794 -0.039369926 -0.060384747 0.32809108
000170 e6 07 ad 3e 98 0c e3 3e 3a f5 f2 bf 21 bd ec 3e
       0.3379509 0.44345546 -1.8981087 0.46238044
000180 36 28 00 c0 7e 32 8b c0 24 41 42 c0 6c 07 c5 bc
       -2.0024543 -4.3499136 -3.0352259 -0.02405139
000190 da a5 33 3f 70 ec 16 be 85 7f 80 3e 4b 01 df 3e
       0.70174944 -0.14738631 0.2509729 0.43555674
0001a0 d9 90 9e 3e 47 85 4a 3f 33 6d 76 3f 28 5d 50 3f
       0.30969885 0.79109615 0.96260375 0.81392145
0001b0 93 fb 89 3e 4c 64 04 3f 56 6a a2 bd 4f 0d a3 3e
       0.26949748 0.5171554 -0.07930438 0.3184609
0001c0 c5 4f 75 3e 74 b5 a5 be f2 86 a5 be c1 40 43 3d
       0.23956211 -0.32365 -0.32329518 0.047669176
0001d0 38 c8 2a 3e da 00 e3 3e f7 2a f5 3e a3 f6 24 3e
       0.1667794 0.44336587 0.47884342 0.1610971
0001e0 5b 95 9c 3d 6f 2d bd 3e e0 b9 e3 3e cc 5d 46 3c
       0.07645675 0.36948726 0.4447775 0.012107324
0001f0 61 84 63 3e 32 24 ae 3e bb fe 86 3e 6a d2 ad be
       0.22218467 0.3401199 0.2636622 -0.33949596
000200 04 f7 4f 3e f5 9d 19 3e b7 80 49 3e 63 85 53 be
       0.20309073 0.15001662 0.19678007 -0.20656352
000210 c5 88 ba bd 7b 41 e6 3e 99 33 36 be c1 4e b5 be
       -0.09108118 0.44971833 -0.1779312 -0.35411647
000220 9a 95 1b c0 33 fc 28 c0 45 12 57 bd 8c 86 4d bf
       -2.431006 -2.640393 -0.052507658 -0.8028343
000230 bf eb 2b 3d cf 52 2f 3f 0f a6 b3 3e cb 5c b3 be
       0.041972872 0.6848573 0.3508763 -0.35031733
000240 be 4d ea be dd 53 38 bd 68 8a 6d 3e be b9 ee be
       -0.45762438 -0.045001853 0.23197329 -0.46626085
000250 f9 55 bc bf 47 a0 ed bf 71 c7 23 3f 5f 2f 30 bf
       -1.4713737 -1.8564538 0.639762 -0.6882228
000260 5a b3 cd be c1 b0 37 3c bf 1c 0e 3e 16 af f3 3e
       -0.40175897 0.011211575 0.13878153 0.47594517
000270 41 f2 d0 3e d4 91 82 3e d9 9b 7d bd f1 49 ec be
       0.40809825 0.25501883 -0.061916206 -0.46150163
000280 fe db d0 be f8 11 d7 be 9a 2d 63 bf 24 9e a0 be
       -0.4079284 -0.42005897 -0.8874146 -0.31370652
000290 96 8b 38 3f dc 3e 1e c0 0c 92 25 c0 f1 a7 a5 be
       0.7208799 -2.4725866 -2.587039 -0.32354692
0002a0 ff 7e 0b bf 4a 21 51 c0 72 33 b1 be 51 33 81 be
       -0.54490656 -3.2676568 -0.34609562 -0.25234464
0002b0 43 68 d0 be 8c d5 28 3f c2 99 c4 be 8e 5d b0 be
       -0.40704545 0.65950847 -0.38398558 -0.34446377
0002c0 68 31 26 3f 26 20 5f 3d 89 8a c6 3c d5 16 9b 3b
       0.6491914 0.05447402 0.02423598 0.0047329464
0002d0 cc 23 77 be 03 63 4b 3e 0a 2e e2 3e 75 f4 3e be
       -0.24134749 0.19861989 0.4417575 -0.1864794
0002e0 c7 c7 a0 3e 0d 48 10 3e 56 39 d8 bd 40 90 0d 3e
       0.31402418 0.14089985 -0.10557811 0.13824558
0002f0 ab 70 8d 3e e1 e9 0c 3f da aa 7f 3e eb 27 56 3d
       0.2762502 0.5504437 0.24967518 0.052284162
000300 6d 06 b7 3e 56 d6 52 be 6e 12 2c 3f d4 83 72 be
       0.3574709 -0.20589575 0.6721562 -0.23683101
000310 6f 6a 83 3e 81 93 cb 3e c7 81 fb be 00 35 71 bf
       0.2566714 0.39760974 -0.4912245 -0.94221497
000320 ed 21 d8 be e2 10 ea 3d c3 6e 0c 3e 73 56 b4 3e
       -0.42213383 0.114290014 0.13714127 0.35222206
000330 28 f6 70 3e 81 05 27 3f 2d 2e d2 3e 8b 92 02 3d
       0.23531401 0.65242773 0.41050854 0.031878036
000340 bb 46 dc 3d e1 24 bc 3d bc 29 ad 3e 8d ed f2 3d
       0.10755678 0.091867216 0.33820903 0.118617155
000350 dd d4 96 3e 70 55 c4 3e fa 2f c9 be c5 50 23 be
       0.29459277 0.38346434 -0.39294416 -0.1594878
000360 4b 01 6f be 51 eb fc be f5 a5 58 be 71 e2 9a 3e
       -0.23340337 -0.49398282 -0.21157058 0.30250886
000370 ce 08 cf be f6 82 de 3e e7 35 3a 3e 3a 85 50 bc
       -0.40436405 0.4345929 0.18184625 -0.012727076
000380 7c 73 ec 3e e7 b6 a9 3e 6d d7 21 be c7 88 f5 be
       0.46181858 0.33147356 -0.15804835 -0.47955915
000390 ea 60 46 bc 8a 01 13 3f ff 07 34 3e ff cb 23 bf
       -0.012108067 0.57424223 0.17581175 -0.6398315
0003a0 2c 83 05 be f8 6f 17 3f a1 36 e3 be ba 17 bf 3e
       -0.1303832 0.59155226 -0.44377616 0.3732279
0003b0 67 61 c7 3e 59 f6 9a be a0 f9 3e be 84 5d c9 3d
       0.389415 -0.30266073 -0.18649912 0.0983229
0003c0 ab 89 8a 3d 16 37 3b 3e 24 42 d9 3e e8 96 ed be
       0.06764539 0.18282732 0.42433274 -0.46404195
0003d0 8a d5 b2 be 94 b1 89 3c 98 d2 e3 3d 88 42 1c bf
       -0.34928542 0.016808309 0.11124152 -0.6103902
0003e0 d4 64 13 3f c2 21 ab 3e c3 49 7e bf 78 87 cf 3e
       0.57575727 0.33424193 -0.993313 0.40533042
0003f0 dd f0 36 bf 34 91 d9 be ba 0f a2 3d eb 21 3b 3e
       -0.7146128 -0.42493594 0.07913156 0.18274657

conv1.bias f4 [32]
000000 83 88 2a 3b 4e cd 9e bc 8d eb ad bd 36 92 57 3b
       0.0026021309 -0.019385006 -0.08492193 0.0032893545
000010 c0 d2 83 bc d3 8d be 3d 9e 65 ad 3e 3d 9c 8c bc
       -0.016091704 0.093043946 0.3386659 -0.017164344
000020 82 84 9e bb 69 ab b1 3c f3 78 d4 3d 4f 3a 24 3c
       -0.0048375735 0.02168818 0.10374632 0.0100236675
000030 82 cf db bb a1 55 aa 3d e0 cd 57 ba e9 5f 82 3d
       -0.0067080865 0.08317114 -0.0008232277 0.0636595
000040 08 55 99 3e 36 f1 ee ba 85 b5 3c 3e 4c e4 e1 3a
       0.29947686 -0.0018229845 0.18428619 0.0017234175
000050 e2 72 88 3b ff 0c 70 3b bb 9f 2b bd 19 17 00 bf
       0.0041640857 0.003662884 -0.041900378 -0.50035244
000060 e5 b6 1a be 34 81 1b bc ed 96 aa bd b7 52 ad 3e
       -0.15108831 -0.009491254 -0.08329568 0.3385217
000070 0e d6 95 3e 69 68 d2 3d 5e 71 53 be 72 50 79 3e
       0.29264873 0.10273821 -0.20648715 0.24347094

conv2.weight f4 [32, 1, 3, 3]
000000 7d 89 8f 3d 1c 41 51 3e 1a 96 42 bd fa 56 eb 3d
       0.07008646 0.20434994 -0.04750643 0.11491199
000010 a4 32 b9 3e 89 8e cb 3e 51 69 d9 be b9 1e 5e be
       0.36171448 0.39757183 -0.42463163 -0.21691407
000020 fe 36 2c be 5a ed d8 bd 54 dd 0f bf 5e b2 33 bf
       -0.16817853 -0.10592146 -0.56197095 -0.7019404
000030 8a 72 c1 bf ae eb a5 bf 18 bf 84 bf 9b bd 62 bf
       -1.511308 -1.2962549 -1.0370817 -0.88570565
000040 92 52 61 bf ac 8e 97 be 0f ac 92 be 35 f8 8b be
       -0.8801662 -0.29601038 -0.28646895 -0.27337804
000050 b2 c2 65 be 2b 1d a3 be 29 3f c8 be 98 ad 26 3e
       -0.22437552 -0.3185819 -0.39110687 0.16277158
000060 ed 06 96 3e a9 7c b8 be 10 86 94 3d 41 32 f6 3d
       0.2930216 -0.36032608 0.07252133 0.12021304
000070 01 5f 04 3f 57 90 f6 be b5 54 fd 3e e0 66 82 be
       0.51707464 -0.48156998 0.4947869 -0.25469112
000080 08 05 92 be ba 33 5e bd 0d 06 59 be 0b 4e 8f 3e
       -0.28519464 -0.05424855 -0.21193714 0.2798923
000090 36 ee 1e 3f a9 ae 0e bf cc 5d 04 bf f3 46 73 3f
       0.6208223 -0.5573526 -0.5170562 0.95030135
0000a0 b9 0c 36 3e 30 05 06 bf bd f7 41 3f 61 eb f1 bd
       0.17778291 -0.52351665 0.75768644 -0.11812473
0000b0 0c eb 93 be e0 55 17 bf 2c f5 2f be 8f a7 15 be
       -0.28890264 -0.5911541 -0.1718337 -0.146147
0000c0 e8 2c 24 bf 0f c4 fb bc 1b 6c 62 3f aa 75 5b 3d
       -0.6413102 -0.030733136 0.88446206 0.05357901
0000d0 f6 ea ed 3d 45 bd 0c 3f 9b 18 a7 be a2 df 1e bf
       0.11617081 0.549763 -0.3263596 -0.62059987
0000e0 48 36 8c 3e 55 ee 5f bf d7 08 60 bf 03 87 4c 3e
       0.27385163 -0.8747304 -0.8751349 0.19973378
0000f0 82 91 c6 bd a0 81 09 bf 92 59 8f bd 1e 34 ca 3e
       -0.09695722 -0.5371342 -0.06999506 0.39492887
000100 e3 3a 25 3f 6a 09 12 3f 9a a3 5f 3f f5 74 b7 3f
       0.6454298 0.57045615 0.8735901 1.4332567
000110 f8 33 3b 3f 6a 33 d3 3e 91 6e 41 3f 81 eb 2d 3e
       0.73126173 0.41250163 0.75559336 0.16984369
000120 63 e4 de 3e 0a 0a 19 be 9e 41 b4 3e 21 53 b6 be
       0.4353362 -0.14945236 0.35206312 -0.35610297
000130 8a 18 ad be 39 81 2c 3d b5 76 18 3e 1c 0b bf bd
       -0.33807784 0.042115424 0.14889033 -0.09328291
000140 8f e4 b0 bc 55 9f 8d 3e 8b 11 d3 3e 2e 57 97 3e
       -0.02159336 0.27660623 0.41224322 0.295587
000150 9d 68 cd be 7c 81 07 be 70 4a 36 3e 46 c7 ef be
       -0.40118876 -0.13232988 0.17801833 -0.4683172
000160 8b ec c6 3d f7 6d 8d 3e 7f 79 89 be e0 3f 46 3f
       0.09713086 0.2762296 -0.26850507 0.77441216
000170 1e da 30 3f 2f 10 38 3f b7 d1 8b 3f dc 96 80 3e
       0.6908282 0.71899694 1.0923375 0.25115097
000180 f5 8c 4a 3f 50 80 0b 3f 73 08 6a be 10 87 76 bd
       0.79121333 0.54492664 -0.22854786 -0.0601874
000190 d3 cc 2a be d7 67 23 3c d5 04 28 be 2c 30 f1 bd
       -0.16679697 0.009973488 -0.16408093 -0.11776766
0001a0 79 0a 88 3e 18 df 28 3f b7 b1 ce 3d 7f b9 02 bf
       0.2657049 0.65965414 0.1009249 -0.51064295
0001b0 c8 2c 08 bd e3 a2 de be 83 fa 89 be 1c fb 9e bc
       -0.03324583 -0.43483648 -0.26948938 -0.019406848
0001c0 22 0f b9 bb 3c 12 8a be 2c 35 92 3e ba d1 95 3e
       -0.005647556 -0.26967037 0.28556192 0.2926157
0001d0 f7 0c 8e be 93 c6 f7 3e 18 13 aa 3c 2f cb 8d be
       -0.27744266 0.48393688 0.020761058 -0.2769408
0001e0 0b f2 3f 3e 9f f4 27 3d e0 90 5f be ac f3 da 3e
       0.18744676 0.041004773 -0.21832609 0.42764032
0001f0 95 35 81 be ca 27 d6 be 7d 87 39 be e2 e8 8a 3e
       -0.25236192 -0.41827232 -0.18118091 0.271308
000200 73 66 9d 3e 50 6a 08 bf f7 40 39 be 70 b3 a7 3d
       0.30742225 -0.5328722 -0.18091188 0.08188522
000210 c3 48 8c be 45 3d 0c 3e af bb cf 3e 86 08 c4 3c
       -0.27399263 0.13695247 0.4057288 0.023929846
000220 7b db 21 3f 3c a1 4b 3f 18 db 43 3f d5 98 8c 3f
       0.63225526 0.795429 0.76506186 1.0984141
000230 6c dd bc 3f 9c c3 81 3e d4 9e f2 3e 12 5a 97 3f
       1.4755073 0.2534455 0.473868 1.1824362
000240 e7 11 b8 3d 30 66 c7 be 00 c1 0f bf 81 e9 b9 be
       0.089877896 -0.3894515 -0.5615387 -0.36310962
000250 e3 37 05 bf fe ce 30 bf d2 14 66 3e 63 0b 32 be
       -0.520384 -0.69065845 0.2246888 -0.17387156
000260 80 73 c4 bc 92 5c e3 3e 91 d6 47 3f e8 0c 25 bd
       -0.023980856 0.44406563 0.7806178 -0.04029551
000270 b5 62 4b 3f cd b5 24 3f df d1 79 3e 32 6a 13 3f
       0.7944749 0.64339906 0.24396466 0.57583916
000280 0c a6 3a 3f b8 f9 e7 3e cd 9f 58 be 29 8c ca be
       0.7290962 0.45307708 -0.21154709 -0.3956006
000290 fa cd eb be 22 83 67 be 45 b6 9d bf 37 2e 86 bf
       -0.46055585 -0.22608617 -1.2321249 -1.0482854
0002a0 2d 65 33 bf 2f 68 45 bf 2f 80 36 bf ef 56 12 bf
       -0.70076257 -0.77112097 -0.7128934 -0.571639
0002b0 5d df 01 be 2f a7 cc bc 80 0a 27 bf 35 1b 2c bf
       -0.12682863 -0.024982063 -0.65250397 -0.67229015
0002c0 5e 4b 1d bf 88 9f c2 be 28 37 61 be ec 8f 27 3d
       -0.61443126 -0.38012338 -0.21993697 0.04090874
0002d0 5f ec 80 bd aa 97 5a 3e 94 10 01 be 14 5a 6d 3e
       -0.06295084 0.21346918 -0.1260398 0.23178893
0002e0 de 82 92 be a9 e8 06 bf 48 b6 f2 3e 7b 3d e5 3a
       -0.2861547 -0.5269876 0.47404695 0.0017489636
0002f0 3b 22 87 be e7 4c d3 bd b9 77 5a 3e 11 28 83 3e
       -0.26393303 -0.10317402 0.21334733 0.25616506
000300 92 39 85 be c5 6d 32 be 8a 41 81 3e a3 73 17 bd
       -0.26020485 -0.17424686 0.25245315 -0.036975514
000310 32 54 8a be 08 64 d4 3e 78 97 6f bf c5 6c 01 bf
       -0.2701736 0.41482568 -0.935905 -0.50556594
000320 90 ba 00 be 07 b2 d4 bf 0b cd 5b bf 45 70 c7 3d
       -0.12571168 -1.661683 -0.85859746 0.097382106
000330 78 e9 8f bf 99 86 12 bf 0b a3 fa 3c 85 f6 13 3e
       -1.1243124 -0.5723663 0.030595323 0.14449508
000340 d6 ab 57 3f 66 67 14 3f e5 a7 92 3e ed ba 20 3f
       0.84246576 0.57970273 0.28643718 0.62785226
000350 6b f4 81 3e a2 d6 22 3e 62 11 98 3e 2b bb b5 3d
       0.2538179 0.15902188 0.29700762 0.0887359
000360 6e 78 41 3e bc bd 1d be 2c ea d9 be 3d f8 30 bf
       0.18893597 -0.15404409 -0.4256147 -0.6912878
000370 f1 3e 45 bf 53 07 f7 be d9 62 0e bf a6 eb 22 bf
       -0.77049166 -0.48247775 -0.5561958 -0.6364082
000380 52 fe a6 be 2b 96 a7 be ec 32 c6 3e 8a 90 06 3f
       -0.32615906 -0.32731757 0.38710725 0.525643
000390 9e 99 76 3c 80 a0 fa bd 71 52 ce 3c 06 3e 0c bb
       0.015051274 -0.12237644 0.025185796 -0.0021399274
0003a0 65 37 a1 be e6 71 d6 be 01 28 ae be c5 4b e3 be
       -0.31487575 -0.41883773 -0.34014896 -0.44393745
0003b0 14 0e dd 3c db 55 88 3e 2c 8a d5 be 5b 6c 92 3e
       0.026984252 0.26628003 -0.4170698 0.28598294
0003c0 00 b5 1e bd e4 40 f1 be 3c cb 24 3e 8a f9 07 bf
       -0.038746834 -0.4711982 0.16093153 -0.5311514
0003d0 c9 32 31 be ec a4 56 3e f8 3c 3e bf 21 91 f8 bd
       -0.17304529 0.2096135 -0.7431178 -0.12137056
0003e0 02 bc b9 3e 1d 48 25 bf 93 f5 35 be 57 d5 80 be
       0.3627625 -0.6456316 -0.1776946 -0.25162765
0003f0 7c 0b 39 bf 77 78 99 be a2 d5 ed 3e 97 2a 55 bf
       -0.7228315 -0.2997472 0.4645205 -0.8326811

conv2.bias f4 [32]
000000 b4 7e 85 be 65 38 88 3d ee d6 bd bd 5e 78 09 bd
       -0.2607323 0.066513814 -0.0926951 -0.033562057
000010 f8 10 89 3e de 1b ec 3d 7c 6f df 3e 8a 7a 3b be
       0.2677076 0.11528753 0.43639743 -0.18308464
000020 b0 3c 9c bc 15 d2 39 3d f6 ca 84 be fb 91 fc 3d
       -0.019071907 0.045366365 -0.25936097 0.12332531
000030 23 bc d6 3b 00 a0 0f bd c1 98 2c be d4 cc 32 be
       0.0065531894 -0.035064697 -0.16855146 -0.17460948
000040 f9 42 3a 3d f0 2f 79 be 92 69 c1 3e c4 60 75 3e
       0.045474026 -0.24334693 0.37775856 0.23962694
000050 13 d8 a0 3d c9 cf bf 3b 14 96 15 3d 62 bb 8d bd
       0.07853713 0.0058536273 0.03652008 -0.06920506
000060 38 97 77 3d 36 93 f3 3c d0 59 b8 3d 81 9c 39 3e
       0.060446948 0.029733282 0.090015054 0.18126108
000070 be 1b 8f 3e 92 53 3e bd 66 75 7d be 46 1e ca bd
       0.27950853 -0.046466418 -0.24751815 -0.098690554

conv3.weight f4 [20, 32, 1, 1]
000000 79 bd 6d bd d3 24 85 3f b4 12 a3 3e 7c 67 04 bf
       -0.058042023 1.0401863 0.31850207 -0.51720405
000010 1a b5 c6 be 07 80 f9 3d 2c e3 6f be 95 5f 23 bf
       -0.38810045 0.121826224 -0.23426503 -0.6381772
000020 6e f3 ae bc 08 da 0c 3e c2 ca 13 bf f3 44 1f bd
       -0.02135631 0.13755047 -0.5773126 -0.038884114
000030 ef 8e 8e bc 64 85 f8 be 84 ec cb 3e be 87 24 3c
       -0.01740214 -0.4853927 0.39828885 0.010042129
000040 fe 2b bc 3d 6c fd 3c 3e 68 d8 4c 3f 63 ba db 3d
       0.09188078 0.18456048 0.8001771 0.1072891
000050 af 3c e6 be 19 9c f8 3d 21 d1 75 be 64 fd 28 be
       -0.44968173 0.12139148 -0.24005558 -0.16502911
000060 22 a6 8a 3b 49 0f 3e bc db bc d6 3d cb 84 9e 3e
       0.0042312304 -0.011600324 0.1048524 0.30960688
000070 f8 a2 02 bf d0 7c ad be af 5e 44 bf 42 21 bb be
       -0.5102992 -0.33884287 -0.76706976 -0.3654881
000080 d0 f5 ad 3d b1 04 51 bd f0 03 ca 3e a2 d0 04 3e
       0.08494151 -0.051029865 0.3945613 0.12970212
000090 bb ac 0b be 23 6f 5d 3d cf 02 a7 be 16 d9 b7 bd
       -0.1364011 0.054061066 -0.3261933 -0.08976953
0000a0 e9 d8 2c bd 22 de 28 3d 12 5a fb 3d f5 9d 21 3d
       -0.04219905 0.041227467 0.12273039 0.03945728
0000b0 cd fb 00 3d e4 bf 81 be b7 a5 b0 3d 01 fc 3d 3e
       0.031490136 -0.25341713 0.086253576 0.18553163
0000c0 b8 1a d6 3a cd 78 a0 3e b1 76 d1 3e 71 66 19 bf
       0.0016334867 0.31342164 0.40910867 -0.5992194
0000d0 a0 ba 5b be 2a e6 dc 3d df 48 58 be bd 4f 65 bd
       -0.2145791 0.10786088 -0.21121548 -0.055984247
0000e0 ac e4 f1 bd 62 66 a2 3d c7 a2 f9 bd aa 38 23 3e
       -0.11811194 0.07929684 -0.121892504 0.15939584
0000f0 70 20 1a bf 20 af 1d bd 48 d4 ac be c5 7f c9 bd
       -0.60205746 -0.03849709 -0.33755708 -0.09838823
000100 3d 3f c3 be 7a ef 15 3c e1 0a 3d be 6d a5 7b bd
       -0.38134184 0.009151334 -0.18461181 -0.06143706
000110 66 e7 99 be 7a ed 35 be a2 7f e6 3e 6b e8 78 bf
       -0.30059355 -0.17766371 0.4501925 -0.9722964
000120 da 55 97 be 31 74 ee be 0d 51 78 be 84 32 25 3b
       -0.29557687 -0.46573022 -0.24249668 0.0025207112
000130 c7 03 32 3f 77 c6 7b 3e 22 20 8d 3d 9a 14 92 3e
       0.69537014 0.24587427 0.068908945 0.28531343
000140 50 4c a9 be cd 2a 3d be e9 08 3c bf 31 17 1a 3f
       -0.33066034 -0.18473358 -0.73451096 0.6019164
000150 ea 2a 47 3f 23 49 2d bf 07 09 70 3e 8f 64 87 bd
       0.77799857 -0.6768972 0.23440944 -0.06610977
000160 6f a8 aa 3c 09 98 4f bd 73 79 72 3e bc 4b 80 3e
       0.020832269 -0.0506821 0.23679142 0.2505778
000170 74 fe c9 bd c6 9f c2 3d b1 bc 69 3d 59 c5 05 3a
       -0.09862986 0.095031306 0.057064716 0.00051029545
000180 e4 32 6d be f4 a6 53 bd 99 0f 8b bd a3 b2 95 3e
       -0.23163944 -0.05167289 -0.067900844 0.29237852
000190 b8 6e ad 3e b3 00 a6 be 2e 83 a8 3e 9c 1d a0 3e
       0.33873534 -0.32422408 0.32912582 0.3127259
0001a0 ea 03 ae bd c9 1a 38 3e af bd 20 be 65 2c 44 3d
       -0.0849684 0.17978968 -0.15697359 0.0478939
0001b0 49 e4 c0 bd ed a7 e1 3e 04 c2 ef bd 2e 5d 2c 3d
       -0.09418542 0.4407343 -0.117069274 0.04208105
0001c0 00 2e 81 bd 82 b0 f0 be 46 fc b3 be 66 cb 0a bf
       -0.06307602 -0.47009665 -0.35153407 -0.5421661
0001d0 e2 8d 24 3e 7e c4 88 3d 1c 18 94 3e 9b c8 6d be
       0.16069749 0.06678103 0.28924644 -0.23221056
0001e0 f7 4c 4c be af bf a6 be 74 19 71 be 3d e9 3f be
       -0.19951235 -0.32568118 -0.23544866 -0.18741317
0001f0 57 6f 85 3e 0a d8 c5 bc ab 74 5c bd 0c fd a9 3d
       0.26061508 -0.024150867 -0.0538222 0.08300218
000200 99 6d 0a 3d d7 f5 5d 3e 62 11 4b bc 24 71 93 bb
       0.033795927 0.21675812 -0.012394281 -0.0044995714
000210 81 b6 d2 3e b8 3d 94 bd 18 4a bd 3e 53 77 a0 3e
       0.41154864 -0.072383344 0.36970592 0.31341037
000220 58 0d b4 be 7e c8 a6 3e 21 f4 42 be df 47 f3 bd
       -0.3516643 0.32574838 -0.1903844 -0.11878943
000230 74 6a fd 3c 39 53 ca 3d 59 c0 02 3e d6 87 30 3d
       0.03093455 0.09879155 0.12768687 0.043098293
000240 ee 8d 8f 3e 61 21 38 bd 45 4c f9 3d c8 77 84 be
       0.2803797 -0.044953708 0.121727504 -0.25872636
000250 10 cc 73 3e 9a ef 8e 3e 62 df cd 3f 5b f6 37 bf
       0.23808312 0.27917176 1.6083796 -0.71860284
000260 9a 2a 8d 3e 2c 57 ab be 95 ae 73 3d b4 cf fe be
       0.27571565 -0.33464944 0.059492666 -0.4976784
000270 e9 52 c3 3e 0b ca 0b 3e 7c bb fb bd e4 bd c2 3d
       0.38149193 0.13651292 -0.12291619 0.09508875
000280 9b 27 25 be 4b a2 23 be 42 1a 99 3c 78 7e 02 bf
       -0.1612839 -0.15979879 0.018689279 -0.50974226
000290 84 06 ad 3e b1 50 53 3c ed e5 59 bf 13 4e b0 3e
       0.33794034 0.012897656 -0.85116464 0.34434566
0002a0 e7 83 bb bd bb fd 86 3e c6 e7 ab be 48 95 45 3e
       -0.09156018 0.26365456 -0.33575267 0.19295228
0002b0 9e 57 9a 3d c0 7c b8 be 06 cf c9 3e b5 d6 77 bd
       0.07536243 -0.36032677 0.3941576 -0.060507495
0002c0 bd 3f a0 bd 43 aa 3d be d0 c0 fa 3e ef 85 6a be
       -0.07824657 -0.18521981 0.4897523 -0.22902654
0002d0 81 47 3d 3d 0b ae e1 3d ca a1 d3 3e a1 f5 5b 3c
       0.04621077 0.11019524 0.41334373 0.013425262
0002e0 e7 a7 73 3d a1 76 53 bd ed fe 9d bd 93 d2 70 be
       0.059486296 -0.051626805 -0.07714639 -0.23517828
0002f0 98 2a 25 3f 3e c0 59 bd 49 9d bd be 6c 3d a0 3e
       0.6451812 -0.053161852 -0.37034062 0.3129686
000300 75 1c 82 bd e4 f6 e7 bd 7c b8 90 3e 46 c1 6f 3e
       -0.06353084 -0.113263875 0.2826575 0.23413572
000310 aa 96 9c 3d 2f 07 02 be 41 5c c9 3d 42 c6 7f 3e
       0.076459244 -0.12698053 0.09832049 0.24977973
000320 dc e1 c8 bc de 3b a4 be d3 e6 d4 be 64 ff 4f 3d
       -0.02452176 -0.32076925 -0.41582355 0.05078067
000330 1c 5e b0 3e 6a a2 82 bd 47 af 0f be c3 ef a4 3e
       0.344468 -0.06378634 -0.14031707 0.32214174
000340 b2 46 76 be 32 e6 3d be f8 7d 31 bf e0 8e cb bd
       -0.24050406 -0.18544844 -0.6933284 -0.099393606
000350 6f 3d 34 3e 39 32 f7 3d ae cd ab 3d 24 6f 9d be
       0.1760156 0.12070126 0.0838884 -0.30748856
000360 8d d7 40 be 30 20 02 be 92 3a 8a 3e 33 da da bd
       -0.18832226 -0.12707591 0.2699781 -0.106861494
000370 3c 1c be bd 36 1f 59 3e 14 55 d7 bb ee 96 b3 3e
       -0.09282729 0.21203312 -0.0065714214 0.35076088
000380 5a a1 6a be a1 c2 71 3e 46 8b a7 3e 7c 01 1f bf
       -0.22913113 0.23609401 0.32723445 -0.6211164
000390 b2 f1 f7 3d 51 07 db 3e 62 27 1d bf ac e6 93 3e
       0.121066466 0.4277902 -0.6138822 0.28886926
0003a0 0d d1 8f bd d3 fa 39 be ec 50 23 bf d7 20 ca 3e
       -0.07022295 -0.18162088 -0.6379535 0.3947818
0003b0 1f 41 db 3e 6a f7 ea bd da eb ee 3d a4 ac f5 bd
       0.4282312 -0.11472972 0.11666079 -0.11995819
0003c0 6f 7f 49 3d 1d c5 87 3c b9 7b b0 3e eb 3b dc be
       0.049193796 0.016573483 0.34469393 -0.43014464
0003d0 75 a9 09 3e 12 3a a1 be a5 cd 7f be aa 99 fe be
       0.13443549 -0.31489617 -0.24980791 -0.4972661
0003e0 5f cb 10 3e 07 4e 86 be cf 8e a8 3d 8c a9 29 3e
       0.1414008 -0.26231405 0.082303636 0.16568583
0003f0 ac 6c 32 3e e7 44 9c be 9f df 3c bf 94 2a a8 3c
       0.17424268 -0.30521318 -0.7377872 0.020528115

conv3.bias f4 [20]
000000 44 a9 15 3e d2 b1 e4 3d d4 30 59 bb 78 66 0b be
       0.14615351 0.11166729 -0.0033140676 -0.13613307
000010 64 d0 25 3e 17 86 66 bd 43 9b 8b be b9 0e 04 bd
       0.16192776 -0.05628022 -0.27266893 -0.032240603
000020 ee a4 9b bb 70 66 27 3e af 56 25 be 3a 77 b3 bd
       -0.0047498858 0.1634767 -0.16146348 -0.08762975
000030 ef 59 b4 bc d2 2e 1e 3d 96 40 4e 3e dd 79 fa bc
       -0.02201554 0.03861887 0.20141825 -0.030575687
000040 e3 ff c3 3d f9 08 24 3e 38 54 0a 3d fd 59 09 bd
       0.09570291 0.16019048 0.033771724 -0.033533085

linear.weight f4 [10, 1280]
000000 f2 91 11 3d 2d 1b 41 3e ee f5 4c 3e 33 cc 6a 3c
       0.035539575 0.18858023 0.2001569 0.014330911
000010 c7 a8 34 3e eb 0d 98 be 7e 73 d1 be f3 ed 1b be
       0.17642508 -0.2969812 -0.40908426 -0.15227489
000020 55 73 26 3e 0f e8 ba 3e 50 13 b5 3e 6a 87 a0 3d
       0.16254933 0.36505172 0.35366297 0.07838328
000030 c0 ee ec 3d 87 1d ba 3c 4f e3 97 3d 0d 6f 81 be
       0.115689754 0.022719158 0.074164025 -0.25280038
000040 34 e9 82 bb a5 01 be 3d 63 ec 00 3e 09 0b 98 3d
       -0.003995085 0.092776574 0.12590174 0.0742398
000050 69 b8 e4 3d df 11 60 bd fc 7e 35 bd f4 35 68 be
       0.11167986 -0.054704543 -0.044310555 -0.22676831
000060 b4 35 75 be 88 e3 c7 be 26 5f 2e be 2e 16 11 3e
       -0.23946267 -0.3904078 -0.17028484 0.14168617
000070 9c e0 45 3e f7 04 04 bd f1 a9 18 3e 8d 85 17 bd
       0.19323963 -0.032231297 0.14908578 -0.0369926
000080 bc 15 ae bd 5e 19 0a be da 64 46 3c 1c 44 b6 bd
       -0.08500239 -0.1348624 0.012109006 -0.088997096
000090 ca 6b 07 be 75 2b 10 be 2c ef 12 3e 5c d0 ee 3d
       -0.13224712 -0.14079078 0.1434905 0.11660835
0000a0 e9 2c 4b bd 10 8f 1f 3b c2 ea 03 3e 6d 24 06 3e
       -0.049603377 0.0024346747 0.12882522 0.13099833
0000b0 cb 1c 43 3d 10 5b 9c 3d c6 b1 90 3e 97 34 05 3d
       0.04763488 0.07634556 0.2826063 0.032520857
0000c0 74 8a a6 bc fa c7 13 3e 32 5d 78 3d a5 b6 0a 3e
       -0.020329691 0.14431754 0.060635753 0.13546236
0000d0 9a 8b 4a 3d 84 0e c7 3d f8 ad 2e 3d 85 5b 52 3d
       0.04944954 0.097195655 0.04264638 0.05135681
0000e0 57 e1 72 bd f6 eb 81 3c e1 11 b8 3d b0 0b 8a 3e
       -0.059296932 0.015859585 0.08987785 0.26962042
0000f0 47 ff 5b 3e 8c d8 a8 be 49 52 e7 bd 3e 3a 3d 3c
       0.214841 -0.32977712 -0.112949915 0.011549531
000100 6a d2 04 ba 48 71 e1 3d 5b 5a 6f 3d fe c1 53 bd
       -0.00050667545 0.11007935 0.05843578 -0.051698677
000110 8a 6b 40 3e 82 da b7 3d b8 32 60 3d 1c cc 08 bd
       0.18791023 0.08977224 0.05473587 -0.03339778
000120 c7 01 f8 3d 8e 29 7e bd 32 c4 ca bd dc 86 69 3c
       0.12109714 -0.06205135 -0.099007025 0.014253344
000130 f6 42 1c 3e 1c 63 4d 3d dd 74 25 be 50 c8 14 bd
       0.15259919 0.050143346 -0.16157861 -0.036323845
000140 1a ad be 3d 01 66 d8 bd b0 0b 4e bd 9c 7d a2 3c
       0.0931036 -0.10566331 -0.050304115 0.019835286
000150 b7 45 5f 3c 03 4b bd 3d 63 ff 24 3e 5d 03 a8 bd
       0.013627461 0.09242823 0.16113047 -0.082037665
000160 b0 8e c6 bc f2 41 07 be 29 33 b0 bc fc b5 c9 3d
       -0.02423796 -0.1320875 -0.02150877 0.09849164
000170 e7 23 7c 3d 8b 18 0c bd f5 cd 11 3d fd 91 ac bd
       0.061557677 -0.034203093 0.035596807 -0.084262826
000180 55 d1 9c bd 93 8a f3 3b 8c 2e 15 3c 03 e1 26 3c
       -0.076571144 0.007432291 0.009105336 0.010185483
000190 29 f1 e6 3d 7d d8 a9 bd 4b 1a 0b be 7e 33 18 be
       0.112764664 -0.08293245 -0.13584249 -0.14863393
0001a0 28 6f 68 bd e9 32 aa 3d 3a 56 bd bd 17 40 e7 bd
       -0.05674663 0.083104916 -0.09244962 -0.11291521
0001b0 be f4 5f 3d 50 55 01 be 94 2d 41 be f8 68 f8 bd
       0.054676764 -0.126302 -0.18865043 -0.12129396
0001c0 12 26 bb 3d f2 6d 7b 3d 44 fa 89 be 82 66 bf bd
       0.09138121 0.06138415 -0.2694875 -0.09345724
0001d0 6f f2 c9 3d 1a f8 10 3e 89 95 de bc 40 d0 7c bd
       0.09860694 0.14157143 -0.027170913 -0.06172204
0001e0 c9 53 b2 bd 92 78 a9 3d 9f d4 73 bd af b4 d2 bd
       -0.08707387 0.0827495 -0.059528943 -0.10288369
0001f0 9e 00 3a 3c 92 14 bc 3d d2 d3 88 3d cf 4e 1a bd
       0.011352686 0.09183611 0.066810265 -0.037672814
000200 34 58 d3 bd d4 68 3a 3c c9 a6 83 3e 0b f0 ce bc
       -0.10319558 0.011377532 0.25713184 -0.025260946
000210 f1 97 f7 bd 31 77 9b bd 3a 76 c2 bb 11 fa 3b bd
       -0.120895274 -0.07591093 -0.005934504 -0.04589278
000220 e2 22 0e be 40 f8 0f be c1 dc a4 3c f8 4d 4f 3e
       -0.13880494 -0.14059544 0.020124795 0.20244586
000230 ec 56 5f be d6 44 12 bb 39 57 8d 3d d4 06 a7 3d
       -0.21810502 -0.0022318861 0.06901402 0.08155599
000240 6b 9e 29 be e8 3e 90 be 9e f0 ec bd b5 7e c6 bd
       -0.16564338 -0.28172994 -0.115693316 -0.09692136
000250 a2 5d ae bd 60 5b 7d bd 48 c0 0e 3e 4a 90 13 3d
       -0.08513953 -0.06185472 0.13940537 0.036026277
000260 5b 18 b5 3c 38 d8 54 bd 98 d7 d2 bc 79 43 2b 3d
       0.02210634 -0.051964015 -0.025737569 0.041812394
000270 4d 67 8d bd 55 a5 0b bb 3d e6 ef 3d 02 e3 d1 3c
       -0.06904469 -0.0021308262 0.11713836 0.025620941
000280 56 63 02 3e 79 fc 15 3e 96 80 b0 be 14 c0 6a 3d
       0.12733206 0.14647092 -0.34473103 0.057312086
000290 e0 1b 91 3d 13 a9 df 3c 56 39 83 3d 87 e0 d6 bc
       0.07085395 0.0273023 0.0640742 -0.02623011
0002a0 ed a9 dd 3d dc ec 0f 3e f1 78 e1 be d9 d9 62 be
       0.108234264 0.14055198 -0.44037583 -0.22153415
0002b0 13 5c fd bc 36 4f e1 3d 5b d5 30 3d de 10 0c bc
       -0.030927693 0.110014364 0.04317222 -0.008548943
0002c0 ec ef e2 3d 1f 65 22 3e 1f 08 f4 bd bc 45 e1 be
       0.11080918 0.15858887 -0.119156115 -0.43998516
0002d0 38 29 b4 bd e3 a1 fb 3c 93 c1 8f bc af f2 ed bd
       -0.08796924 0.030716842 -0.017548358 -0.11618554
0002e0 a7 66 45 3d bb ee 49 3d 2c a8 15 be 99 0e 94 be
       0.0481936 0.049299937 -0.14614934 -0.28917387
0002f0 cb f0 1d be d7 99 66 bc 35 53 20 bc be 83 fc bd
       -0.15423886 -0.014074764 -0.009785463 -0.12329815
000300 43 24 99 3e 20 81 5e bd a8 05 bd 3e f5 2a 49 3e
       0.29910478 -0.054322362 0.36918378 0.19645293
000310 e5 47 8c 3d 84 77 8c 3d ff 73 2e be 4a 69 24 be
       0.0684965 0.06858733 -0.17036436 -0.1605579
000320 00 c3 98 3d 0a c2 2b 3d 41 55 c3 3d cb 74 07 bd
       0.07459068 0.041933097 0.09537745 -0.033070367
000330 bf 2b 9e bc dd ee ae 3c 4f ee d3 3d 4d 1f 34 bd
       -0.01930797 0.021354133 0.10348188 -0.043975163
000340 11 c1 4e be 53 1c f9 39 e4 36 39 bc 76 44 51 be
       -0.20190836 0.00047514084 -0.011304591 -0.20436272
000350 26 96 22 be a4 20 37 bd 5a 77 3b bd 5c f7 fd bd
       -0.1587759 -0.044708863 -0.04576812 -0.12400696
000360 19 59 50 be 4d 74 b1 bd da 18 0e bd fb db 38 bc
       -0.20346488 -0.08664761 -0.03469167 -0.011282916
000370 58 be 1b bc 9b ed 34 bd 14 62 7f bd e7 4a bf bd
       -0.009505831 -0.04417191 -0.062349394 -0.09340458
000380 5d 07 4c bd 36 a7 98 3d d7 59 7b bc 0b 50 fb 3b
       -0.04981171 0.07453768 -0.015341244 0.007669454
000390 43 8d a2 3c a3 a0 6a 3d 8e fe 6e 3d be 16 a6 bc
       0.01984275 0.0572821 0.05834823 -0.020274516
0003a0 9e 7d ce 3c 19 9f 58 3d 73 5e 47 bd cf c8 a9 bd
       0.025206383 0.052886102 -0.04867406 -0.08290254
0003b0 c9 6e 2d bd e3 ad 8d 3d a8 cb ce 3d 76 26 18 3d
       -0.04234198 0.06917932 0.10097438 0.037146054
0003c0 fd 98 ad 3d 8a 8f 32 3d ea ce 3a bc 26 3d 87 3d
       0.08476446 0.04359392 -0.011401871 0.0660346
0003d0 dd fe f4 3d 4b 9a c4 3c 62 70 0c 3d 6c 2f c2 3c
       0.11962674 0.023999354 0.034286864 0.023704253
0003e0 7c 5c fb bd 2c 9b 19 3d ea 0f b5 3d e1 d8 6f 3e
       -0.12273499 0.0375015 0.08840926 0.23422576
0003f0 ee aa 17 3e 82 01 9d 3d 21 d4 9a bd 85 fa b0 bd
       0.14811298 0.07666303 -0.07559992 -0.08641533

linear.bias f4 [10]
000000 1e 3e 9c bd f4 4c ac 38 34 bd 0a bc b0 1a 76 3c
       -0.076290354 8.215933e-05 -0.008467961 0.015021011
000010 5b d8 85 bd 1f d5 2e 3e b6 fc c3 3d c7 1e 6a bd
       -0.06535407 0.17073487 0.09569685 -0.057158258
000020 55 b9 c6 3d d4 60 d8 bd
       0.09703318 -0.105653435
