models/FashionMNIST/cnn_num-modules=4_seed=025/099.pth (torch, 15277 bytes, 16 tensors)

conv1.weight f4 [32, 1, 3, 3]
0	0x3e076531	0.13222195
1	0xbed088f1	-0.40729478
2	0xbf1e013d	-0.6172064
3	0xbebc0744	-0.36724293
4	0xc01a7d3d	-2.413894
5	0xc0396411	-2.8967326
6	0x3e6ab2fb	0.22919838
7	0xc041fcfc	-3.031066
8	0xbfc5191d	-1.5398289
9	0xc00a4f88	-2.1611042
10	0xc07b5cd0	-3.9275398
11	0xbf9b0801	-1.2111818
12	0xbfc3f9d1	-1.5310613
13	0xbfe72727	-1.8058823
14	0xbf265258	-0.64969397
15	0xbe58187f	-0.21103095
16	0xbeaab1c5	-0.33338752
17	0x3ff550ba	1.9165261
18	0x3e036c51	0.12834288
19	0x3e61c6e9	0.22048534
20	0xbea14f2b	-0.31505713
21	0x3d205e84	0.039152637
22	0x3f1027bd	0.56310636
23	0x3e636e81	0.22210123
24	0x3db61fa4	0.08892754
25	0x3ed06fbb	0.40710244
26	0x3f0beeeb	0.54661435
27	0xbdd8f21c	-0.10593054
28	0x3dd8ee03	0.10592272
29	0x3e4bb074	0.1989153
30	0xbe0aa401	-0.13539125
31	0x3eacef12	0.33776146
32	0xbc30a8d1	-0.0107824365
33	0x3eb45627	0.3522198
34	0x3ed49381	0.41518787
35	0xbcfa3a8a	-0.030545492
36	0x3ea1dc90	0.31613588
37	0x3af1c9bb	0.0018446961
38	0xbeb443b9	-0.35207918
39	0x3eba02ea	0.36330348
40	0x3e1f552c	0.15559834
41	0xbeed5f03	-0.4636155
42	0x3d919c2e	0.07109867
43	0x3ebad04b	0.3648704
44	0xbe9161cc	-0.28394926
45	0x3ea7efc1	0.32800105
46	0x3e8f1f3c	0.27953517
47	0x3d807ab2	0.06273402
48	0x3e1183e8	0.14210474
49	0x3e91d022	0.28479105
50	0xbeaa0d8d	-0.33213463
51	0x3da5a893	0.080887936
52	0x3ec05e66	0.3757202
53	0xbf30e9fd	-0.6910704
54	0x3ed26935	0.41095892
55	0x3efc982b	0.49334845
56	0x3f26672b	0.6500117
57	0x3ed1f824	0.4100963
58	0x3edc47fd	0.43023673
59	0x3ebf63bc	0.3738078
60	0xbe75f643	-0.24019723
61	0xbdfa7966	-0.12230186
62	0x3e54c384	0.20777708
63	0xbf37c012	-0.7177745
64	0x3e87b469	0.2650483
65	0x3eee4df4	0.4654385
66	0xbeb91544	-0.36149037
67	0x3e9bdf2a	0.30443698
68	0x3d885dbb	0.06658503
69	0xbf153459	-0.58283
70	0x3e8a536c	0.2701677
71	0x3e9a0ffe	0.30090326
72	0xbd27bd83	-0.040952217
73	0x3ece8280	0.4033394
74	0x3eee0b34	0.46492922
75	0x3e96a943	0.2942601
76	0xbd7fe61b	-0.062475305
77	0x3e71259b	0.23549502
78	0x3f15850d	0.58406144
79	0x3ebda0ea	0.3703683
80	0x3ed39c06	0.41329974
81	0xbf901f63	-1.1259578
82	0xc04ed1ca	-3.2315545
83	0xbfd895a0	-1.6920662
84	0xbeac9035	-0.3370377
85	0xc056409a	-3.347693
86	0xc04b7b91	-3.179417
87	0x3fa13563	1.2594417
88	0xbf807994	-1.0037103
89	0xbeebab75	-0.4602925
90	0xbd8612d2	-0.065465584
91	0xbd2001d9	-0.039064262
92	0x3d9dc0ed	0.07702813
93	0x3e4d8e02	0.20073703
94	0xbf3487a1	-0.70519453
95	0x3cd434cf	0.025904087
96	0x3f0008f7	0.5001368
97	0xbf0e8c1e	-0.5568255
98	0xbe1e3e07	-0.15453349
99	0xbd808778	-0.062758386
100	0x3ec30a3f	0.38093755
101	0xbda4284f	-0.08015501
102	0xbe1dafbd	-0.1539907
103	0x3eeb462c	0.45951974
104	0x3e8d25e4	0.2756797
105	0xbec3d3ee	-0.38247627
106	0x3ef30e37	0.47471783
107	0x3da7ad91	0.08187402
108	0x3f114306	0.56742895
109	0x3f535ef8	0.82566786
110	0x3f0b0f28	0.5432
111	0x3f009b2d	0.5023678
112	0x3ec8a481	0.39188007
113	0x3eab0fad	0.33410397
114	0xbebfee81	-0.37486652
115	0xbdd22a22	-0.102619424
116	0x3ddceb7f	0.10787105
117	0x94bfc6ad	-1.9364435e-26
118	0x93426d30	-2.4540076e-27
119	0x906802e2	-4.5756153e-29
120	0x9212e991	-4.635737e-28
121	0x90295362	-3.339361e-29
122	0x8a0982db	-6.620921e-33
123	0x9022f187	-3.2134933e-29
124	0x8d81e0c0	-8.004345e-31
125	0x05eccef6	2.2269359e-35
126	0x3ccf7dba	0.025328506
127	0x3d999f4e	0.07501088
128	0x3ea9f2d6	0.33193082
129	0x3f208b7a	0.62712824
130	0x3ee4679b	0.44610295
131	0xbe4b02f6	-0.19825348
132	0x3eb87786	0.3602869
133	0x3e4ac1d4	0.19800502
134	0x3ee19ee4	0.44066536
135	0x3eaab68c	0.33342397
136	0x3eb22e58	0.34800982
137	0x3f171309	0.5901342
138	0xbe39438a	-0.1809217
139	0xbee7882e	-0.45221084
140	0xbedf8e97	-0.43663475
141	0xbe0a2568	-0.13490832
142	0x3ce56dc3	0.02800644
143	0xbec3b4ee	-0.38223976
144	0xbeca6391	-0.39529088
145	0x3f0c5b2d	0.54826623
146	0x3ea2fc1e	0.31832975
147	0xbf31ecfa	-0.6950222
148	0x3ec681d5	0.3877093
149	0x3e85aac1	0.26106837
150	0xbedb396e	-0.42817253
151	0x3e8b539d	0.2721223
152	0x3e957e6a	0.2919801
153	0x3dc22e5a	0.09481497
154	0xbe8b7368	-0.27236485
155	0x3f167a42	0.587803
156	0x3d8471aa	0.06466992
157	0xbebfb784	-0.374447
158	0x3f3f93d6	0.74834955
159	0xbf04c6fb	-0.5186612
160	0xbf4dd333	-0.8040039
161	0x3ef4d251	0.4781671
162	0x84498e54	-2.369279e-36
163	0x845bd093	-2.5839099e-36
164	0x847bfedb	-2.9621932e-36
165	0x8447bba7	-2.3478503e-36
166	0x8472ef90	-2.8556965e-36
167	0x848468f1	-3.1129424e-36
168	0x84580d10	-2.5396676e-36
169	0x8487f6d2	-3.1965016e-36
170	0x849ae9be	-3.6419884e-36
171	0xbe1d93ea	-0.15388456
172	0xbeab5ca2	-0.3346911
173	0x3f0d1f14	0.55125546
174	0xbe2ec4ec	-0.17067307
175	0xbf24fdcc	-0.64449763
176	0x3f4f8cdc	0.8107431
177	0xbee3b21d	-0.44471827
178	0xbee5fa05	-0.44917312
179	0x3f63eb7f	0.89031214
180	0x3ded180b	0.115768515
181	0x3e865839	0.26239184
182	0x3f547859	0.82996136
183	0x3d7de3d4	0.061984852
184	0xbe7f8cb1	-0.24956013
185	0x3f16a5bf	0.5884666
186	0x3d4f26e0	0.050574183
187	0xbf58b6eb	-0.8465411
188	0xbe7e93a2	-0.24861005
189	0xbe11b962	-0.14230874
190	0x3f1f7cca	0.6229979
191	0xbef05d93	-0.4694639
192	0x3ec47889	0.3837321
193	0xbe6eafac	-0.23309201
194	0xc0338f7d	-2.8056328
195	0x3d0bcdf6	0.034131967
196	0xbefe9631	-0.49723962
197	0xc087cf43	-4.2440505
198	0xbeaa3e2b	-0.33250555
199	0x3f02e3be	0.51128757
200	0xbedca296	-0.43092793
201	0xc0090f41	-2.141556
202	0xbfc6b777	-1.5524739
203	0xbf8167e4	-1.010983
204	0xbf77e4e2	-0.9683362
205	0xbfac630c	-1.3467727
206	0x3f293a8f	0.6610498
207	0x3ea034a1	0.31290153
208	0xbe305693	-0.17220525
209	0x3cc30cab	0.023809751
210	0x3f0fa808	0.5611577
211	0xbecd0507	-0.40042898
212	0xb98c90d6	-0.00026810792
213	0x3f42bfac	0.7607372
214	0xbeecb3b7	-0.46230862
215	0xbe3c531d	-0.1839108
216	0xbfd28cf8	-1.644927
217	0xbfa253a7	-1.2681779
218	0x3eee290c	0.4651569
219	0xc0402e5f	-3.0028303
220	0xbff884e9	-1.9415561
221	0xbf239f9e	-0.6391543
222	0xc02ace37	-2.6688364
223	0xc00ebc10	-2.2302284
224	0xbce83125	-0.028343746
225	0x3f0f615a	0.5600792
226	0x3eda652d	0.42655316
227	0x3e6c7061	0.23089744
228	0xbe5dc8a3	-0.21658568
229	0xbea6282c	-0.32452524
230	0x3e1e2102	0.15442279
231	0x3e52c8a2	0.20584348
232	0x3ed6b98a	0.4193843
233	0x3e000b8e	0.12504408
234	0x3e826459	0.25467184
235	0x3dbdec79	0.09273619
236	0x3e9ee4f4	0.31034052
237	0x3f0c09a0	0.54702187
238	0x3d60d150	0.054887116
239	0x3f2ac6f3	0.6670982
240	0x3e5dcfaa	0.21661249
241	0xbf321c6f	-0.69574636
242	0xbf075df1	-0.5287772
243	0x3eb48be8	0.3526299
244	0x3e683030	0.22674632
245	0xbdf2de09	-0.11858756
246	0x3ea3658a	0.31913406
247	0x3c9cfb96	0.019162934
248	0x3e4de6e1	0.20107605
249	0x3f2c63ab	0.6733958
250	0x3f172c57	0.5905203
251	0xbc5e37a0	-0.013563067
252	0x3f1eb752	0.61998475
253	0xbe98bf32	-0.2983337
254	0xbe55e414	-0.20887786
255	0x3ed06b48	0.4070685

conv1.bias f4 [32]
0	0x3ee0528e	0.43812984
1	0x3e49c120	0.19702578
2	0x3ecc9e96	0.3996474
3	0x3ed290b1	0.41126016
4	0x3eca428b	0.39503893
5	0xbe8d896a	-0.276439
6	0x3dd67afe	0.10472678
7	0xbc369e53	-0.011146146
8	0x3dc7c5f4	0.097545534
9	0x3e808a25	0.25105396
10	0x3f1f0f79	0.62132984
11	0x3eaddff5	0.33959928
12	0x3dafae3f	0.08578157
13	0x9234fb50	-5.710775e-28
14	0x3e618e53	0.22026949
15	0x3e5b6e27	0.21428739
16	0xbe9134c9	-0.28360584
17	0xbd942d41	-0.07235194
18	0x0487469d	3.1803196e-36
19	0xbd4c2ab8	-0.049845427
20	0x3e954a43	0.2915822
21	0xbbc8d23c	-0.0061285775
22	0x3ef9eba4	0.48812592
23	0x3eead186	0.4586298
24	0x3edef3b5	0.4354531
25	0x3e1a4030	0.15063548
26	0xbea6f452	-0.32608277
27	0x3f1922ca	0.5981871
28	0xbd0fc8f4	-0.035103753
29	0x3ee83629	0.4535382
30	0x3e88b909	0.2670367
31	0x3ea0baa7	0.31392404

conv2.weight f4 [32, 1, 3, 3]
0	0x3eb142c2	0.34621245
1	0x3ed8555c	0.42252624
2	0xbc5b8078	-0.013397329
3	0x3f4d513e	0.8020209
4	0x3f7fff5e	0.99999034
5	0x3f331a95	0.69962436
6	0x3ef95d12	0.4870382
7	0x3f6cede8	0.92550516
8	0x3f0dfb02	0.5546113
9	0xbed83d4b	-0.42234263
10	0xbf453412	-0.7703258
11	0xbf6dcb01	-0.92887884
12	0xbe0ce846	-0.1376048
13	0xbf1e040e	-0.61724937
14	0xbfc11a20	-1.5086098
15	0x3f06b913	0.5262615
16	0xbd0521da	-0.032502986
17	0xbfbc282c	-1.469976
18	0x3de5654f	0.11200964
19	0xbe1a76fe	-0.15084454
20	0x3cf13628	0.029444769
21	0xbf0695a3	-0.5257208
22	0x3d35f34d	0.044421483
23	0xbeaf3280	-0.34218216
24	0xbe948beb	-0.29013
25	0xbef8de33	-0.48607025
26	0x3e2798e0	0.16366911
27	0xbc04c3c2	-0.008103313
28	0xbf093199	-0.53591305
29	0x3eb3ca69	0.35115364
30	0xbeae07bd	-0.3399028
31	0xbebd0b1b	-0.36922535
32	0xbe93b040	-0.28845406
33	0xbe8f3d45	-0.27976432
34	0xbd37a9ac	-0.044839546
35	0xbe8adb7d	-0.2712058
36	0x3e2cd73e	0.16878983
37	0x3d884ffd	0.066558816
38	0x3f1da202	0.6157533
39	0x3e2c94b6	0.16853604
40	0x3eefcf2b	0.46837744
41	0x3eb52a0f	0.3538365
42	0x3f262fb8	0.64916563
43	0x3decc357	0.115606956
44	0x3e84d9ba	0.25947362
45	0x3f53cfc9	0.8273893
46	0x3f67ffa2	0.9062444
47	0x3f7b5f5c	0.9819238
48	0x3ea3cca9	0.3199208
49	0xbe0d20fb	-0.13782112
50	0x3fa2560b	1.2682508
51	0xbe9ce10a	-0.3064044
52	0xbea8b8b1	-0.32953408
53	0x3f9becbb	1.218162
54	0x3f07941f	0.5296039
55	0x3e9ca746	0.3059637
56	0x3f2c994c	0.6742141
57	0x3e20710f	0.15668128
58	0xbde5d72f	-0.11222684
59	0x3edf96cd	0.4366974
60	0x3e47d6e1	0.19515564
61	0xbec424b7	-0.3830926
62	0x3ec8b711	0.3920217
63	0xbf829f90	-1.0204945
64	0x3d578874	0.052620366
65	0x3e031885	0.12802322
66	0x3fb01eca	1.3759396
67	0x3f949d14	1.1610436
68	0x3ec91b04	0.39278424
69	0x3f9c0e6a	1.2191899
70	0x3f2e998f	0.6820306
71	0x3f0f1503	0.55891436
72	0x3e7d257e	0.24721333
73	0x3e7bec5c	0.24601883
74	0x3e9a192c	0.3009733
75	0xbddd802a	-0.10815461
76	0x3f20370d	0.62584
77	0x3ed66fc0	0.41882133
78	0x3da0d746	0.0785356
79	0x3ef8f909	0.486275
80	0x3c6f2ddd	0.014598337
81	0x3ecc3e0b	0.39891085
82	0x3f774173	0.9658424
83	0x3f467156	0.77516687
84	0x3f894f8c	1.0727401
85	0x3f64414b	0.8916213
86	0x3f351e1e	0.7074908
87	0x3f8c9296	1.0982234
88	0x3f9218a0	1.1413765
89	0x3ee6121a	0.44935685
90	0x3e22d1ef	0.15900396
91	0x3f0e3dbf	0.5556297
92	0x3e9dfa64	0.30855095
93	0x3dfdb710	0.12388432
94	0x3eb23ddb	0.34812817
95	0x3ecaf8a1	0.39642814
96	0x3f3bba00	0.7333069
97	0x3f82097e	1.0159147
98	0x3efaff9e	0.49023145
99	0xbede3b6e	-0.43404716
100	0xbe9552a1	-0.29164603
101	0xbe093bd7	-0.13401733
102	0xbe90d6aa	-0.28288776
103	0xbf1777d0	-0.59167194
104	0x3dd4991a	0.10380764
105	0xbdeb30a7	-0.11483889
106	0xbf204ee3	-0.6262037
107	0xbb980f54	-0.004640499
108	0x3d4a30a9	0.049362812
109	0x3f0090f5	0.50221187
110	0x3f4dc3e3	0.80377024
111	0xbe141b35	-0.14463504
112	0x3da25314	0.07926002
113	0x3f17e162	0.5932828
114	0xbd611cc4	-0.054959074
115	0xbe6c64c4	-0.23085314
116	0x3eb2bb58	0.34908557
117	0x9ab9c424	-7.683109e-23
118	0x93ad5340	-4.375343e-27
119	0x8df3dedd	-1.5029684e-30
120	0x97277e18	-5.4119763e-25
121	0x8d81225e	-7.958512e-31
122	0x049a6200	3.6295225e-36
123	0x8c4f0df5	-1.59509e-31
124	0x002798fc	3.636465e-39
125	0x800bdbc2	-1.089025e-39
126	0xbcb6425c	-0.02224844
127	0xbf12bb65	-0.5731719
128	0xbcad47b1	-0.02115235
129	0xbdd08439	-0.101814695
130	0xbedf7cef	-0.43650004
131	0xbe167f68	-0.14697039
132	0x3e0eea49	0.1395656
133	0xbed1222a	-0.40846378
134	0xbe0d95f3	-0.13826732
135	0xbf736779	-0.9507976
136	0xbfb9fc36	-1.4530094
137	0xbf92cb80	-1.1468353
138	0xbf41026c	-0.7539432
139	0xbf775ff5	-0.96630794
140	0xbf3ff295	-0.74979526
141	0xbee50b50	-0.44735193
142	0xbf1fa71f	-0.6236438
143	0x3e58ff64	0.21191174
144	0xbf12c558	-0.5733237
145	0xbf1f9975	-0.6234353
146	0xbf360026	-0.71093976
147	0xbed4e5b7	-0.4158151
148	0xbf3f7544	-0.7478831
149	0xbf904276	-1.1270282
150	0xbf0a405c	-0.54004455
151	0xbf1aea0c	-0.6051338
152	0xbf932c41	-1.149788
153	0x3fa6aa04	1.3020635
154	0xbe75749a	-0.23970261
155	0xbe02fa07	-0.1279069
156	0xbeaad25a	-0.3336361
157	0xbf2a9bd6	-0.66644037
158	0xbf4ae6ba	-0.7925831
159	0xbf5b64a4	-0.8570044
160	0xbfd10640	-1.6330032
161	0xbf240d7e	-0.6408309
162	0x02b79fb4	2.6981098e-37
163	0x031cbaef	4.605887e-37
164	0x04169c98	1.770432e-36
165	0x8303be0c	-3.8715603e-37
166	0x01f10298	8.853314e-38
167	0x04364348	2.1424891e-36
168	0x83935747	-8.659921e-37
169	0x0302e748	3.8469064e-37
170	0x04a2b00e	3.8247698e-36
171	0xbf9c2c44	-1.2201009
172	0xbfbd1b25	-1.4773909
173	0xbf499eb5	-0.7875779
174	0xbffc0576	-1.9689167
175	0xc00d9063	-2.2119377
176	0xbf37abee	-0.7174672
177	0xbf24ccfd	-0.6437529
178	0xbf4c9bf3	-0.7992546
179	0xbe0a7d0b	-0.13524263
180	0xbf1adafb	-0.6049039
181	0xbed447f5	-0.4146115
182	0x3ed66eda	0.41881448
183	0xbec1dd3b	-0.37864098
184	0xbda0d0cd	-0.078523256
185	0x3eda1f00	0.42601776
186	0xbe305ce8	-0.17222941
187	0x3ea2f1a7	0.3182499
188	0x3ecebe13	0.4037939
189	0x3faf252b	1.3683218
190	0x3fdb5a19	1.7136871
191	0x3fb784dd	1.4337422
192	0x3fa49ea0	1.2860909
193	0x402b3af4	2.6754732
194	0x400597bd	2.0873864
195	0x3f4604c3	0.77351016
196	0x4034ba08	2.8238544
197	0x3fc65e63	1.5497555
198	0x3e80e228	0.25172544
199	0x3f11c6e0	0.56944084
200	0x3f31da1a	0.6947342
201	0x3f3b6f53	0.7321674
202	0x3f410d60	0.75411034
203	0x3f88083e	1.0627515
204	0x3ef8b019	0.48571852
205	0x3d1b893d	0.037972677
206	0x3dbddd61	0.0927074
207	0x3ed5dd7f	0.4177055
208	0x3f15ef8c	0.58568645
209	0x3f24717b	0.6423566
210	0x3f2b5ebb	0.6694142
211	0x3e74cc95	0.23906167
212	0x3f32f1c8	0.6990018
213	0x3f02941c	0.51007247
214	0x3e63fe7b	0.22265045
215	0x3d82242c	0.063545555
216	0xbf352d20	-0.7077198
217	0xbee8e106	-0.4548418
218	0xbe76f888	-0.24118245
219	0xbf88df39	-1.0693122
220	0xbf95be0e	-1.1698625
221	0xbf4fa6a8	-0.8111367
222	0xbf7f60ef	-0.99757284
223	0xbf7c17be	-0.9847373
224	0xbe012def	-0.12615179
225	0x3dbb5615	0.09147278
226	0x3ebf2b28	0.37337613
227	0x3f06298f	0.52407163
228	0x3e38c72a	0.18044725
229	0xbcb0a8c6	-0.021564852
230	0x3e116b5b	0.14201109
231	0x3e345d31	0.17613675
232	0x3de8197a	0.11332984
233	0x3e0ab55b	0.13545744
234	0xbe4056f3	-0.18783168
235	0x3d4c8638	0.04993269
236	0x3c69cdeb	0.014270286
237	0x3df1d033	0.11807289
238	0x3f276ed5	0.6540349
239	0x3f117ee2	0.5683423
240	0x3ef5c634	0.4800278
241	0x3e912290	0.28346682
242	0x3f07f98d	0.5311516
243	0x3f00a009	0.50244194
244	0x3e2f00c4	0.17090136
245	0xbd85d0e4	-0.06533983
246	0x3df46bcb	0.119346224
247	0xbd3a7f68	-0.04553166
248	0x3e311357	0.17292534
249	0x3f306bde	0.6891459
250	0x3f47ba97	0.7801909
251	0x3ec1a593	0.37821636
252	0x3f4d557b	0.8020856
253	0x3f96ab4c	1.1771026
254	0x3f47b2c0	0.78007126
255	0x3fc2220a	1.5166638

conv2.bias f4 [32]
0	0xbe5052f7	-0.20344149
1	0x3e8027cb	0.2503036
2	0xbeeb619b	-0.45972905
3	0x3d50cfa2	0.050979264
4	0x3ea44b51	0.32088712
5	0xbe7d1e79	-0.24718656
6	0x3cdd11ad	0.026985968
7	0xbe7c82a6	-0.24659213
8	0xb9e5e22a	-0.0004384679
9	0xbe864722	-0.26226145
10	0x3ebe0759	0.3711498
11	0xbd74fddc	-0.05981241
12	0x3e0881b8	0.13330734
13	0x3e6daf8c	0.23211497
14	0x3dc3de34	0.09563866
15	0xbe3f50d3	-0.18683176
16	0x3f04bf9f	0.5185489
17	0xbdd81e52	-0.10552658
18	0xba857980	-0.0010183305
19	0x3e823e9d	0.25438395
20	0xbe34a6d9	-0.17641772
21	0xbe717daf	-0.235831
22	0x3e945469	0.2897065
23	0x3d30df08	0.04318145
24	0x3dd2d37d	0.102942444
25	0x3e885f1a	0.26635057
26	0xbe3fdcc7	-0.18736564
27	0x3debbc0c	0.115104765
28	0xbeac86cd	-0.33696595
29	0xbe6309f2	-0.22171763
30	0xbdeb5b1f	-0.11491989
31	0x3e8aa585	0.27079406

conv3.weight f4 [20, 32, 1, 1]
0	0x3dc0b97d	0.09410379
1	0xbeadb030	-0.33923483
2	0xbe8aabf0	-0.27084303
3	0xbc65630f	-0.014000668
4	0x3d453ea7	0.048155453
5	0xbf10c9d6	-0.5655798
6	0x3e8f464c	0.2798332
7	0xbf2d73e5	-0.67754966
8	0x3e144446	0.14479169
9	0xbece4dc6	-0.4029371
10	0x3e44d388	0.19221318
11	0xbe179e14	-0.14806396
12	0x3ecc5ae8	0.39913106
13	0xbd1becb9	-0.038067553
14	0xbe42ea54	-0.19034702
15	0xbf3c6eaa	-0.7360636
16	0x3f9ecdec	1.2406592
17	0xbea9e307	-0.3318102
18	0x3ba2f207	0.0049726996
19	0x3f4cfbe9	0.80071884
20	0xbf012875	-0.5045236
21	0x3f095cdf	0.53657335
22	0xbeae6ec1	-0.34068874
23	0x3e161857	0.14657722
24	0x3efedeb9	0.497793
25	0x3e911618	0.2833717
26	0x3ef6b470	0.48184538
27	0xbe20261d	-0.15639539
28	0x3e991d12	0.2990499
29	0x3da80c1b	0.08205434
30	0xbbb3983b	-0.005480794
31	0xbe5f0a84	-0.21781355
32	0x3681804f	3.8594367e-06
33	0xb5e5052d	-1.7063336e-06
34	0x397a4904	0.00023869058
35	0x37fba957	3.0000387e-05
36	0xb9468fe5	-0.00018936356
37	0xb273f196	-1.4199392e-08
38	0xb91a16a3	-0.00014695017
39	0xb2e76df4	-2.694194e-08
40	0xb9e85f0f	-0.00044321312
41	0x35623b3b	8.427775e-07
42	0xb7a19a49	-1.926454e-05
43	0x384da861	4.9032624e-05
44	0xb8b1e504	-8.482675e-05
45	0xa4bccd55	-8.187985e-17
46	0x38eebeb1	0.000113842434
47	0xb7dcb1eb	-2.6308893e-05
48	0x319f06af	4.628269e-09
49	0x30b7e6c4	1.338059e-09
50	0x01c0502b	7.0644696e-38
51	0x37086443	8.129576e-06
52	0x31adc0ef	5.0568967e-09
53	0x32fd71c6	2.9504815e-08
54	0xb7777d2f	-1.4751494e-05
55	0xb9099c58	-0.0001312358
56	0xb66043a2	-3.3417969e-06
57	0xb897c07f	-7.236096e-05
58	0xae106288	-3.2829323e-11
59	0xbaace5d4	-0.0013191053
60	0x36fd1021	7.541865e-06
61	0x38fb38a0	0.0001197916
62	0x39bbdf01	0.0003583357
63	0xb6f11f9a	-7.1860386e-06
64	0xbb9d247a	-0.004795608
65	0x3c2d6bc2	0.0105847735
66	0x3d1f32b2	0.038866706
67	0x3d035677	0.03206488
68	0xbd1027a1	-0.035194043
69	0xbbee9184	-0.0072805304
70	0xbd081a48	-0.03322819
71	0xbabae5ab	-0.001425912
72	0xbd25da98	-0.04049167
73	0xbbcef5d6	-0.006315927
74	0xbcfd1fbc	-0.030898921
75	0x3d0e274e	0.034705453
76	0xbd037e55	-0.0321029
77	0xbb8fe88f	-0.004391737
78	0x3d147ef2	0.036253877
79	0x3ce6eb30	0.028188318
80	0xbae2b5b7	-0.0017296587
81	0xba246841	-0.00062716386
82	0x006d0ae4	1.0013976e-38
83	0x3b91c3a6	0.004448372
84	0x3c4ccb55	0.01249965
85	0xbab5f2b0	-0.0013881531
86	0xbc928290	-0.017884523
87	0xbd190be5	-0.03736486
88	0x3b401064	0.0029306645
89	0xbd00e08d	-0.03146415
90	0xbc177c6d	-0.009245974
91	0xbd327ed6	-0.04357799
92	0xbc146be8	-0.00905893
93	0x3d1e892c	0.038705036
94	0x3d05ceed	0.032668043
95	0xbc5ca092	-0.013466017
96	0x80bbb048	-1.7236476e-38
97	0x805c6c61	-8.487745e-39
98	0x8088a74d	-1.2549644e-38
99	0x807c69e6	-1.1425591e-38
100	0x00ac2da9	1.5812085e-38
101	0x80e3adc8	-2.0908999e-38
102	0x009430f7	1.3609219e-38
103	0x80870d00	-1.2402456e-38
104	0x05140ad3	6.960915e-36
105	0x00a5ec60	1.5237652e-38
106	0x00d56210	1.9596139e-38
107	0x807b2219	-1.1307998e-38
108	0x0097a007	1.3924567e-38
109	0x00dfff58	2.0570916e-38
110	0x80756cdf	-1.0783809e-38
111	0x00f25a30	2.2256543e-38
112	0x00ff6b95	2.3456645e-38
113	0x006f8ba8	1.0243839e-38
114	0x015225a4	3.8597914e-38
115	0x80235129	-3.243357e-39
116	0x009512d8	1.3690249e-38
117	0x00e8655f	2.13422e-38
118	0x00d60754	1.9655425e-38
119	0x00d08cf9	1.9152355e-38
120	0x80ef4abd	-2.1975495e-38
121	0x009325c7	1.351337e-38
122	0x8185129c	-4.8883187e-38
123	0x97b2e5a1	-1.1560947e-24
124	0x80289af6	-3.72901e-39
125	0x8094d972	-1.3669658e-38
126	0x80ac9c92	-1.5851872e-38
127	0x00f77d4e	2.2728318e-38
128	0x003fdccc	5.864843e-39
129	0x017ea9f2	4.6774362e-38
130	0x2b5fb6a2	7.947897e-13
131	0x1d2f7e43	2.3226333e-21
132	0xa3dab117	-2.3710608e-17
133	0x80f1c285	-2.2202135e-38
134	0xa81a1dc8	-8.555175e-15
135	0x81bac5dc	-6.8609523e-38
136	0xac8ad8bc	-3.9462583e-12
137	0x00e58682	2.1078581e-38
138	0xa90136be	-2.8691235e-14
139	0x248d693b	6.132727e-17
140	0xa2f18976	-6.5468723e-18
141	0x01d6b690	7.887315e-38
142	0x2513e75d	1.2828606e-16
143	0x288a2cf5	1.5340575e-14
144	0x043cab98	2.2178086e-36
145	0x008921dc	1.259361e-38
146	0x81c04418	-7.062737e-38
147	0x05df2c4c	2.0987091e-35
148	0x81857d6a	-4.9036444e-38
149	0x01069f53	2.4726222e-38
150	0x835eb785	-6.5450607e-37
151	0xaa986b1a	-2.707494e-13
152	0x803423fc	-4.788355e-39
153	0x9e03a523	-6.969232e-21
154	0x0095ae27	1.3745963e-38
155	0xb3d3aee6	-9.857267e-08
156	0x018d015a	5.179716e-38
157	0x28374aa1	1.0174723e-14
158	0x217b44e5	8.513329e-19
159	0x01c83964	7.355075e-38
160	0xbf70895c	-0.93959594
161	0x3ea6820f	0.32521102
162	0xbd7e7105	-0.062119503
163	0xbe9395e8	-0.28825307
164	0x3ec13ee3	0.3774329
165	0xbe78a189	-0.24280371
166	0xbe4a642b	-0.19764774
167	0x3e6806e5	0.2265888
168	0x3e68ef9a	0.2274765
169	0xbf1b7c36	-0.60736406
170	0x3f010e4d	0.50412446
171	0xbe3604f9	-0.17775334
172	0x3d089ee1	0.033354644
173	0x3ee718da	0.45136148
174	0xbec7bc81	-0.39011005
175	0xbf394c97	-0.7238249
176	0x3e8265b2	0.25468212
177	0xbf170778	-0.5899577
178	0x3c404d09	0.011737117
179	0x3c39941d	0.011326817
180	0xbec689ce	-0.38777012
181	0xbf55d104	-0.8352206
182	0xbef6df38	-0.48217177
183	0x3ee53aea	0.4477151
184	0x3f66cf6d	0.90160257
185	0x3e5b2873	0.21402149
186	0x3ee1ae09	0.4407809
187	0x3e639463	0.22224574
188	0xbe09d6c1	-0.13460828
189	0xbe95142b	-0.2911695
190	0xbe6a6654	-0.22890598
191	0x3d87e0c7	0.0663467
192	0xbe88add4	-0.2669512
193	0x3e8bd122	0.27307993
194	0xbebd5884	-0.36981595
195	0xbe1c33b3	-0.15254097
196	0x3eb896b1	0.36052468
197	0xbe9abbcf	-0.30221412
198	0x3e6dbba4	0.2321611
199	0xbdd19070	-0.102326274
200	0x3ead5cab	0.33859763
201	0xbf9cd110	-1.2251301
202	0x3ec6ff18	0.38866496
203	0xbe929a36	-0.2863328
204	0x3f094d55	0.53633624
205	0x3e9c3d70	0.30515623
206	0xbdbc7ee9	-0.09203894
207	0xbec1d69f	-0.37859055
208	0x3ea1f8ef	0.31635234
209	0x3eaaae4a	0.33336097
210	0x3bf5d13e	0.0075017503
211	0xbe7ac0cc	-0.24487609
212	0xbd59f976	-0.05321642
213	0x3bfebb41	0.0077737872
214	0xbede722c	-0.4344648
215	0x3eba3aca	0.36372977
216	0x3f6d301b	0.9265153
217	0x3df4e88f	0.119584195
218	0xbf3f9264	-0.7483275
219	0x3e38d5f4	0.18050367
220	0xbd9f6b59	-0.07784147
221	0xbe9dbf5b	-0.30810055
222	0xbcac4237	-0.021027667
223	0x3eac8dde	0.33701986
224	0xbeab94b4	-0.3351189
225	0x3f51dde2	0.8197919
226	0xbe2888a9	-0.16458382
227	0xbee96325	-0.45583454
228	0x3ecee58d	0.40409508
229	0xbeb371d6	-0.35047787
230	0x3effc2b5	0.49953237
231	0xbe910e9f	-0.28331468
232	0x3e5ce6af	0.21572374
233	0x3d06a061	0.032867793
234	0x3f145d21	0.57954603
235	0xbeeb1145	-0.45911613
236	0x3db2ea30	0.08736074
237	0xbad9d79d	-0.0016620044
238	0xbdfb6037	-0.12274211
239	0x3f512cc6	0.81708944
240	0xbed10a89	-0.4082835
241	0x3e5683f2	0.2094877
242	0x3c63aa56	0.013895592
243	0xbe5b92cd	-0.21442719
244	0xbf093363	-0.53594035
245	0xbf49bf74	-0.7880776
246	0xbf19ed9a	-0.60128176
247	0x3f0f4337	0.55961937
248	0x3f2aa6ef	0.6666097
249	0x3c44b711	0.012006537
250	0xbf94c471	-1.1622449
251	0x3d71167f	0.058859345
252	0xbd39b5c8	-0.045339376
253	0xbde93003	-0.11386111
254	0xbf21284f	-0.6295213
255	0x3ee6e576	0.4509694

conv3.bias f4 [20]
0	0x3d1ab21a	0.037767507
1	0xb4dd5771	-4.122808e-07
2	0xbcddeb0f	-0.027089624
3	0x00fc220f	2.3154763e-38
4	0x835d1f83	-6.4982237e-37
5	0x3ee81484	0.45328152
6	0x3e96fd3e	0.29490083
7	0xbd66348e	-0.056202464
8	0x8028be6f	-3.741735e-39
9	0x3ea21b46	0.31661433
10	0x0040d761	5.954735e-39
11	0x3de74b4e	0.1129366
12	0x3eb76b3f	0.3582401
13	0x3e3d6cbb	0.18498509
14	0x3e49fc85	0.19725235
15	0x3ce69b7b	0.02815031
16	0x3e79e8ee	0.24405262
17	0xbbf127dc	-0.007359488
18	0x3cd56e61	0.02605361
19	0x3eb7d31e	0.35903257

conv4.weight f4 [20, 1, 3, 3]
0	0x3ea4f6a2	0.32219416
1	0x3ec45c8f	0.38351867
2	0xbce3bbe8	-0.027799562
3	0x3ecf20d4	0.40454733
4	0x3f30d89a	0.6908051
5	0xbd520fb0	-0.051284492
6	0xbed2ed63	-0.41196737
7	0x3eea5786	0.457699
8	0x3e3a769b	0.18209307
9	0x3b3f58b4	0.0029197158
10	0x3848aef8	4.7846668e-05
11	0xbb4b2a45	-0.0031000536
12	0x3aebb4d9	0.0017982974
13	0xbafecca6	-0.0019439652
14	0xbb1239e3	-0.0022312335
15	0x3aa355c6	0.0012461476
16	0xbab60bb9	-0.0013888992
17	0xbac22723	-0.0014812689
18	0xbca78c0e	-0.020452525
19	0xbc64ca42	-0.013964238
20	0xbc02fb0c	-0.007994425
21	0xbcbd1ef0	-0.023086041
22	0xbc727523	-0.014798435
23	0xbcb98c5b	-0.022649935
24	0xbcdd99f0	-0.027050942
25	0xbc0f40be	-0.008743463
26	0xbcc66897	-0.024219794
27	0x1abcfb5c	7.816107e-23
28	0x93c9b033	-5.091328e-27
29	0x921b1b5d	-4.8943104e-28
30	0x1ecf16a2	2.1926338e-20
31	0xa07e9f41	-2.156733e-19
32	0xa061b3d5	-1.9117743e-19
33	0x9ca11464	-1.0659357e-21
34	0x9fc7a1c4	-8.45474e-20
35	0xa02a52bd	-1.4426936e-19
36	0x808e3eb6	-1.3063137e-38
37	0x01c6d870	7.3044286e-38
38	0x81058658	-2.452463e-38
39	0x028e86bd	2.094236e-37
40	0x009e4468	1.4534548e-38
41	0x06dc43ca	8.285441e-35
42	0x8a4028e7	-9.2521566e-33
43	0x0091dcb3	1.3395319e-38
44	0x03adcd66	1.0215183e-36
45	0x3e1cf184	0.15326506
46	0xbed40468	-0.41409612
47	0xbee82519	-0.45340803
48	0x3de0ae6d	0.10970769
49	0x3e4e799f	0.20163582
50	0xbc0b266a	-0.008493045
51	0x3f14c4fa	0.5811306
52	0x3e287426	0.16450557
53	0x3f1070d5	0.5642217
54	0xbee4860a	-0.44633514
55	0x3dc87d11	0.097894795
56	0x3ef4afad	0.4779028
57	0x3eb3597c	0.3502921
58	0x3ef124ff	0.47098538
59	0x3f3ed915	0.7454999
60	0x3f095b94	0.5365536
61	0x3e0aa05e	0.13537738
62	0xbe1db6b8	-0.15401733
63	0xbf0c04ad	-0.54694635
64	0xbd7e3bd4	-0.062068775
65	0x3e34d5a8	0.17659628
66	0xbf0329a6	-0.51235425
67	0x3e556397	0.20838772
68	0x3f4dcb74	0.8038857
69	0xbd537e9f	-0.051634427
70	0x3e02a6af	0.12758897
71	0x3f18190d	0.59413224
72	0x24366a5b	3.9555046e-17
73	0x96a7115c	-2.699126e-25
74	0x00258bea	3.448105e-39
75	0x277a31c0	3.472144e-15
76	0x00b8ee39	1.698319e-38
77	0x80952218	-1.369572e-38
78	0x2db9beb2	2.111675e-11
79	0x005ed44b	8.708693e-39
80	0x1bbc3cf5	3.1141384e-22
81	0xbd23166b	-0.0398163
82	0xbeef14d0	-0.46695566
83	0x3e8f455d	0.27982607
84	0xbe5a146b	-0.21296851
85	0x3e8d6c6a	0.27621776
86	0x3e379af8	0.1793021
87	0xbeb113e0	-0.34585476
88	0x3f10b993	0.56533164
89	0x3edafab3	0.42769393
90	0x32576da7	1.2539579e-08
91	0x2fcbdb9b	3.7081524e-10
92	0x2c3024c3	2.5031511e-12
93	0x30e8efb9	1.6948355e-09
94	0x2e6f1ebc	5.4369606e-11
95	0x2a2c37e8	1.5296065e-13
96	0x2ce7ef42	6.591978e-12
97	0x2b9ae24a	1.1005166e-12
98	0x2705a97e	1.854934e-15
99	0xbf044e67	-0.5168213
100	0xbf2e8ea9	-0.6818643
101	0xbf00737a	-0.50176203
102	0xbe5e94f0	-0.21736503
103	0xbec896b7	-0.39177486
104	0xbf29ccd4	-0.6632817
105	0x3e0afcfb	0.13573067
106	0xbf375021	-0.7160664
107	0xbf8ff524	-1.1246686
108	0xbe9c01a7	-0.3047001
109	0x3f006b51	0.5016375
110	0x3ed8ad4d	0.42319718
111	0x3cf31680	0.029673815
112	0xbec0a7c6	-0.37628
113	0xbed0b61d	-0.4076394
114	0x3f0a20ab	0.539561
115	0xbe9bdc65	-0.30441585
116	0xbeb3eef9	-0.3514326
117	0x3d2287d3	0.039680313
118	0x3e4c0c3b	0.1992654
119	0xbe4459be	-0.19174859
120	0xbf67d328	-0.90556574
121	0xbf3d3ce5	-0.7392104
122	0xbe911b4c	-0.28341138
123	0xbe354ab6	-0.17704281
124	0xbf0871dd	-0.5329874
125	0xbe712c8e	-0.23552153
126	0xbe8a11f5	-0.26966825
127	0xbe5a19ab	-0.21298854
128	0xbed7b0f7	-0.421272
129	0xbf31b084	-0.69409966
130	0xbebf069e	-0.37309736
131	0xbdd8e4df	-0.10590529
132	0xbebb92e4	-0.36635506
133	0xbe3784ba	-0.17921725
134	0xbe4bd398	-0.19904935
135	0x3f16689b	0.58753365
136	0x3e56d8a4	0.2098108
137	0xbd4a9177	-0.049455132
138	0x3ebb9839	0.36639574
139	0x3f294dad	0.6613415
140	0xbdb413a8	-0.08792812
141	0x3f293cf7	0.6610865
142	0x3f180937	0.5938906
143	0xbdce565c	-0.100750655
144	0xbec8029f	-0.390645
145	0xbca0e424	-0.019640036
146	0xbe89cce7	-0.2691414
147	0x3e06879b	0.13137667
148	0x3f0fac03	0.56121844
149	0x3e96fee4	0.2949134
150	0x3e924b98	0.28573298
151	0x3f3b1480	0.73078156
152	0x3ec843e5	0.391143
153	0xbafa9e68	-0.0019120695
154	0xbc20dd67	-0.009818411
155	0xbb6c0cb7	-0.003601832
156	0xbb71414a	-0.0036812597
157	0xbc230eea	-0.009952286
158	0xbb8226bd	-0.003971903
159	0xbbdf96b8	-0.006823387
160	0xbc1a7c00	-0.009428978
161	0xbaf2e0dc	-0.0018530148
162	0xbf12418f	-0.57131284
163	0xbec6e19d	-0.38844004
164	0x3f25e1bf	0.64797586
165	0xbf5ea2fe	-0.86967456
166	0xbee2f830	-0.44329977
167	0x3e86447d	0.26224127
168	0xbfc440a0	-1.5332222
169	0xbfb2c578	-1.3966513
170	0xbf54e608	-0.831635
171	0x3e1780e5	0.14795263
172	0x3f35e70e	0.71055686
173	0x3e1c5ca7	0.15269719
174	0xbe9a36c5	-0.3011991
175	0xbdb9aa17	-0.09065645
176	0xbe1fc572	-0.15602663
177	0xbf1bc7d5	-0.60851794
178	0xbe9bc3e5	-0.30422893
179	0x3e49c663	0.19704585

conv4.bias f4 [20]
0	0x3dca86f8	0.098890245
1	0xbeb8c475	-0.36087385
2	0x3ef6a615	0.48173586
3	0x3e6619b9	0.2247075
4	0xbed888fd	-0.42292014
5	0xbe605722	-0.21908239
6	0x3e73574c	0.2376377
7	0x3db44ced	0.08803735
8	0xbecf024e	-0.40431446
9	0xbbc58a52	-0.006028452
10	0x3e9eb7b0	0.30999517
11	0x3ecd0a74	0.40047038
12	0xbdebf537	-0.115213804
13	0x3e1d36e1	0.15352966
14	0xbe813c16	-0.25241154
15	0xbeb736bb	-0.35783944
16	0x3d270b45	0.04078223
17	0xbee1e188	-0.4411738
18	0x3e367f3c	0.17821974
19	0x3e9fa6cf	0.31181952

conv5.weight f4 [20, 20, 1, 1]
0	0x3ea13b6d	0.3149065
1	0xbe241901	-0.16025163
2	0xbe2376d6	-0.15963301
3	0xbd0134dd	-0.031544555
4	0x3c947efc	0.018126957
5	0xbe49eadc	-0.19718498
6	0x3d7aa72c	0.061194584
7	0x3e2ef688	0.17086232
8	0xbd2124ea	-0.039341845
9	0x3b04a9ab	0.0020242732
10	0xbd23e063	-0.040008914
11	0x3e62826d	0.22120066
12	0xbde21cad	-0.11040626
13	0x3d2549ce	0.04035359
14	0xbec13b31	-0.37740472
15	0x3e4303dc	0.19044441
16	0xbe7fa208	-0.24964154
17	0x3b00c41f	0.0019648147
18	0x3e96bb5c	0.2943982
19	0x3f07bb2b	0.5301997
20	0x3e76f4b9	0.24116792
21	0xbed85448	-0.42251801
22	0x3eb2a3ea	0.34890682
23	0x3eb91b59	0.36153677
24	0xbe9d813f	-0.3076267
25	0x3d71debb	0.059050303
26	0x3e96a60b	0.29423556
27	0x3d395d70	0.045255125
28	0xbee1fc27	-0.4413769
29	0xbe32dbdc	-0.17466682
30	0x3e91b457	0.284579
31	0x3e5dfe29	0.21678986
32	0x3e37c2c7	0.17945395
33	0xbea4176d	-0.32049122
34	0xbe95d504	-0.2926408
35	0xbcc02607	-0.023455633
36	0x3f4d4315	0.80180484
37	0xbee07c08	-0.43844628
38	0xbf3be94e	-0.7340287
39	0xbe94e25b	-0.29078946
40	0x3e3e0346	0.18555936
41	0x3e07580f	0.13217185
42	0xbebbe9d0	-0.36701822
43	0xbe02541b	-0.12727396
44	0x3e7d471d	0.24734159
45	0x3e64d1f8	0.22345722
46	0x3db71de6	0.089412495
47	0xbea8dae2	-0.32979494
48	0xbb2ccafe	-0.002636611
49	0xbf15453b	-0.5830876
50	0xbe920afc	-0.28524005
51	0x3e6938f0	0.22775626
52	0x3ead55e5	0.33854595
53	0xbea802da	-0.32814676
54	0x3e6ffe00	0.23436737
55	0x3e7f5e7f	0.24938391
56	0x3d96e66d	0.07368169
57	0x3dcdf687	0.10056787
58	0x3d719fbe	0.058990233
59	0xbf2c86b7	-0.6739306
60	0x3f03e6ee	0.51524246
61	0xbe0d686c	-0.13809365
62	0x3e93861f	0.28813264
63	0x3cd4cd3b	0.025976768
64	0xbdd35d01	-0.103204735
65	0x3ed9ab73	0.42513618
66	0x3eac6482	0.3367043
67	0xbdd8c27a	-0.105839685
68	0xbe4258ab	-0.18979137
69	0x3dc32837	0.09529155
70	0x3e3d2bf8	0.18473804
71	0xbeb4bc90	-0.35300112
72	0xbe558c3e	-0.2085428
73	0xbe9a3efe	-0.30126184
74	0x3dc073d0	0.093970895
75	0xbd0b479d	-0.034003843
76	0xbe740989	-0.23831762
77	0xbe8fac89	-0.2806132
78	0xbfc61728	-1.5475817
79	0xbe55b319	-0.20869102
80	0xbeb215cf	-0.34782264
81	0xbe6fb81a	-0.23410073
82	0x3e7c248b	0.24623315
83	0x3e5263e8	0.20545924
84	0xbe774479	-0.24147214
85	0xbe40f73d	-0.18844314
86	0xbe5e92c4	-0.21735674
87	0xbec157c9	-0.37762287
88	0xbe768fdb	-0.24078314
89	0xbec5a36b	-0.3860124
90	0x3e714843	0.23562722
91	0x3e93aa42	0.28840834
92	0xbdcc4d49	-0.099756785
93	0xbe810b38	-0.25203872
94	0xbe342afb	-0.17594521
95	0xbdb574cc	-0.08860168
96	0xbdbc1a69	-0.09184725
97	0xbe7500bf	-0.23926066
98	0x3f6c262b	0.9224574
99	0x3dd652d2	0.104650155
100	0xbe2647ec	-0.16238374
101	0x3c8356f5	0.016032675
102	0x3e424128	0.18970168
103	0x3e24b913	0.16086225
104	0xbd987abe	-0.07445286
105	0xbcfad4bc	-0.030619018
106	0x3cf9abc4	0.030477412
107	0x3ef7d198	0.48402095
108	0xbdb1c68f	-0.0868045
109	0x3e2bb355	0.16767628
110	0x3e7bebdc	0.24601692
111	0x3d359489	0.044331107
112	0xbdea16f4	-0.11430159
113	0xbe236d4e	-0.15959665
114	0x3ea2cd21	0.31797126
115	0xbeabfc18	-0.3359077
116	0x3e80ceac	0.25157678
117	0xbd0b37fa	-0.03398893
118	0xbddc0595	-0.10743252
119	0x3cf37ec0	0.029723525
120	0xbe7c80aa	-0.24658456
121	0xbe314e2f	-0.17314981
122	0x3d83a689	0.064282484
123	0x3daae319	0.08344097
124	0xbdc4714f	-0.095919244
125	0xbd6cf322	-0.057849057
126	0xbd22f423	-0.03978361
127	0x3e1987ad	0.14993162
128	0xbdd18fdd	-0.10232518
129	0x3ee0973d	0.43865386
130	0x3e3a4893	0.18191747
131	0x3eb61924	0.35566056
132	0x3e2c85d8	0.16847932
133	0x3e7c921c	0.24665111
134	0xbe63fb97	-0.22263943
135	0x3ea3e90d	0.3201374
136	0x3e8ab0ce	0.27088016
137	0xbe031d27	-0.1280409
138	0x3e69e69a	0.22841874
139	0x3e103c33	0.14085464
140	0x3f0f14fa	0.5589138
141	0x3e069cf9	0.13145818
142	0xbe094bf7	-0.13407885
143	0xbddfc248	-0.10925728
144	0x3e1405e8	0.14455378
145	0x3eadb9c6	0.33930796
146	0xbf859f80	-1.04393
147	0xbe78c1ba	-0.24292651
148	0x3e0b018e	0.13574812
149	0xbedef7e0	-0.4354849
150	0xbe02ff99	-0.12792815
151	0xbe26ec64	-0.16301113
152	0xbd11a76d	-0.03556006
153	0xbef23826	-0.47308463
154	0x3eb940ff	0.361824
155	0x3d3de03e	0.046356432
156	0x3cce0327	0.025147988
157	0x3e0cc876	0.13748345
158	0xbe5689c8	-0.20950997
159	0x3e89e157	0.26929733
160	0xbd0842e0	-0.033266902
161	0xbe10068a	-0.14064994
162	0xbd59218d	-0.053010512
163	0x3b000c6b	0.0019538652
164	0xbdd01730	-0.10160673
165	0xbd9c41e0	-0.07629752
166	0x3f451a4f	0.7699327
167	0x3f1ace4a	0.6047102
168	0xbde27c92	-0.11058916
169	0x3edf9f80	0.43676376
170	0xbdf370b0	-0.11886728
171	0xbef45ed8	-0.4772861
172	0x3f0bcb5f	0.54607195
173	0xbeb33b33	-0.35006103
174	0xbe6cb9af	-0.23117708
175	0xbd8e77be	-0.06956433
176	0xbe6a1ca3	-0.22862487
177	0x3db1e71c	0.08686659
178	0x3dbb7d7e	0.09154795
179	0xbe15045d	-0.14552446
180	0x3e0297f5	0.1275328
181	0xbe47bcf3	-0.19505672
182	0x3d0ba054	0.034088448
183	0x3db4de80	0.08831501
184	0x3d3cb7c9	0.04607371
185	0x3eaa06d0	0.33208323
186	0x3e82db70	0.25558043
187	0x3f07e26b	0.5307986
188	0xbd7e7d43	-0.062131178
189	0x3e9124d4	0.2834841
190	0x3c8560c4	0.016281493
191	0x3e941073	0.289188
192	0xbd832045	-0.06402639
193	0x3e9064d8	0.28201938
194	0x3d1ed15e	0.038773887
195	0xbe8e1afd	-0.27754965
196	0x3ed68e68	0.41905522
197	0xbd670c38	-0.056408137
198	0xbedad8d4	-0.42743552
199	0xbec27c7c	-0.379856
200	0x3e21b09f	0.15790032
201	0xbe8e0806	-0.27740496
202	0x3e95c1fd	0.29249564
203	0x3e3d600c	0.1849367
204	0xbe024cf2	-0.12724665
205	0xbdf53531	-0.11973036
206	0x3ea3c31b	0.3198479
207	0xbd5d7036	-0.05406209
208	0xbe5a51e9	-0.21320309
209	0x3e5b8799	0.21438445
210	0x3e52ab7a	0.20573226
211	0xbf09e0de	-0.53858745
212	0xbebba956	-0.3665263
213	0xbdd560b0	-0.10418832
214	0x3c8b0d2a	0.01697405
215	0xbe8b0e27	-0.27159235
216	0x3dea1073	0.11428919
217	0xbe00819a	-0.12549439
218	0xbf6d835f	-0.9277858
219	0x3e6c8a28	0.23099577
220	0xbdf898f0	-0.121385455
221	0x3dbfc1cb	0.09363135
222	0xbdd7274d	-0.10505543
223	0x3a48d54a	0.0007661177
224	0x3e1033fe	0.14082333
225	0xbcce9c6c	-0.025221072
226	0x3e09ebdd	0.13468881
227	0x3e86a8ef	0.2630076
228	0x3d2793e0	0.04091251
229	0x3e56d599	0.20979919
230	0xbe303e4e	-0.17211267
231	0xbf3c3264	-0.7351439
232	0xbd913fb2	-0.07092227
233	0xbda4badc	-0.08043453
234	0x3db15e08	0.08660513
235	0xbe909854	-0.28241217
236	0xbdbc3dd9	-0.09191484
237	0x3e15281f	0.14566086
238	0xbf2fbfe2	-0.68652165
239	0x3dbc9c21	0.09209467
240	0x3ec9b3d5	0.39395013
241	0xbe824f02	-0.25450903
242	0xbde58daa	-0.11208661
243	0xbd3f573a	-0.046714045
244	0xbe4e1664	-0.20125729
245	0xbf376d31	-0.7165099
246	0x3d28f546	0.041249536
247	0xbe295440	-0.16536045
248	0xbe60966a	-0.21932378
249	0xbdc20de8	-0.09475309
250	0x3e10c3fa	0.14137259
251	0x3d41b017	0.047287073
252	0x3e988be4	0.29794228
253	0x3cb440a6	0.022003483
254	0xbd404156	-0.04693731
255	0x3eef6e6a	0.46763927

conv5.bias f4 [20]
0	0xbde2e133	-0.110781096
1	0x3e84c3b4	0.2593056
2	0xbe041a9a	-0.12900773
3	0x3eb7b628	0.35881162
4	0x3e82f243	0.25575456
5	0xbd8fee15	-0.070278324
6	0xbc781f90	-0.015144244
7	0xbe0ee4b3	-0.1395443
8	0xbd1beef0	-0.038069665
9	0x3e933318	0.2874992
10	0x3de4c466	0.111702725
11	0xbe0bad6d	-0.13640375
12	0xbd8d5d49	-0.06902558
13	0x3db50690	0.08839142
14	0x3e3c9588	0.18416417
15	0xbe9b4741	-0.303278
16	0x3d5a8a5c	0.053354606
17	0xbe25c2bd	-0.16187568
18	0xb9c10585	-0.0003681594
19	0x3d801584	0.06254104

conv6.weight f4 [20, 1, 3, 3]
0	0x3e672ffa	0.22576895
1	0x3d2d9254	0.042375877
2	0x3eb709bf	0.35749623
3	0x3f143196	0.5788816
4	0xbe0bb2db	-0.13642447
5	0xbe5a796e	-0.21335384
6	0x3f0bcb48	0.5460706
7	0x3ebcbb7c	0.3686179
8	0x3e85c31f	0.26125428
9	0x3e905f1b	0.2819756
10	0xbc781034	-0.015140582
11	0xbf212088	-0.62940264
12	0x3cd7b269	0.02633019
13	0x3dfe2c39	0.124107786
14	0xbedc6d8a	-0.43052322
15	0x3ec156fd	0.3776168
16	0x3ee5338a	0.44765884
17	0xbec96401	-0.3933411
18	0x3e2f81d1	0.17139365
19	0xbea48270	-0.32130766
20	0xbf03b460	-0.51447105
21	0xbe0a570b	-0.13509767
22	0x3f2fbf63	0.6865141
23	0xbe0e3eb2	-0.13891104
24	0xbf30180c	-0.6878669
25	0xbdd13ac0	-0.10216284
26	0xbebf92e6	-0.37416762
27	0x3eda2963	0.426097
28	0x3dc4340a	0.09580238
29	0x3ecb2b5b	0.39681515
30	0x3d48a2bb	0.048983317
31	0xbdc1feb7	-0.09472411
32	0x3e35031f	0.17676972
33	0x3e2b4394	0.16724998
34	0xbf10f9a3	-0.56630915
35	0x3e5d1d0e	0.21593115
36	0x3f136e70	0.5759039
37	0xbcebec05	-0.028799066
38	0x3f75dc2b	0.96039075
39	0xbef9aef9	-0.48766306
40	0xbf6fedcf	-0.9372224
41	0x3f206a1f	0.6266193
42	0xbef68502	-0.48148352
43	0xbf59a516	-0.85017526
44	0x3ef28d42	0.47373396
45	0xbcc93073	-0.024559235
46	0xbf12ff3e	-0.5742072
47	0x3e6d5c8a	0.23179832
48	0x3f166e0f	0.58761686
49	0xbd7bc3a6	-0.06146588
50	0x3dce0408	0.10059363
51	0x3f16661f	0.58749574
52	0xbcbc3538	-0.022974595
53	0xbe67ce5a	-0.2263731
54	0x3d9bee2e	0.076137885
55	0x3e336d8a	0.17522255
56	0x3e50d93e	0.20395371
57	0x3f348b47	0.7052502
58	0x3ed80603	0.42192087
59	0xbec87cb2	-0.39157635
60	0x3e5ade1d	0.21373792
61	0x3d32b117	0.043625917
62	0x3ea0473c	0.31304348
63	0x3d777586	0.060414813
64	0xbf3a7e9a	-0.7284943
65	0x3e969ab2	0.29414898
66	0x3ee8f89e	0.4550218
67	0xbeb50552	-0.35355622
68	0xbe2727c7	-0.16323768
69	0xbef01686	-0.46892184
70	0xbebf79a5	-0.37397495
71	0x3f66ec2a	0.9020411
72	0x3eb915d0	0.36149454
73	0xbed7182e	-0.42010635
74	0x3e4efecf	0.2021439
75	0x3db4652c	0.088083595
76	0xbef1280f	-0.47100875
77	0x3f1108f0	0.5665426
78	0xbda45f4a	-0.080259874
79	0xbd47ad20	-0.04874909
80	0x3ebedb9b	0.3727692
81	0x3ee62486	0.4494974
82	0x3e895f91	0.26830724
83	0x3e3c7338	0.18403327
84	0x3e196ab5	0.14982112
85	0xbe82a538	-0.25516677
86	0xbebab4a8	-0.36465955
87	0x3e386ad0	0.18009496
88	0xbef01792	-0.46892983
89	0x3efb180f	0.49041793
90	0xbe82085d	-0.25397006
91	0x3e93beb8	0.28856444
92	0xbec1a41a	-0.37820512
93	0xbb861455	-0.0040917792
94	0x3eca741d	0.39541712
95	0x3d0d03ef	0.03442758
96	0xbea24c8c	-0.31699026
97	0x3e5de011	0.21667506
98	0x3ed754d3	0.42056903
99	0x3e35d6b9	0.17757691
100	0x3eedc431	0.46438745
101	0x3ea3d1ef	0.31996104
102	0x3ea02a04	0.31282055
103	0x3e1e6c56	0.15471014
104	0xbe64513a	-0.2229661
105	0xbe2eecda	-0.17082539
106	0xbea2cdb8	-0.31797576
107	0xbde32632	-0.110912696
108	0xbdfb4ed4	-0.12270895
109	0xbeecedd5	-0.462752
110	0x3dceb3f8	0.1009292
111	0x3f146cea	0.5797869
112	0x3eb135b1	0.34611276
113	0x3f06d0b3	0.526622
114	0xbe07c0c5	-0.1325713
115	0x3eee8f6a	0.4659379
116	0xbe333556	-0.17500815
117	0x3f2477c5	0.64245254
118	0xbd9a8cbd	-0.07546375
119	0xbf60c300	-0.87797546
120	0x3f07d2df	0.5305614
121	0xbea57056	-0.32312268
122	0xbf16a8a9	-0.58851105
123	0x3e88f4d1	0.2674928
124	0xbdb48a18	-0.08815402
125	0xbea62032	-0.32446438
126	0xbe3fbb3a	-0.18723765
127	0x3e59a4cb	0.2125427
128	0x3e80d142	0.2515965
129	0x3e162470	0.14662337
130	0x3f1ff199	0.62478024
131	0x3e9a880f	0.3018193
132	0x3e37a466	0.17933807
133	0x3ea9f618	0.33195567
134	0x3d9f178c	0.07768163
135	0x3e995181	0.29944995
136	0xbe2bbc51	-0.16771056
137	0x3e59ff9b	0.21288912
138	0xbe5902f8	-0.21192539
139	0xbe4837cb	-0.19552533
140	0xbf37fb79	-0.7186809
141	0x3eed28f1	0.46320298
142	0x3e42b1f6	0.19013199
143	0xbf0276e3	-0.50962657
144	0xbf4b9a57	-0.7953238
145	0xbe69e524	-0.22841316
146	0x3da5d8c8	0.08097988
147	0xbf5c44bf	-0.860424
148	0x3df7f44b	0.12107142
149	0xbd2c111d	-0.042008508
150	0xbeef7572	-0.4676929
151	0x3d2a2483	0.041538727
152	0x3e8fbcab	0.2807363
153	0xbdbb5068	-0.09146196
154	0xbefdb3e9	-0.49551323
155	0x3f0b6efb	0.5446622
156	0x3da3ba56	0.07994525
157	0x3e5924e7	0.21205483
158	0x3e279e5f	0.16369008
159	0x3f09f6cf	0.53892225
160	0xbe30b48d	-0.17256375
161	0xbec2d918	-0.38056254
162	0xbc684277	-0.014176003
163	0xbbfd1487	-0.0077233943
164	0xbc53fdf2	-0.012938963
165	0xbcd8a889	-0.026447551
166	0xbc42d627	-0.011891878
167	0xbac07d6b	-0.0014685815
168	0xbc9ee860	-0.019397914
169	0xbc01f058	-0.007930838
170	0xb98015e4	-0.00024430372
171	0xbbf2c4b5	-0.007408703
172	0xbe4716dd	-0.19442315
173	0xbec6716d	-0.38758412
174	0x3e22997f	0.15878867
175	0x3e8943ca	0.2680953
176	0x3ed02614	0.4065405
177	0x3dcb3148	0.09921509
178	0xbefe5e88	-0.49681497
179	0x3f09da1a	0.5384842

conv6.bias f4 [20]
0	0xbd58160a	-0.052755393
1	0x3e30a982	0.17252162
2	0x3f435e59	0.7631584
3	0xbe87d5b9	-0.26530245
4	0xbe38b05e	-0.18036029
5	0x3e11afff	0.14227293
6	0x3cb4b88c	0.022060655
7	0x3ed3a93e	0.4134006
8	0x3dccc01b	0.09997579
9	0xbdfef1cd	-0.124484636
10	0x3d2065cc	0.03915958
11	0xbdacd795	-0.084395565
12	0xbe126555	-0.14296468
13	0xbe8e6fc9	-0.2781966
14	0x3e647ddb	0.22313635
15	0x3e8edcb3	0.27902755
16	0x3eb52bff	0.3538513
17	0x3ecdc079	0.40185907
18	0x3f243ec4	0.6415827
19	0x3e1d4355	0.15357716

conv7.weight f4 [20, 20, 1, 1]
0	0xbe298336	-0.16553959
1	0x3dab37dd	0.083602645
2	0x3e8b4b7e	0.27206033
3	0x3e3347cb	0.17507856
4	0x3dbc9fd7	0.092101745
5	0xbe1b67a4	-0.15176255
6	0xbea43ebb	-0.3207911
7	0x3f2a6139	0.665546
8	0x3e195077	0.14972101
9	0x3e6e4203	0.23267369
10	0xbe629ecf	-0.22130893
11	0xbe5f7a20	-0.2182393
12	0xbec1206b	-0.37720045
13	0x3e1a0344	0.15040308
14	0x3d268fcd	0.040664483
15	0x3e5aaaa9	0.21354164
16	0xbeb85319	-0.36000898
17	0x3f2c534f	0.6731462
18	0x3e3a4fcb	0.18194501
19	0x3ca250a5	0.019813845
20	0x3e8f5d0c	0.28000677
21	0x3dda11c3	0.10647919
22	0xbefcd6d5	-0.49382654
23	0x3de441a3	0.11145332
24	0x3d003b30	0.031306446
25	0x3dbd5110	0.09243977
26	0xbd2d6d0b	-0.04234032
27	0xbe366034	-0.17810136
28	0xbe515e09	-0.20446028
29	0xbd04faf9	-0.03246591
30	0x3db19142	0.08670284
31	0x3ea1e71b	0.31621632
32	0xbe59d6b5	-0.2127331
33	0x3df69ae6	0.12041263
34	0xbe9dd9d0	-0.3083024
35	0xbe5b10b7	-0.21393095
36	0x3dd28250	0.102787614
37	0x3dbbd535	0.091715254
38	0xbf1e742c	-0.61896014
39	0xbe362817	-0.1778873
40	0x3dc38a44	0.095478565
41	0xbe077953	-0.13229875
42	0x3ea3ded4	0.32005942
43	0xbe28b523	-0.16475348
44	0xbf16365d	-0.586767
45	0x3e43601a	0.19079629
46	0x3d0b0f04	0.033949867
47	0xbe266d81	-0.1625271
48	0xbd014824	-0.03156294
49	0x3e82b7f6	0.25530976
50	0x3eb943bf	0.361845
51	0xbedf811e	-0.43653196
52	0xbd7e8ddd	-0.06214701
53	0x3cf64245	0.030060897
54	0xbe49a170	-0.1969049
55	0x3e63401a	0.22192422
56	0xbe329f13	-0.17443494
57	0xbecd044f	-0.4004235
58	0x3d7a0ebe	0.061049215
59	0xbea5930f	-0.3233876
60	0x3e0b2760	0.13589239
61	0xbe4507bc	-0.19241232
62	0x3ecf7b0e	0.4052357
63	0x3e01c3c0	0.12672329
64	0x3c9ad3c3	0.018899804
65	0x3d319149	0.043351445
66	0xbe191532	-0.14949492
67	0xbf695464	-0.91144395
68	0x3db77d61	0.08959461
69	0x3e5fca6b	0.2185456
70	0xbe864d0a	-0.2623065
71	0x3e4af2cc	0.19819182
72	0x3e7515db	0.23934118
73	0xbe0c2d8c	-0.1368925
74	0xbf0815de	-0.53158367
75	0xbe452182	-0.19251063
76	0xbd658f41	-0.05604482
77	0xbed99c32	-0.4250198
78	0xbea5fede	-0.3242101
79	0xbea76afa	-0.32698804
80	0x3ca55817	0.020183606
81	0xbdac2637	-0.084057264
82	0x3e43cc8e	0.19121
83	0x3e413d45	0.18871029
84	0xbdb2111c	-0.086946696
85	0x3cd8f15f	0.026482282
86	0xbee6bc84	-0.450657
87	0x3ef1dca4	0.47238648
88	0xbdf607b0	-0.12013185
89	0x3e59bcbe	0.21263406
90	0x3e220e04	0.15825659
91	0x3e70a69f	0.23501061
92	0x3f19b8f9	0.6004787
93	0x3ddb65d6	0.10712783
94	0xbe8074f2	-0.25089222
95	0xbdd60fcd	-0.104522325
96	0xbcb0ab3e	-0.02156603
97	0x3e65a459	0.22425975
98	0xbe33474f	-0.17507671
99	0x3d01a303	0.0316496
100	0xbe80c87a	-0.2515295
101	0x3d6f3fca	0.058410443
102	0xbe8c4a3e	-0.27400392
103	0x3dbddac9	0.092702456
104	0x3e5f8a34	0.21830064
105	0x3e478b97	0.19486843
106	0xbefb5c36	-0.4909379
107	0x3f3eb10d	0.7448891
108	0xbddf426a	-0.10901339
109	0x3c7ca946	0.015421217
110	0xbe90fe16	-0.28318852
111	0xbebaf082	-0.36511618
112	0x3e4ed536	0.20198521
113	0xbe255a6f	-0.16147779
114	0x3e78eba8	0.24308646
115	0x3dc3d4ae	0.0956205
116	0x3f0a8016	0.54101694
117	0x3db289b6	0.087176725
118	0xbe74f7e5	-0.2392269
119	0x3cab649a	0.020921994
120	0xbf6959cd	-0.9115265
121	0x3e298196	0.1655334
122	0x3dd44e62	0.10366513
123	0xbf01a758	-0.5064597
124	0xbe3f11d5	-0.18659146
125	0xbdafe8a9	-0.08589298
126	0x3d15595e	0.03646218
127	0x3ea44c22	0.32089335
128	0x3dbc063a	0.09180875
129	0x3e92340a	0.28555328
130	0xbefae597	-0.49003288
131	0xbe3288b7	-0.17434965
132	0xbda8aa6a	-0.08235629
133	0xbda98f7f	-0.08279323
134	0x3ed1491d	0.40876094
135	0xbf0539a7	-0.52041095
136	0xbd7df342	-0.061999567
137	0xbec82cd1	-0.39096692
138	0xbe5da060	-0.2164321
139	0xbd05982f	-0.032615837
140	0xbc2e5fab	-0.010642926
141	0xbdf06940	-0.11738825
142	0x3e12f3a8	0.1435076
143	0x3c83c6d6	0.016086023
144	0x3f70d5a2	0.9407598
145	0x3e32cd4c	0.17461127
146	0x3e837676	0.25676316
147	0xbef27fd4	-0.4736315
148	0x3ee9eac4	0.45686924
149	0x3dcefbc6	0.10106616
150	0x3e1207f9	0.14260854
151	0xbe9c80bc	-0.30566967
152	0x3df36292	0.11884035
153	0x3e0c74d8	0.13716447
154	0x3d99ba04	0.07506183
155	0x3f1d38a6	0.61414564
156	0xbed2cac4	-0.41170323
157	0x3ec908c3	0.39264497
158	0xbd92a45c	-0.07160255
159	0x3ea41d6b	0.32053694
160	0xbeebae39	-0.4603136
161	0x3de2df41	0.110777386
162	0x3dd38808	0.1032868
163	0x3e8aab01	0.2708359
164	0x3e8753af	0.26431033
165	0x3eec4817	0.4614875
166	0x3c9585d5	0.018252293
167	0xbf5f433d	-0.8721197
168	0x3d334fac	0.043777153
169	0x3ea86a59	0.32893637
170	0xbddaccc9	-0.10683591
171	0xbef058e4	-0.46942818
172	0x3e9aa1a5	0.3020145
173	0x3e78f957	0.24313866
174	0x3dab9a8c	0.08379087
175	0xbc9bd438	-0.019022092
176	0x3ec1e9a6	0.37873572
177	0xbe060b2d	-0.130902
178	0x3bf0554c	0.007334387
179	0x3d702a6a	0.0586342
180	0x3d43ebea	0.047832407
181	0x3e68def3	0.22741298
182	0xbf09cf9c	-0.5383241
183	0xbe47ccf2	-0.19511774
184	0xbf19bd84	-0.600548
185	0xbdf262e8	-0.11835271
186	0x3d60a91d	0.05484878
187	0xbe57f28e	-0.21088621
188	0xbe7598f4	-0.23984128
189	0x3d561bd3	0.05227263
190	0xbebb8f6b	-0.36632857
191	0xbe5b36d7	-0.21407638
192	0xbe95af5d	-0.29235354
193	0x3cb0d3f2	0.021585438
194	0xbe674449	-0.22584642
195	0x3dbbf9f4	0.09178534
196	0xbdc7a360	-0.09747958
197	0x3e304e83	0.1721745
198	0xbf027f4c	-0.5097549
199	0x3d8c2442	0.06842853
200	0x3e549125	0.20758493
201	0xbe2c9776	-0.16854653
202	0xbe129f90	-0.14318681
203	0xbeb9171a	-0.36150438
204	0xbe28ed11	-0.16496684
205	0xbc9eb16e	-0.019371714
206	0x3e8a3e8b	0.27000841
207	0x3e301f7f	0.17199515
208	0xbe952f72	-0.2913776
209	0xbe165982	-0.14682582
210	0xbe3bf582	-0.18355373
211	0xbdd5be25	-0.10436658
212	0xbef6e7b1	-0.48223642
213	0x3e4339f9	0.19065084
214	0xbe1d6279	-0.15369596
215	0xbeb98fc8	-0.3624251
216	0xbe83a0b7	-0.25708553
217	0xbd8cca22	-0.06874491
218	0xbec0971f	-0.37615296
219	0xbed63f1b	-0.4184502
220	0xbe1f8b6f	-0.15580533
221	0x3e950886	0.29108065
222	0x3ba0aaff	0.004903197
223	0x3c85238b	0.0162523
224	0xbe2ae597	-0.16689144
225	0x3f109e71	0.5649176
226	0xbe26694d	-0.16251107
227	0x3f2d302c	0.6765163
228	0xbde6d8a7	-0.11271792
229	0x3e9e4c7a	0.30917722
230	0xbb2fb616	-0.0026811413
231	0x3e0911da	0.13385716
232	0xbf123944	-0.5711863
233	0xbee23bd5	-0.44186273
234	0x3e4df2cf	0.20112155
235	0xbd129377	-0.035785165
236	0x3eae0cf3	0.33994254
237	0xbd247be3	-0.04015721
238	0x3e392299	0.18079604
239	0xbe8c2078	-0.27368522
240	0xbe96b2e7	-0.29433367
241	0x3e830504	0.25589764
242	0x3cc1794b	0.023617407
243	0xbf177923	-0.59169215
244	0x3e0054b2	0.12532309
245	0x3ee65967	0.44990084
246	0xbd66257f	-0.056188103
247	0xbe883c57	-0.26608536
248	0x3ecfd011	0.4058843
249	0xbef08321	-0.46975043
250	0x3e0863e8	0.13319361
251	0xbe9b2374	-0.30300486
252	0x3de7ea06	0.11323933
253	0xbeb4b314	-0.35292876
254	0xbef196d4	-0.47185385
255	0xbd43defe	-0.047820084

conv7.bias f4 [20]
0	0x3d714bd3	0.058910202
1	0xbf311fb9	-0.6918903
2	0x3cf4bc9b	0.02987509
3	0xbe9d42fc	-0.30715168
4	0xbe8ffcfb	-0.28122696
5	0xbe052df4	-0.13005811
6	0xbe946337	-0.28981945
7	0x3e1f4d6b	0.15556876
8	0x3c58f7e2	0.013242694
9	0xbe8f589a	-0.27997285
10	0xbd842dec	-0.064540714
11	0x3ecd5ddb	0.4011067
12	0x3dfd51b9	0.12369103
13	0x3e83357f	0.25626752
14	0xbe40ed94	-0.18840629
15	0xbe01e57d	-0.12685199
16	0x3d939595	0.07206265
17	0x3e21305b	0.15741102
18	0xbb88ceb7	-0.004175033
19	0x3e07f1f2	0.13275889
