models/CIFAR10/cnn_params=100k_seed=045/099.pth (torch, 421415 bytes, 8 tensors)

conv1.weight f4 [32, 3, 3, 3]
000000 65 83 90 bd d2 29 27 3d 58 90 c4 3d dd 16 48 3e
       -0.070563115 0.040811367 0.09597844 0.19539972
000010 0a 1c 22 be e4 96 06 3e a0 90 fa 3d df c6 23 be
       -0.15831009 0.13143498 0.12234616 -0.15993832
000020 15 ff 42 3e 9b 40 61 be 6d 33 e5 be bf 69 38 be
       0.19042619 -0.21997301 -0.44765797 -0.18009089
000030 1d 8d 07 be d1 95 46 be 91 75 5c 3e 6c da c6 bd
       -0.13237424 -0.19393088 0.21529223 -0.097096294
000040 e8 33 85 3c 27 f1 1f 3e ac bb aa 3d 60 29 01 3d
       0.016260102 0.15619336 0.08336577 0.0315336
000050 70 e4 d3 bd 96 96 21 be 4f 7e 50 bd 4e e6 8a 3e
       -0.10346305 -0.157801 -0.050901707 0.27128834
000060 ce b7 28 bb 2f b6 e8 3d 14 e8 7b 3d a0 6f 2d 3d
       -0.0025744322 0.11362874 0.061500624 0.042342782
000070 ce 31 dd 3d bd c3 3a 3e 41 17 21 3e f9 e0 84 3e
       0.10800515 0.1823873 0.15731527 0.2595289
000080 1e 9a 90 3e e5 d6 ff 3d 47 82 82 3d 2a c0 b7 bd
       0.28242582 0.1249216 0.06372505 -0.08972199
000090 3d ae 6d 3d 60 16 bf bd e4 e8 31 be 4d 24 9b 3b
       0.058027495 -0.093304396 -0.17373997 0.004734552
0000a0 d4 f7 de bd d7 a7 41 be ff f1 91 3c f6 fd c3 bd
       -0.10887113 -0.18911682 0.017815588 -0.095699236
0000b0 9e 3e 90 bd 82 b0 01 be 72 00 8c bd cd 11 46 bc
       -0.07043193 -0.12664989 -0.068360224 -0.012089205
0000c0 51 d9 5a be 9e cd 59 be 23 d3 05 be 4f 42 4d be
       -0.21371962 -0.21269843 -0.13068824 -0.20044826
0000d0 31 0c ca 3c 9c 2d 4b 3e 4d 6a a7 be 5e 27 25 3e
       0.024664016 0.19841617 -0.3269829 0.16128299
0000e0 a5 c8 fc bc f8 47 95 3d ce 82 37 3e 4e 93 91 3d
       -0.030857394 0.072891176 0.17920992 0.07108174
0000f0 4a 5f 33 3e 83 11 65 3d 46 a4 1a be fc 5c 34 be
       0.17516819 0.055924904 -0.15101728 -0.17613596
000100 2b 2b 5c 3e 79 c0 4c bb 0a 16 24 bd 80 9e 85 3e
       0.21500842 -0.0031242652 -0.04006008 0.26097488
000110 cc 57 4b be c8 e4 1b 3d 12 da 83 be 13 c4 89 3c
       -0.1985771 0.03805998 -0.25752312 0.016817128
000120 bf 37 49 be d9 15 30 3e f8 24 05 3e 22 5f 8f 3e
       -0.19650172 0.17195834 0.13002384 0.28002268
000130 53 92 2b 3e 24 c6 b8 bd 7d ab 58 bd bc ef 0f be
       0.16755037 -0.09022167 -0.05289792 -0.14056295
000140 44 7b a1 be 09 e2 91 3d 67 d0 49 3d 07 4d 93 3d
       -0.31539357 0.07123191 0.049271014 0.07192426
000150 62 cf cd bd ba 03 31 bc c3 46 fb 3c 3b 87 75 be
       -0.10049321 -0.010804111 0.03067339 -0.23977368
000160 dd 3a f2 be 4c ed f9 bd 4d 0b fa bd 06 b0 f1 3d
       -0.47310534 -0.12203464 -0.12209187 0.11801152
000170 2a 12 9e 3d fd 6d 1a be 92 9b 14 be 6e 03 35 3c
       0.07718308 -0.1508102 -0.1451247 0.011048181
000180 4f e7 97 be 8b 45 bb be 4d 96 41 be 02 e9 46 3e
       -0.29668662 -0.36576495 -0.18904991 0.19424823
000190 f6 f7 fc 3c 59 e5 11 bd b4 85 87 3d 85 99 01 3e
       0.030879956 -0.035619114 0.06617299 0.1265622
0001a0 a1 80 43 3d 16 61 34 bd 60 ae 33 3c 3c 52 ad 3d
       0.047730092 -0.0440379 0.010966867 0.084629506
0001b0 0e 6f a1 bd e3 7d 43 3d a3 30 36 be c7 5f 38 be
       -0.0788251 0.047727477 -0.17791991 -0.18005286
0001c0 a5 26 51 3e ce 3f 74 be c7 cc c5 3d 81 cd 3f 3d
       0.20424898 -0.23852465 0.09658199 0.046826843
0001d0 57 c7 9d be c0 27 16 bd 77 29 01 3e e8 9f 98 3d
       -0.30816147 -0.036659002 0.12613474 0.07452375
0001e0 73 25 e0 bc 71 79 04 3e 5f f0 87 be 5c 77 7b 3d
       -0.027361607 0.12936951 -0.26550576 0.061393127
0001f0 62 91 25 3e f9 05 14 3e c1 6d 29 be a5 55 a6 3e
       0.1616874 0.14455403 -0.16545774 0.32487217
000200 c2 65 d7 bd 28 31 5b be 04 9a 75 3e a7 77 94 3b
       -0.10517456 -0.2140547 0.23984534 0.0045308652
000210 af 9d 7b be 2b 6c 92 3e 4e c7 b3 3d 15 fb d2 3c
       -0.2457187 0.2859815 0.08778249 0.02575449
000220 5b 79 71 3e c3 79 10 3d 97 25 43 be a7 45 af bd
       0.2358145 0.03527237 -0.19057308 -0.08558207
000230 07 c1 0f 3e ca a0 d8 3d 5d 06 b3 3d 25 7c 9d ba
       0.14038478 0.10577543 0.08741448 -0.0012015147
000240 09 17 9a bd 53 b7 c8 bd 1a 4e 9d bd 7e 71 80 be
       -0.07523925 -0.09800591 -0.07680912 -0.25086588
000250 d0 c2 a0 be a7 0c 8b be ba 74 2e 3e fc 76 ef bd
       -0.3139863 -0.2715809 0.17036715 -0.11692616
000260 ed 3f 40 3d 19 4e 8b 3e 89 ee 3c 3e 68 20 0c bc
       0.046935964 0.2720802 0.18450369 -0.008552648
000270 26 34 66 be 73 84 46 3d a2 8a 33 3e 5e f6 5d 3e
       -0.2248083 0.048466157 0.17533353 0.21676013
000280 5e fd 93 3d 70 d9 db 3c 6a f1 ed 3c c7 4f 80 3d
       0.0722606 0.02683708 0.02904578 0.06265216
000290 5a 51 0f 3e 30 81 79 be b0 cf f9 bd 84 15 f8 3c
       0.13995877 -0.24365687 -0.12197816 0.030283697
0002a0 10 a7 74 3d 7e 33 f6 be 39 37 14 be 4e 64 15 3e
       0.059729636 -0.4808616 -0.14474191 0.14589044
0002b0 09 61 83 3e 12 09 84 3e 05 2b 9e be 20 e3 a6 3d
       0.2565997 0.2578817 -0.30892196 0.081487894
0002c0 60 4a 84 3e 88 fb 3e 3e c2 a3 37 be bd d1 32 3e
       0.25837994 0.18650639 -0.17933562 0.17462821
0002d0 a5 a5 7e bd 52 1b a7 bd ef d2 23 3e 26 e8 87 be
       -0.06216969 -0.08159508 0.15998434 -0.26544303
0002e0 d9 01 ae bd ba c1 58 3e 85 65 ec 3d 03 e2 d8 be
       -0.08496446 0.21167651 0.11542801 -0.42359933
0002f0 55 3c 90 3c d7 d8 85 bb c0 a3 19 bd a4 7b e9 3c
       0.017606894 -0.004084687 -0.03750968 0.02850134
000300 a4 29 8d bd 56 d7 ff bd 9c f4 82 3e c3 b2 88 3d
       -0.06892708 -0.12492244 0.25577247 0.06674721
000310 64 25 b7 be 84 ec 65 3e a5 c6 e1 bd 18 ed 0f 3e
       -0.35770714 0.22453505 -0.110242166 0.14055288
000320 10 aa 06 bd c6 dd 75 bc 99 32 25 be cf 2c 17 3e
       -0.032877028 -0.015006488 -0.16132583 0.14763187
000330 63 c3 44 3d 4a 5b a6 be cf 32 89 3e ee d2 b6 3d
       0.048037898 -0.32491523 0.26796576 0.089269504
000340 dd 1c b1 bd 68 e8 ec 3d e5 b2 ff bd 54 e2 1d bd
       -0.08648083 0.115677655 -0.12485293 -0.03854592
000350 4d b4 0b 3e 6f f0 1c 3e 65 07 9f be af 43 cd 3d
       0.13642998 0.15326093 -0.3106033 0.10022675
000360 e4 5f e2 3c ae 73 36 3e 11 3f 94 be b3 3d 5e bd
       0.027633615 0.17817566 -0.28954366 -0.05425806
000370 18 c9 42 3d f6 76 c5 3d 2f de 1a be 48 95 13 bc
       0.04755506 0.096418306 -0.15123819 -0.009007759
000380 ae 07 48 3e f7 98 85 3e b4 73 12 be bf d2 84 be
       0.1953418 0.26093265 -0.1430195 -0.25942037
000390 4e ba 39 be f4 e4 a6 3d 5e 21 8a 3d 3e 28 ea bd
       -0.18137476 0.08149138 0.067446455 -0.11433457
0003a0 8e fd ef bd ad 0b 91 3e 49 5e b3 3e 06 a3 f5 3d
       -0.117182836 0.2832922 0.3503287 0.11993985
0003b0 a0 59 78 be d8 85 86 bd 8e 54 16 bd 96 d8 31 3d
       -0.24252939 -0.065684974 -0.03670173 0.043419443
0003c0 0c cc 5b be 83 48 b2 bd ea 86 41 3e a9 74 c2 bd
       -0.21464556 -0.08705237 0.18899122 -0.094949074
0003d0 b5 34 25 3e 29 4f 2b be 7e 70 57 bd aa f2 01 3e
       0.16133387 -0.16729416 -0.052597515 0.12690225
0003e0 3b 14 6a 3d 59 00 3a be 70 43 a0 3d 89 ae de 3d
       0.0571482 -0.18164195 0.07825363 0.10873134
0003f0 48 70 1c 3e 88 78 55 3e 1a a6 b6 be 13 22 43 3d
       0.15277207 0.2084676 -0.356736 0.047639918

conv1.bias f4 [32]
000000 81 03 df 3d 44 c4 f1 3c 87 9e 9e bd f3 ef 91 3e
       0.1088934 0.029512532 -0.077450804 0.2850338
000010 35 51 13 3d e8 73 9c bc c9 2c 4e bd f2 82 27 bb
       0.035966117 -0.019098237 -0.05033568 -0.0025560227
000020 28 cd ce 38 fd ed b7 3b 3a 17 76 3c a1 92 a9 3d
       9.861059e-05 0.005613087 0.015020186 0.0827992
000030 9f f8 35 bd a0 c7 b9 ab 8e 23 39 3d cc 47 b2 be
       -0.044426557 -1.3200448e-12 0.045199923 -0.34820402
000040 fc 14 85 3d 13 c6 96 3c 75 3a 9e 3c 8e 6f 8e 3c
       0.06498143 0.018404996 0.019314984 0.017387178
000050 2b d5 2d 3c 0b 92 8b bb 35 6f 14 3b eb ad 00 bc
       0.010609905 -0.004259353 0.0022649292 -0.007853965
000060 89 35 89 3c eb ed 0f 3d b5 5a 8f be 1f 94 3a 3d
       0.01674916 0.035139006 -0.2799889 0.045551416
000070 e1 f3 52 3e 02 5f 64 3d a4 83 8c 3d 90 e1 84 3d
       0.20600845 0.05575467 0.06861046 0.06488335

conv2.weight f4 [64, 32, 3, 3]
000000 83 62 01 be 9a fc 80 bd 91 d8 6d be 9e 97 4c 3d
       -0.12635235 -0.0629818 -0.23227145 0.04994928
000010 fc 1d e3 bb 04 23 34 be 5e 70 6c 3d 53 d5 b3 3c
       -0.0069310647 -0.17591482 0.05772435 0.021952307
000020 48 ee 3d 3d 65 05 f3 3d 09 80 92 bd 5f 67 31 be
       0.04636982 0.11866263 -0.07153327 -0.17324589
000030 84 18 c4 3d 0c af 7c bd 18 21 a7 bd 84 b6 bd 3c
       0.095749885 -0.061690375 -0.08160609 0.02315832
000040 a5 8e c7 bd 30 f6 9e bd 12 67 fc 3d 9b a5 32 3d
       -0.09744004 -0.077618 0.123243466 0.043614965
000050 98 c6 ff 3d f2 f5 3b bc 8e 43 01 3d f2 70 4e 3d
       0.124890506 -0.011472212 0.031558566 0.05040068
000060 bd b7 c0 bd 30 d4 15 3d 50 6c 06 be 86 87 eb bc
       -0.09410045 0.03657931 -0.13127255 -0.028751146
000070 74 57 2d be 07 c1 aa 3d 70 d2 e6 be a5 54 46 bf
       -0.16927892 0.08337598 -0.45082426 -0.7747291
000080 ea b7 d8 be 74 ab 19 bf f4 27 53 bf 1e ce 0b bf
       -0.42327815 -0.6002724 -0.8248284 -0.54611385
000090 24 80 58 bd da cd 9d bd bc d5 ac 3c 27 9d 43 3b
       -0.05285658 -0.07705279 0.02109801 0.0029848309
0000a0 ff 7f 5c 3d 85 62 0b bd b5 77 41 bd ef e9 9f 3d
       0.053833004 -0.034029502 -0.047233302 0.07808291
0000b0 77 3b ed bd 71 b5 b8 3d 0b 3f 90 bc 0b bf 0a bd
       -0.11583608 0.09018982 -0.017608186 -0.0338736
0000c0 80 e4 5e 3e f2 43 9e 3d db 9f 47 bd cb 24 90 3e
       0.21766853 0.07727803 -0.048736434 0.2815307
0000d0 c2 70 9a 3e ba af 36 3e 98 14 15 bd 57 f7 86 3d
       0.30164152 0.17840472 -0.036396593 0.06590145
0000e0 37 e8 76 be 37 ae 56 3b 9e 23 01 bd d9 e7 59 be
       -0.2411202 0.0032757649 -0.031528108 -0.21279849
0000f0 e3 00 76 3d c7 13 2e be 80 c6 8b 3c 31 16 3a 3e
       0.06005944 -0.16999732 0.017062426 0.18172528
000100 ba a4 42 3d 31 d4 89 be c3 91 00 3e f6 4a 3a bd
       0.047520377 -0.26919702 0.12555604 -0.045481645
000110 a5 86 bd be af 8a 14 3c bc 9d 8a be 1b fa 84 be
       -0.37016788 0.009066268 -0.27073467 -0.25972065
000120 cd 03 c1 3d 75 9a f3 3d b9 11 fe bd e0 fc 13 bd
       0.09424553 0.11894695 -0.12405724 -0.036129832
000130 1f a9 a5 bd 1e 1f b2 be 1c 0c 08 be da 26 5b be
       -0.08088898 -0.34789366 -0.1328587 -0.2140154
000140 9f 58 94 be ff cd 21 3d c5 19 21 3d d3 96 00 bd
       -0.28973863 0.039503094 0.039331216 -0.031393837
000150 f4 7b a1 bd 86 9e 70 3d b4 ed e8 3d 65 6c f5 bb
       -0.0788497 0.05874493 0.11373463 -0.0074897283
000160 1a 6e a4 bd e8 42 5c 3d f6 a3 b8 bc 96 2a 82 bc
       -0.08028813 0.053774744 -0.02253912 -0.015889447
000170 7b e0 df bd b7 e0 58 bc 97 36 92 bd da 46 3a be
       -0.10931488 -0.01323717 -0.071393184 -0.1819109
000180 d1 70 69 bd 15 93 68 bd 61 05 ec 39 2b 43 c4 bc
       -0.056992356 -0.056780893 0.00045017435 -0.02395781
000190 91 3f ce bd 60 0c f6 bd 27 2f f2 bc 1b 64 8e bd
       -0.10070718 -0.12014079 -0.0295635 -0.06952687
0001a0 88 cc 42 be de 43 04 3d bd a0 4b bd d8 af 08 be
       -0.19023335 0.032291286 -0.04971384 -0.13348329
0001b0 fb 5f da bc f0 80 fc 3c a0 43 88 3d 31 50 51 3c
       -0.026657095 0.030823201 0.066535234 0.012775467
0001c0 a6 1d ab 3d c9 dc 11 bd 8c d9 1b be 83 42 9c 3c
       0.08355264 -0.035610948 -0.15219706 0.019074684
0001d0 50 e4 68 3c 85 a5 a3 00 1b f1 a8 00 eb 35 a5 00
       0.01421459 1.5028563e-38 1.5514856e-38 1.5172199e-38
0001e0 b9 04 c6 00 0d d8 bc 00 a0 1b bb 00 d8 b3 97 00
       1.8185122e-38 1.7342578e-38 1.7183148e-38 1.3931676e-38
0001f0 d9 69 91 00 14 71 8f 00 49 74 06 3d 2a 55 42 3c
       1.3354118e-38 1.3173041e-38 0.032825742 0.011861125
000200 2c f5 17 3c 4a d4 18 be f9 7d dd bc 15 eb 28 3b
       0.009274762 -0.14924732 -0.027037608 0.0025774885
000210 71 f5 df bd 35 73 a8 bd 48 c3 d2 bc 98 ee 2c 3e
       -0.10935486 -0.08225099 -0.025727883 0.16887891
000220 5a c1 0c 3e 77 3d 68 bc a9 23 e6 3d e0 51 25 bc
       0.13745633 -0.014174811 0.112372704 -0.010090321
000230 88 4e 27 bc 59 2a 0b 3b ac a4 81 bd 22 70 b1 bd
       -0.010211594 0.0021234958 -0.06330237 -0.08663966
000240 f3 c3 0e 3e 61 1b 90 3d 20 67 a3 3d f1 67 af 3c
       0.13941936 0.07036472 0.07978654 0.021411868
000250 7e 90 93 3d f4 41 cd bc 68 02 b2 3d 65 fc 9f 3d
       0.07205294 -0.025055863 0.08691865 0.07811812
000260 fe fe 86 bd bb bd 0d 3e ef 04 84 3d d7 29 49 be
       -0.06591605 0.13841908 0.064462535 -0.19644867
000270 d2 5b 0c 3e 7c be 9f bd eb 5f cc bd 55 a5 88 3e
       0.13706902 -0.07800004 -0.099792324 0.26688638
000280 17 1e 99 3d 7a d2 4c bc 03 ec 20 3e 1c 6e b9 3d
       0.07476442 -0.012501353 0.15715031 0.09054205
000290 66 79 fe 3b ff 2b 0e 3c 24 82 30 bd 4e 45 84 bb
       0.0077659367 0.008677482 -0.04309286 -0.004036582
0002a0 82 61 39 3c df f7 09 3d 80 98 f7 3d 78 4e 94 3d
       0.011314752 0.033683654 0.12089634 0.07241529
0002b0 3b 69 37 3d f0 20 98 3d 9c 32 b3 3d 78 ba a5 3c
       0.04477809 0.07428157 0.08749887 0.020230517
0002c0 3c 9e 04 3d 29 65 d8 3d d0 e0 c5 3c 72 3e ab 3d
       0.032377467 0.1056617 0.02415505 0.0836152
0002d0 20 c9 4f 3d 1a a1 32 3d 5f 11 84 3c 26 cc c7 3e
       0.050728917 0.04361067 0.016121564 0.3902294
0002e0 5b 40 bf 3e 92 7e 77 3e 76 39 b3 3e d8 7c aa 3e
       0.37353787 0.24169376 0.35004777 0.33298373
0002f0 d2 78 8b 3e 09 a4 32 bc d0 b7 3b bd 56 36 8c bd
       0.27240616 -0.010903367 -0.045829594 -0.06846301
000300 b4 fc 92 3d e6 44 06 be 1b 64 37 be 74 4e 91 bd
       0.071771055 -0.1311222 -0.17909281 -0.07095042
000310 ba 21 46 be ed 4f 44 be 40 7f 17 3e 2e ae 14 3e
       -0.19348803 -0.19171114 0.14794636 0.1451957
000320 85 57 82 3d 50 ef 00 3e f5 b1 e7 3d 67 6f 49 3d
       0.06364349 0.1259129 0.113132395 0.049178507
000330 60 0f d2 3b 39 65 37 3c bd d6 38 be c8 f2 4d 3d
       0.0064105242 0.011193567 -0.18050666 0.050280362
000340 3f 6e e1 3c 1d b3 ce 3c b7 07 95 bc 7f ce 1e 3d
       0.02751839 0.025231892 -0.018192155 0.03877115
000350 d5 e6 a7 bd cb 04 f3 3d b6 79 3d 3e 11 dc 4d 3e
       -0.081983246 0.118661486 0.1850346 0.2010348
000360 8e 86 60 3e 52 31 c9 3d d3 9a 4b 3d a4 84 7d 3e
       0.21926329 0.0982386 0.0497082 0.2475763
000370 c9 db 57 3e 6c 7c 28 3e 4b aa da bc e0 31 48 3d
       0.21079935 0.16453713 -0.02669253 0.04887569
000380 62 a4 cf 3c a6 ef 9b 3d b0 a6 0e 3e 2c 42 8d 3c
       0.025346939 0.07614069 0.13930774 0.017243467
000390 9a 73 d0 bb b2 90 a9 ba 67 c6 e6 3c e1 20 a0 3c
       -0.006361437 -0.0012936799 0.028170777 0.019546928
0003a0 98 79 c5 3d b8 7f d4 3d 76 16 7a 3d 13 d7 2d 3c
       0.09642333 0.10375923 0.061056577 0.01061036
0003b0 be f9 a2 3c bb d5 89 3d 6d 22 ca bc af 6d cc 3c
       0.019894477 0.06730219 -0.024674619 0.024954645
0003c0 76 30 d8 bd 7f 6c e6 bd 99 0d 89 bd f1 7c cc bd
       -0.10556118 -0.11251163 -0.06692047 -0.09984768
0003d0 c9 3c 97 bd 6e f2 76 bd 93 a0 46 be 91 f1 99 bd
       -0.07384641 -0.060289793 -0.19397192 -0.07516778
0003e0 2a 7b 1b be 07 b0 a1 bd b9 71 0c be b1 e0 95 be
       -0.15183702 -0.07894903 -0.13715257 -0.29272988
0003f0 a0 67 c7 be 23 37 77 be eb 59 1f be d6 47 b4 bd
       -0.38946247 -0.24142127 -0.15561645 -0.08802764

conv2.bias f4 [64]
000000 16 c9 16 be fa 1b f1 bc 14 a9 c9 b9 24 79 c4 bc
       -0.14725146 -0.029432286 -0.0003846368 -0.023983546
000010 cd a2 b6 bc 3e 4f 80 3c 54 2e e8 3c 1d 0e 26 bd
       -0.022294426 0.015662786 0.028342403 -0.040540803
000020 8a 49 9a bb 16 b1 55 3e b6 51 05 3e 90 65 54 bd
       -0.0047084736 0.20868334 0.13019451 -0.05185467
000030 49 3e 0a 3d 30 c1 ca 3d 9d 12 94 bd 01 14 1f bc
       0.033750806 0.09900129 -0.07230113 -0.009709359
000040 f6 61 be 3b 7a 59 62 3d 4f 38 9f 3d 07 a2 43 bc
       0.0058100177 0.055261113 0.07774412 -0.011940486
000050 fb 70 fe 3b b9 d6 2b bd d0 9b 20 be 0b 75 d4 bc
       0.007764933 -0.041952822 -0.15684438 -0.025934717
000060 ac d7 e0 3d c2 ff 9c bc 6e 24 96 3d 20 0f 65 3d
       0.10978636 -0.019164924 0.07331167 0.055922627
000070 be ef 10 bd 79 66 62 3d 66 29 30 bc 49 e6 af bc
       -0.035384886 0.055273507 -0.010752058 -0.021472113
000080 53 8e df 3d 26 47 c8 3d e1 af e2 3e 96 c3 c6 bd
       0.10915818 0.097791955 0.4427481 -0.09705274
000090 44 e2 e6 3d 73 c5 08 bd 75 bd b0 b9 cf 36 f9 bd
       0.112736255 -0.033391427 -0.00033710492 -0.12168657
0000a0 34 26 10 bd 16 31 47 3e 22 ec 0b bc dd 41 34 3e
       -0.035192683 0.19452319 -0.008540185 0.1760325
0000b0 13 4a 75 be e9 50 f6 b7 6b 1a 07 b4 2b 87 70 3e
       -0.23954038 -2.9363162e-05 -1.2582466e-07 0.23489062
0000c0 d1 65 5c 3e 18 ec 05 bd e3 11 26 3e dd 11 95 bc
       0.21523215 -0.03269586 0.1621776 -0.018196994
0000d0 b7 b9 90 be ef 18 3c 3d f9 03 78 bc d9 bc 25 bd
       -0.2826669 0.045922216 -0.015137666 -0.040463302
0000e0 e3 7f d3 3d 61 54 8c bd 50 36 55 3e dd 44 00 bd
       0.10327127 -0.068520315 0.208215 -0.031315673
0000f0 52 cb ac 3d c4 41 7d bd f8 1a a1 3d a9 f1 f2 bc
       0.08437218 -0.061830297 0.07866472 -0.029656248

conv3.weight f4 [128, 64, 3, 3]
000000 dd e8 89 ad 97 92 0c af af 8b 82 93 2f 61 23 b6
       -1.5678509e-11 -1.2785005e-10 -3.2954352e-27 -2.434546e-06
000010 05 88 63 b4 e5 95 9f b1 57 33 e6 b5 11 9f e4 b6
       -2.1190506e-07 -4.64455e-09 -1.7151277e-06 -6.8134473e-06
000020 a7 22 04 b7 70 89 3a 00 80 d9 46 01 b2 e3 2a 81
       -7.875881e-06 5.375762e-39 3.6522905e-38 -3.1387432e-38
000030 d2 67 48 01 00 d1 44 80 b2 47 35 81 d2 24 8b 81
       3.6808686e-38 -6.319789e-39 -3.3295888e-38 -5.111337e-38
000040 70 4c b3 80 48 c2 24 00 30 e1 48 00 59 6d 13 81
       -1.6465974e-38 3.375773e-39 6.692938e-39 -2.707809e-38
000050 44 a6 5f 00 32 d1 8a 01 c8 84 bc 80 10 a4 cc 00
       8.784017e-39 5.0993374e-38 -1.7312706e-38 1.8793296e-38
000060 3e 61 af 01 60 c9 22 00 d8 88 90 80 5f 3b 0e ba
       6.4424383e-38 3.194647e-39 -1.3273402e-38 -0.0005425717
000070 e7 01 e7 b9 82 10 06 ba f1 ab 0b ba 8e e2 37 ba
       -0.0004406117 -0.0005114154 -0.00053280505 -0.0007014655
000080 33 3f 30 ba ce e8 f0 b8 f0 e5 de b9 66 61 9f b9
       -0.00067232846 -0.00011487455 -0.00042514456 -0.0003039941
000090 9c 5c ea a6 f4 89 01 b4 0a f4 3d b3 f1 48 69 b4
       -1.6262114e-15 -1.2064248e-07 -4.4226944e-08 -2.1726352e-07
0000a0 2c 8d 60 b5 93 e8 98 b4 4e e2 c7 b3 b9 a6 76 b5
       -8.3651935e-07 -2.8481426e-07 -9.307824e-08 -9.1884755e-07
0000b0 f0 8a 66 b5 d3 c9 58 a8 ed a9 3b b2 f6 56 1b 81
       -8.588386e-07 -1.2034172e-14 -1.0923469e-08 -2.8531395e-38
0000c0 a2 9b 19 b5 df 2d 87 b7 0f a2 4e b3 36 05 6d b6
       -5.7223417e-07 -1.6114614e-05 -4.8110504e-08 -3.5318785e-06
0000d0 0e b9 8e b3 9c 36 27 ae a4 9e 81 80 e2 b7 15 9e
       -6.6460515e-08 -3.8019907e-11 -1.1903689e-38 -7.92602e-21
0000e0 72 56 6d 81 bd 47 f2 a8 63 2e 96 b2 9d 90 b6 a7
       -4.3592047e-38 -2.6898509e-14 -1.7483393e-08 -5.0671938e-15
0000f0 1f 75 e5 a9 c9 f2 55 9e 18 c5 00 99 00 77 2c 81
       -1.018996e-13 -1.1326333e-20 -6.657248e-24 -3.167679e-38
000100 2e d9 59 00 ea 8a b2 01 4e c0 6d 81 97 a7 1b 81
       8.251269e-39 6.5586205e-38 -4.3667997e-38 -2.8589244e-38
000110 52 40 0f 81 b6 87 ff 00 9a 76 c8 00 83 4c cf 00
       -2.63111e-38 2.3466735e-38 1.8409645e-38 1.9037395e-38
000120 e6 16 57 80 84 3a 5f 80 37 c8 c1 80 09 7d 0f 00
       -7.997903e-39 -8.745364e-39 -1.7796074e-38 1.422387e-39
000130 c2 db a0 80 cb 87 16 00 df 2b 47 80 20 73 6e 80
       -1.4772514e-38 2.069094e-39 -6.536058e-39 -1.0143204e-38
000140 90 ba ad 00 ae 2a 38 b7 37 1d 27 b8 15 c6 04 b7
       1.5954467e-38 -1.0977192e-05 -3.984311e-05 -7.913933e-06
000150 3d 89 9a b7 9e b5 ab b6 f9 2a ea b6 e7 37 98 b5
       -1.8422137e-05 -5.11734e-06 -6.978746e-06 -1.1341152e-06
000160 e2 84 89 b3 37 4a 19 b5 d4 23 b3 b5 18 68 3d b7
       -6.403731e-08 -5.710494e-07 -1.3346967e-06 -1.1289514e-05
000170 3c fe 82 b7 10 c9 4f a8 7b aa fd ad a7 6a 25 ad
       -1.5615595e-05 -1.1534407e-14 -2.8838478e-11 -9.402846e-12
000180 b4 26 01 81 c7 10 3c a2 89 09 75 80 80 89 39 b2
       -2.3721326e-38 -2.5487633e-18 -1.0748174e-38 -1.0799681e-08
000190 4a a3 fb b1 a7 cc a4 b2 63 b1 c8 80 82 f9 a5 80
       -7.3236253e-09 -1.9185178e-08 -1.8430734e-38 -1.5242363e-38
0001a0 6a 1a b7 ab 12 3a 3a 80 7f f6 ec 80 d2 e9 fd 91
       -1.3010263e-12 -5.34729e-39 -2.1761603e-38 -4.0060465e-28
0001b0 e8 3f af b4 de 91 2e aa a3 97 16 05 85 33 eb b6
       -3.2642788e-07 -1.5504912e-13 7.0808174e-36 -7.0095434e-06
0001c0 ee d6 7e b4 77 af 92 b4 d7 e3 a5 b8 f5 08 e0 b9
       -2.3733784e-07 -2.7322287e-07 -7.9102516e-05 -0.00042731283
0001d0 d7 48 e7 b8 2d 3c a9 97 8f 3e c3 ae 71 93 b2 a6
       -0.00011028506 -1.093656e-24 -8.878686e-11 -1.2391195e-15
0001e0 17 21 0c a3 91 eb 03 ae 89 4d e7 b3 f1 b0 27 ac
       -7.596422e-18 -2.9995176e-11 -1.0770879e-07 -2.383035e-12
0001f0 4b c8 73 b2 da 6a 07 b4 97 31 e2 b3 29 33 f8 07
       -1.4190003e-08 -1.2611727e-07 -1.05329654e-07 3.7344962e-34
000200 a8 a8 6f 81 ea 03 8e b6 b4 c9 c1 b5 b4 d9 ab aa
       -4.4018372e-38 -4.2323854e-06 -1.4438324e-06 -3.0526764e-13
000210 4c 93 ad b5 79 5d 67 b4 35 7e 6b ae 83 6f 8c b9
       -1.2932373e-06 -2.1547557e-07 -5.3544908e-11 -0.00026785964
000220 8b 18 4b b8 0e 58 76 b8 93 e5 a7 b8 55 6e 97 b9
       -4.842183e-05 -5.8732978e-05 -8.005942e-05 -0.00028883168
000230 0e 05 47 ba 08 9c ba b8 1d 90 bf b9 5a 37 fd b8
       -0.0007592001 -8.898234e-05 -0.00036537732 -0.0001207429
000240 f4 66 64 23 9f 54 fc 1b c1 dc d5 25 d2 b1 73 0b
       1.2381706e-17 4.1744588e-22 3.70992e-16 4.6933875e-32
000250 ac 69 c7 1f 7a a3 19 25 69 c3 08 24 a3 f4 e7 21
       8.44546e-20 1.3326023e-16 2.9655818e-17 1.5717924e-18
000260 b8 94 f2 20 b7 04 f4 b5 a3 82 3d ac e2 ce 8c ad
       4.1094808e-19 -1.8180789e-06 -2.6931033e-12 -1.6008032e-11
000270 fd 26 6c ad 5e 69 08 01 33 69 51 01 1d 1b fd ab
       -1.3423704e-11 2.5054852e-38 3.8462714e-38 -1.7984257e-12
000280 6c 45 b3 80 aa 0c 5f 81 92 3f 0f 00 03 0c 0b 91
       -1.6463458e-38 -4.0967717e-38 1.400337e-39 -1.0968868e-28
000290 45 02 8e a6 0b b7 20 ae be c7 f4 b0 01 00 af aa
       -9.853845e-16 -3.6542363e-11 -1.7810107e-09 -3.1086247e-13
0002a0 0f 29 fb ac 73 3d 1c b4 37 f4 53 af f8 bd 31 01
       -7.1384075e-12 -1.4550987e-07 -1.9277101e-10 3.2646062e-38
0002b0 8b 73 62 01 00 f6 05 01 6e a2 f9 80 ec 00 75 01
       4.1592542e-38 2.4604738e-38 -2.2925307e-38 4.5000055e-38
0002c0 d8 ce dc 00 ba b4 72 01 90 39 85 81 f8 9e 38 00
       2.0278011e-38 4.4578045e-38 -4.893908e-38 5.199815e-39
0002d0 e6 52 8d b5 60 16 9c b4 f1 b0 29 b6 92 a3 ae b6
       -1.0529445e-06 -2.9073544e-07 -2.5285956e-06 -5.204646e-06
0002e0 f9 73 4e b1 c6 16 6b b4 ab 15 a8 b5 7a 4f 79 b3
       -3.0042868e-09 -2.1894365e-07 -1.2523282e-06 -5.8047114e-08
0002f0 f7 9e 90 b1 bc 49 53 81 b5 47 2a 80 5d 84 73 00
       -4.209024e-09 -3.880748e-38 -3.882814e-39 1.0608565e-38
000300 0c e9 2e 81 29 48 7c 81 48 52 d0 80 84 fc 63 81
       -3.2125956e-38 -4.6336862e-38 -1.91313e-38 -4.1874486e-38
000310 0f 4f 29 81 83 81 91 81 a2 3e a7 ab 1b c0 99 a5
       -3.109712e-38 -5.345043e-38 -1.1883448e-12 -2.6671445e-16
000320 30 c4 40 80 77 39 f4 ad 3f 55 b3 a9 4e a8 8a 8f
       -5.94785e-39 -2.7765108e-11 -7.963985e-14 -1.3672679e-29
000330 78 37 df a9 8d a0 d7 af f2 ca 12 aa 2a dc 1b b5
       -9.912812e-14 -3.922235e-10 -1.3037816e-13 -5.806238e-07
000340 19 00 1e b7 ed 42 7b b4 72 5a 63 b7 b1 cd a5 b8
       -9.417557e-06 -2.3400544e-07 -1.3551313e-05 -7.906126e-05
000350 18 3c 1e b8 69 5d ce b7 96 e2 1f b8 0f 97 06 b8
       -3.7726102e-05 -2.4600611e-05 -3.811958e-05 -3.2088774e-05
000360 4f c6 af 00 39 65 ab aa 50 be 0e 00 12 53 73 9a
       1.6142352e-38 -3.044594e-13 1.353968e-39 -5.0318326e-23
000370 5b 8a b3 ac 72 3b 16 81 fb 65 78 af 6d 6b 85 a5
       -5.1028465e-12 -2.75933e-38 -2.25917e-10 -2.3144617e-16
000380 2b d8 d2 80 fc f3 40 80 06 b9 67 80 83 10 9a 00
       -1.9363e-38 -5.964997e-39 -9.52543e-39 1.414859e-38
000390 82 a3 30 00 3d 68 06 80 fd 01 62 80 63 5c 58 00
       4.46676e-39 -5.88407e-40 -9.000592e-39 8.114666e-39
0003a0 d1 ac 5f 80 0f ec 13 80 0e 8c 35 af 08 73 4c b0
       -8.786367e-39 -1.829556e-39 -1.6511612e-10 -7.4378237e-10
0003b0 09 9b 9b a1 03 10 8e ad cb ae 0d 81 4c 48 18 81
       -1.0544246e-18 -1.6150642e-11 -2.6023018e-38 -2.796986e-38
0003c0 97 0d 54 ae d5 66 cf a9 11 aa e6 a9 8b d1 0e b2
       -4.821529e-11 -9.210485e-14 -1.02435536e-13 -8.313132e-09
0003d0 70 46 65 b1 14 e6 8a b2 89 78 0f b1 8f 47 d5 b4
       -3.3363925e-09 -1.6169942e-08 -2.0877755e-09 -3.9726407e-07
0003e0 82 df 62 b5 46 8a 98 b1 4b 20 6b b5 92 6e 91 b2
       -8.451681e-07 -4.439502e-09 -8.7591314e-07 -1.6930503e-08
0003f0 f0 0c dc 80 2a 45 5c 80 eb 4e 53 80 ef a5 ac 81
       -2.020845e-38 -8.473677e-39 -7.650657e-39 -6.3420924e-38

conv3.bias f4 [128]
000000 ca 0a d4 ba e1 b5 38 bc 5b f3 24 3e 1d 5c b5 bd
       -0.0016177532 -0.011273832 0.16108458 -0.0885546
000010 8b ab 65 bd cb 27 60 3e e3 1e 3e 3d 90 ce 8d 3d
       -0.0560718 0.2189018 0.046416175 0.06924164
000020 96 45 9f bd ec 3f c0 3b 8e 70 52 3e e1 10 ba a8
       -0.07776944 0.005866995 0.20550749 -2.0657468e-14
000030 2b ee 6d bc 61 c7 2a 3e 27 1e b4 b5 ab 18 cf 3d
       -0.014522116 0.1667762 -1.341982e-06 0.10112127
000040 54 67 da ba fd e8 ee bc 72 a2 07 bd fa 3e 55 bc
       -0.0016662874 -0.029163832 -0.033113904 -0.013015503
000050 6c c5 81 bb 80 e8 97 3d 4e ae d8 bc ac 87 e4 3d
       -0.003960302 0.07417393 -0.026450302 0.1115869
000060 74 8e e5 bc 89 9b 6a 3e 9e 13 6c 3d d9 4b b9 3c
       -0.028022029 0.22910894 0.057635896 0.022619175
000070 7a d7 32 b2 69 45 03 3e 74 4b 5b bb 5c da cd 3d
       -1.0409957e-08 0.12819447 -0.0033461722 0.10051414
000080 ac ba 09 bd 22 4b 47 3e d0 73 29 3e 8c 0e 13 3d
       -0.03362529 0.19462255 0.16548085 0.035902545
000090 51 b1 30 3d 4b da f0 bc b6 93 5f 3e 22 a1 16 3e
       0.043137852 -0.029400965 0.21833691 0.14709905
0000a0 59 aa 0e ac bb 2d 16 be ed 45 27 3d 0f 21 9f bd
       -2.0273976e-12 -0.14665882 0.04083817 -0.07769977
0000b0 3f 0b ef b5 b6 7d f2 3e 52 d9 2b 3e b9 3f d9 bc
       -1.7810161e-06 0.47361535 0.1678212 -0.026519643
0000c0 33 d6 50 be 62 6f 8d 3e fb 9b 04 3e 72 2c f9 bc
       -0.2039421 0.2762404 0.12950127 -0.030416701
0000d0 35 10 6e b7 da 56 b7 bb 4b 2d 35 bc c1 28 58 ad
       -1.4189679e-05 -0.0055950703 -0.011058162 -1.2287228e-11
0000e0 c8 8c 15 bd a2 9c 2e 3d 39 5a 67 3d 2f 48 30 b3
       -0.036511213 0.042629845 0.056482527 -4.1043844e-08
0000f0 7d 6b 9b 3e a8 0f b1 3d 6a 5f 10 bd fc bc d9 3d
       0.30355445 0.08645564 -0.035247244 0.10631749
000100 ba 6b 42 3e 97 f4 19 3e 1b 2a a9 bc 14 cf 37 bd
       0.18986407 0.1503471 -0.02064996 -0.04487522
000110 8f ed ac 39 e7 ee 7f bc e2 af be bc ba 24 0c 3d
       0.0003298339 -0.015620924 -0.023277227 0.034214713
000120 0f 82 c6 3d 3f 33 67 3e 91 e8 99 bd 39 a2 47 bc
       0.096927755 0.22578143 -0.07515062 -0.012184673
000130 20 4e 2e bd ad fc 39 3c 67 6b df 3d 07 c9 2c 3e
       -0.042554975 0.0113517465 0.10909157 0.16873561
000140 c5 a9 08 3d 8a ad 0a b0 e3 a0 4c bd e6 94 38 3e
       0.03336503 -5.045072e-10 -0.04995812 0.1802555
000150 9f b8 31 3e 2e a2 06 bd 21 b1 49 3d 0e b7 7e 3e
       0.17355584 -0.03286951 0.04924119 0.24874517
000160 82 c2 fe bc 18 1f 33 bd 8a eb de a4 40 aa 30 be
       -0.031098608 -0.043730825 -9.667617e-17 -0.17252445
000170 62 36 77 bc e7 02 73 3d 7b 24 f7 bb a1 00 3e 3e
       -0.0150886495 0.05932894 -0.0075421906 0.18554927
000180 f4 e7 09 3e 31 5e 9b 3d 63 62 d1 bc fd 83 78 bb
       0.1346739 0.07586325 -0.02555961 -0.0037920468
000190 d9 f4 20 bd 9d 8d 5c 3e c2 08 31 bd ed 46 6d bb
       -0.039296005 0.21538396 -0.043221243 -0.0036205605
0001a0 9c eb 33 3e 6d 9a 01 3e 9f b3 9b bc 2d 89 8e 3e
       0.17570347 0.12656565 -0.019006548 0.27839032
0001b0 c8 3d c4 ba 86 d0 25 bd 85 e1 08 3d cd c7 9a bb
       -0.0014972026 -0.040482067 0.033418197 -0.004723525
0001c0 22 23 93 bd 98 b3 cd 3d 22 29 ce bd 8e 44 ec bc
       -0.071844354 0.100440204 -0.10066439 -0.028841283
0001d0 e9 7f 16 3e 2f 1f 0d bc 1d 01 f2 bd cb 85 5b ad
       0.14697231 -0.008613392 -0.118166186 -1.2478417e-11
0001e0 76 27 15 bd 73 d5 54 3e 78 43 d8 3d 1d a1 a0 bd
       -0.036414586 0.2078455 0.10559744 -0.0784323
0001f0 82 1b 8b 3b b4 14 28 3e a0 a1 fe 3d d9 27 69 3d
       0.0042452225 0.16414148 0.12433171 0.056922767

fc.weight f4 [10, 1152]
000000 7c 84 d4 b1 39 91 46 32 b3 a3 9c af 1c 0c bd 31
       -6.185074e-09 1.1558137e-08 -2.849255e-10 5.5020006e-09
000010 da 67 da 32 b4 ec a4 2e 42 e0 90 2d 5e 28 05 2f
       2.5425766e-08 7.4999035e-11 1.6470495e-11 1.2110621e-10
000020 ab bf 2e 2c 3e 70 8f 38 20 17 dc b9 26 d4 7a ba
       2.4833284e-12 6.839678e-05 -0.000419789 -0.0009568356
000030 71 a1 95 b9 d6 35 4a ba 64 8a 39 ba 55 7c 31 bb
       -0.00028539778 -0.00077137107 -0.0007077812 -0.0027082164
000040 9c 6a ec ba d1 84 28 ba 87 ef b6 bd f0 c6 f5 37
       -0.0018037143 -0.00064284826 -0.08932405 2.9298913e-05
000050 8c ca 49 3e 0d d0 11 be dc d4 f1 bb d7 04 17 3e
       0.19706172 -0.14239521 -0.007380111 0.1474794
000060 e3 c6 80 be 28 b2 21 be 30 e2 e3 3c 7f 8b 1a 3e
       -0.2515174 -0.15790617 0.027817816 0.15092276
000070 5e 51 32 be 9c 07 b4 be 4d cb 19 3e d0 d9 95 3d
       -0.17413852 -0.35162055 0.1501896 0.07316935
000080 53 34 89 bc b4 6a 80 3e 7c cc 71 3e ba d3 92 3d
       -0.016748583 0.25081408 0.23613161 0.0716929
000090 62 8a 0c bd 54 9d 04 bd c3 8f 01 bd 20 25 5c 3c
       -0.03431166 -0.032376602 -0.031631242 0.013436586
0000a0 28 79 14 bc 80 49 48 39 96 7d 00 3d 94 0c b5 3c
       -0.009062089 0.00019100867 0.031369768 0.022100724
0000b0 cb 1d 4e 3d 85 2a 4f 3d 55 d8 38 3d 05 13 00 bd
       0.05032138 0.05057766 0.045128185 -0.03126814
0000c0 2f 15 f0 bc 48 7d 22 3d 2e 54 8c 3c d6 21 17 3e
       -0.029306976 0.03967026 0.017129984 0.14759001
0000d0 db 34 e7 3d 34 fd 7d 3d ba 61 04 3e c0 07 ea 3d
       0.11289378 0.06200905 0.12927905 0.114272594
0000e0 a8 46 8d 3e 3d 80 32 3e a8 b7 04 3e 96 ce 33 bd
       0.2759297 0.17431732 0.12960684 -0.043898188
0000f0 4a b1 91 3e db 6a c5 3e b2 be fe 3c ca 1b 08 3e
       0.28455573 0.38558087 0.03109679 0.1329185
000100 dd 75 1c 3e 2f f3 6c 3b 4c f1 c9 3e 0a 07 84 3e
       0.15279336 0.003615569 0.39441907 0.2578662
000110 05 86 ed 3d 9e a6 41 3e b0 91 14 3e f4 1b ca 3d
       0.11597828 0.18911216 0.145087 0.09868613
000120 eb 05 21 3c 1b e0 70 3d 57 3a ec 3d 8e d9 0b 3e
       0.009828071 0.058807474 0.11534565 0.1365721
000130 69 ed 89 3d 84 c4 e2 3c 8d c5 6e 3e 18 52 0d 3e
       0.067347355 0.027681597 0.23317547 0.13800848
000140 37 c1 30 3e 59 1f 1d 3e 2f b5 b2 3d 2d a4 41 3d
       0.17261206 0.1534399 0.08725964 0.04727571
000150 48 46 8c 3d 28 2b 82 bd 2a 16 b0 bc 6a 75 3b bd
       0.068493426 -0.06355888 -0.021494944 -0.04576627
000160 6a 1c 86 bd a8 57 6f bd 3a 5d c5 bd 88 08 ee 3c
       -0.06548388 -0.058433205 -0.09636922 0.029056802
000170 4c 95 92 3d 11 82 67 be 02 03 d2 bd b2 47 db bd
       0.07157382 -0.2260821 -0.1025448 -0.10707034
000180 d5 d2 b9 bd 40 ea 28 be ee 7b 03 be fb 9c a2 00
       -0.09073416 -0.1649561 -0.12840244 1.4933664e-38
000190 6f 02 a5 12 dd 45 15 86 2e 26 55 b0 f5 27 60 ac
       1.0413564e-27 -2.8075113e-35 -7.7543205e-10 -3.1854495e-12
0001a0 9f 1a d4 9e 28 35 fb b4 41 79 03 b6 ce 62 3a b6
       -2.2457383e-20 -4.679107e-07 -1.95911e-06 -2.7773672e-06
0001b0 e8 b5 ff bb 07 ec 35 bc 54 35 20 bc 56 32 54 bc
       -0.0078036673 -0.011103637 -0.009778339 -0.012951454
0001c0 f4 21 3b bc f8 08 07 bc 3f 9d 8b bb 0b 0d 0b bb
       -0.011421669 -0.008241884 -0.0042606886 -0.002121749
0001d0 9d f1 25 bb 96 cb a1 be 97 5a d3 be 50 db 6c be
       -0.0025321015 -0.31600636 -0.41280052 -0.23130536
0001e0 9d 21 82 be c0 4e a8 be fb bb 0f be 65 a9 91 3d
       -0.2541627 -0.3287258 -0.14036553 0.071123876
0001f0 a2 87 b6 bd 5e 3a 8e 3d 63 aa 8a b0 51 5a de b1
       -0.08912589 0.069447264 -1.0089248e-09 -6.471318e-09
000200 17 fb 96 01 43 39 8b b6 06 c7 8e b6 8a 92 ed b4
       5.5461594e-38 -4.149189e-06 -4.255099e-06 -4.425131e-07
000210 e0 2c e5 9a e5 32 94 08 4a 5e 79 81 40 b9 62 bd
       -9.478468e-23 8.919391e-34 -4.5801726e-38 -0.05535245
000220 8f f8 f6 3d 74 6d d3 3c 9c 97 dd bd af a9 27 3d
       0.120591275 0.025809027 -0.10819933 0.040933307
000230 6d 2a 39 3d 6c 42 2f bd 01 dd cf 3d a4 f4 93 3e
       0.045206476 -0.042787954 0.10149575 0.28897583
000240 17 e2 2f 3c f1 c2 43 3c 38 69 22 3c 48 2e 2d 3c
       0.010735056 0.011948333 0.009912781 0.010570116
000250 06 75 23 3c ec 1f 0f 3c 82 4e 26 3c 76 33 13 3c
       0.009976631 0.008735638 0.010150554 0.008984437
000260 b4 26 fc 3b 82 9b 71 3c 39 e9 50 3c 48 31 36 3c
       0.0076950435 0.014746549 0.012750917 0.011120148
000270 06 88 8b 3c c8 ff 81 3c 47 03 45 3c 03 28 7d 3c
       0.017032634 0.015869036 0.012024707 0.015451434
000280 6c 93 3b 3c 52 5a 0f 3c 47 47 46 3d a5 71 36 3d
       0.011448722 0.008749561 0.04840782 0.044541974
000290 21 90 27 3d d8 0c 4d 3d f1 21 4e 3d 64 b8 2e 3d
       0.040908936 0.050061077 0.050325338 0.042656317
0002a0 fb bf 4a 3d 48 08 3a 3d 0f c2 29 3d 73 14 cc 97
       0.049499493 0.045418054 0.041444834 -1.3188353e-24
0002b0 32 10 09 a1 f0 ba 15 98 08 cf 7a 8b 1f 02 ac 81
       -4.643884e-19 -1.9352178e-24 -4.8304002e-32 -6.3185865e-38
0002c0 28 a1 a2 81 6d bf 85 a6 02 de b4 81 46 1b 91 8b
       -5.974065e-38 -9.280615e-16 -6.6440123e-38 -5.5893005e-32
0002d0 99 41 26 b9 d0 4e 24 ba 1c 43 08 39 1c f4 26 b8
       -0.0001585543 -0.00062678475 0.00012994971 -3.980483e-05
0002e0 19 68 0a ba bb 7b 16 ba bf 49 ed 35 f2 a8 a3 39
       -0.0005279794 -0.0005740483 1.7679339e-06 0.00031215657
0002f0 51 8b be b8 f5 f2 da 3d c7 f6 31 3e e5 ef 27 3e
       -9.085856e-05 0.106908716 0.17379294 0.16400106
000300 57 51 04 3d 54 55 98 3d 40 d5 d4 3d 98 d3 86 bc
       0.032304134 0.0743815 0.10392237 -0.016458318
000310 35 9f c9 ba 85 e3 27 3e 42 cd 5d 3b 8e 34 c4 3b
       -0.001538253 0.16395386 0.0033844267 0.0059877103
000320 91 16 09 3c 07 06 a6 3b dc 8c da 3b 50 6d 1c 3c
       0.008367197 0.0050666365 0.006669624 0.0095475465
000330 7b 49 ab 3b e6 a7 c9 3b 2e 65 e4 3b e8 a5 34 3e
       0.0052272654 0.0061540483 0.0069700694 0.17641413
000340 eb f6 93 3d 49 9b 1b 3e c2 ac 36 3e 95 65 b0 3d
       0.0722483 0.15195955 0.1783934 0.08613125
000350 2e f4 a4 3d c6 c5 ad 3e 41 2c 1b 3d c6 b7 8f bc
       0.08054386 0.33939952 0.037884 -0.017543685
000360 49 03 ad 3b 7c 11 89 3b 71 93 86 ba 5e d9 11 3b
       0.0052799326 0.0041829925 -0.001026733 0.0022254805
000370 30 59 cd 3a a4 d0 7f 3b 88 4a 40 b9 6b e4 cc ba
       0.0015666839 0.0039034272 -0.00018338312 -0.0015632039
000380 f0 da 44 3b 0a b8 7f bd cc 48 d0 bd fb 2b 81 bd
       0.0030037723 -0.062431373 -0.10170135 -0.06307217
000390 6b 0a f2 bd 59 b0 6e be f7 dc c7 bd 2d 68 cb bd
       -0.11818393 -0.23309459 -0.097589426 -0.09931979
0003a0 20 3e 68 be e9 03 bb bc 2b fb 8c 3c c1 bd dc 3d
       -0.22679949 -0.022829013 0.01720961 0.1077838
0003b0 2c fb cc 3d b5 55 88 3d e0 ed be 3d ff 54 a3 3e
       0.10008845 0.06656972 0.09322715 0.31900784
0003c0 d3 ab 75 3d 90 fe 24 3e d0 0d 84 3e 85 72 cb bd
       0.059978317 0.16112733 0.25791788 -0.09933952
0003d0 d5 71 c1 3b 02 6c 31 bd c0 26 a4 be d2 d9 96 be
       0.0059034624 -0.043315895 -0.32060814 -0.2946306
0003e0 82 ee 54 be 4f 27 83 be fc 53 7d be f0 ec b4 bd
       -0.20794109 -0.25615928 -0.24739069 -0.08834255
0003f0 89 9e 71 b5 c5 b0 2f b2 18 c5 82 b3 bd 26 e7 ae
       -9.0010195e-07 -1.0226533e-08 -6.089448e-08 -1.0511545e-10

fc.bias f4 [10]
000000 69 f5 7d bd 81 49 da bd 89 e1 0b be a1 39 bd 3d
       -0.06200162 -0.10658551 -0.13660254 0.092395075
000010 44 fa 59 3e c2 5b cf bb ac 03 8d 3d 07 ea 1c be
       0.21286875 -0.006328077 0.06885466 -0.1532365
000020 28 83 0c 3e cd e2 93 bd
       0.13721907 -0.07220993
