models/FashionMNIST/cnn_num-modules=2_seed=041/099.pth (torch, 58727 bytes, 8 tensors)

conv1.weight f4 [32, 1, 3, 3]
-0.24362364 -0.09248588 0.36148918 -0.49877453 -0.03194309 0.52556556 -0.6214491 0.3141738
0.29522493 -0.021644747 -0.034559734 0.22259587 0.4485594 0.27830154 -0.07761739 0.6213061
0.5168495 0.0777296 -0.9078532 -2.9795477 -1.1678382 0.38650432 -0.78831756 -1.5556955
0.59963256 0.058741253 -0.36367747 -1.2025212 -1.6446258 -1.0613785 -0.18428063 -0.63783413
-0.7292142 0.5583071 0.52182996 0.05974742 0.20502876 0.08506074 0.80226433 -0.12329935
-0.2159887 0.17603333 -0.29345283 -0.37979612 0.4590434 0.07180179 0.34753478 -0.095551744
0.07767581 0.36655134 -0.20656615 0.10445122 0.24982245 -0.19585347 -1.4267803 -1.1904266
0.6867424 -0.6147928 -1.425957 -0.7376981 0.3872205 -1.7167029 -0.8947592 0.8766935
0.8309794 0.454415 0.24868862 0.4617757 0.5674817 -0.1320769 0.3928718 0.40694633
-0.46512944 0.020151546 0.008936999 0.04221843 -0.6164052 -0.2392716 0.5217449 0.3921157
0.32011166 0.36697784 0.21191734 0.13909133 0.30744517 0.26047188 0.39689234 -0.020242874
0.07453201 -0.062986076 -0.46122983 0.47766775 0.010435108 -0.6385527 0.5479743 0.08088254
-0.09845493 -0.18628433 0.28477472 -0.44718903 0.34327397 0.45160922 0.29422525 0.5644472
-0.7033882 -0.070750505 -1.20121 -1.6815941 -0.2618054 -0.0549475 0.301833 0.529819
-0.39851016 -0.31582734 0.41245568 -0.10314701 -0.3041215 -0.5476208 -0.3084362 -0.5362483
0.49972177 -0.021883048 -0.06405694 0.09609009 0.3146677 0.50972503 -0.17243078 -0.17061871
0.3838651 -0.16422822 0.37101135 -0.19876654 -0.34650692 0.43081653 -0.1241401 0.13908291
0.4374381 0.5722201 0.17929454 0.33893636 0.60668087 0.38837665 0.33573967 0.14753821
0.27591565 0.21367536 -0.60069084 -0.34909984 0.6654264 0.4020401 -0.4999632 -0.71376336
-0.79250836 -0.0028361687 0.055125564 -0.24652569 0.30894148 0.28851774 0.27114347 -0.312467
-0.1887964 -0.52538 -0.29229283 -0.13345319 0.33916298 0.052439988 0.28633174 0.15043727
0.1957696 0.46403798 -0.14438225 -0.28957397 0.01078349 0.385444 -0.12584463 -0.025896292
0.61678547 0.07960798 0.26087293 0.4124936 -0.053278476 0.2733683 -0.053884283 0.048235793
0.28386936 -0.063386776 0.5789748 -0.08645654 -0.48756185 0.19834574 0.22304416 0.16969201
0.14495847 0.3098328 0.48286965 0.06321351 -0.018014185 0.31992427 0.24195942 0.1744987
0.09750358 0.1887574 0.26268858 0.51767087 0.060017303 0.46391204 0.19937505 0.23294006
0.118119456 0.1344631 0.61766094 -1.5663975 -0.7843237 -0.80167204 -3.4822996 -2.910138
-2.5694108 -0.29615366 0.46281093 -3.1151118 -0.18747792 -0.10878227 -0.22202091 0.12694187
0.1382642 0.108071946 -0.5320981 0.4538336 -0.20497584 -0.24454284 0.43243632 0.28739446
-0.5229646 0.23837222 0.103981346 -1.1540307 -0.33071002 -0.5312151 -2.1538625 -1.963393
-0.008667949 -0.8448534 -2.0485086 -0.0030297842 -0.0025616398 -0.002363708 -0.002565576 -0.0021195395
-0.0019055496 -0.0020306774 -0.001951156 -0.0016568935 0.17531042 0.38813242 -0.5694484 0.317596
00000000: 7a78 79be 3d69 bdbd 1c15 b93e 605f ffbe
00000010: c2d6 02bd 778b 063f 4a17 1fbf 63db a03e
00000020: b927 973e 5350 b1bc 828e 0dbd 2cf0 633e
00000030: 94a9 e53e 8a7d 8e3e def5 9ebd eb0d 1f3f
00000040: 4050 043f b230 9f3d 1169 68bf e9b0 3ec0
00000050: b97b 95bf e5e3 c53e 2ecf 49bf 0821 c7bf
00000060: 8581 193f ab9a 703d ef33 babe 37ec 99bf
00000070: 1983 d2bf 40db 87bf 10b4 3cbe 1949 23bf
00000080: c8ad 3abf 37ed 0e3f a696 053f b6b9 743d
00000090: 0ff3 513e 5334 ae3d 3261 4d3f 5f84 fcbd
000000a0: 242c 5dbe 1542 343e 733f 96be a374 c2be
000000b0: bd07 eb3e d10c 933d 14f0 b13e a2b0 c3bd
000000c0: 7f14 9f3d 9eac bb3e 1486 53be 85ea d53d
000000d0: 75d1 7f3e d08d 48be bda0 b6bf e65f 98bf
000000e0: 5ace 2f3f 1063 1dbf c285 b6bf c8d9 3cbf
000000f0: c441 c63e ecbc dbbf f00e 65bf fc6e 603f
00000100: 11bb 543f 15a9 e83e 3ba8 7e3e dd6d ec3e
00000110: 7b46 113f 2b3f 07be 7e26 c93e 455b d03e
00000120: 7225 eebe db14 a53c 7e6c 123c 3ced 2c3d
00000130: bbcc 1dbf 9d03 75be 1391 053f 64c3 c83e
00000140: ade5 a33e 85e4 bb3e dc00 593e f56d 0e3e
00000150: 7469 9d3e 925c 853e 7935 cb3e 62d4 a5bc
00000160: 3da4 983d d8fe 80bd 5126 ecbe de90 f43e
00000170: 04f8 2a3c 3178 23bf 0b48 0c3f bfa5 a53d
00000180: bda2 c9bd 52c1 3ebe fecd 913e f6f5 e4be
00000190: 9bc1 af3e 5339 e73e b1a4 963e 9d7f 103f
000001a0: 4011 34bf a4e5 90bd 40c1 99bf 7a3e d7bf
000001b0: 5b0b 86be a110 61bd db89 9a3e 38a2 073f
000001c0: 8609 ccbe 1fb4 a1be 642d d33e bd3e d3bd
000001d0: d0b5 9bbe e030 0cbf 59eb 9dbe 9247 09bf
000001e0: 88db ff3e 1444 b3bc 4930 83bd e2ca c43d
000001f0: 201c a13e 577d 023f b291 30be acb6 2ebe
00000200: f789 c43e 712b 28be 33f5 bd3e 7589 4bbe
00000210: 5b69 b1be fc93 dc3e 2a3d febd c06b 0e3e
00000220: e3f7 df3e 047d 123f fd98 373e 1189 ad3e
00000230: 704f 1b3f 4ed9 c63e 12e6 ab3e 4214 173e
00000240: d144 8d3e b7cd 5a3e e0c6 19bf 37bd b2be
00000250: 6259 2a3f 33d8 cd3e 2dfb ffbe 32b9 36bf
00000260: d4e1 4abf 04df 39bb 58cb 613d 3b71 7cbe
00000270: 942d 9e3e 99b8 933e 51d3 8a3e adfb 9fbe
00000280: d853 41be 4e7f 06bf 68a7 95be f4a7 08be
00000290: c5a6 ad3e 50cb 563d 139a 923e 3a0c 1a3e
000002a0: d377 483e 6396 ed3e f1d8 13be 0a43 94be
000002b0: 3cad 303c ea58 c53e 6add 00be 7624 d4bc
000002c0: a7e5 1d3f 8209 a33d 2391 853e 5c32 d33e
000002d0: 883a 5abd eef6 8b3e c4b5 5cbd e592 453d
000002e0: 5357 913e edd0 81bd b137 143f 2010 b1bd
000002f0: b5a1 f9be 251b 4b3e b065 643e bec3 2d3e
00000300: fe6f 143e 68a2 9e3e b13a f73e 1676 813d
00000310: 7c92 93bc 1dcd a33e 36c4 773e caaf 323e
00000320: f5af c73d 9f49 413e 1e7f 863e 1486 043f
00000330: b4d4 753d e185 ed3e f928 4c3e d787 6e3e
00000340: 9de8 f13d b2b0 093e 071f 1e3f b77f c8bf
00000350: 70c9 48bf 613a 4dbf ffdd 5ec0 b33f 3ac0
00000360: 3a71 24c0 74a1 97be 8ef5 ec3e fe5d 47c0
00000370: 36fa 3fbe 3dc9 debd 7359 63be 0dfd 013e
00000380: 2195 0d3e d354 dd3d 9537 08bf e15c e83e
00000390: 30e5 51be 7069 7abe 4b68 dd3e 5e25 933e
000003a0: 02e1 05bf d917 743e 2cf4 d43d 47b7 93bf
000003b0: d352 a9be b6fd 07bf e2d8 09c0 7650 fbbf
000003c0: 0304 0ebc 5048 58bf c41a 03c0 588f 46bb
000003d0: 2fe1 27bb 71e8 1abb 3923 28bb f9e7 0abb
000003e0: a2c3 f9ba 1d15 05bb eebd ffba 1f2c d9ba
000003f0: 9384 333e 4bb9 c63e 5fc7 11bf f19b a23e

conv1.bias f4 [32]
-0.017625984 0.15829907 0.07397467 0.21649356 0.00012578335 -0.39670864 0.13883343 0.0076122037
-0.021139132 0.093437225 -0.018515944 -0.0018906308 0.1660286 0.00306315 -0.013803431 -0.0027267751
-0.12926331 0.2563622 -0.008112842 0.07712606 -0.1897404 0.0937531 0.0014165757 0.114057824
0.07183119 -0.017176978 0.3876241 -0.012488647 0.0047696796 -0.00140033 -0.23961163 0.008514314
00000000: 5e64 90bc 2719 223e 0880 973d 7db0 5d3e
00000010: b6e4 0339 651d cbbe 5a2a 0e3e cb6f f93b
00000020: f92b adbc 045c bf3d c0ae 97bc 0bcf f7ba
00000030: 6703 2a3e 21bf 483b c927 62bc b2b3 32bb
00000040: 9a5d 04be e841 833e baeb 04bc 45f4 9d3d
00000050: 4f4b 42be a001 c03d 65ac b93a 2697 e93d
00000060: 3b1c 933d bcb6 8cbc ab76 c63e 2f9d 4cbc
00000070: f94a 9c3b 478b b7ba c05c 75be 9f7f 0b3c

conv2.weight f4 [32, 1, 3, 3]
0.26505625 0.96740586 0.21715416 1.389331 0.8912083 0.5721343 0.5003354 0.013910382
0.18057737 0.41899583 -0.24991246 -0.10388773 0.56195426 -0.037781086 -0.40017077 0.038454667
-0.051924832 0.23147875 -0.36739394 -0.6144506 -0.4157653 -0.8809393 -1.098662 -0.6661826
-0.44015947 -0.32564923 -0.045290872 -0.2973833 -0.5541187 -0.0760224 -0.8847893 -0.3079993
0.6684513 0.094382696 -0.12487033 0.8858848 -0.085379384 -0.41528848 0.3345301 -0.22438675
0.25728634 0.48949352 -0.31890553 -0.0318103 -0.39542675 -0.56631255 -0.14569694 0.058485087
-0.7855355 -0.49387205 -0.34240964 -0.83061284 -0.6536201 -0.32883462 -0.42646575 -0.9564924
-0.754772 -0.28488365 -0.9578758 -0.5386597 -0.432257 -0.06602683 -0.02541927 0.3563966
-0.45026124 -0.52582103 0.4759402 -0.06847747 0.051629424 -0.23887178 0.38988364 0.04159115
-0.02064466 0.45609477 0.17504814 -0.0018873832 1.0093752 0.7033151 0.27780572 0.8690433
0.42054743 0.29188347 -0.19931506 -0.18167815 0.1688064 0.071493864 0.11605071 0.41355103
-0.07127572 0.34772718 -0.39742637 0.6106389 1.1476669 -0.19034056 1.3037337 1.1490086
-0.099860564 0.54711866 0.00037148752 -1.3463333 -0.08184806 -0.8921495 -0.40117237 -1.5733384
-1.5497521 -0.27089664 -0.82425976 -0.9624432 0.2248946 0.07271512 -0.4229507 0.32691813
-0.24997105 -0.80944866 0.0718 -0.10137547 -0.14577477 -0.08920019 -0.7137543 -0.33905694
-0.0001745756 -0.76195675 -0.47364494 -0.02717157 -0.5793353 -0.48085758 -0.03757755 -0.29228115
-0.9086139 -0.08230666 -0.08282536 -0.57947993 0.31207108 0.7070365 -0.69372773 -0.26679128
-0.33928388 0.51117605 -0.09949343 -0.25388554 0.02379442 0.30304858 0.27635077 0.19784652
-1.3397639 -0.9550661 -0.5274302 -1.124997 -1.1691539 -0.72626656 -0.26886472 -0.583539
-0.3173239 0.1825747 -0.09104946 0.29810423 -0.31148705 0.16728458 0.091194615 0.3780136
0.48243734 0.61201245 0.10061248 -0.10096111 -0.13984008 0.33118746 0.39765173 0.2069795
0.2732054 -0.21632057 0.17767979 -0.218725 -0.38149598 0.19606943 0.26514396 0.35508305
0.5822171 -0.24322885 -0.17187524 0.3157961 -0.13866813 -0.519869 -0.4987142 -0.059989274
-0.57861155 -0.6488728 -0.5033406 -0.41212708 -0.31348997 -0.28719792 0.18273963 0.14580783
-0.21248281 0.34672564 0.47908846 -0.026342513 0.19248302 -0.1250835 0.15467879 0.05535766
0.078746326 0.39525247 -0.012046676 -0.06825299 0.47905773 -0.18157952 -0.39407605 -0.34117356
-0.91338015 -0.66884464 0.061205857 -0.42642644 -0.8022735 -0.13814528 -0.44988704 -0.6351025
-0.28987893 -0.6746759 -0.5482961 -0.50253963 -0.96504515 -0.9920058 -0.41209665 -0.28663266
-0.51248515 -0.8245067 -1.4990464 -0.73739916 -0.7251745 -1.2217567 -1.2000583 -0.53618
-0.8657104 -0.27994776 -0.6846892 0.062041093 0.1102065 -0.25138655 0.7411788 0.68737537
-0.06862053 0.59353864 0.43067628 -0.0072494587 -0.005966531 -0.004657883 -0.006208104 -0.0052024885
-0.0033656172 -0.00458206 -0.0041303122 -0.0025967034 -0.115622394 -0.25497487 -0.048516564 -0.81325644
00000000: 74b5 873e e9a7 773f a95d 5e3e 99d5 b13f
00000010: 3a26 643f 6577 123f fb15 003f 5fe8 633c
00000020: 46e9 383e 9f86 d63e 0de9 7fbe 17c3 d4bd
00000030: 3cdc 0f3f 57c0 1abd 2fe3 ccbe a482 1d3d
00000040: 22af 54bd c408 6d3e 0f1b bcbe a24c 1dbf
00000050: 30df d4be 3d85 61bf f5a0 8cbf f18a 2abf
00000060: 955c e1be 7fbb a6be ec82 39bd a042 98be
00000070: b9da 0dbf a2b1 9bbd 8d81 62bf 16b2 9dbe
00000080: a01f 2b3f b74b c13d 04bc ffbd 59c9 623f
00000090: 63db aebd b1a0 d4be 8747 ab3e a4c5 65be
000000a0: 09bb 833e e59e fa3e 9647 a3be 844b 02bd
000000b0: 6075 cabe dcf9 10bf 9431 15be 0f8e 6f3d
000000c0: db18 49bf ccdc fcbe 5150 afbe 0ba3 54bf
000000d0: a653 27bf 035d a8be b859 dabe b0dc 74bf
000000e0: bd38 41bf 45dc 91be 5937 75bf 9ae5 09bf
000000f0: ca50 ddbe 1339 87bd 133c d0bc 9d79 b63e
00000100: a488 e6be 359c 06bf 6fae f33e ea3d 8cbd
00000110: 6079 533d ce9a 74be d49e c73e 7b5b 2a3d
00000120: fd1e a9bc 4185 e93e d23f 333e 1262 f7ba
00000130: 3533 813f 750c 343f 8d3c 8e3e 9f79 5e3f
00000140: fe51 d73e c071 953e 3f19 4cbe d609 3abe
00000150: 96db 2c3e 606b 923d ffab ed3d f6bc d33e
00000160: 01f9 91bd 4c09 b23e 787b cbbe d552 1c3f
00000170: c0e6 923f a3e8 42be bfe0 a63f b712 933f
00000180: b283 ccbd f80f 0c3f 36c4 c239 a654 acbf
00000190: f59f a7bd e963 64bf 7766 cdbe 2763 c9bf
000001a0: 475e c6bf f7b2 8abe b002 53bf ad62 76bf
000001b0: c54a 663e aaeb 943d ff8c d8be d061 a73e
000001c0: 69f8 7fbe 0738 4fbf e10b 933d f19d cfbd
000001d0: fb45 15be 97ae b6bd 9ab8 36bf df98 adbe
000001e0: 480e 37b9 990f 43bf 9781 f2be ea96 debc
000001f0: 514f 14bf f732 f6be ebea 19bd e0a5 95be
00000200: ec9a 68bf 6590 a8bd 58a0 a9bd cc58 14bf
00000210: c8c7 9f3e 5800 353f 2498 31bf de98 88be
00000220: 9eb6 adbe 6fdc 023f 36c3 cbbd 49fd 81be
00000230: 84ec c23c 2f29 9b3e d97d 8d3e 4798 4a3e
00000240: 627d abbf 367f 74bf aa05 07bf e7ff 8fbf
00000250: d6a6 95bf 9bec 39bf a3a8 89be d062 15bf
00000260: 4778 a2be ddf4 3a3e 2478 babd 1ea1 983e
00000270: 3b7b 9fbe a64c 2b3e 3ec4 ba3d 008b c13e
00000280: 0702 f73e d9ac 1c3f ea0d ce3d b3c4 cebd
00000290: 3d32 0fbe 6791 a93e 0299 cb3e 6ff2 533e
000002a0: 94e1 8b3e 2483 5dbe b1f1 353e 72f9 5fbe
000002b0: 7153 c3be 6dc6 483e f3c0 873e 72cd b53e
000002c0: 2e0c 153f fc10 79be 1000 30be 07b0 a13e
000002d0: 05ff 0dbe 2316 05bf 7857 ffbe 50b7 75bd
000002e0: e31f 14bf 871c 26bf eeda 00bf 5202 d3be
000002f0: c281 a0be 9b0b 93be 1920 3b3e a64e 153e
00000300: 1895 59be 0686 b13e 154b f53e 41cc d7bc
00000310: 451a 453e e415 00be 1e64 1e3e b7be 623d
00000320: c145 a13d 885e ca3e 6c5f 45bc 39c8 8bbd
00000330: 0e47 f53e fbef 39be 56c4 c9be 4dae aebe
00000340: 48d3 69bf 6739 2bbf feb2 7a3d 9154 dabe
00000350: cc61 4dbf f575 0dbe 9857 e6be 1496 22bf
00000360: 036b 94be 8fb7 2cbf 225d 0cbf 70a6 00bf
00000370: 330d 77bf 18f4 7dbf 55fe d2be 84c1 92be
00000380: 3a32 03bf df12 53bf c1e0 bfbf 31c6 3cbf
00000390: 09a5 39bf 8662 9cbf 839b 99bf 1843 09bf
000003a0: 329f 5dbf 5055 8fbe cb47 2fbf cd1e 7e3d
000003b0: f2b3 e13d bdb5 80be e5bd 3d3f d5f7 2f3f
000003c0: ec88 8cbd 26f2 173f 9a81 dc3e de8c edbb
000003d0: e482 c3bb 28a1 98bb 5a6d cbbb a379 aabb
000003e0: b091 5cbb 1b25 96bb 9257 87bb 742d 2abb
000003f0: 6fcb ecbd 118c 82be 4eb9 46bd 9331 50bf

conv2.bias f4 [32]
-0.13569042 -0.18921094 0.26914498 -0.18200226 0.14444683 0.105165794 0.017899273 -0.112241074
-0.048037015 -0.3063248 0.065989554 -0.102246575 0.20111881 0.17173295 -0.03635388 0.05382032
-0.10532916 0.14518651 0.21760024 -0.23257397 0.1507747 -0.17053118 -0.3053379 0.08535058
0.28871045 -0.058052417 -0.32916215 6.0634695e-05 0.047416292 0.205602 0.057262193 0.10222287
00000000: 6ef2 0abe 83c0 41be 5fcd 893e cd5e 3abe
00000010: dfe9 133e 2a61 d73d 7fa1 923c a6de e5bd
00000020: 76c2 44bd 9bd6 9cbe 8825 873d a766 d1bd
00000030: 17f2 4d3e c3da 2f3e cee7 14bd b272 5c3d
00000040: d1b6 d7bd c6ab 143e 99d2 5e3e df27 6ebe
00000050: af64 1a3e ba9f 2ebe 4055 9cbe 49cc ae3d
00000060: dbd1 933e 5fc8 6dbd f187 a8be 0252 7e38
00000070: 9637 423d 5589 523e c38b 6a3d 395a d13d

conv3.weight f4 [20, 32, 1, 1]
-0.24629855 0.45728546 -0.8547755 0.19145079 -0.62339526 0.019318374 0.015098495 0.38098952
-0.033750966 0.20352767 0.23234463 -0.023456817 -0.39319587 0.076177396 -0.0025860644 0.06498432
-0.15056446 -0.014237308 -0.12843883 -0.29996175 0.253391 -0.38724044 0.33433783 0.2671446
0.77299917 0.29147545 0.3935648 -0.06408793 -0.30301195 -0.2129806 -0.023576558 0.10942453
0.24523872 0.391985 0.27864465 -0.114709355 0.21316774 0.6071949 0.5563966 0.24817999
0.17263733 -0.29183266 -0.021516692 -0.88877124 0.110530265 -0.19875109 0.05859574 -0.083159424
0.7571277 0.038874775 -0.05205712 -0.2265547 0.11106197 -0.37239027 0.117866196 -0.20185193
0.1050991 -0.24465926 -0.20909132 -0.042838506 -0.17164019 -0.17366055 0.61327124 -0.0075932415
-0.029313777 -0.03099612 0.018586101 0.040170107 -0.017461335 0.036230035 0.043998607 -0.00835082
-0.030953832 -0.03222795 -0.03135002 0.03805379 0.011287483 0.022239165 0.026491016 -0.035970505
0.034861248 -0.040725563 -0.043095708 -0.004134606 0.03199934 -0.0313445 -0.022232885 0.041414075
-0.0055978857 0.034951806 0.0008169677 -0.0031716793 0.038019564 -0.00930088 0.043031596 -0.014651242
-0.1893709 0.17504828 -0.87132984 0.07139845 -0.48974568 -0.06913121 -0.35900927 -0.19694394
0.1010413 0.03130696 0.315319 0.08655743 -0.03693885 0.2356244 -0.017476602 0.20735838
0.2597956 0.19165689 -0.11072036 0.15986905 0.31212094 -0.024401583 0.31618065 -0.4064612
-0.45021352 -0.24932769 0.23450635 -0.0015756144 0.04560467 0.14375278 0.04289353 -0.027129294
-0.10653073 0.035053313 0.72066855 0.041908693 0.12262504 -0.36838087 0.2036273 0.16580886
-0.022123564 0.12566617 0.21568574 0.2789929 -0.31893802 0.050774645 0.15267561 0.050758995
-0.2537157 -0.01737439 0.19689871 -0.11877362 -0.08583932 0.09967579 0.17459045 0.685165
0.7842656 -0.080950074 -0.39294967 0.17433572 -0.03485232 0.08153724 0.2716559 0.4932369
0.45622012 -0.32940695 -0.75105697 0.7156801 -0.29848835 0.10343535 -0.03433274 0.23485224
-0.26664895 -0.32482392 -0.23388901 0.22635096 -0.1145307 0.09596649 -0.19315012 -0.44863173
-0.3712817 -0.23358127 -0.17245878 -0.22038592 0.18860945 -0.333907 0.154381 0.08949695
-0.9257973 -0.13231203 0.22261646 -0.19972476 -0.3489669 -0.67053604 0.23266509 0.18812802
0.0654235 0.11498578 0.62542576 -0.021189377 0.17092633 0.046834063 0.55785006 0.09624681
-0.72077656 -0.31393433 0.21401201 0.10080745 -0.25181288 0.6331142 -0.35033605 -0.30792892
-0.16996282 0.18177406 -0.0053832876 -0.17462042 0.24916579 -0.28381136 -0.067861676 -0.1580821
-0.7822887 -0.39549923 -0.17727183 -0.014089309 -0.37938672 -0.25437817 0.23806699 -0.13523783
0.020272605 0.089857675 -0.5121783 0.38197646 -0.089772604 0.18484963 -0.19332218 0.3941151
0.24189617 0.11630901 -0.04937442 0.56309235 -0.31884548 -0.5059949 0.21151428 -0.2793283
-0.16428104 0.02564253 0.13010488 0.0236394 0.34599632 0.18817289 -0.23469168 0.4397388
0.3916117 0.00863248 -0.09346334 0.044485647 0.050988916 0.2675584 -0.10150693 -0.066057004
00000000: b035 7cbe 5221 ea3e 91d2 5abf ad0b 443e
00000010: d596 1fbf 9141 9e3c ae5f 773c 0f11 c33e
00000020: 743e 0abd 8f69 503e c0eb 6d3e 8328 c0bc
00000030: f850 c9be e502 9c3d f67a 29bb 8016 853d
00000040: 922d 1abe 9943 69bc 7885 03be 9694 99be
00000050: 77bc 813e 6144 c6be 542e ab3e 2dc7 883e
00000060: 46e3 453f 453c 953e 5381 c93e 8840 83bd
00000070: 6224 9bbe 9617 5abe a023 c1bc f819 e03d
00000080: dc1f 7b3e 42b2 c83e 83aa 8e3e bdec eabd
00000090: a548 5a3e 2071 1b3f 0270 0e3f e522 7e3e
000000a0: d7c7 303e 176b 95be c643 b0bc 8386 63bf
000000b0: b15d e23d 6885 4bbe 1602 703d 7d4f aabd
000000c0: 1fd3 413f 283b 1f3d d939 55bd f5fd 67be
000000d0: 7574 e33d f0a9 bebe d563 f13d 46b2 4ebe
000000e0: 323e d73d f587 7abe 091c 56be 6e77 2fbd
000000f0: 72c2 2fbe 12d4 31be 58ff 1c3f bad0 f8bb
00000100: 7223 f0bc 93eb fdbc e141 983c 6989 243d
00000110: 130b 8fbc f265 143d e237 343d e1d1 08bc
00000120: e492 fdbc 7401 04bd e168 00bd 4ade 1b3d
00000130: 23ef 383c e92e b63c b003 d93c cf55 13bd
00000140: abca 0e3d d9cf 26bd 2085 30bd 977b 87bb
00000150: bd11 033d 1763 00bd bd21 b6bc cea1 293d
00000160: 786e b7bb a029 0f3d c629 563a f3db 4fbb
00000170: 67ba 1b3d b862 18bc e641 303d c30b 70bc
00000180: 72ea 41be db3f 333e 790f 5fbf 5a39 923d
00000190: f2bf fabe aa94 8dbd 10d0 b7be acab 49be
000001a0: beee ce3d ba3b 003d 7e71 a13e 0645 b13d
000001b0: 314d 17bd 8647 713e 172b 8fbc c155 543e
000001c0: ee03 853e b441 443e 5bc1 e2bd b6b4 233e
000001d0: 51ce 9f3e d4e5 c7bc 6ee2 a13e af1b d0be
000001e0: 6382 e6be c24f 7fbe 6f22 703e d984 ceba
000001f0: f6cb 3a3d ee33 133e 20b1 2f3d 413e debc
00000200: c92c dabd 1094 0f3d bc7d 383f 73a8 2b3d
00000210: d622 fb3d 6b9c bcbe ad83 503e ccc9 293e
00000220: 7a3c b5bc a2ae 003e b9dc 5c3e 28d8 8e3e
00000230: d84b a3be 13f9 4f3d ff56 1c3e aae8 4f3d
00000240: 06e7 81be bd54 8ebc d19f 493e 953f f3bd
00000250: 87cc afbd d222 cc3d d7c7 323e f966 2f3f
00000260: a1c5 483f 27c9 a5bd b330 c9be 1085 323e
00000270: 4ec1 0ebd fffc a63d 7b16 8b3e 8c89 fc3e
00000280: af95 e93e 07a8 a8be 4545 40bf d036 373f
00000290: 77d3 98be ead5 d33d 7da0 0cbd 1b7d 703e
000002a0: 3686 88be 524f a6be 9a80 6fbe 8cc8 673e
000002b0: 128f eabd 148a c43d 25c9 45be 0fb3 e5be
000002c0: a318 bebe ee2f 6fbe 0999 30be d9ac 61be
000002d0: d622 413e dcf5 aabe 0e16 1e3e 2d4a b73d
000002e0: 0d01 6dbf ce7c 07be 92f5 633e a684 4cbe
000002f0: caab b2be 40a8 2bbf c23f 6e3e a2a4 403e
00000300: c2fc 853d aa7d eb3d e71b 203f 5895 adbc
00000310: 5007 2f3e 13d5 3f3d 43cf 0e3f 0c1d c53d
00000320: d084 38bf 00bc a0be f725 5b3e 2374 ce3d
00000330: 9eed 80be c613 223f 3f5f b3be dca8 9dbe
00000340: bc0a 2ebe fb22 3a3e 4a66 b0bb b2cf 32be
00000350: 5125 7f3e b94f 91be 10fb 8abd 46e0 21be
00000360: 1244 48bf e07e cabe bf86 35be d8d6 66bc
00000370: fa3e c2be db3d 82be d5c7 733e c97b 0abe
00000380: bc12 a63c 4d07 b83d 1e1e 03bf 6b92 c33e
00000390: b3da b7bd 3949 3d3e 40f6 45be 74c9 c93e
000003a0: a1b3 773e 6b33 ee3d d53c 4abd d226 103f
000003b0: b73f a3be e288 01bf 3397 583e 1e04 8fbe
000003c0: 4a39 28be 4810 d23c 373a 053e 6aa7 c13c
000003d0: 6e26 b13e 65b0 403e 0453 70be 7225 e13e
000003e0: 5481 c83e 3f6f 0d3c b569 bfbd 9536 363d
000003f0: c1d9 503d 6afd 883e dee2 cfbd e548 87bd

conv3.bias f4 [20]
0.045910493 -0.2091249 -0.04610326 -0.20168176 0.10319383 -0.07506823 -0.09526699 0.19334954
-0.09793993 0.25765857 -0.18531588 0.18513307 -0.022442574 0.23899682 -0.07986132 -0.17347178
0.14053106 0.07641337 -0.048291106 -0.049590774
00000000: a40c 3c3d d624 56be c6d6 3cbd aa85 4ebe
00000010: 4957 d33d 5fbd 99bd 571b c3bd 6cfd 453e
00000020: bb94 c8bd d3eb 833e 72c3 3dbe 8693 3d3e
00000030: 7dd9 b7bc 95bb 743e 558e a3bd 96a2 31be
00000040: 60e7 0f3e 9d7e 9c3d e5cc 45bd b21f 4bbd

linear.weight f4 [10, 1280]
0.17489749 0.13702133 0.1722372 -0.061429292 -0.028511887 0.02606048 -0.0499333 0.070910074
0.02670068 0.09077277 -0.012843264 -0.13220342 -0.14319134 0.031596575 0.1099251 0.06457843
-0.10901682 0.13949254 0.19363594 -0.14980394 -0.28866825 -0.11855557 0.19281583 0.11571905
0.026818668 0.20443659 0.15825084 0.0890255 -0.1693944 -0.08795684 0.07114066 0.08302041
0.017265027 0.15520602 -0.023940744 0.04239219 0.047027364 -0.024350313 -0.0045581353 -0.045900956
0.026893003 0.3129587 0.17508803 0.16250004 0.0593547 0.075397946 -0.0067530167 0.024963327
0.1570655 -0.002679105 -0.06877243 -0.027627494 -0.10929516 0.12797326 0.014461021 -0.033942793
0.15480092 0.5221503 0.2713585 0.09112974 -0.11872663 0.030844292 0.01800412 -0.05378198
-0.14139527 -0.03547248 -0.060055207 0.15141706 -0.0006243577 0.08398566 -0.017054409 0.08467397
-0.27817997 -0.056249946 -0.049304858 0.05443046 -0.03739338 -0.11293404 -0.03478772 0.16231602
-0.30392158 -0.19238575 -0.03154795 0.05028271 -0.020783916 0.04359369 0.0583548 0.06687489
-0.50147074 -0.13664041 0.054730047 0.072016835 -0.059472293 -0.11456016 -0.17799044 -0.03010658
-0.4675165 -0.0047219447 0.012163592 0.100254 -0.033433285 -0.1653614 -0.27279982 -0.22479647
-0.14424115 -0.07288734 -0.1383584 -0.076886415 -0.05601174 -0.048142605 -0.19364537 -0.07850176
-0.09712577 -0.13582233 -0.01496874 -0.06384587 0.08024658 0.30422258 0.011952745 -0.28020936
0.01300506 -0.090571575 0.09748051 0.0013252388 0.100613415 0.038350467 -0.044416465 -0.3733423
2.9106983e-05 0.0010518563 0.004012584 0.004621929 0.004726266 0.0018375588 0.002323561 0.0011966133
0.00081978523 0.0042041345 0.004123155 0.0030528577 0.0037397707 0.005521338 0.006750404 0.0029268537
0.0015284097 0.004321711 0.002464065 0.0018001188 0.0016991243 0.0060544554 0.007538169 0.002320709
0.0013513949 0.0039518215 0.003417258 0.0016612108 0.0035627556 0.006478172 0.0071225828 0.0015471029
0.0018018476 0.004931371 0.003847868 0.0027798938 0.005575164 0.0074493946 0.0046611554 0.0010755205
0.0018146185 0.0039089103 0.002593925 0.0029446757 0.007071571 0.008928314 0.0034005763 0.0010019754
0.0010000884 0.0028425155 0.0027074306 0.0023126546 0.006479914 0.008442561 0.0023817786 0.0010391981
0.00068303786 0.0014108353 0.0012228725 0.0012528228 0.0027891207 0.0031549681 0.0010245985 0.000796698
-0.06254131 -0.0015947584 0.08614112 0.114042446 0.05675271 -0.037137356 -0.062260136 0.10396367
-0.012595195 -0.20308435 -0.056176584 0.26670638 -0.30796647 -0.19769113 -0.05445604 -0.0279812
-0.025200175 -0.106811754 -0.014651463 -0.17310894 0.0023189571 -0.25197792 -0.054674216 -0.077861816
0.04952812 -0.064172864 0.11544766 -0.033039827 -0.2852818 -0.04404612 0.06999808 -0.034342572
-0.021881483 -0.023493374 0.049582656 -0.35636964 -0.11062325 0.28900617 0.035347957 -0.07607628
-0.049260776 -0.044291727 -0.14453305 -0.31562144 -0.0125336265 0.16335452 -0.06662627 -0.06280947
-0.13033575 -0.0016517934 -0.093836136 -0.04351147 -0.36470884 0.011918164 -0.061070073 0.104856424
-0.04107934 -0.027793465 -0.04856766 0.07866132 -0.19194603 -0.026617682 -0.0039494047 0.022770615
00000000: 5418 333e 524f 0c3e f35e 303e 489d 7bbd
00000010: c391 e9bc ca7c d53c dc86 4cbd 4d39 913d
00000020: 62bb da3c 13e7 b93d 8e6c 52bc 5560 07be
00000030: c0a0 12be 696b 013d 6920 e13d b241 843d
00000040: 3644 dfbd 22d7 0e3e 8048 463e 3466 19be
00000050: 53cc 93be 43cd f2bd 8371 453e 1cfe ec3d
00000060: d3b2 db3c d357 513e 820c 223e 0053 b63d
00000070: ba75 2dbe b722 b4bd 32b2 913d 9b06 aa3d
00000080: 636f 8d3c 54ee 1e3e 611f c4bc 6fa3 2d3d
00000090: c49f 403d 4f7a c7bc 695c 95bb a402 3cbd
000000a0: b74e dc3c 1f3c a03e 474a 333e 6966 263e
000000b0: ea1d 733d 3d6a 9a3d 6948 ddbb e47f cc3c
000000c0: c7d5 203e ec93 2fbb 8fd8 8cbd 0e53 e2bc
000000d0: 24d6 dfbd 6c0b 033e ebed 6c3c 9907 0bbd
000000e0: 2284 1e3e a4ab 053f 80ef 8a3e 3ba2 ba3d
000000f0: f326 f3bd 2bad fc3c 607d 933c 7e4a 5cbd
00000100: ecc9 10be 974b 11bd 73fc 75bd 130d 1b3e
00000110: f0ab 23ba ac00 ac3d b0b5 8bbc 8c69 ad3d
00000120: 9b6d 8ebe 5866 66bd e4f3 49bd 79f2 5e3d
00000130: cd29 19bd f649 e7bd 917d 0ebd 2c36 263e
00000140: 9c9b 9bbe c500 45be 6c38 01bd 3ef5 4d3d
00000150: 0843 aabc 4c8f 323d 7105 6f3d b4f5 883d
00000160: 6360 00bf 77eb 0bbe 9d2c 603d 907d 933d
00000170: 3899 73bd 849e eabd 2043 36be 13a2 f6bc
00000180: 535e efbe 8bba 9abb cd49 473c f851 cd3d
00000190: 57f1 08bd 8054 29be 6bac 8bbe 0c31 66be
000001a0: f4b3 13be f545 95bd d3ad 0dbe a076 9dbd
000001b0: 916c 65bd 2e31 45bd f94a 46be 88c5 a0bd
000001c0: e0e9 c6bd 0215 0bbe 723f 75bc a0c1 82bd
000001d0: 5258 a43d 10c3 9b3e 72d5 433c 9a77 8fbe
000001e0: 2d13 553c 977d b9bd dda3 c73d a3b3 ad3a
000001f0: 680e ce3d 6115 1d3d 0aee 35bd b926 bfbe
00000200: c52a f437 71de 893a ff7b 833b 8d73 973b
00000210: cbde 9a3b 3eda f03a e346 183b aed7 9c3a
00000220: dbe6 563a d6c2 893b 881b 873b 7412 483b
00000230: f116 753b 57ec b43b 7e32 dd3b 75d0 3f3b
00000240: eb54 c83a 249d 8d3b 277c 213b f7f1 eb3a
00000250: 27b5 de3a 7464 c63b bf02 f73b 0917 183b
00000260: 4a21 b13a 487e 813b 13f4 5f3b fcbc d93a
00000270: 1f7d 693b d846 d43b 8e64 e93b 29c8 ca3a
00000280: f92b ec3a 5797 a13b 832c 7c3b e12e 363b
00000290: deaf b63b 0d1a f43b 9bbc 983b 7bf8 8c3a
000002a0: 7ed8 ed3a 5116 803b d7fe 293b 76fb 403b
000002b0: a3b8 e73b 1048 123c 34dc 5e3b b754 833a
000002c0: 6615 833a 7f49 3a3b 266f 313b e88f 173b
000002d0: 7555 d43b ab52 0a3c 9d17 1c3b b435 883a
000002e0: e50d 333a c7eb b83a cb48 a03a c235 a43a
000002f0: aec9 363b 95c3 4e3b d24b 863a 7fd9 503a
00000300: a915 80bd 3607 d1ba c16a b03d 168f e93d
00000310: 8875 683d 571d 18bd 7c04 7fbd e8ea d43d
00000320: 145c 4ebc 58f5 4fbe 6b19 66bd bd8d 883e
00000330: c8ad 9dbe 8b6f 4abe 4c0d 5fbd d438 e5bc
00000340: 9970 cebc 1fc0 dabd b10c 70bc 7843 31be
00000350: a5f9 173b 4003 81be 12f2 5fbd 0476 9fbd
00000360: ffdd 4a3d 106d 83bd d36f ec3d c554 07bd
00000370: 7510 92be b469 34bd 275b 8f3d ccaa 0cbd
00000380: cc40 b3bc 2d75 c0bc 2f17 4b3d 1576 b6be
00000390: 718e e2bd 9ef8 933e 05c9 103d e1cd 9bbd
000003a0: abc5 49bd 3e6b 35bd 7900 14be 2299 a1be
000003b0: d759 4dbc 6846 273e 5b73 88bd 40a2 80bd
000003c0: bc76 05be fd80 d8ba 292d c0bd 1539 32bd
000003d0: 1ebb babe 6744 433c 9d24 7abd f7be d63d
000003e0: cf42 28bd 1faf e3bc e2ee 46bd 3019 a13d
000003f0: 808d 44be 530d dabc 026a 81bb 7189 ba3c

linear.bias f4 [10]
-0.035434864 0.021602381 -0.007571861 0.04248968 -0.061886325 0.07270411 0.024421467 0.06523736
-0.027892979 -0.046577156
00000000: 2624 11bd 7af7 b03c 601d f8bb a909 2e3d
00000010: 847c 7dbd e4e5 943d 870f c83c 2a9b 853d
00000020: d17f e4bc b0c7 3ebd
