models/FashionMNIST/cnn_num-modules=2_seed=044/099.pth (torch, 58727 bytes, 8 tensors)

conv1.weight f4 [32, 1, 3, 3]
000000 cf 77 b1 3d c1 f0 8a 3e 97 d2 b3 3e f5 59 bb be
       0.0866543 0.27136806 0.35121605 -0.3659207
000010 7d 0a eb 3b c4 aa 28 3e 7a 83 0e be 4b 1e 39 be
       0.007172881 0.16471392 -0.13917342 -0.18077962
000020 df f5 e2 3e a1 9c 18 3f 52 55 0b 3f 25 0e f0 3e
       0.4432821 0.59613997 0.54427063 0.4688579
000030 50 f7 18 3f c5 7d 75 3e 64 25 fc 3e 18 cc d0 3e
       0.5975237 0.23973759 0.49247277 0.4078071
000040 f2 07 14 3f 30 e4 65 3e c1 8b 86 3c db 1e 01 be
       0.57824624 0.22450328 0.016424062 -0.12609427
000050 14 c7 e9 3e a4 ac 31 3e 53 ce f7 3e 3e 2b 1b 3b
       0.45659697 0.17351013 0.483996 0.0023676897
000060 6e 96 10 be 8a 90 99 bd 75 17 2c bf 05 79 95 3e
       -0.14119884 -0.07498272 -0.6722329 0.29193893
000070 b9 98 3f 3e 91 ad 73 be bb 17 08 3d 81 74 05 3f
       0.18710603 -0.23796679 0.033225756 0.52130896
000080 e2 7d bf be 73 a8 07 3e fd a8 b7 3e 1b 63 32 bf
       -0.37400728 0.13247852 0.35871115 -0.6968247
000090 06 a7 7b 3e 64 67 6d 3e 9d 47 01 bd 3d 4a 80 bf
       0.24575433 0.23183972 -0.031562436 -1.0022656
0000a0 0f 5b 24 bf 59 ff 1d 3f 7e 6b 71 c0 58 5c 5b c0
       -0.64201444 0.61717755 -3.7721858 -3.4275112
0000b0 0b 8d e9 be 92 1d 8e be 1e 0a 28 3f b0 83 30 3d
       -0.4561542 -0.27756935 0.6564044 0.043094337
0000c0 47 09 01 bf e3 87 33 3e 77 58 ae be 5f 54 16 3d
       -0.5040478 0.17532305 -0.34051868 0.036701556
0000d0 37 92 1c 3f f1 17 9e be 15 e5 1c bf 08 b2 8b bf
       0.61160606 -0.3087764 -0.6128705 -1.0913706
0000e0 58 35 b0 bf 35 8d bf bf 18 79 90 bf 71 92 01 bf
       -1.3766279 -1.4964968 -1.1286955 -0.50614077
0000f0 b2 a1 d2 bc 2f 84 d9 bf 9d 1e 31 3e b5 11 ad 3e
       -0.025711868 -1.6993464 0.17296834 0.33802572
000100 47 06 6a 3f 41 06 76 bd c9 77 3d be be c5 53 3d
       0.9141583 -0.060064558 -0.18502726 0.051702254
000110 3e e2 08 bf 55 db 60 bd 68 d8 1d 3f d6 3c 88 3e
       -0.5347022 -0.05489667 0.61658335 0.26608914
000120 3f d6 fd be 9c 42 8d 3e 33 ae 87 3e 13 6a e1 be
       -0.4957752 0.2758988 0.2650009 -0.4402624
000130 ae 79 6c be d3 73 29 3f 92 a4 dc be 2c b8 d5 3e
       -0.23093292 0.6619236 -0.43094307 0.41742074
000140 02 46 81 3b 7c b3 3a 3e 64 84 2f 3e 23 7a 8d 3e
       0.003945113 0.1823253 0.17140347 0.27632245
000150 5d 7c a2 3e b8 cb 5d bd ab 82 c5 bd f5 81 95 3e
       0.31735507 -0.05414936 -0.096440636 0.29200712
000160 96 9e be be e5 2c ab be 36 2d ce 3e 1b 95 0f bf
       -0.37230366 -0.3343269 0.40268868 -0.5608689
000170 43 86 4c 3d f1 01 09 3f a0 85 d6 be 8b 62 44 be
       0.04993273 0.5351859 -0.41898823 -0.19178216
000180 10 93 67 3e c5 c3 7a 3e a3 98 cd be 6c 8c 28 be
       0.22614694 0.24488743 -0.40155515 -0.16459817
000190 19 a2 33 3f 56 8a 0b be dd 2a ea bd ed e2 60 3f
       0.70169216 -0.1362699 -0.11433957 0.8784626
0001a0 75 0e ce 3e c7 56 a7 bc 05 df 91 3e 92 cd fc bd
       0.40245405 -0.02042712 0.28490463 -0.12343897
0001b0 f0 f9 08 3f e8 f9 e4 be b9 2c 9e be f0 21 3b 3e
       0.53506374 -0.44721913 -0.30893496 0.18274665
0001c0 a8 a3 80 3e 81 1c 89 3e 70 33 0d bf 17 ff bf be
       0.2512486 0.2677956 -0.5515661 -0.37499306
0001d0 a3 87 77 3e ed 24 bd be 75 d9 28 bd 80 22 d4 3e
       0.24172835 -0.36942235 -0.04122301 0.4143257
0001e0 07 19 92 3e f4 fc 01 3f d2 c7 68 be 1a 4f 22 3e
       0.2853472 0.507766 -0.22732475 0.15850487
0001f0 8d 3b 29 bd 2a 10 70 be 29 3e 2b be a9 5b e0 3e
       -0.041316558 -0.23443666 -0.16722931 0.4381993
000200 68 6e cd be 85 c3 b6 3e ce 55 b2 be 5a a2 5b c0
       -0.40123296 0.35696045 -0.3483109 -3.4317842
000210 13 f4 3f 3e a0 20 08 bf 5f c5 66 c0 6c de c2 3e
       0.1874545 -0.5317478 -3.6057966 0.3806032
000220 e7 d0 1d 3f 92 8e c0 3e fb 0a c2 bd 30 a2 ba be
       0.61646885 0.37608773 -0.094747506 -0.36451864
000230 c7 4d 78 3e 01 b2 8b bf 0b 29 c0 bf 9a 76 db bf
       0.2424842 -1.0913697 -1.5012525 -1.7145569
000240 b0 ca 02 c0 54 df 23 c0 68 ca 85 bf 7c 48 3b c0
       -2.043621 -2.5605059 -1.0452394 -2.926299
000250 85 e3 42 bf cf ff 87 3e 14 ce 1a bf 0d 35 34 bd
       -0.7612842 0.26562354 -0.604707 -0.043995906
000260 c6 43 58 3f db ef f9 bd d4 75 06 3f c4 b5 c1 3e
       0.84478414 -0.12203952 0.5252354 0.3783399
000270 be 4e 5d 3d 1b 31 be 3e e8 1b 1a 3f 2d 49 1f 3e
       0.054030173 0.3714684 0.6019883 0.15555258
000280 67 0b 60 3f 66 e5 35 3f d4 44 2e 3e 23 11 c2 be
       0.875174 0.7105316 0.17018443 -0.379037
000290 4e c7 f9 be f8 19 6d 3d 8a 6e 68 3e c1 66 40 be
       -0.4878487 0.057886094 0.22698417 -0.18789198
0002a0 4c 3f 2e bd d3 75 93 3e d9 52 81 3e ae 19 f3 bc
       -0.042540833 0.2880083 0.2525852 -0.029675331
0002b0 5c 7e d0 be b4 6a 04 c0 82 d7 c3 3d bc a2 98 3b
       -0.40721405 -2.0690126 0.09562589 0.0046580713
0002c0 c5 e0 e4 bf 99 52 c7 3e 66 11 3f 3f b5 e2 d1 be
       -1.7881094 0.38930205 0.7463592 -0.40993276
0002d0 a2 24 15 3f 5f a2 78 3e 48 13 11 3f 71 5f 4b 3e
       0.5825902 0.2428069 0.56670046 0.19860627
0002e0 ab 35 1d 3f 10 4e 09 3f d4 3d c6 3d 40 e5 e2 3e
       0.61410016 0.5363474 0.096797615 0.4431553
0002f0 45 a7 cf 3e 6a fe 39 3f 9e 93 b6 bf 79 ab 02 bf
       0.40557304 0.7265383 -1.4263799 -0.51042897
000300 37 56 36 bf 07 3e 44 c0 c4 88 f8 be f4 f1 cd bf
       -0.71225303 -3.0662858 -0.48541844 -1.6089463
000310 ba c0 e5 bf 23 b7 5e 3f fa 57 73 3c ce 8b 6b 3c
       -1.794944 0.86998194 0.014852518 0.014376594
000320 b6 1b 80 3c 68 1e 6e 3c 54 76 66 3c 38 31 83 3c
       0.015638214 0.014533617 0.014066298 0.01601468
000330 35 3c 80 3c 99 8d 7e 3c 20 b0 8a 3c bc 1e ad 3e
       0.015653709 0.015536689 0.016929686 0.3381251
000340 b9 b2 86 bc 64 af 9c be 7a 25 d5 3e d2 ac d7 3e
       -0.016442643 -0.30602562 0.41630155 0.4212404
000350 3f 90 eb 3e 60 a8 07 bd 3b 6c e8 be 1f 42 58 bf
       0.4600849 -0.03311956 -0.45395073 -0.8447589
000360 2f 5d fb bd 0f 38 25 c0 16 a1 1f c0 0e 49 35 3d
       -0.12273633 -2.5815465 -2.494207 0.044259124
000370 51 d4 0a bf 72 39 a4 be 84 ab 3c 3f 25 d9 06 3e
       -0.5423022 -0.32075077 0.7369921 0.13168772
000380 37 83 03 3f cb 3c 06 3d d1 c7 76 be 59 53 7a 3e
       0.5137209 0.03277282 -0.24099661 0.24445857
000390 c8 9a 96 3d b8 dd fa be 17 69 d3 3e 95 19 23 bd
       0.07353741 -0.48997283 0.41291115 -0.03981932
0003a0 5b 6c d7 be 83 c2 e7 3e 5a 2f 01 3e a1 e1 13 bf
       -0.42074856 0.45265588 0.1261572 -0.5776616
0003b0 ef 75 dd 3e 7b 7f 05 3f c2 38 f1 bc 6f 7a fc be
       0.4325404 0.52147645 -0.02944601 -0.4931216
0003c0 f6 77 24 bf 59 01 1a 3f 43 6d 36 3d 56 6d 3b 3f
       -0.64245546 0.60158306 0.044537794 0.7321371
0003d0 eb d1 a0 bd 76 03 9e be 11 0e 1c 3f cd 9b ae bd
       -0.07852539 -0.30862015 0.60958964 -0.085258104
0003e0 82 d4 54 bf 66 3c a3 3e b6 9a b0 3e 30 ac de be
       -0.8313676 0.31882018 0.34493035 -0.43490744
0003f0 7f 6e 16 3f 38 71 3f 3e 93 a8 52 be 0c 51 88 3f
       0.58762354 0.18695533 -0.20572118 1.0649734

conv1.bias f4 [32]
000000 14 1d 12 bb b6 40 8c bc 74 25 25 3d f4 3d 6e 3b
       -0.0022295164 -0.0171207 0.04031892 0.0036352845
000010 41 07 2b 3d 37 2d 58 be 1f 46 92 3e ba d9 8c 3d
       0.041754965 -0.21110998 0.28569123 0.068774655
000020 b8 0d 2e bd ea ba d3 3e 66 ee ee 3d bf 5e 8d bb
       -0.042493552 0.41353542 0.11666565 -0.004314273
000030 df e2 b2 3c f3 47 bf 3d ed b0 21 3e 3d 9a 8b 3e
       0.021836696 0.09339895 0.15790148 0.27266112
000040 f2 6b 94 3d d0 59 d8 bc 73 d4 84 3d 65 08 b4 bc
       0.072471514 -0.026410013 0.06485834 -0.02197666
000050 20 79 4c 3e a4 bb f8 3c db 46 30 3c e0 c5 6c bd
       0.1996808 0.030362912 0.010759081 -0.057805896
000060 d1 1d 43 3e 57 bd 07 bd 0a b9 d9 3b 3b b5 91 bd
       0.19054343 -0.033139553 0.006644373 -0.07114645
000070 86 05 7b 3d 54 6b ba ba cc 0f b8 ba 4e 70 82 bc
       0.061284564 -0.001422266 -0.0014042794 -0.015922692

conv2.weight f4 [32, 1, 3, 3]
000000 25 87 e2 3d d1 af d5 3e ad 32 b2 3d 83 0d ef 3e
       0.11060933 0.417357 0.08701072 0.46689996
000010 41 90 d8 3e 27 11 04 bd 51 ef 8f 3e db 74 db bd
       0.42297557 -0.03224292 0.2811227 -0.10715648
000020 69 94 4f be 02 da 0c be 82 95 bb 3e 84 8f 0c 3f
       -0.20271458 -0.13755038 0.36637503 0.5490649
000030 89 ab 24 bd e6 41 b4 be 17 82 96 3d e7 3f 8e bd
       -0.04020265 -0.35206527 0.073490314 -0.06945782
000040 2c 6f b9 bc 4e 6e f5 be 7f f4 34 bf a9 62 18 bf
       -0.022636019 -0.47935718 -0.7068557 -0.59525543
000050 77 f9 a1 3e 7d 35 ce be a4 9b bb 3d 27 4d 36 be
       0.3163564 -0.40275183 0.091605455 -0.17802869
000060 b3 9f a4 3d ce aa cf be 04 09 19 3c 14 21 de 3e
       0.08038273 -0.4056 0.009340528 0.43384612
000070 29 0a 68 3e c9 ee 4b be 39 68 3b 3f 95 a0 4c be
       0.22660126 -0.19915308 0.73205906 -0.19983132
000080 64 0b 1c bd a0 03 d2 3e 04 d6 ac 3d c6 5a b5 bd
       -0.0380968 0.4101839 0.08439258 -0.08855204
000090 c7 e2 07 bf da a2 06 bf 74 57 89 bf b3 e7 1d bf
       -0.5308041 -0.5259224 -1.0729814 -0.6168167
0000a0 62 77 98 bf e9 9d 9c bf ef 27 3f bf d1 ca 60 bf
       -1.1911433 -1.223569 -0.7467031 -0.87809473
0000b0 d3 70 55 bf 6f 11 78 bf 9b a9 cd bf 65 aa 94 bf
       -0.8337528 -0.969016 -1.6067384 -1.16145
0000c0 ff 15 6f bf e7 40 9c bf 2e eb 33 bf ab 6c 93 be
       -0.9339294 -1.2207307 -0.7028073 -0.28793845
0000d0 62 a2 86 bf 0d 1f 4e bf ca c8 28 3e 09 1b 48 3e
       -1.0518305 -0.8051613 0.16482845 0.19541563
0000e0 5b 2f 86 3c 09 c5 6d 3e db 16 2d 3f f9 69 4b 3f
       0.016380003 0.23219694 0.67613 0.79458576
0000f0 c6 f7 de bd 50 8b 0f 3f 1f 19 2c 3f 09 59 c6 3e
       -0.10887103 0.5607195 0.6722583 0.38739803
000100 0c af 74 be 1d 3e 27 be 9d 7f ac 3e 15 04 d2 3e
       -0.238949 -0.16332288 0.3369111 0.4101874
000110 92 0e 94 3e 01 b6 13 bf 1e 6c 66 be fa 6c e8 bc
       0.28917366 -0.5769959 -0.22502181 -0.028372277
000120 c3 ad 66 bf a2 de 17 bf e3 64 27 bf 03 fa 56 bf
       -0.9010889 -0.59324086 -0.65388316 -0.8397524
000130 cb 2c 61 bf 1b ae 5f bf 4b e3 19 3d 13 88 45 be
       -0.87958974 -0.8737504 0.03757028 -0.1929019
000140 72 ac 90 be a9 40 9b be 48 58 75 be 56 2f 26 3e
       -0.28256565 -0.3032277 -0.23959458 0.16228995
000150 a8 95 8e be 2d d6 8a 3d 9a 52 5d 3e 99 a2 62 3e
       -0.27848554 0.06779132 0.21613541 0.22132339
000160 20 b4 c8 3e 83 19 1b be 18 8f 09 3e 06 3d 2d 3e
       0.39199924 -0.1514645 0.13433492 0.1691781
000170 21 f2 c3 be e8 5d 40 bf b1 80 0d bf 33 5a ff bc
       -0.38270667 -0.7514329 -0.5527449 -0.03117094
000180 99 94 2c bf 8d 8d 94 be d1 de b8 3d 31 dc f3 be
       -0.6741424 -0.29014245 0.09026874 -0.4762893
000190 71 0c 24 bf 33 93 9d be 89 fd df be 85 40 20 bf
       -0.64081484 -0.30776367 -0.4374812 -0.6259845
0001a0 dc 27 d8 3d bf 1e 05 3d 55 fa b8 3e 39 5b 8b 3e
       0.105544776 0.032500025 0.36128488 0.27218035
0001b0 e2 bb 8e be 35 37 51 3e 88 b3 26 3f d4 52 f6 3c
       -0.27877718 0.20431216 0.6511769 0.030068792
0001c0 e8 9d 1d bf dd 86 7e be 4d 8e 9a bd b6 9b 18 be
       -0.6156907 -0.24856134 -0.07546673 -0.14903149
0001d0 2d 37 02 bf 73 6e d3 be fa 93 a2 be 25 de a0 3c
       -0.5086544 -0.41295204 -0.31753522 0.019637177
0001e0 0d 05 87 3d 5b e2 a1 be 3e 81 ad bd 16 8c b9 be
       0.0659276 -0.31618008 -0.084719166 -0.3623969
0001f0 0e 2f 60 3e 12 16 16 3e fa 41 81 bf 3d ea 27 bf
       0.2189295 0.14656857 -1.009826 -0.65591794
000200 8b 4e 94 3e 1f 57 ce bf c4 c1 cd be f2 2c 1e 3d
       0.28966174 -1.6120337 -0.40186894 0.038617082
000210 ad 35 8f be e0 76 d4 bd b4 76 81 bf 3a ac 1f 3f
       -0.2797064 -0.10374236 -1.011435 0.6237217
000220 f0 2f 1f 3f 9a 65 c9 be db 25 18 3e 85 f5 1d 3f
       0.6218252 -0.39335328 0.1485819 0.6170276
000230 a1 12 8e 3d 23 30 25 bf d0 05 a5 be 18 97 f5 be
       0.06937147 -0.64526576 -0.32230997 -0.47966838
000240 37 ac 61 3d eb 62 dc 3d a4 31 dd 3d 11 fa 01 3f
       0.055095877 0.107610546 0.10800484 0.50772196
000250 6a 31 97 3f 85 3c 83 3f 1a fc e5 3e 11 f1 4f 3f
       1.1811955 1.0252844 0.449189 0.81227213
000260 14 df f7 3e 41 1c ef be c0 ff d6 3e e8 8f c2 3e
       0.48412383 -0.46701244 0.41991997 0.38000417
000270 15 ef 16 3e 5b 2f d7 be 00 a7 54 3e ff 8e c5 3e
       0.1473964 -0.42028317 0.2076683 0.3858566
000280 4e 5b 12 bf 84 a3 dc bd aa 07 71 3b 9f 25 1a 3e
       -0.5717057 -0.10773376 0.003677825 0.15053414
000290 a8 ba 9b be 49 f5 22 3e 43 a2 1f 3d 5e 87 07 bf
       -0.30415845 0.15913881 0.038973104 -0.5294093
0002a0 91 8b 33 3e 8d df dd 3e 5d 06 a7 3e 0c f5 35 3f
       0.17533709 0.43334618 0.32622042 0.71077037
0002b0 1a 7f d2 3e 17 e5 f9 be 51 80 8c 3f c4 b2 2b 3f
       0.41112596 -0.48807594 1.0976659 0.6706965
0002c0 3a 3b 2d 3e ce 76 49 3f f3 b8 6d 3f cd b5 52 3f
       0.16917124 0.78696907 0.92860335 0.82308656
0002d0 4b 6b 5f 3e c3 1b 52 be 39 f4 5d 3d 70 9f 28 be
       0.21818273 -0.20518403 0.054187987 -0.1646707
0002e0 dc c2 3b bf 94 68 28 be 40 c3 e3 3e 5e fb 78 be
       -0.73344207 -0.16446143 0.444849 -0.24314639
0002f0 59 be 10 3d d7 7c b4 3e 52 bd 63 3f ed c9 56 3f
       0.03533778 0.35251495 0.88960755 0.83901864
000300 2b f6 c3 3e 2d 8b 9f 3f 67 c1 8f 3f 5f b1 34 3e
       0.3827375 1.2464348 1.1230897 0.17645787
000310 bb 51 0c 3f 08 46 43 3e 3b 04 1c bc 17 3a 23 bc
       0.5481221 0.19069684 -0.009522493 -0.00996258
000320 1d f3 81 bc f1 76 82 bc d3 1e 68 bc e7 03 a6 bc
       -0.015862996 -0.015925856 -0.014167505 -0.020265533
000330 5a fc 96 bc 3a be 75 bc 56 40 b3 bc be 65 31 3f
       -0.018430877 -0.014998967 -0.021881264 0.6929587
000340 82 f9 53 3f ab da 56 3f 1f e7 a0 3f c2 f2 79 3f
       0.82802594 0.8392741 1.2570533 0.97636044
000350 2b 7c 21 3f 7b 14 82 3f bc 50 7e 3f d0 74 52 3e
       0.6308009 1.01625 0.9934194 0.20552373
000360 13 5b a2 be fb fa ce be 41 76 42 bf e4 b1 ac 3e
       -0.3171011 -0.40425858 -0.7596169 0.3372947
000370 71 79 5d be 31 7e 80 bf a0 f8 f7 be bd cb 18 be
       -0.21628357 -1.003851 -0.48431873 -0.1492147
000380 c9 22 c0 be 60 62 41 bf 53 b5 03 c0 78 44 78 bf
       -0.3752654 -0.75540733 -2.0579422 -0.96979475
000390 1b a1 86 bf e2 56 fc bf 2e 64 43 bf 46 27 c2 be
       -1.0517915 -1.9714015 -0.7632474 -0.37920588
0003a0 7c a4 41 bf 21 dd 52 3d 0a 04 a3 bd 5d 56 54 3e
       -0.7564161 0.051480416 -0.07959755 0.2073607
0003b0 58 6b c9 3e 42 8b 59 3f a7 73 d9 3f 87 84 b8 3f
       0.3933971 0.84978116 1.6988419 1.4415444
0003c0 1d 39 38 3f 65 e7 cc 3f 0f 5f 9c 3f 45 82 e3 3e
       0.7196215 1.6008116 1.221651 0.44435325
0003d0 d3 22 de 3e 5f fe 2c 3f c1 81 50 3e 00 3f ad 3e
       0.43385944 0.6757564 0.20361997 0.33837128
0003e0 b3 da 67 3f 84 aa fd bc 04 b8 bc be 48 10 da 3e
       0.90568084 -0.030965097 -0.36859143 0.42590547
0003f0 b6 dd 24 bf a5 5b 1e bf 0d 95 ac 3e be 27 82 3d
       -0.64400804 -0.6185859 0.33707467 0.063552365

conv2.bias f4 [32]
000000 5f 3f 82 bd e2 f1 90 bc 2d fc 06 be d0 37 34 be
       -0.06359743 -0.017693464 -0.13182135 -0.17599416
000010 c5 15 ad 3e 9b e4 01 be 22 eb af be 07 d2 9a 3e
       0.3380567 -0.12684862 -0.3435908 0.30238363
000020 24 d1 9f 3c df 5d 08 be d0 2a 0c 3e e2 af a5 3e
       0.019508906 -0.13317059 0.13688207 0.3236075
000030 bf 74 14 3e 57 92 aa 3e e8 f6 f8 3d a5 58 a0 be
       0.1449766 0.33314773 0.12156469 -0.3131763
000040 9e a7 a1 be d7 90 1b 3e 21 ae ea 3d 32 a2 2d 3d
       -0.31573194 0.15191971 0.11458994 0.04239101
000050 dc cc 93 3e 74 44 8f be 5c e5 e7 bc b8 97 aa 3e
       0.28867233 -0.27981913 -0.02830761 0.33318877
000060 4e 3d 7c be e8 30 cf bd 43 c7 60 3d 7e 49 6a be
       -0.24632761 -0.1011675 0.05487753 -0.22879598
000070 3f 3b eb 3d f8 47 94 be e0 88 92 be fb 4e 2a 3d
       0.1148591 -0.28961158 -0.28620052 0.041579228

conv3.weight f4 [20, 32, 1, 1]
000000 b9 63 4b 3e d8 f6 87 3e 42 20 83 be e7 35 5f be
       0.1986226 0.26555514 -0.25610548 -0.21797906
000010 5b 00 0c bf f8 a6 6f 3f e8 c3 a7 3e be f5 09 3e
       -0.5468804 0.9361415 0.32766652 0.1347265
000020 f2 ea e6 bd 80 b3 61 3d a5 a5 e7 3d 23 30 a9 be
       -0.11275281 0.055102825 0.11310891 -0.33044538
000030 cd bd be 3d 15 ce 1b be 8d 2b ec bd 6b 2b b4 be
       0.093135454 -0.15215333 -0.11531744 -0.35189375
000040 78 48 44 3f 4d 81 29 be 12 f9 51 3e a7 0b 85 3e
       0.7667308 -0.1655323 0.20505169 0.25985453
000050 e7 eb 8d bd 6b 5d ed 3e f5 70 48 3e 42 7a 17 bf
       -0.069297604 0.46360335 0.1957434 -0.59170926
000060 9e 20 03 3e d2 f1 80 3d 5f d6 a8 3e 6b b9 e9 3d
       0.12805411 0.062961236 0.32976052 0.11412319
000070 5d 95 45 bf 9e 47 91 bd cb 6b e2 3b e7 bf 9e 3b
       -0.77181035 -0.07093738 0.0069098226 0.004844654
000080 b2 e5 3d bd 68 bc 43 be a7 3c 91 be d6 0e 1a 3f
       -0.046361633 -0.1911484 -0.28366587 0.6017889
000090 59 a4 05 bf c5 ee e9 3d 66 24 8d be 2f d8 13 3d
       -0.522039 0.11422495 -0.27566832 0.03609484
0000a0 1c e0 a2 3c e2 98 93 bd 2b 75 be be f3 71 88 be
       0.019882254 -0.072068945 -0.37198767 -0.26649436
0000b0 9d 91 9d 3d 7f 84 a7 3d f4 02 5f bf 87 ef eb bd
       0.07693789 0.081795685 -0.8711388 -0.115202956
0000c0 1c eb 4c bd 9c 2a 3b be b8 e5 88 bd fa dd 42 be
       -0.050028905 -0.18277973 -0.066844404 -0.1902999
0000d0 c9 78 89 3e 09 f7 08 bd e1 a1 ee 3c 14 2c b8 be
       0.26849964 -0.033438716 0.029129924 -0.3597113
0000e0 e7 80 50 3e 41 13 4f be 4d e0 47 3e 3e 3c ba 3e
       0.20361672 -0.20222189 0.19519158 0.36374086
0000f0 26 c6 86 be 12 51 dd bc 6e 94 cc bd 06 12 09 3e
       -0.2632305 -0.027016196 -0.09989248 0.13385782
000100 fc 13 04 b9 1d c4 c8 39 df 5c 01 3a 9f de e5 b9
       -0.00012595946 0.00038293088 0.00049347983 -0.0004384415
000110 ea bb 38 ac 0d 92 3c 3a 6b 05 24 32 31 81 70 ba
       -2.6252286e-12 0.0007193394 9.547288e-09 -0.00091745245
000120 2e 99 72 38 6b 55 e4 36 4a 29 ab 3a d5 c8 90 3b
       5.7839956e-05 6.8048735e-06 0.001305857 0.0044184723
000130 81 d5 9a a1 3b a5 a6 32 1d 28 2f 3a d2 8d 54 35
       -1.049196e-18 1.9400082e-08 0.00066816976 7.918253e-07
000140 43 f9 89 35 47 84 1f ac 52 5c 0c b6 30 54 56 bb
       1.027984e-06 -2.2668688e-12 -2.0915363e-06 -0.0032703988
000150 8b 88 39 3a cb e1 a6 32 70 b8 bf 28 09 19 fb bb
       0.00070775364 1.9427622e-08 2.1285247e-14 -0.0076628965
000160 00 86 07 3b 6b 1c 4c 3a 22 dc b8 ba 47 b1 02 bb
       0.0020679235 0.0007786217 -0.0014103691 -0.0019942091
000170 49 0a 29 3b 92 97 11 32 50 f3 75 bb e7 11 50 b9
       0.0025793484 8.474574e-09 -0.0037529059 -0.00019843095
000180 da 15 3f 3c 26 68 73 be fe df 02 be b0 9b 12 be
       0.011662925 -0.23770198 -0.12780759 -0.14317203
000190 90 eb 73 3f 01 82 b6 bd c2 ea b7 3d 79 de 3f 3d
       0.95281315 -0.08911515 0.089803234 0.046843026
0001a0 26 07 b7 bd a3 4f 0a be 6f 8c c2 3e 9b b7 a1 bd
       -0.0893691 -0.13506941 0.37997767 -0.07896348
0001b0 bb 2d 95 bd 7c 34 69 be 09 2c 20 3f ea b3 ae bb
       -0.07284113 -0.22773927 0.6256719 -0.005331506
0001c0 57 83 26 b9 0a 59 fd be c6 46 2a 3e 2e 90 96 be
       -0.00015879922 -0.49481994 0.1662856 -0.29406875
0001d0 80 9d 98 be c6 e0 5e be e9 26 c6 3d 8e 40 f5 bd
       -0.29807663 -0.21765432 0.0967539 -0.119752035
0001e0 8f 83 a9 3e aa 03 92 bc b8 81 2a 3e f8 8f 37 3d
       0.33108184 -0.017824013 0.16651046 0.044815034
0001f0 de 46 5d 3c cb fe cb bd b0 56 dc 3d a3 6f 30 3e
       0.013505666 -0.09960707 0.10758722 0.17230086
000200 cb d2 83 bc 99 05 67 3c 76 e6 99 3c 49 ba 89 39
       -0.016091725 0.014100456 0.01878665 0.0002626947
000210 46 93 5c b8 e7 ed 9c 3c 93 1e 42 b9 b8 69 c7 bc
       -5.2589246e-05 0.01915641 -0.00018512672 -0.024342403
000220 bf d2 b2 3c ce 1c 03 3c 09 81 62 3c e2 52 b7 3c
       0.021829007 0.008002473 0.01382471 0.022378389
000230 72 c7 ed b5 fd 9e da b7 56 3c 5b 3c fc e2 40 3c
       -1.7715922e-06 -2.606166e-05 0.013381084 0.011772867
000240 f9 55 e0 39 e6 c5 c6 b9 6c 10 35 bc 35 b6 49 bc
       0.00042788664 -0.0003791295 -0.011051279 -0.012311508
000250 2c 66 d7 3c 58 59 66 3a 7d 3b 72 3a 9c 2d ee bc
       0.026293837 0.0008787117 0.0009240432 -0.029074483
000260 c0 d8 df 3c df c4 c1 3c f5 52 82 bc de 89 73 bc
       0.027325034 0.023653446 -0.015908698 -0.014864413
000270 96 d6 75 3c 3d d8 64 3c e4 37 e7 bc 1d b8 b4 bc
       0.015004775 0.013967571 -0.028224893 -0.022060448
000280 31 34 b2 bc 75 15 9f 3c f9 f2 12 3d f3 48 77 3b
       -0.021753402 0.019419411 0.035876248 0.003773269
000290 8a 23 60 bc 88 37 c8 3c 66 ae 1e 3c ee e6 09 bd
       -0.013680348 0.024440542 0.0096851345 -0.033667497
0002a0 a8 af 96 3c bf 82 2a 3d 9e e8 f4 3c ba 6e a3 3c
       0.018394306 0.041628595 0.029896077 0.01995026
0002b0 71 d6 00 bd 82 52 c8 bc f1 7e 02 3d 55 2d 08 3d
       -0.031454507 -0.024453405 0.031859342 0.033246357
0002c0 9b 21 1c 3d 50 b7 29 bd 10 71 1e bd 88 cd cd bc
       0.038117986 -0.041434586 -0.038682044 -0.025122419
0002d0 0a 6b a7 3c 61 32 3f 3d c8 ed f9 3c fc ca 13 bd
       0.020436782 0.046678904 0.03050889 -0.036082253
0002e0 58 d4 22 3d 35 b0 b9 3c 06 fc 21 bd 03 25 9a bc
       0.039753288 0.02266703 -0.03954699 -0.018816477
0002f0 3e 47 bf 3c f9 d7 26 3d 58 7a 98 bc 69 05 b2 bc
       0.0233494 0.04073331 -0.018613026 -0.021731095
000300 84 81 04 3e 18 d9 22 be 5d b2 0b be d9 0b 06 be
       0.12940031 -0.15903127 -0.13642259 -0.13090457
000310 89 bd 5e 3e 9b 1d 58 bd 24 c1 3e bf e8 77 f9 3d
       0.2175199 -0.05276261 -0.7451346 0.121810734
000320 eb 96 21 3e 98 43 60 be af de 93 3e 65 81 1a 3d
       0.15780227 -0.21900785 0.28880832 0.037721056
000330 6a ae 84 3e 4d c1 5f 3d ab 2b 51 3e e0 15 a0 bd
       0.25914317 0.054627705 0.20426814 -0.07816672
000340 51 0b 72 be f2 a7 c0 3d 2f a0 7e 3e a9 f3 99 bd
       -0.2363713 0.09407033 0.24865793 -0.075171776
000350 a2 59 51 be 2b 85 0f bf dd 6e 2c be 94 f7 be 3e
       -0.20444348 -0.56062573 -0.16839166 0.37298262
000360 bd 1c 99 3d 19 30 0e 3f 4e e2 11 bf 74 b1 d3 be
       0.074761845 0.5554214 -0.5698594 -0.41346323
000370 b4 ac b1 3e ad 4b a6 3d ff 4e a6 3e c8 85 08 bf
       0.34702075 0.08119903 0.32482144 -0.53329134
000380 84 92 88 3d 63 70 85 be 92 6c 23 be 62 e6 ab be
       0.06668571 -0.26062307 -0.15959385 -0.33574206
000390 e0 d2 92 3d a2 57 38 3f 0e 94 17 bf 9e 64 0a 3e
       0.071691275 0.7200872 -0.5921029 0.13514945
0003a0 2e f1 01 be de e1 d9 bd c7 5c b9 3e a2 0f 4d 3e
       -0.12689659 -0.10638784 0.36203596 0.20025495
0003b0 23 76 09 be 67 d4 21 be 35 80 91 3e 03 53 35 be
       -0.13423972 -0.15803681 0.28418127 -0.17707448
0003c0 2d e4 9f 3d 19 23 a2 be 39 cd df bd 93 20 69 be
       0.07807193 -0.31667402 -0.10927815 -0.22766332
0003d0 97 d6 79 be ae 5e 20 bc 10 57 59 bd db 9a ee 3e
       -0.24398266 -0.009788198 -0.053061545 0.4660252
0003e0 fa 44 3b bd 61 b4 bb 3e ce c7 d5 3d d8 da 87 3c
       -0.045720078 0.36661056 0.104385 0.016583845
0003f0 f1 ca 3a 3e 8b 5a d4 bd 31 49 2d ba 42 13 f0 bd
       0.18241479 -0.10368832 -0.00066103326 -0.11722423

conv3.bias f4 [20]
000000 9f 30 7e be 84 92 e7 bd 90 dd 35 bb 17 55 18 be
       -0.24823235 -0.113072425 -0.002775047 -0.14876209
000010 89 1d 04 bd f9 77 20 bd d8 60 96 3e 20 0f d6 3d
       -0.03225473 -0.039176915 0.2937076 0.104521036
000020 ee 4a f8 bc 8c b5 d8 bd a3 f6 1e be 33 a4 9d 3d
       -0.030309167 -0.10581502 -0.15523772 0.07697334
000030 cc a1 e3 3c b0 3e 5f 3e 29 3f 9b 3d f0 c0 31 3e
       0.027787112 0.21801257 0.07580406 0.17358756
000040 83 cc 80 bd 8f 22 71 3c 31 c9 95 bd 2b b0 27 b9
       -0.062890075 0.014717712 -0.07313765 -0.00015991989

linear.weight f4 [10, 1280]
000000 d9 77 a9 3d 26 2c 0b 3c b2 d4 59 3d 68 b0 1a be
       0.08274812 0.0084944125 0.053181358 -0.15106356
000010 20 be 2d 3d b6 53 a2 be 8c f4 29 be 57 79 0a 3e
       0.042417645 -0.3170449 -0.16597193 0.1352285
000020 c4 71 c1 bd 51 f2 31 3c d8 0d 1f be d8 45 91 be
       -0.09445527 0.010860995 -0.15532625 -0.283736
000030 f5 e3 9a 3d ce 5a 30 3c 0a 4a 1d be ea b3 f3 bd
       0.075630106 0.010763837 -0.15360275 -0.1189955
000040 a9 f1 9f be 6e 39 59 be f7 ca 2b be b1 bf a1 be
       -0.3123906 -0.21213314 -0.16776644 -0.3159156
000050 93 fc b0 bd 35 61 9f 3d 22 51 97 3d 5e d2 59 bc
       -0.08641925 0.07782213 0.07388522 -0.013294784
000060 db 6b b1 be ca 5d 83 be ec 67 39 bd 96 c5 55 be
       -0.346526 -0.25657493 -0.045265123 -0.20876154
000070 58 1b 3b be b3 ba 5d bd 06 24 5b 3d 1e 0c 1a 3e
       -0.1827215 -0.05413313 0.05350115 0.15043685
000080 15 22 9b be de 8b 9f be 1a f8 56 be e9 69 9d be
       -0.3029944 -0.31161398 -0.2099308 -0.30744866
000090 1c 8c 56 bd 7a e3 0e bd 16 9a 9d bc 94 36 0b be
       -0.052379712 -0.034884907 -0.019238513 -0.13595039
0000a0 3c 72 02 ba 66 68 75 3c 5e 6a c6 3d 22 4d e9 bd
       -0.00049761287 0.014978504 0.09688257 -0.11391665
0000b0 c1 25 c3 bd 51 6a 80 bb de 15 04 3d 66 58 d4 3b
       -0.09528685 -0.003918924 0.032247417 0.0064802645
0000c0 35 ce e3 3d 54 5a 14 3e 82 5d 19 3e 37 d7 92 3d
       0.11123315 0.14487582 0.14977077 0.07169955
0000d0 7c 7f 96 3d 2d 0c fb 3d 84 a2 7b 3d 27 dc e5 3c
       0.073485345 0.12258182 0.061434284 0.028059078
0000e0 da 4f c7 bd 15 af 1c 3e fd e2 e3 3d bc 13 47 bd
       -0.09732027 0.15301163 0.11127279 -0.048602805
0000f0 3b 7c 1a 3e df 84 de 3c 0d c4 a9 3d 06 04 67 3d
       0.15086453 0.027162967 0.08289347 0.05640032
000100 a0 6a 82 3d f5 93 c3 3e b4 6b 91 3e 9f 48 2e bc
       0.06367993 0.3819882 0.28402483 -0.010637431
000110 d8 09 0a be cf 95 cc 3d 41 12 76 bb 75 07 04 3c
       -0.13480318 0.09989511 -0.0037547501 0.0080584185
000120 26 2c 9e bd 1b 76 5b bd de 76 d1 3d fd b2 a3 bd
       -0.077232644 -0.05357943 0.1022775 -0.07993124
000130 6d 40 b7 bc 0f 2b c8 bd 75 50 d3 3b 8b 4b 78 bd
       -0.022369588 -0.09773838 0.0064488 -0.06061892
000140 7f 57 44 be 3c 7c 03 bc 15 a1 bd 3d 42 b8 1e bd
       -0.19174002 -0.008025225 0.092592396 -0.03874994
000150 34 85 4b 3c d5 c8 5b 3d 01 0a 9b 3d 98 80 1e 3b
       0.012421895 0.053658325 0.075702675 0.0024185535
000160 54 d7 23 be 4b a1 cc 3d f0 f8 2b 3d 0c c9 a3 bd
       -0.1600011 0.09991702 0.041985452 -0.07997331
000170 9e 68 3d bd e0 f4 da 3d 06 24 ef 3c 68 45 af 3d
       -0.04624235 0.106912374 0.029191982 0.0855816
000180 28 cd 03 be 3a 1f be 3d 56 66 a1 3d 74 9d e7 bd
       -0.1287123 0.092833 0.07880847 -0.11309329
000190 34 7c b9 3c 8f 5d 87 3d 71 0f 44 bd 1c a0 19 3b
       0.022642232 0.06609642 -0.04786629 0.002344138
0001a0 ab 01 8d bd 35 55 a8 3b d4 ec 12 3e 76 09 dc bc
       -0.06885084 0.0051371106 0.14348155 -0.02685998
0001b0 de 04 b5 3c 71 ae 2e 3d 1f 3a 5d bd 09 15 64 bc
       0.022097047 0.04264683 -0.054010507 -0.013921031
0001c0 8b ac 9b bd da 82 cc bd 67 f7 b5 bd c0 1a 53 3d
       -0.07601269 -0.099858955 -0.08885079 0.051539183
0001d0 b6 a0 55 3c 80 4c d2 3c 33 0e d6 bd cc f9 06 be
       0.013038805 0.025671244 -0.10451927 -0.13181227
0001e0 75 82 39 3e a8 2d 59 be c1 32 7d bd 3d 97 26 bd
       0.18116172 -0.21208823 -0.06181598 -0.040671576
0001f0 f5 5f 43 3d df 2d 2d 3d 8f 3c 73 3b 92 84 98 be
       0.047698934 0.042280074 0.0037114953 -0.29788643
000200 ec 81 1a 9c 07 01 ae a1 75 68 ad a3 42 4f 7e a5
       -5.1122246e-22 -1.1790971e-18 -1.8800937e-17 -2.2057842e-16
000210 3c f7 3e 9e 77 4c dd a9 a7 46 92 a7 90 b8 78 04
       -1.0109643e-20 -9.827636e-14 -4.059974e-15 2.9237007e-36
000220 02 76 de a0 21 c2 0c a1 10 4f 03 a2 80 28 97 a6
       -3.7686354e-19 -4.769077e-19 -1.7795666e-18 -1.0488707e-15
000230 fb 3b 5e 9e 86 72 3b ad 40 77 21 b0 7d 09 f0 9a
       -1.1764986e-20 -1.0655149e-11 -5.8740923e-10 -9.9277e-23
000240 d8 ed 8f a3 6f cd 53 a6 02 87 d0 a6 e3 c4 c5 8d
       -1.5604822e-17 -7.3483745e-16 -1.4469493e-15 -1.2188461e-30
000250 d7 90 9f 8f bf cb 0a ad 4d 30 c8 b0 60 5b 7d a2
       -1.5734401e-29 -7.8896325e-12 -1.4565643e-09 -3.4336267e-18
000260 aa ed 87 a6 bc 24 82 ad d9 8b 30 ad 77 45 74 95
       -9.431926e-16 -1.4795602e-11 -1.0035494e-11 -4.9330206e-26
000270 c7 1e fa a5 59 55 e2 b2 66 2d c7 b0 b2 20 8e a6
       -4.3388942e-16 -2.6348674e-08 -1.4492059e-09 -9.862091e-16
000280 91 2f 3c a3 c1 b6 b9 ae 4c 01 94 ad 8d 21 d8 8d
       -1.0201573e-17 -8.4452896e-11 -1.6826228e-11 -1.3320105e-30
000290 88 13 e1 a6 1c 40 bf b3 2d 0d 0a af 90 9e 98 a0
       -1.5617805e-15 -8.905792e-08 -1.2555708e-10 -2.585473e-19
0002a0 6a 84 68 9f ce cb ff ac 76 87 79 aa 46 75 8c 94
       -4.923744e-20 -7.2701628e-12 -2.216264e-13 -1.4182644e-26
0002b0 70 a4 40 a7 db b1 56 b2 e5 db 2b ae 42 a0 9a 9c
       -2.6734494e-15 -1.2496879e-08 -3.9076204e-11 -1.0232291e-21
0002c0 1b 2f 64 9e b5 90 42 ab 87 ad f9 a9 29 04 ad aa
       -1.2079961e-20 -6.9123467e-13 -1.10879235e-13 -3.073386e-13
0002d0 49 47 b8 ae c7 bd 0e b2 b1 11 37 af f4 23 0e 9a
       -8.380014e-11 -8.308638e-09 -1.6650038e-10 -2.9393954e-23
0002e0 02 fb c0 04 63 64 25 9b 03 c3 46 a3 03 ba d9 a7
       4.5369497e-36 -1.3680917e-22 -1.0774897e-17 -6.0431273e-15
0002f0 6c 77 82 a8 43 de a2 a9 7f 8c 17 aa 70 95 5b 81
       -1.448469e-14 -7.2328015e-14 -1.3460239e-13 -4.0331163e-38
000300 da 57 81 3d c7 cc 10 be 1b d0 df 3c 81 04 32 be
       0.063155845 -0.14140616 0.027320912 -0.1738453
000310 c9 4c 58 bd 83 af 35 3d 27 4f 6a 3e ad 3f a2 3d
       -0.052807603 0.044356834 0.22881757 0.079223014
000320 ab fa a7 bd 72 42 5c bd 41 6d b5 bd 5e b9 10 be
       -0.08202108 -0.053774305 -0.08858729 -0.14133212
000330 43 28 da bc f8 cf 95 3c 7d 5a 06 be 17 a3 0f be
       -0.026630526 0.018287644 -0.13120456 -0.14027058
000340 01 3a 29 3d 8a 54 98 bc 0d 47 cb bc 49 65 7a 3c
       0.041315082 -0.018594999 -0.024814153 0.015282937
000350 8a 76 d6 3d 4d d0 ef 3c 30 2a a2 bc c2 6b 5c be
       0.10471828 0.02927413 -0.019795507 -0.21525481
000360 47 7c a6 3d e7 d4 d6 bd 5a 60 d7 bd 8e 59 12 bd
       0.08129173 -0.10489827 -0.105164245 -0.035729937
000370 bd ff d3 bc 4f f1 f2 bd c6 3a cf 3d d9 58 41 3d
       -0.025878781 -0.11862432 0.10118632 0.047203872
000380 e7 b4 e0 3d 17 2e fc bc be fc c4 bd d5 65 43 bc
       0.109720044 -0.030783696 -0.09618519 -0.011926134
000390 1f e3 eb bc 69 9c be bd a0 e2 ea 3d 1d fd 5f 3d
       -0.028794823 -0.093071766 0.114690065 0.054684747
0003a0 ff bd 57 3e fa c6 2b 3d 46 7b 93 3d 9e 79 bf bc
       0.21068572 0.041937806 0.07201247 -0.023373421
0003b0 01 ff 70 3d 14 a8 ae bd a8 cc ec 3d 59 c9 6e 3d
       0.05883694 -0.08528152 0.115624726 0.05829749
0003c0 a9 8e 10 3e 98 97 0c 3d 20 de c6 3d 52 dd 8b 3b
       0.1411692 0.03432426 0.09710336 0.004268327
0003d0 64 f0 b2 3d be 15 01 3d db 35 08 3a 45 03 7f 3e
       0.08737257 0.031514876 0.00051960134 0.24903591
0003e0 d0 e3 9d be 81 50 31 bd 40 91 51 3d 57 e7 94 3c
       -0.3083787 -0.043289665 0.05116391 0.018176718
0003f0 6d b9 6b 3c 43 7f 30 be e6 23 9e be 6a 0d 74 bb
       0.014387471 -0.17236046 -0.30886763 -0.003723944

linear.bias f4 [10]
000000 4c 7a 33 bc 04 80 5b 3d 35 63 63 bd 9b 89 57 3d
       -0.010954451 0.053588882 -0.055514533 0.052621465
000010 aa 89 ef bd ed 1e d3 3d 63 32 07 3e 79 5c a9 bd
       -0.11696179 0.10308633 0.13202815 -0.08269591
000020 ee b7 0e bc 45 61 ae bc
       -0.008710844 -0.021286616
