models/FashionMNIST/mlp_num-layers=2_seed=038/099.pth (torch, 597815 bytes, 6 tensors)

linear1.weight f4 [128, 1024]
1.1812871e-07 -0.0002372834 -0.008670147 0.00026997965 0.016549021 0.046698526 0.12444364 0.3025745
0.48475343 0.4969765 0.21827644 0.061333764 -0.31664106 -0.66098326 -0.89296234 -0.97636527
-0.91251534 -0.69260144 -0.4807826 -0.21846673 0.04801199 0.308595 0.37446722 0.41362327
0.30832133 0.22027887 0.11424535 0.09762788 0.013639046 0.0082785515 0.0036792743 -2.2384984e-10
0.0011627848 0.0026836246 0.00929715 0.06312907 0.033247646 0.14712416 0.2958771 0.5340823
0.47108305 0.46327028 0.341101 0.18675716 -0.04894349 -0.3806282 -0.61748743 -0.73530436
-0.6406093 -0.536104 -0.32333454 -0.10301737 0.09001628 0.31120503 0.37806326 0.4164652
0.41725403 0.23030575 0.08678797 0.09870788 -0.013018718 0.039733157 0.027330222 -0.00052516395
0.0008910872 -0.0076924064 -0.042757243 0.038126998 0.046472497 0.24056512 0.30856413 0.49547902
0.52253765 0.4265225 0.26554063 0.060146503 -0.08189975 -0.2615316 -0.3883491 -0.40198755
-0.40112 -0.41727698 -0.2977877 -0.15692647 0.022678977 0.23457392 0.34603465 0.4345285
0.5496642 0.3865457 0.18777815 0.15537848 -0.029621718 0.0015785102 -0.0052963314 -0.0010819946
-0.026893651 -0.07985755 -0.07865006 -0.018421784 0.06336662 0.26227507 0.3317801 0.44414565
0.3706303 0.28838092 0.22189337 0.004018922 -0.10305257 -0.16885109 -0.18145205 -0.16077194
-0.20774005 -0.2652208 -0.19654554 -0.13950616 -0.009363026 0.24926259 0.25244698 0.3758965
0.515962 0.4627428 0.28539777 0.1005931 0.0055269534 0.0062224567 -0.027420277 -0.011308943
0.0018549958 0.011946447 -0.026322724 0.06252515 0.17360586 0.2720137 0.2774349 0.3803932
0.31360582 0.31884456 0.24177647 0.056405436 -0.06858436 -0.06938891 -0.15943919 -0.14383198
-0.11540173 -0.12598597 -0.101639435 -0.01850416 0.06717952 0.26303446 0.32466218 0.36162022
0.45091966 0.41112614 0.32429257 0.10178475 -0.048353754 -0.06363322 -0.036492895 -0.047511112
0.01756424 0.030794803 0.041693863 0.0064463215 0.12053068 0.19386595 0.25042707 0.32942754
0.4028605 0.31460753 0.1665026 0.043821003 -0.08824951 -0.044825155 -0.03910153 -0.08159549
-0.10511693 -0.045100037 -0.03737581 -0.028598724 0.027499564 0.21386094 0.39945415 0.3449918
0.38010484 0.3081802 0.32675403 0.091876835 -0.07327114 -0.070474 -0.033126373 -0.04706516
0.042242996 0.009304778 0.04758696 -0.07563334 0.05029087 0.1526458 0.1888722 0.27244708
0.3713992 0.30312356 0.23092785 0.09463458 -0.018113844 -0.08559252 -0.114005476 -0.13374214
-0.16373052 -0.071192496 -0.0098398505 0.01497385 0.11614908 0.20846032 0.28509817 0.29548955
0.325596 0.14933223 0.16291504 -0.02805818 -0.05421693 -0.09247479 -0.029864829 -0.018433446
0.03695621 -0.046122607 -0.060376808 -0.14055341 -0.06621546 0.03113775 0.039015684 0.15092045
0.20620774 0.22781427 0.16734926 0.053753357 -0.07584591 -0.093055055 -0.13969357 -0.20360066
-0.18484297 -0.093815 -0.04166964 -0.021621099 0.09342562 0.19827896 0.21940883 0.17699444
0.14578952 0.077134974 0.0007314276 -0.09680846 -0.20967452 -0.20452558 -0.077870205 -0.015867185
00000000: f2ad fd33 47cf 78b9 3b0d 0ebc 0e8c 8d39
00000010: d091 873c f446 3f3d 4fdc fe3d 0beb 9a3e
00000020: 9a31 f83e b473 fe3e dc83 5f3e 1d39 7b3d
00000030: c71e a2be 3336 29bf 2e99 64bf 13f3 79bf
00000040: 9b9a 69bf 544e 31bf 2329 f6be beb5 5fbe
00000050: 38a8 443d 2a00 9e3e 2bba bf3e 6ec6 d33e
00000060: 4bdc 9d3e c990 613e 77f9 e93d 20f1 c73d
00000070: 4e76 5f3c c3a2 073c fb1f 713b 2120 76af
00000080: 9568 983a c0df 2f3b 1353 183c d049 813d
00000090: af2e 083d b7a7 163e 347d 973e 9eb9 083f
000000a0: cc31 f13e c331 ed3e caa4 ae3e 453d 3f3e
000000b0: f878 48bd b3e1 c2be a813 1ebf e83c 3cbf
000000c0: f9fe 23bf 1d3e 09bf 1b8c a5be c5fa d2bd
000000d0: 755a b83d 4456 9f3e 8291 c13e ed3a d53e
000000e0: 52a2 d53e 45d5 6b3e e4bd b13d 5b27 ca3d
000000f0: 764c 55bc 3cbf 223d a1e3 df3c 28ab 09ba
00000100: da97 693a 9510 fcbb 3822 2fbd 0e2b 1c3d
00000110: f259 3e3d b456 763e 1efc 9d3e 6daf fd3e
00000120: 07c5 053f 2861 da3e f1f4 873e 2e5c 763d
00000130: 0ebb a7bd 78e7 85be b1d5 c6be 50d1 cdbe
00000140: 9a5f cdbe 54a5 d5be a177 98be 55b1 20be
00000150: 43c9 b93c 2534 703e 742b b13e 857a de3e
00000160: cbb6 0c3f 51e9 c53e ea48 403e 891b 1f3e
00000170: 3fa9 f2bc 03e6 ce3a d98c adbb b7d1 8dba
00000180: 1350 dcbc 5b8c a3bd 4813 a1bd 48e9 96bc
00000190: 5cc6 813d eb48 863e 15df a93e 0f67 e33e
000001a0: 41c3 bd3e aaa6 933e 0438 633e 29b1 833b
000001b0: 3a0d d3bd 4de7 2cbe 91ce 39be 66a1 24be
000001c0: cfb9 54be 05cb 87be 3c43 49be b4da 0ebe
000001d0: 6167 19bc b13e 7f3e bb40 813e 8275 c03e
000001e0: 1616 043f a0ec ec3e a81f 923e c103 ce3d
000001f0: 721b b53b c0e5 cb3b 7da0 e0bc 2549 39bc
00000200: 5523 f33a 08bb 433c c1a2 d7bc 300d 803d
00000210: bcc5 313e 6145 8b3e f20b 8e3e e6c2 c23e
00000220: f190 a03e 983f a33e 4094 773e 6309 673d
00000230: f575 8cbd c61b 8ebd 0744 23be b148 13be
00000240: be57 ecbd 7702 01be 5628 d0bd 0996 97bc
00000250: 6b95 893d 74ac 863e 1f3a a63e 4926 b93e
00000260: f1de e63e 207f d23e ad09 a63e 8674 d03d
00000270: 960e 46bd 2252 82bd 9379 15bd 039b 42bd
00000280: e2e2 8f3c 6245 fc3c 2fc7 2a3d aa3b d33b
00000290: cad8 f63d cc84 463e fa37 803e baaa a83e
000002a0: bb43 ce3e 3d14 a13e a87f 2a3e a77d 333d
000002b0: 29bc b4bd 959a 37bd ed28 20bd 891b a7bd
000002c0: 8c47 d7bd d1ba 38bd 6117 19bd df47 eabc
000002d0: c446 e13c 5dfe 5a3e 4185 cc3e c4a2 b03e
000002e0: 1a9d c23e ccc9 9d3e 4e4c a73e ec29 bc3d
000002f0: 2e0f 96bd ac54 90bd 85af 07bd 66c7 40bd
00000300: fe06 2d3d 1173 183c 8bea 423d a7e5 9abd
00000310: cdfd 4d3d 2e4f 1c3e b767 413e 2f7e 8b3e
00000320: 0928 be3e 0333 9b3e 5a78 6c3e c6cf c13d
00000330: 7c63 94bc 224b afbd b47b e9bd b3f3 08be
00000340: f9a8 27be 5fcd 91bd 5337 21bc e154 753c
00000350: 92df ed3d 9f76 553e 63f8 913e 684a 973e
00000360: 85b4 a63e 8cea 183e 33d3 263e 45da e5bc
00000370: 9212 5ebd 6c63 bdbd 16a7 f4bc bd01 97bc
00000380: 655f 173d 0feb 3cbd ac4d 77bd 3ced 0fbe
00000390: f99b 87bd 9814 ff3c e9ce 1f3d e48a 1a3e
000003a0: 1f28 533e 2548 693e 9b5d 2b3e 7b2c 5c3d
000003b0: 1a55 9bbd a693 bebd d50b 0fbe b17c 50be
000003c0: 7a47 3dbe 1422 c0bd c9ad 2abd bb1e b1bc
000003d0: ee55 bf3d a409 4b3e b5ac 603e 083e 353e
000003e0: d949 153e f1f8 9d3d 46bd 3f3a 8443 c6bd
000003f0: ebb4 56be 276f 51be 6a7a 9fbd e6fb 81bc

linear1.bias f4 [128]
0.27967831 -0.67674744 0.80813515 -0.295721 0.3549501 0.26333326 0.88865 -0.015297631
0.052058183 -0.020266686 0.065113954 0.58832246 0.2742078 -0.6686843 0.05783298 -0.25669158
0.25021395 -0.1659835 -0.12018331 0.23668505 -0.41706803 0.06942299 -0.42741603 -0.8800903
-0.4276187 0.04457596 -0.2511336 0.038076416 -0.24098636 0.1436447 0.0894763 0.6199393
-0.07395331 -0.61836576 0.088710755 0.09471155 -0.21688811 0.13405958 -0.027265808 0.6303094
0.30365002 -0.5602559 0.6614187 0.40593615 1.2293006 0.19117898 -8.5702175e-07 0.13754769
0.09422664 -0.6541649 -0.57456404 0.4796655 0.09088568 -1.8686764e-05 0.36854586 0.35532066
-0.39670756 0.3832006 0.22928996 0.07098157 0.5073432 -2.0370713e-08 -0.3195706 0.13898315
-0.2602832 -0.26435268 0.7546178 -0.3382535 0.12915416 0.4450662 -0.07217977 0.6154412
0.5192006 0.2623535 0.52126706 -5.907946e-33 -0.3192794 0.16317143 0.9055992 0.3388185
-0.051631983 0.4814419 -0.018107114 -2.2581397e-14 -0.28948584 0.22443044 -8.835989e-11 0.009707704
0.4398508 0.4472376 -0.5836213 0.04570842 -0.52437884 -1.4611636 -0.31686145 0.653013
0.21611722 0.33596167 0.7279069 1.0408337 -0.07267695 0.63530415 0.1654418 1.0986292
0.5684808 0.36004612 0.5233904 -0.29073346 -0.540009 0.8898879 0.15357722 -0.08618632
1.0713363 -0.022006817 -0.025422849 0.34140188 -8.0467386e-18 0.11371497 0.46716246 -0.51226705
-0.11762241 0.1661195 0.6815475 0.44796932 0.044753946 0.2503154 0.6950419 0.6509899
00000000: ff31 8f3e 523f 2dbf f2e1 4e3f be68 97be
00000010: 05bc b53e 9ed3 863e 917e 633f eaa2 7abc
00000020: f63a 553d 5206 a6bc 775a 853d 4d9c 163f
00000030: f764 8c3e e52e 2bbf 46e2 6c3d 146d 83be
00000040: 0b1c 803e 94f7 29be ab22 f6bd 915d 723e
00000050: f189 d5be a42d 8e3d 46d6 dabe 994d 61bf
00000060: d7f0 dabe 4895 363d 9594 80be 04f6 1b3d
00000070: 21c5 76be 9917 133e 5a3f b73d 58b4 1e3f
00000080: d574 97bd 384d 1ebf fcad b53d 21f8 c13d
00000090: eb17 5ebe ea46 093e 8b5c dfbc f55b 213f
000000a0: 0478 9b3e ee6c 0fbf bc52 293f ddd6 cf3e
000000b0: b959 9d3f 6cc4 433e 160e 66b5 4dd9 0c3e
000000c0: e6f9 c03d 5a77 27bf a116 13bf b796 f53e
000000d0: 4522 ba3d 85c1 9cb7 0bb2 bc3e 97ec b53e
000000e0: 411d cbbe de32 c43e fdca 6a3e c95e 913d
000000f0: 3ee1 013f acfb aeb2 c29e a3be 9951 0e3e
00000100: d743 85be 3c59 87be a22e 413f 902f adbe
00000110: fd40 043e b8df e33e fdd2 93bd 8e8d 1d3f
00000120: 55ea 043f 3353 863e c271 053f 0f68 f589
00000130: 9778 a3be 6916 273e 59d5 673f 9e79 ad3e
00000140: 0f7c 53bd 8d7f f63e 5f55 94bc 2865 cba8
00000150: 7d37 94be 18d1 653e 324e c2ae 100d 1f3c
00000160: 2034 e13e 54fc e43e 3568 15bf c138 3b3d
00000170: b13d 06bf 6907 bbbf aa3b a2be dc2b 273f
00000180: d54d 5d3e 2b03 ac3e 1b58 3a3f 0a3a 853f
00000190: a7d7 94bd 4ba3 223f 9369 293e e29f 8c3f
000001a0: f587 113f f757 b83e eafc 053f 04db 94be
000001b0: 083e 0abf b2cf 633f 5943 1d3e 7482 b0bd
000001c0: 8c21 893f a447 b4bc 9443 d0bc 3acc ae3e
000001d0: a66f 14a3 65e3 e83d eb2f ef3e ef23 03bf
000001e0: 05e4 f0bd 3b1b 2a3e e679 2e3f 3c5c e53e
000001f0: ea4f 373d 5729 803e 44ee 313f 46a7 263f

linear2.weight f4 [128, 128]
-0.3587492 0.034945853 -0.028977808 0.019145379 -0.47206795 0.11268938 0.31387258 -0.013495074
0.1004808 -0.010723814 0.08212136 0.0044467864 -0.38831156 0.048766624 0.0011208901 0.18219478
0.29232216 0.15495096 0.18242827 0.030942243 -0.13054661 0.17861639 -0.12265534 0.18818325
-0.11478612 0.22222097 0.15121494 -0.15585147 -0.19727771 -0.018931068 -0.120370656 -0.09497067
-0.013752596 0.24603027 0.2594737 -0.043482237 -0.07945203 -0.05989299 0.038698137 -0.30816895
-0.10733925 0.09567351 -0.051094554 -0.16069426 0.03621243 0.034277003 7.436707e-19 -3.534012e-05
0.15163699 0.06840816 0.09519245 0.13740788 0.18596411 -1.6834744e-06 0.13975361 -0.066669084
0.14091294 -0.031942777 -0.07009868 0.12127518 0.26023352 -0.0060648555 0.079907015 -0.2283436
0.048876196 -0.11577309 -0.3959862 -0.1964472 -0.016382452 -0.0044873147 -0.067141265 -0.0101324
0.02737049 -0.39092198 -0.09383283 2.521215e-05 -0.322396 -0.19791901 0.0348625 -0.06224125
0.05408638 -0.18372966 -0.02613007 2.107981e-06 0.18459117 -0.18009457 8.698416e-08 -0.08725257
0.074359685 -0.16980699 0.20374648 0.1455283 0.24339111 -0.038119882 0.12928939 -0.20430122
-0.2606845 -0.20686412 0.0660117 0.020401943 0.20040096 0.065537006 -0.09718566 -0.049763918
-0.121851265 0.07893215 -0.08072245 -0.07010332 0.13327822 -0.18648842 -0.20436376 -0.031736623
-0.17562564 0.03267449 -0.028183175 -0.10119753 0.000826399 -0.005530757 -0.13169405 -0.090390414
-0.06607071 -0.06783462 0.13835064 -0.19292828 0.08156525 0.2221418 -0.13365453 -0.030502709
-0.33757848 0.13200207 0.12757888 0.020597132 -0.112437114 0.27119386 -0.17990723 0.0136432415
0.039041404 -0.073434316 -0.03821938 0.08445792 -0.19863749 0.16594 -0.011269408 0.09421722
0.10294815 -0.073125474 -0.08970466 -0.18961689 -0.019711124 -0.12680228 -0.048655253 0.030951893
0.064256124 -0.02231071 -0.16425227 0.030664211 -0.29217407 0.03548198 0.047925178 0.09075773
-0.10252779 -0.012771439 0.3586409 -0.107319966 -0.15280922 -0.34640753 0.018946813 -0.13698184
-0.02490283 -0.014917487 0.3355553 -0.12812398 0.16820577 0.07002056 1.6854186e-05 -0.14820595
0.2342424 0.15317383 0.020819306 -0.073841006 -0.010849079 -0.00020732277 -0.06515128 0.12510027
-0.19374336 0.09360405 -0.038352743 -0.037775595 -0.071162626 -0.0023524878 0.0532677 0.21218516
-0.25286272 0.11142315 -0.055084214 -0.2647616 0.10409895 0.055847988 -0.029225765 0.14575805
-0.4731267 -0.08850664 0.006941797 2.2495177e-09 0.06620767 -0.067278415 -0.44492427 -0.09990544
0.0214891 -0.12776181 0.0418829 8.360627e-07 -0.005320975 0.031494204 1.4708732e-14 -0.059049647
0.06529729 -0.09766094 -0.05987151 -0.016098145 -0.14854258 -0.16865478 0.10097121 0.019378468
-0.17277066 -0.03832323 0.14970051 0.044170678 -0.29191312 0.2862849 -0.17577091 -0.08281598
-0.12046749 -0.1023978 -0.061642017 0.08076025 -0.0964424 -0.018764192 -0.16811994 0.056914013
-0.047847472 -0.26984346 0.018435588 -0.32142413 -0.00070367794 -0.03470723 -0.1186028 -0.005955275
-0.11117575 -0.2258857 0.0939726 0.038491115 0.1338149 0.14277074 -0.07486275 0.067813694
00000000: faad b7be 6223 0f3d de62 edbc c5d6 9c3c
00000010: e4b2 f1be b1c9 e63d e8b3 a03e 711a 5dbc
00000020: e1c8 cd3d f0b2 2fbc 3e2f a83d 59b6 913b
00000030: c6d0 c6be 83bf 473d d5ea 923a 4591 3a3e
00000040: 40ab 953e 77ab 1e3e 7ace 3a3e 967a fd3c
00000050: 03ae 05be 37e7 363e b932 fbbd 1cb3 403e
00000060: fc14 ebbd e58d 633e 17d8 1a3e 8797 1fbe
00000070: 2b03 4abe 5415 9bbc e484 f6bd fc7f c2bd
00000080: 9252 61bc 5cef 7b3e bdd9 843e 6e1a 32bd
00000090: bfb7 a2bd 5a52 75bd f081 1e3d 52c8 9dbe
000000a0: aed4 dbbd 79f0 c33d 8648 51bd 098d 24be
000000b0: 7c53 143d 0b66 0c3d 2b7e 5b21 2a3a 14b8
000000c0: ba46 1b3e 9419 8c3d 42f4 c23d a7b4 0c3e
000000d0: 606d 3e3e bdf3 e1b5 921b 0f3e cd89 88bd
000000e0: 7b4b 103e 6ed6 02bd e68f 8fbd 1f5f f83d
000000f0: 543d 853e b2bb c6bb 4aa6 a33d e8d2 69be
00000100: 6832 483d 711a edbd b4be cabe 7429 49be
00000110: 7e34 86bc 530a 93bb 5c81 89bd 5e02 26bc
00000120: 1438 e03c ed26 c8be 6d2b c0bd ae7e d337
00000130: 1711 a5be 48ab 4abe fbcb 0e3d aef0 7ebd
00000140: ae89 5d3d a123 3cbe bb0e d6bc d676 0d36
00000150: 7805 3d3e b66a 38be 0ccc ba33 7ab1 b2bd
00000160: e449 983d e2e1 2dbe eba2 503e 5f05 153e
00000170: 853b 793e 9823 1cbd 7064 043e 5734 51be
00000180: 7078 85be 30d4 53be 2431 873d fa21 a73c
00000190: e935 4d3e 4438 863d 4609 c7bd 40d5 4bbd
000001a0: 288d f9bd 2ea7 a13d d051 a5bd 5492 8fbd
000001b0: 167a 083e d2f6 3ebe bc44 51be 43fe 01bd
000001c0: 35d7 33be b0d5 053d 67e0 e6bc a740 cfbd
000001d0: b3a2 583a 5a3b b5bb ceda 06be 9c1e b9bd
000001e0: 1550 87bd e1ec 8abd caab 0d3e fe8e 45be
000001f0: af0b a73d 2479 633e bcdc 08be d1e0 f9bc
00000200: 16d7 acbe 8d2b 073e 0aa4 023e 51bb a83c
00000210: 6e45 e6bd ecd9 8a3e 9a39 38be e787 5f3c
00000220: e1e9 1f3d bb64 96bd ed8b 1cbd 46f8 ac3d
00000230: a067 4bbe 2dec 293e 53a3 38bc f5f4 c03d
00000240: 7bd6 d23d cfc2 95bd 14b7 b7bd ee2a 42be
00000250: 3979 a1bc 75d8 01be bb4a 47bd d38e fd3c
00000260: b798 833d f3c4 b6bc bf31 28be 8333 fb3c
00000270: d797 95be 8d55 113d 314d 443d 30df b93d
00000280: 17fa d1bd 4c3f 51bc c89f b73e 92ca dbbd
00000290: 057a 1cbe 545c b1be 5936 9b3c f844 0cbe
000002a0: 0501 ccbc 7a68 74bc e7cd ab3e ef32 03be
000002b0: 223e 2c3e f066 8f3d 1762 8d37 4dc3 17be
000002c0: 3ddd 6f3e 9ad9 1c3e 408d aa3c f439 97bd
000002d0: 56c0 31bc c864 59b9 096e 85bd 491a 003e
000002e0: a964 46be 7bb3 bf3d c417 1dbd 95ba 1abd
000002f0: b6bd 91bd 322c 1abb 3b2f 5a3d 1147 593e
00000300: 3977 81be d231 e43d fc9f 61bd d58e 87be
00000310: d531 d53d dcc0 643d df6a efbc 9941 153e
00000320: aa3d f2be f842 b5bd 0478 e33b ef95 1a31
00000330: e397 873d 44c9 89bd 1dcd e3be 399b ccbd
00000340: e909 b03c fed3 02be 678d 2b3d cb6d 6035
00000350: 935b aebb 1100 013d 077c 8428 0bde 71bd
00000360: 96ba 853d 7502 c8bd d43b 75bd 42e0 83bc
00000370: 8c1b 18be d7b3 2cbe fec9 ce3d 98bf 9e3c
00000380: cbea 30be d2f8 1cbd 174b 193e 50ec 343d
00000390: a375 95be ef93 923e 4afd 33be 6d9b a9bd
000003a0: a9b7 f6bd f0b5 d1bd 577c 7cbd a165 a53d
000003b0: 9883 c5bd 5db7 99bc a227 2cbe ab1e 693d
000003c0: b6fb 43bd ec28 8abe 3b06 973c b491 a4be
000003d0: 0777 38ba 2b29 0ebd 06e6 f2bd 7824 c3bb
000003e0: 1db0 e3bd 954e 67be b574 c03d dca8 1d3d
000003f0: c606 093e 7e32 123e a451 99bd e8e1 8a3d

linear2.bias f4 [128]
-0.021790214 0.74873316 0.98797494 0.11031694 0.19585499 0.35357463 -0.14674133 0.25167572
0.25228912 0.14481369 0.16421202 -0.10813873 0.69633734 -0.01738386 0.606563 -0.4124173
0.45807937 0.28441966 -0.012808392 0.32708701 -7.896997e-08 0.28668007 0.5866028 -0.32178807
-0.5197002 0.10095971 -0.017441552 -0.015960054 0.3362142 -0.26376408 0.15139884 0.5017032
0.38624835 -0.38371712 0.22459713 -0.022551302 0.052806396 0.1846432 0.78682953 0.17943712
0.03909162 0.6700297 0.27706698 -0.011032076 0.33279687 0.19548288 0.11137545 -0.0015973367
-0.029640932 -0.20333712 0.95955735 0.14876081 0.5263228 -0.26776266 0.0026246787 0.3902701
0.4803249 -0.29905337 -0.047730453 0.83153963 -0.23913327 0.7738275 0.6142135 0.40494904
-0.042913716 0.40412608 0.38232005 0.42694697 0.21952426 0.24603778 -0.0039460375 0.12784572
-0.034048684 0.4269523 -1.4294031e-07 0.081020474 -4.95366e-07 0.124510184 0.019673834 -4.727455e-05
0.29175848 -0.013229012 -0.0033583033 0.23858097 0.23077728 -1.7234894e-29 -0.16647287 -0.013239232
0.42634186 0.26423517 0.25785854 -0.11889114 0.33403534 0.009349168 0.014266039 -0.1631596
0.61989236 -0.17558473 0.41908786 -0.003596367 0.27257323 0.14755942 0.9146795 -0.00095341937
0.4312667 -4.0368962e-38 0.6664496 -0.033659562 0.029641159 0.5511489 0.31600654 0.3269337
0.29762217 0.61357665 0.47348145 0.107496396 0.33765578 -0.2695022 -0.031668838 0.43919012
0.47384092 -0.5002907 0.34033725 0.07149967 -0.1395 -0.3846016 0.4030709 0.4779667
00000000: 6481 b2bc faac 3f3f edeb 7c3f d9ed e13d
00000010: 368e 483e bc07 b53e 5c43 16be a4db 803e
00000020: 0a2c 813e 0a4a 143e 3227 283e d777 ddbd
00000030: 2a43 323f 9968 8ebc b647 1b3f 5c28 d3be
00000040: 6189 ea3e 749f 913e 4ada 51bc f377 a73e
00000050: 3396 a9b3 bbc7 923e 9a2b 163f 68c1 a4be
00000060: 130b 05bf f7c3 ce3d 96e1 8ebc a9be 82bc
00000070: 4524 ac3e 160c 87be 4c08 1b3e 9f6f 003f
00000080: 58c2 c53e 9276 c4be cafc 653e 82bd b8bc
00000090: 854b 583d 1b13 3d3e a96d 493f 5dbe 373e
000000a0: 891e 203d 1187 2b3f b9db 8d3e e1bf 34bc
000000b0: 5a64 aa3e aa2c 483e d018 e43d ba5d d1ba
000000c0: 8ad1 f2bc 9b37 50be 8da5 753f c154 183e
000000d0: 17bd 063f 3018 89be cd02 2c3b 7cd1 c73e
000000e0: 25ed f53e 861d 99be 0281 43bd c8df 543f
000000f0: 5adf 74be 8f19 463f 193d 1d3f 7b55 cf3e
00000100: 4bc6 2fbd 9de9 ce3e 74bf c33e cb98 da3e
00000110: f8ca 603e 54f1 7b3e c34d 81bb fde9 023e
00000120: a276 0bbd 7e99 da3e 227b 19b4 10ee a53d
00000130: 4bf9 04b5 32ff fe3d 052b a13c a948 46b8
00000140: 5e61 953e 7fbe 58bc fb16 5cbb 924e 743e
00000150: e150 6c3e 58c8 ae8f dd77 2abe 5de9 58bc
00000160: 7b49 da3e d549 873e 0906 843e 337d f3bd
00000170: ae06 ab3e 412d 193c 1bbc 693c 4f13 27be
00000180: 44b1 1e3f 7ccc 33be af92 d63e 07b1 6bbb
00000190: b88e 8b3e d119 173e 7028 6a3f e4ee 79ba
000001a0: fdce dc3e 1fca 5b81 719c 2a3f 9cde 09bd
000001b0: 04d2 f23c 1818 0d3f 9ccb a13e db63 a73e
000001c0: ef61 983e 5c13 1d3f 296c f23e 1227 dc3d
000001d0: 38e1 ac3e 31fc 89be 2fb7 01bd 87dd e03e
000001e0: 479b f23e 0d13 00bf af40 ae3e 6b6e 923d
000001f0: 17d9 0ebe 80ea c4be 4f5f ce3e 0db8 f43e

linear3.weight f4 [10, 128]
0.11159282 -0.25844368 0.15317576 -0.083583035 -0.4887715 -0.024871165 0.11840385 -0.03777883
0.073399164 0.17521146 -0.14339213 0.2186448 -0.020021116 0.012351407 0.06542565 0.14744085
0.058916166 0.047405872 0.0008828487 0.0037003479 -3.0748833e-08 0.24784772 -0.08631982 0.2165742
0.25137752 0.086619325 0.027969815 -0.027928766 -0.050415374 -0.05385086 0.09054191 -0.53371507
-0.20226386 0.26878342 -0.3159531 0.008893733 -0.4146309 0.03470462 0.023877988 0.026683578
-0.32244578 -0.03192252 0.19154632 -0.23688024 0.037580267 0.035300218 -0.035542756 -0.3431897
-0.028130822 -0.13688083 0.05074809 0.09422478 0.082581885 -0.17693648 0.0038372665 -0.06903624
0.024565317 0.030014925 0.111554526 -0.1881568 0.1574402 -0.0351375 -0.5652324 0.24743456
-0.11046851 0.049282193 -0.41024798 -0.16559404 0.12519014 -0.19600435 0.010293419 0.40979087
0.012026883 0.12590002 -0.003612732 0.09511217 0.0024357217 0.07498744 0.029415758 -0.0059329895
0.38402736 0.034869406 -0.03994047 -0.5205802 -0.103122346 3.9219223e-05 -0.20395565 -0.003040908
0.13200338 0.03890483 0.09200483 -0.16109432 0.051681384 -0.0969282 -0.24888211 0.19275178
0.091570675 0.19087465 0.045786716 -0.3103848 0.04468212 -0.2056115 -0.13425039 0.017378952
-0.28084308 -5.167736e-38 -0.13290223 0.020407896 -0.17130232 -0.3404678 -0.000897963 -0.18584117
-0.3812196 -0.28837115 -0.35461336 0.03731207 0.03247493 0.09375596 -0.0818969 0.07501344
-0.27527082 0.04599787 0.06305088 0.06543613 -0.04702094 -0.2134052 -0.015865702 0.05230105
0.10223191 -0.7725096 0.26401043 -0.20065077 0.36758822 -0.48246047 0.006325496 0.07400221
-0.01747297 0.22277065 -0.4406811 0.047530595 -0.344044 -0.0009931737 -0.025032956 0.03261102
0.021888977 -0.37669572 0.0049977247 -0.2730666 -1.0318122e-11 -0.4384166 0.30412385 -0.14307864
-0.2932472 0.08859123 0.011279221 0.012151978 0.11775554 0.17235793 -0.11597282 0.03558005
-0.24376169 -0.37332577 -0.06511381 -0.005596614 -0.36155766 -0.40610126 0.08088722 -0.27574095
-0.23289219 -0.5915202 0.0025835778 0.061006077 -0.3064502 -0.037800517 0.08420068 0.82363534
0.018150426 0.24769461 -0.24246654 -0.24207875 -0.46206152 -0.051737327 0.12969486 -0.57726055
-0.15523285 0.034035295 0.10900364 -1.0991093 0.3687237 -0.020649038 0.07400747 -0.49122962
0.7551774 -0.2840723 0.1760527 0.0699523 0.48688015 0.02740002 0.023468722 0.37381652
0.058647957 0.038189527 -0.0013070945 0.14099196 -4.463097e-05 -0.0837654 -0.16789648 -6.06198e-05
-0.49523917 -0.094170325 0.006656416 -0.118955255 -0.09679513 -5.172339e-18 0.33331457 -0.02008135
-0.14205375 -0.011154706 0.1096748 -0.057834726 -0.54751253 0.18845075 0.026424967 0.102262616
0.058216702 -0.43937168 -0.19909433 -0.22690645 -0.17247745 -0.23815754 -0.49237883 0.0019741291
-0.039016526 -2.7836738e-38 -0.077903435 0.038627002 0.070935555 -0.31122896 0.226536 -0.093876325
0.043940578 -0.47105968 0.19957006 0.034942076 -0.059833273 0.06162508 0.12810695 -0.110865235
-0.0010504609 0.028392114 -0.101141065 0.0060767434 0.36705342 0.1058448 0.16852471 0.099486284
00000000: c78a e43d bb52 84be 1bda 1c3e 952d abbd
00000010: 4240 fabe 9dbe cbbc b87d f23d f9bd 1abd
00000020: 4d52 963d a26a 333e 63d5 12be 6ce4 5f3e
00000030: 5303 a4bc 8e5d 4a3c e2fd 853d bcfa 163e
00000040: 1452 713d a92c 423d f96e 673a 8981 723b
00000050: b310 04b3 cbcb 7d3e 72c8 b0bd a1c5 5d3e
00000060: 8eb4 803e 7965 b13d f420 e53c deca e4bc
00000070: 5a80 4ebd b892 5cbd 096e b93d 8da1 08bf
00000080: 421e 4fbe fb9d 893e 9bc4 a1be 05b7 113c
00000090: 804a d4be 6e26 0e3d c59b c33c 8597 da3c
000000a0: 9d17 a5be 30c1 02bd b824 443e bc90 72be
000000b0: c4ed 193d f696 103d 4895 11bd 8fb6 afbe
000000c0: 9c72 e6bc 7d2a 0cbe 3bdd 4f3d ecf8 c03d
000000d0: b120 a93d d62e 35be a67a 7b3b df62 8dbd
000000e0: 343d c93c dce1 f53c b376 e43d 2dac 40be
000000f0: 0138 213e 57ec 0fbd 12b3 10bf 7c5f 7d3e
00000100: 503d e2bd 20dc 493d 060c d2be 7c91 29be
00000110: d831 003e 5db5 48be baa5 283c 1cd0 d13e
00000120: 670c 453c efeb 003e 96c3 6cbb 2bca c23d
00000130: a1a0 1f3b 0493 993d 51f9 f03c 8669 c2bb
00000140: 3c9f c43e 39d3 0e3d 9e98 23bd be44 05bf
00000150: cf31 d3bd 527f 2438 c0d9 50be f849 47bb
00000160: e52b 073e ac5a 1f3d 076d bc3d e9f5 24be
00000170: dcaf 533d 4b82 c6bd f4da 7ebe b960 453e
00000180: 6889 bb3d a574 433e da8a 3b3d c2ea 9ebe
00000190: 9904 373d d28b 52be ef78 09be 4e5e 8e3c
000001a0: aaca 8fbe ddad 8c81 8617 08be 762e a73c
000001b0: e069 2fbe cc51 aebe 4765 6bba 264d 3ebe
000001c0: 372f c3be 62a5 93be e28f b5be 8bd4 183d
000001d0: 6f04 053d 2003 c03d 90b9 a7bd a5a0 993d
000001e0: 4cf0 8cbe 4368 3c3d d220 813d 6103 863d
000001f0: 0799 40bd e586 5abe caf8 81bc a039 563d
00000200: f75e d13d 30c3 45bf 602c 873e 6577 4dbe
00000210: 8634 bc3e 0f05 f7be 1b46 cf3b 788e 973d
00000220: 7923 8fbc fd1d 643e f4a0 e1be 71af 423d
00000230: 8926 b0be 612d 82ba ea11 cdbc 2293 053d
00000240: 8350 b33c 43de c0be f4c3 a33b 63cf 8bbe
00000250: b184 35ad 2478 e0be 1fb6 9b3e 3583 12be
00000260: 7f24 96be 526f b53d 7bcc 383c 1719 473c
00000270: d129 f13d 997e 303e 2883 edbd 63bc 113d
00000280: aa9c 79be 8e24 bfbe 645a 85bd cd63 b7bb
00000290: 161e b9be 81ec cfbe 33a8 a53d eb2d 8dbe
000002a0: 4a7b 6ebe de6d 17bf 3e51 293b 82e1 793d
000002b0: 0ae7 9cbe b7d4 1abd 6871 ac3d c4d9 523f
000002c0: 34b0 943c a8a3 7d3e 2649 78be 7ee3 77be
000002d0: 5493 ecbe 85ea 53bd bbce 043e 59c7 13bf
000002e0: 5cf5 1ebe 9868 0b3d 4d3d df3d 9daf 8cbf
000002f0: 5ac9 bc3e 2c28 a9bc 3a91 973d 7382 fbbe
00000300: 4e53 413f ed71 91be 2947 343e 2743 8f3d
00000310: 5b48 f93e 0276 e03c 7a41 c03c e164 bf3e
00000320: d738 703d 9f6c 1c3d d052 abba 3260 103e
00000330: 2432 3bb8 328d abbd 0eed 2bbe 0442 7eb8
00000340: fd8f fdbe 5fdc c0bd 111e da3b d09e f3bd
00000350: 863c c6bd 5cd3 bea2 35a8 aa3e a581 a4bc
00000360: 8a76 11be 3ac2 36bc 2e9d e03d 1be4 6cbd
00000370: c829 0cbf 3cf9 403e 2c79 d83c 106f d13d
00000380: a374 6e3d 53f5 e0be 62df 4bbe 2a5a 68be
00000390: ee9d 30be 92df 73be 1419 fcbe 6460 013b
000003a0: cbcf 1fbd c08e 1781 d68b 9fbd 5937 1e3d
000003b0: a946 913d 6759 9fbe 0ef9 673e 3b42 c0bd
000003c0: 09fb 333d bc2e f1be 185c 4c3e 6c1f 0f3d
000003d0: bc13 75bd 946a 7c3d 782e 033e 500d e3bd
000003e0: 9eaf 89ba 9496 e83c 0c23 cfbd 6b1f c73b
000003f0: 6dee bb3e 29c5 d83d be91 2c3e 77bf cb3d

linear3.bias f4 [10]
-0.22650573 -0.35416013 0.15701893 0.17509253 -0.21531829 0.029520571 0.10899644 0.092700705
0.06293197 -0.2572111
00000000: 1ef1 67be 7a54 b5be 92c9 203e 754b 333e
00000010: 667c 5cbe 20d5 f13c 8739 df3d ded9 bd3d
00000020: 7ae2 803d 2cb1 83be
