models/FashionMNIST/mlp_num-layers=1_seed=021/099.pth (torch, 531335 bytes, 4 tensors)

linear1.weight f4 [128, 1024]
0	0x80db387a	-2.0132234e-38
1	0x3ad45d40	0.0016202107
2	0x3cd1966f	0.025584428
3	0x3c684b31	0.014178083
4	0xbc6dcbc8	-0.014513917
5	0xbceafa31	-0.028683754
6	0xbe2dd64e	-0.16976282
7	0xbe83c123	-0.2573329
8	0xbe4bcde9	-0.19902767
9	0xbdd45ac2	-0.10368873
10	0xbd8194cf	-0.06327211
11	0x3dd7345d	0.105080344
12	0x3e242621	0.1603017
13	0x3dbed1f0	0.09317386
14	0x3e21b624	0.15792137
15	0xbcd4c7e9	-0.02597423
16	0x3b0a2159	0.0021077006
17	0x3e366a5e	0.17814013
18	0x3e1ed678	0.15511501
19	0x3d393d73	0.04522462
20	0xbe26cb3c	-0.16288465
21	0xbdca3c77	-0.09874814
22	0x3a4aee2d	0.00077411794
23	0xbe57b13a	-0.210637
24	0xbe851430	-0.25991964
25	0xbe3e3f94	-0.1857894
26	0xbd90f3ba	-0.07077737
27	0xbc811e76	-0.015761595
28	0x3b31f4fe	0.0027154083
29	0xbbdf94f2	-0.0068231756
30	0xba50502e	-0.0007946518
31	0x33b9b113	8.6469434e-08
32	0xb79c8292	-1.865745e-05
33	0x3babd8f6	0.0052443696
34	0x3d406db2	0.046979614
35	0x3d205472	0.039143033
36	0xbced8d61	-0.028998079
37	0xbe382028	-0.17981017
38	0xbe92896d	-0.28620473
39	0xbe4db0db	-0.20086996
40	0xbe17651c	-0.14784664
41	0xbdd611ea	-0.104526356
42	0xbe0c5d63	-0.13707499
43	0x3c5c73b9	0.013455325
44	0x3d7096c6	0.05873754
45	0x3e157506	0.14595422
46	0x3e480fd9	0.19537295
47	0x3e494d5e	0.1965842
48	0x3e1871a8	0.14887106
49	0x3d8df9ff	0.069324486
50	0xba687451	-0.000886743
51	0xbd0b55ef	-0.0340175
52	0xbd75f9cb	-0.060052674
53	0xbe315e8d	-0.17321225
54	0xbe162675	-0.14663108
55	0xbea1ce46	-0.31602687
56	0xbe543902	-0.20724872
57	0xbe41ac14	-0.18913299
58	0xbd6b7e6f	-0.057493623
59	0xbd9a151a	-0.07523556
60	0x3cd19c2d	0.025587166
61	0xbc86b352	-0.016442928
62	0x3b20d1c5	0.0024539095
63	0x39c4b2db	0.0003751729
64	0xb923bd8e	-0.00015615506
65	0x3c92a3e5	0.017900417
66	0x3d15a25d	0.036531795
67	0x3ccb82fe	0.024842735
68	0xbe0708d2	-0.13186958
69	0xbe84e59b	-0.25956425
70	0xbe3cb809	-0.18429579
71	0xbe46e0ed	-0.1942174
72	0xbe5d98c5	-0.21640308
73	0xbd70317b	-0.05864094
74	0xbab281e4	-0.0013619033
75	0x3d7d78aa	0.061882652
76	0xbdb320d4	-0.08746496
77	0xbd1732d8	-0.036913723
78	0x3d94922b	0.07254442
79	0x3ddf980b	0.10917672
80	0x3e0d207b	0.13781922
81	0x3cd07b0e	0.025449302
82	0xbd79fb96	-0.061030947
83	0xbe0c1a89	-0.13681997
84	0xbe02524a	-0.12726703
85	0xbda71849	-0.08158929
86	0xbe34f49b	-0.17671435
87	0xbe812ccc	-0.2522949
88	0xbe0dcacb	-0.1384689
89	0x3c3dac2b	0.011576693
90	0x3ceacc34	0.028661825
91	0xbcc3a15f	-0.023880659
92	0x3d06ba24	0.03289236
93	0xbd15d888	-0.036583453
94	0xbcdfb4ef	-0.027307956
95	0xbc0b0f32	-0.00848751
96	0xba6c9b70	-0.00090258475
97	0xbbe34a05	-0.006936314
98	0x3d2431f9	0.04008672
99	0x3c4c2ec9	0.012462326
100	0xbe40c380	-0.18824577
101	0xbe0a58cd	-0.13510437
102	0xbdddb169	-0.10824854
103	0xbe4150ad	-0.18878432
104	0xbe2c74d9	-0.16841449
105	0x3d640226	0.05566611
106	0x3c006f21	0.007838995
107	0x3dd264a7	0.10273104
108	0xbbe845c3	-0.0070883944
109	0xbd5a2896	-0.053261362
110	0x3d9b4f90	0.07583535
111	0x3dba1a90	0.09087098
112	0x3d843a64	0.0645645
113	0x3c6544f8	0.013993494
114	0xbced206e	-0.028946128
115	0xbb2fee6f	-0.0026844998
116	0x3c749dec	0.01493023
117	0xbc3805bf	-0.011231839
118	0xbe1294e7	-0.14314614
119	0xbe53b285	-0.20673569
120	0xbd381f8f	-0.04495197
121	0x3df70b67	0.12062722
122	0x3dc9c8ec	0.09852776
123	0x3cca9a3d	0.02473175
124	0x3d89ca9e	0.06728099
125	0xbc344398	-0.011002444
126	0xbd2a767c	-0.0416169
127	0xbc6459a9	-0.013937392
128	0xbb126141	-0.00223358
129	0xbca4fbc4	-0.020139582
130	0xbc373d1f	-0.011184006
131	0xbdea6cca	-0.11446531
132	0xbe7d0da7	-0.24712239
133	0xbc626f6d	-0.013820511
134	0xbca462bd	-0.020066613
135	0xbdb0f7f2	-0.08641042
136	0xbe1299ad	-0.14316435
137	0xbdb7bb7d	-0.089713074
138	0xbc87a730	-0.016559213
139	0x3c03e9d3	0.0080513535
140	0xbc9528b6	-0.018207889
141	0x3d548ba3	0.05189098
142	0x3d98621f	0.0744059
143	0x3d6092d8	0.05482754
144	0x3d4605d0	0.048345387
145	0x3d188754	0.037238434
146	0x3cf436f1	0.029811354
147	0xbc48e45f	-0.012261479
148	0xbd652fc3	-0.055953752
149	0xbd206003	-0.039154064
150	0xbd856c7a	-0.06514831
151	0xbe1fd36c	-0.15607995
152	0xbd4c2ea6	-0.049849175
153	0x3dd2d22d	0.10293994
154	0x3e21f4ee	0.1581609
155	0x3caaeabc	0.020863883
156	0x3d3a2e20	0.045454144
157	0xbc8bc6d8	-0.01706259
158	0xbd540cf5	-0.05177017
159	0xbd9f16d1	-0.07768024
160	0x3cc9e4c1	0.024645211
161	0x3b828d37	0.0039841193
162	0xbd191bc7	-0.037380006
163	0xbdd395a3	-0.10331275
164	0x3c0f8667	0.008760071
165	0x3e0f38e1	0.13986541
166	0x3e06d021	0.13165332
167	0xbc7d8bdf	-0.015475242
168	0xbe293066	-0.16522369
169	0xbe013c57	-0.12620674
170	0x3c29dd67	0.010367728
171	0x3ce19031	0.027534576
172	0x3d08097b	0.033212166
173	0x3df27c7d	0.118401505
174	0x3e6742b4	0.22584039
175	0x3e1a4f06	0.15069208
176	0x3e3c8d49	0.18413271
177	0x3e2ca5fc	0.16860193
178	0x3d80006e	0.06250082
179	0xbc020052	-0.007934647
180	0xbb3516e6	-0.0027632057
181	0xbd153a7f	-0.03643274
182	0xbdb55ff9	-0.08856196
183	0xbd9c5c39	-0.076347776
184	0x3e1a7a0d	0.15085621
185	0x3e486016	0.19567904
186	0x3e506602	0.20351413
187	0x3cc7b10b	0.024376413
188	0x3d718a3c	0.05896972
189	0xbd51d541	-0.051228765
190	0xbd799d25	-0.06094088
191	0xbd43a251	-0.04776222
192	0x3d129c12	0.03579337
193	0xbc96c98a	-0.018406648
194	0x3d0af33e	0.03392338
195	0xbd2deff4	-0.042465165
196	0x3e00ad8d	0.12566204
197	0x3e826bd7	0.254729
198	0x3e9221d0	0.28541422
199	0x3e3b6bbc	0.18302816
200	0x3d00594e	0.031335168
201	0xbc0e774f	-0.008695438
202	0xbc939dc9	-0.018019574
203	0xbd14848b	-0.036259215
204	0x3c8186ba	0.015811313
205	0x3dc3d581	0.09562207
206	0x3e2d1a18	0.16904485
207	0x3e88040a	0.26565582
208	0x3e87feac	0.26561487
209	0x3e0ba328	0.13636458
210	0x3df94c6c	0.121727794
211	0xbcb45f2c	-0.022018038
212	0xbdb3b9f9	-0.08775706
213	0xbc893d39	-0.016752826
214	0x3c76c3e4	0.015061352
215	0x3c29e1bc	0.010368761
216	0x3e8ac8a2	0.27106196
217	0x3ee10bf6	0.43954438
218	0x3e88512f	0.26624438
219	0x3d3e94eb	0.046528738
220	0x3d4b45f2	0.049627252
221	0x3bcda414	0.006275663
222	0xbd5a147b	-0.053242188
223	0xbcae2244	-0.021256573
224	0x3d22fa97	0.039789762
225	0xbce0824d	-0.027405882
226	0x3ce0934b	0.027413985
227	0x3cc0bc2f	0.023527233
228	0x3e377086	0.17914018
229	0x3e8fd216	0.2808997
230	0x3ec1c0ff	0.37842557
231	0x3e6f48d8	0.23367631
232	0x3d10b275	0.03532644
233	0xbd4d7b87	-0.050166633
234	0xbdebfa98	-0.11522406
235	0xbdc7f3a2	-0.09763266
236	0xbd05c3f7	-0.03265759
237	0x3b806e67	0.003919411
238	0x3db41213	0.0879251
239	0x3db048c6	0.086076304
240	0x3e014c1d	0.12626691
241	0x3d26dd2d	0.040738273
242	0x3a4b0c28	0.0007745647
243	0xbd2da84c	-0.04239683
244	0xbe183333	-0.14863281
245	0xbddd1ff8	-0.10797113
246	0xbcad87ab	-0.021182856
247	0x3d8baea8	0.068204224
248	0x3e726e13	0.23674802
249	0x3ef7418e	0.48292202
250	0x3eb6d8f1	0.35712388
251	0x3e4195a4	0.1890474
252	0x3db53009	0.088470526
253	0x3dc0b7c4	0.094100505
254	0x3c4bcff5	0.012439718
255	0x3c50db70	0.0127476305

linear1.bias f4 [128]
0	0x3ed819d7	0.42207214
1	0x3ce76e27	0.028250767
2	0xbe3ceeef	-0.18450521
3	0x3ec6d29e	0.38832563
4	0xbed40d28	-0.41416287
5	0x3f51ca3c	0.8194921
6	0x3e3bf113	0.18353681
7	0x3f436024	0.76318574
8	0x3efe8ba3	0.4971591
9	0xbf229e23	-0.6352255
10	0x3edb1ee0	0.42796993
11	0xbd6834d6	-0.056691013
12	0xbec2f45f	-0.38077065
13	0x3f40eae7	0.7535843
14	0x3f9458d6	1.158961
15	0x3f2f598c	0.6849601
16	0x3ef22085	0.47290435
17	0x3e3a3146	0.18182859
18	0xb86680c8	-5.495621e-05
19	0x3e98f0a4	0.29871094
20	0xbf30bfb0	-0.6904249
21	0x3ee8befb	0.45458207
22	0xbd855c11	-0.06511701
23	0x3f484a6b	0.7823855
24	0xbebce7be	-0.36895555
25	0xbe0a3165	-0.13495405
26	0xa09b2e09	-2.6288485e-19
27	0x3f54adbd	0.83077604
28	0x3c265f8b	0.010154615
29	0xbd140878	-0.03614089
30	0x3e5eb663	0.21749263
31	0x3f12e141	0.5737496
32	0xbcf11ad9	-0.029431747
33	0x3f769d1c	0.9633348
34	0xbc764959	-0.015032136
35	0x3e9bfc02	0.30465704
36	0x3f3f9734	0.7484009
37	0x3da4a1f4	0.080387026
38	0x3d33af80	0.04386854
39	0xb8395767	-4.4188837e-05
40	0x3d97c34f	0.07410299
41	0x3f1a684d	0.603154
42	0x3f2671bb	0.6501729
43	0x3f5d01aa	0.86330664
44	0x3ed50875	0.41608015
45	0x3ee7b97b	0.45258698
46	0x3e3960bc	0.18103307
47	0x3f36d234	0.71414495
48	0xbd0a569c	-0.033774003
49	0x3e64f3f0	0.2235868
50	0x3bb946cf	0.005654193
51	0x3f688641	0.90829855
52	0xbf45d091	-0.7727137
53	0xbe2bca6d	-0.16776438
54	0x3f753ef4	0.95799184
55	0x3f27956f	0.6546239
56	0x3fc98133	1.5742553
57	0xbf239b89	-0.639092
58	0x89f939b6	-5.999884e-33
59	0xbf81d2bf	-1.014244
60	0xbe677c8f	-0.22606109
61	0x3eb0cbf7	0.34530613
62	0xbbf6f7fc	-0.0075368863
63	0x3f8d547f	1.1041411
64	0xbdbc64c2	-0.091989055
65	0x3e80352f	0.25040576
66	0xbec7c61a	-0.39018327
67	0x3f1e7733	0.61900634
68	0x3e153236	0.14569935
69	0x3efd7b91	0.49508336
70	0xbdaf143d	-0.08548782
71	0x3dca218c	0.0986968
72	0x3e024edc	0.12725395
73	0xbd596d66	-0.053082846
74	0x3e741f60	0.23840094
75	0x3ee06439	0.43826464
76	0x3fa10a71	1.2581311
77	0x3e7acd6f	0.24492429
78	0x3e51b959	0.20480861
79	0xbe4a50c7	-0.19757377
80	0x3e8c8b28	0.27449918
81	0x3e5f0e2e	0.21782753
82	0xbeb53fd7	-0.35400268
83	0x3dc62678	0.09675306
84	0x3ead477a	0.33843595
85	0xbecb39c0	-0.39692497
86	0x98f93166	-6.441487e-24
87	0x3ebc90f4	0.3682934
88	0x3ea5233b	0.3225344
89	0xbe2ce6f3	-0.16884975
90	0x3ed5d3ac	0.41763055
91	0x3ff62ead	1.9232994
92	0x3e22535a	0.15852109
93	0x3e9c23dc	0.3049611
94	0xbe9a202b	-0.30102667
95	0xbe4537ff	-0.19259642
96	0x3eadbc03	0.33932504
97	0x3eff4499	0.49857023
98	0xbeea092d	-0.45710126
99	0x3e7c2ec7	0.24627219
100	0xb2de5253	-2.5881638e-08
101	0x3ec73430	0.38907003
102	0x3ee31109	0.44348934
103	0xbe86905c	-0.26282012
104	0xbd46d1a8	-0.048539788
105	0x3e84a3e5	0.25906292
106	0xbd9c095c	-0.07618973
107	0x3defed9a	0.11715241
108	0x3ea188df	0.31549737
109	0x3e7d6256	0.24744543
110	0xbee7e15f	-0.45289132
111	0x3e01e932	0.12686613
112	0x3eff8549	0.49906376
113	0xb4accbeb	-3.2185866e-07
114	0x3f7b5430	0.98175335
115	0x3ef8f8d4	0.4862734
116	0x3f1698c9	0.5882688
117	0x3ea3c01b	0.31982502
118	0x3f3ecaca	0.7452818
119	0x3f78b7bc	0.97155356
120	0x3d53f82f	0.05175036
121	0x3eb3c642	0.35112196
122	0x3ef18fd2	0.4718004
123	0x3f1f9df2	0.6235038
124	0xbeb6d641	-0.35710338
125	0x3e1fa367	0.15589677
126	0x3cf85eea	0.030318696
127	0x3ef4a274	0.47780192

linear2.weight f4 [10, 128]
0	0x3e3f9e13	0.18712644
1	0x3db71bbd	0.089408375
2	0x3d82db9e	0.06389545
3	0x3e91b4df	0.28458306
4	0x3e09b0d2	0.13446358
5	0x3e4a483b	0.19754116
6	0x3d7758cb	0.060387414
7	0xbec8f60e	-0.39250225
8	0xbd2a2561	-0.041539554
9	0xbdae0955	-0.08497874
10	0xbdbce476	-0.09223263
11	0xbd0e6e88	-0.03477338
12	0xbd1e89c7	-0.038705613
13	0xbd9bd2f6	-0.07608597
14	0xbf3063ed	-0.68902475
15	0x3dcbe396	0.09955518
16	0x3d6c4801	0.057685856
17	0x3d23f91a	0.040032484
18	0x3c8bb678	0.017054781
19	0x3de9e5e1	0.11420799
20	0xbe93c985	-0.28864685
21	0x3d8de6eb	0.0692881
22	0xbee28143	-0.44239244
23	0x3e623c79	0.22093381
24	0x3e7c5755	0.2464269
25	0x3d90f87f	0.07078647
26	0xbbc21d18	-0.0059238784
27	0x3c5ae05b	0.013359155
28	0x3d757ede	0.059935443
29	0x3c0c6355	0.0085686045
30	0xbc842d8a	-0.016134996
31	0xbc927c0a	-0.017881412
32	0xbef85e89	-0.48509625
33	0xbf01a593	-0.5064327
34	0xbc236d3c	-0.009974774
35	0x3e361884	0.1778279
36	0xbe912bbe	-0.28353685
37	0xbd89e54b	-0.06733187
38	0x3d5c3ad0	0.053767025
39	0xbcc3b913	-0.023891961
40	0xbe1638b8	-0.14670074
41	0x3caa48f5	0.020786742
42	0xbea0abab	-0.31380972
43	0x3e0ae33c	0.13563246
44	0xbe041ed8	-0.12902391
45	0xbde01177	-0.10940831
46	0xbe0bb04c	-0.1364147
47	0x3e6bbee0	0.23022032
48	0xbd72e354	-0.05929883
49	0x3de30712	0.11085333
50	0xbea35166	-0.3189804
51	0xbf220f37	-0.63304466
52	0xbd89135f	-0.06693148
53	0x3da0dec8	0.07854992
54	0x3e236abb	0.15958683
55	0xbe0e1bcf	-0.13877796
56	0xbe99f7c9	-0.30071858
57	0x3dacf4e2	0.08445145
58	0xb9a7b642	-0.00031988515
59	0x3f275363	0.65361613
60	0x3b46a2b9	0.0030309393
61	0xbeb83fd0	-0.35986185
62	0x3cafd9e9	0.021466212
63	0x3de06ae9	0.109578915
64	0x3d47105c	0.048599586
65	0x3e24df68	0.16100848
66	0x3eebe034	0.4606949
67	0xbe7eca4a	-0.24881855
68	0xbcc6db16	-0.02427439
69	0xbe174ed7	-0.14776169
70	0x3d91b965	0.07115439
71	0x3dffc937	0.124895506
72	0x3db33513	0.087503575
73	0x3d232b81	0.03983641
74	0x3e9b4a4a	0.30330116
75	0xbe39c836	-0.1814278
76	0xbde07c3b	-0.10961195
77	0x3dd9da17	0.106373005
78	0x3e1b6b1c	0.15177578
79	0x3eb7e8db	0.35919842
80	0xbe4c5819	-0.19955482
81	0xbeda50ea	-0.42639858
82	0xbd08b549	-0.033376012
83	0x3d8e4f68	0.06948739
84	0xbe27e5c0	-0.16396236
85	0xbe79fa3a	-0.2441186
86	0x3bebacf2	0.0071922475
87	0x3daf2fd4	0.08554044
88	0xbc998575	-0.018740395
89	0xbd29d3c4	-0.04146172
90	0xbc4dd9ed	-0.012564165
91	0x3ea8a364	0.32937157
92	0xbe140884	-0.14456373
93	0xbecd5453	-0.40103397
94	0xbe229c41	-0.15879919
95	0xbdcdd9fe	-0.10051344
96	0xbddb6748	-0.10713059
97	0xbe725b7d	-0.23667713
98	0xbe2dacd1	-0.16960455
99	0xbe29efc7	-0.16595374
100	0x3c20df3c	0.009818848
101	0x3c8f2666	0.017474364
102	0xbe71ac55	-0.23600896
103	0x3d29bf39	0.04144213
104	0xbed15ae8	-0.40889668
105	0x3e182b94	0.14860374
106	0x3e1a0bd2	0.15043572
107	0xbeb957c6	-0.36199778
108	0x3e959e6f	0.29222438
109	0x3e1f69e3	0.15567736
110	0xbdb25cf9	-0.087091394
111	0x3d87a4aa	0.06623204
112	0x3c9d71c9	0.019219296
113	0x3cf21e40	0.02955544
114	0x3e113c1e	0.14183089
115	0xbe322dd3	-0.17400293
116	0x3e3bf6b8	0.18355834
117	0xbd65ce87	-0.056105163
118	0xbc7c9a96	-0.015417716
119	0xbe26f5ec	-0.16304749
120	0xbe9ef124	-0.3104335
121	0xbee0295f	-0.43781564
122	0xbeafd710	-0.34343767
123	0x3e115b27	0.14194928
124	0x3e334f02	0.17510608
125	0x3bd93926	0.006629127
126	0xbde893d2	-0.113563195
127	0x3bf67268	0.0075209625
128	0xbf045335	-0.51689464
129	0x3eecc72f	0.46245715
130	0x3dc57e35	0.09643213
131	0x3ebaeaec	0.36507356
132	0xbf29e1f4	-0.663604
133	0xbc882ad8	-0.016621992
134	0x3ea652de	0.32485098
135	0x3e3401db	0.17578833
136	0xbe2acfc4	-0.16680819
137	0xbd99302a	-0.0747989
138	0x3e3c24a5	0.18373354
139	0xbf227c40	-0.6347084
140	0x3e145b9f	0.14488076
141	0xbf18845f	-0.5957698
142	0x3ea81331	0.32827142
143	0x3f27f7d8	0.65612555
144	0xbe3cb57f	-0.1842861
145	0x3a99154a	0.0011679318
146	0xb47511d5	-2.282389e-07
147	0x3e13a8de	0.14419886
148	0xbe217514	-0.15767318
149	0xbf239ba9	-0.63909394
150	0x3f713d33	0.9423401
151	0xbe467172	-0.19379213
152	0x3f18ca60	0.596838
153	0xbafba2ae	-0.0019198263
154	0x375ae96c	1.304816e-05
155	0xbcca85a7	-0.024721934
156	0x3b172ed2	0.0023068679
157	0x3ce35157	0.027748747
158	0x3dd71449	0.10501916
159	0xbe9631cc	-0.29334867
160	0xbe994213	-0.29933223
161	0xbda036e8	-0.078229725
162	0xbbfc673a	-0.0077027353
163	0xbdc5b745	-0.096540965
164	0xbf2ce047	-0.6752972
165	0xbe5cf4fd	-0.2157783
166	0x3d9974f5	0.07493011
167	0x3c8eec65	0.017446706
168	0x3cc9a70b	0.024615785
169	0xbf282548	-0.65681887
170	0xbd599c3d	-0.053127516
171	0xbd1460f8	-0.03622529
172	0xbf2f254a	-0.68416274
173	0xbd7094fc	-0.058735833
174	0xbf1f675e	-0.622671
175	0xbe6974ad	-0.22798415
176	0x3d75afdb	0.059982162
177	0x3e8bc464	0.27298272
178	0x3f6b8368	0.91997385
179	0x3deb1741	0.11479045
180	0x3e5039c7	0.2033454
181	0x3e8b11e4	0.27162087
182	0xbcf98249	-0.030457633
183	0xbfa26f9f	-1.2690314
184	0x3e030397	0.12794338
185	0xbe52bf06	-0.20580682
186	0x3a2c587e	0.00065744657
187	0x3ea78c77	0.32724354
188	0x3d41b797	0.047294226
189	0xbe43b599	-0.19112243
190	0xbc94c0dd	-0.01815837
191	0xbe25480e	-0.16140768
192	0x3ecbdec9	0.3981841
193	0xbdcc3925	-0.09971837
194	0xbe2df358	-0.1698736
195	0xbf0c8d12	-0.54902756
196	0xbed0505b	-0.40686306
197	0x3e5e57f2	0.21713236
198	0xbde83d6d	-0.11339841
199	0x3ce26919	0.027638005
200	0xbdd40db6	-0.10354178
201	0xbd8c49a2	-0.06849982
202	0xbcc161b4	-0.023606159
203	0xbe17011e	-0.1474652
204	0xbf20fdd1	-0.62887293
205	0xbea13602	-0.31486517
206	0x3dc2dc3d	0.09514663
207	0xbdfc939b	-0.12332841
208	0xbb95430f	-0.004555113
209	0xbf23a583	-0.63924426
210	0x3ef56837	0.47931072
211	0xbdb85b25	-0.090017594
212	0xbe1170ce	-0.14203188
213	0x3f13d359	0.57744366
214	0x39ba8b0e	0.00035580288
215	0xbc7cffd2	-0.015441852
216	0xbef8fa01	-0.48628238
217	0xbecf39ae	-0.40473694
218	0xbe072e56	-0.1320127
219	0x3e38ca08	0.18045819
220	0xbf3264fb	-0.69685334
221	0xbe9cdca3	-0.30637082
222	0x3db3018f	0.08740532
223	0xbeed8acc	-0.46394956
224	0xbf0c4978	-0.54799604
225	0xbe66a6c9	-0.22524561
226	0x3f1a1df1	0.60201937
227	0x3e329bd0	0.1744225
228	0x1582acb8	5.2779084e-26
229	0xbe365c2f	-0.17808603
230	0xbf1997c2	-0.5999719
231	0xbe1afb4b	-0.15134923
232	0x3e5e1b03	0.21689992
233	0xbec6dd83	-0.38840875
234	0xbd7cf568	-0.061757475
235	0xbed8f92a	-0.42377597
236	0xbe55b5be	-0.2087011
237	0xbea16f46	-0.31530207
238	0xbd917770	-0.07102859
239	0x3da3a519	0.07990474
240	0x3e7e15f9	0.2481307
241	0xba673327	-0.0008819573
242	0xbc0b58b6	-0.008505037
243	0xbe94c01e	-0.29052824
244	0xbdc991ae	-0.09842239
245	0x3eb50102	0.3535233
246	0xbed977c1	-0.42474177
247	0xbf2fe5bd	-0.6870993
248	0x3e32e87e	0.17471501
249	0xbe6285c5	-0.22121342
250	0x3f5eab3b	0.86980027
251	0xbe3ace62	-0.18242791
252	0x3d5b7519	0.05357847
253	0x3ecc2b7c	0.39876926
254	0x3f075ab8	0.528728
255	0x3dfea6a9	0.12434132

linear2.bias f4 [10]
0	0xbdf9a8e6	-0.12190418
1	0xbec8a3b5	-0.391874
2	0x3ee32053	0.443606
3	0x3e940539	0.28910235
4	0xbeca1aca	-0.39473563
5	0xbb0fac57	-0.002192279
6	0x3e73e878	0.23819149
7	0x3ea19167	0.31556246
8	0xbe092634	-0.1339348
9	0xbf0f2433	-0.5591461
