models/CIFAR10/cnn_params=100k_seed=029/099.pth (torch, 421415 bytes, 8 tensors)

conv1.weight f4 [32, 3, 3, 3]
00000000: a51d 08be 2c2a e83d 72c5 0f3e 46c6 31bd
00000010: ec05 a1bd 2e97 42be 9b71 ecbd 4108 87bd
00000020: da1e 9a3d 7253 78bd 2bd5 943d 4a5c 613d
00000030: 8328 90be 4f4d 31bd 15e2 31be ea20 ad3d
00000040: 20f1 8b3b c621 7b3d d87c 5a3d e04d a1bd
00000050: abb8 183e 4db0 2bbe 5e8c 48be 7c34 1fbe
00000060: 832a 853d bd54 09be f321 923d a74c 2fbe
00000070: 0e13 33be 7ab0 14be 2c2f bcbd 1c26 2bbe
00000080: 956e 9cbe 11bc f93d 6601 32bd 6e34 0f3e
00000090: b5f8 a7bd dcc0 df3b 382e c1bd 548c e2bd
000000a0: 5d7c 47be 1ce3 47bd efc7 a23d 9bd3 1f3e
000000b0: 409b 933d 73f6 043e a10d 243e f886 24bc
000000c0: e0db febd 371b bf3d 0cce 503b 2635 7fbc
000000d0: 573e 5b3e a782 b53c 73ff 05be aaef 49be
000000e0: 9e53 a4bb 6e5f 69be f88e e6bd fb56 013e
000000f0: b191 5fbe ec1c a23e 595c 313e d242 93be
00000100: 1817 0ebe ad2e 6d3d 6405 99be a015 0dbe
00000110: 3827 103e e4be 5bbe 64e5 863e 1a6c 5a3e
00000120: 79ba 59bd 5859 f5bd 7284 d63c 6402 c8be
00000130: 0120 f53b 6bb3 7e3e accf 60be 1cdf 81bd
00000140: cdb8 8ebc 8175 ff3d 799f 7cbd 7643 e13b
00000150: dd15 813e 3d55 9fbe f56d acbd 2e14 363e
00000160: b11b 95be a439 453e fce5 b93d 1d7d d1bd
00000170: a7d8 d33c 6f23 f33d 2e15 3dbe a445 a33b
00000180: 3347 d63d 8ea6 a0be ee96 243e c593 393e
00000190: c2f2 af3c 8a07 1fbe 4843 3b3e 5253 2abe
000001a0: cde5 2d3d f53e 0e3e 5908 a0be 0400 de3d
000001b0: f861 4b3e 95da 9fbe ef66 f73d ec73 623e
000001c0: 497d d9bd 5443 88be 1d31 39bd 649a 243e
000001d0: 0b41 16be 0b33 383e 4a2d 90be b073 a23c
000001e0: b6e2 653e c3c6 733e 98cc 34be dc38 d3bd
000001f0: a602 633e c79d e0bd 9005 083e 2f3b e3bd
00000200: f349 1e3d a125 3c3e b532 a6bd c9e5 a3be
00000210: 2c3d d43d 7ed7 833e 09bb 39be 2f4b fd3d
00000220: df1b e6bd b436 093e 0c01 c23c 6336 9bbe
00000230: 2dea d7bb 4bba 3e3e f735 fbbb 9138 8bbb
00000240: cdc1 37be 335c c1bd 2605 783e 9176 3e3e
00000250: 4d7a acbe 6fdd f83d c118 823e d388 95be
00000260: 3b7a b53d e220 8b3d 0d26 50be 0869 fc3b
00000270: d96f 713e dde0 90be 933f 703e fffa 5f3e
00000280: 5837 8cbe d47d 5ebc d8e6 1c3d a7be 3dbe
00000290: 5406 92bd aab2 bbbc 8a1c 7ebc 5e11 0f3e
000002a0: 958b a63c 07a0 7cbe bd9a bebc 351c ea3d
000002b0: fec5 a7be 1fff b63d 93fc 1c3e d7f0 43be
000002c0: 80fa 033e bc8b 4cbd afe9 78be e32a 673e
000002d0: d355 ef3c ecbd 54be 1a99 243e 4b59 ef3d
000002e0: 50a2 85be e613 923e 22ec b33d a1ab 0c3d
000002f0: 8399 753e 3f1b 94bb 2d2b f73d 6fea 82be
00000300: 7d3f 7e3d c2a3 77bc cbab 05be daf0 7c3c
00000310: 4497 093e f82f 77be c470 203e a6fa 863e
00000320: ee88 4b3e 4d09 ec3d 3345 9b3e 93a2 503e
00000330: 4c28 57bd 266b 053e 6069 d83d 1e1a d7bd
00000340: 8a39 c7bd d479 533e 4dc0 153d 8aa4 f9bd
00000350: bca7 0bbd f219 85be b023 82be 2fdf 4a3d
00000360: bdc3 45bd 2b31 7a3d 5d79 71be a242 dfbc
00000370: e6f6 5dbe d913 833d c897 99bd 7925 b5bd
00000380: 5625 063e 671d e3bc ab09 db3d 5649 be3d
00000390: b03b c53d bbeb c43b 6b8b 6fbd 9e54 18bb
000003a0: a10a 223e 524f 06bd f174 fb3c 1f79 023e
000003b0: 20b3 fa3d 6f67 143e f15e 8bbd e2cf 873d
000003c0: 5a96 0abd 3152 d23d b890 cfbd 0c1a 16be
000003d0: 913b 413e 486d eebc 3c0c 4abe 3dab 3e3e
000003e0: ae5d 953e 2876 09be 2b26 57be bb97 db3d
000003f0: f068 853d 5df9 373d 2516 2e3e 9400 75be
-0.13292558 0.11336169 0.14040163 -0.04340198 -0.07862458 -0.19002983 -0.11545106 -0.06593371
0.07525416 -0.060626455 0.07267221 0.055019654 -0.28155908 -0.043286618 -0.173714 0.084535435
0.0042706877 0.061311506 0.053341717 -0.078761816 0.14914195 -0.16766472 -0.19584796 -0.15547365
0.06502249 -0.13411231 0.071353815 -0.17119084 -0.17487738 -0.14520445 -0.09188685 -0.16713756
-0.30553117 0.12194074 -0.043458365 0.13984844 -0.08201734 0.0068284106 -0.09432644 -0.11061922
-0.19481035 -0.048800573 0.079482906 0.15608065 0.07207346 0.12984638 0.16020824 -0.010041945
-0.124442816 0.09331363 0.0031861095 -0.015576636 0.214105 0.022157026 -0.13085727 -0.19720331
-0.0050148508 -0.2279031 -0.11257738 0.12630837 -0.2183292 0.3166269 0.17320384 -0.28761917
-0.13875997 0.05790584 -0.29886925 -0.1377778 0.14077461 -0.21459538 0.26346886 0.213303
-0.05315635 -0.119799316 0.026186202 -0.39064324 0.007480622 0.2487313 -0.2195422 -0.06341383
-0.017422104 0.12473584 -0.061675522 0.006874497 0.25211993 -0.3111972 -0.0841941 0.17781135
-0.2912269 0.1926027 0.09077069 -0.102289416 0.025860144 0.11871993 -0.1846511 0.004982667
0.10462799 -0.3137707 0.160732 0.18122776 0.02147806 -0.1553022 0.18287385 -0.16633347
0.042455483 0.13891204 -0.3125637 0.10839847 0.19861591 -0.31221452 0.1208018 0.22114533
-0.10619599 -0.26613867 -0.045212854 0.1607452 -0.1467325 0.17988221 -0.28159553 0.019830555
0.22449765 0.2380629 -0.17656171 -0.103135794 0.22168979 -0.10967594 0.13283372 -0.11095273
0.038644742 0.1837373 -0.0811514 -0.3201125 0.1036323 0.25750345 -0.18137754 0.12367856
-0.11235785 0.13399774 0.02368214 -0.3031493 -0.006589195 0.18625753 -0.007666345 -0.0042486866
-0.17945023 -0.09441414 0.24220714 0.18599917 -0.33687058 0.1215161 0.2540951 -0.2920595
0.08861204 0.06793381 -0.20327015 0.0077029504 0.23577823 -0.28296557 0.23461752 0.21873091
-0.27385974 -0.013579804 0.038306087 -0.1852976 -0.07130113 -0.022912342 -0.015509734 0.13971469
0.02033023 -0.2467042 -0.023267144 0.11431161 -0.32768244 0.08935379 0.15330724 -0.19134842
0.12888527 -0.04993795 -0.24307893 0.22574954 0.029215729 -0.20775574 0.16074029 0.11686953
-0.26100397 0.28530806 0.08785273 0.034343366 0.23984341 -0.0045198495 0.12068782 -0.25569484
0.062072266 -0.0151147265 -0.13053815 0.015438283 0.1343661 -0.24139392 0.15668017 0.26363105
0.19876453 0.115252115 0.30326232 0.20374517 -0.052528664 0.13029155 0.10566974 -0.10503028
-0.097277716 0.20651942 0.036560345 -0.121895865 -0.03409551 -0.25996357 -0.25417852 0.04952925
-0.048282374 0.061082046 -0.23581453 -0.027253453 -0.21676216 0.0640027 -0.07499653 -0.08845038
0.1310018 -0.027723981 0.106952034 0.092913315 0.09630525 0.0060095466 -0.05848257 -0.0023243795
0.15824367 -0.03279049 0.03069541 0.12741517 0.12241197 0.14492582 -0.06805218 0.066314474
-0.033834793 0.10269583 -0.10135025 -0.14658374 0.18870379 -0.029104844 -0.1973123 0.1862001
0.29173034 -0.1342398 -0.21010654 0.107223 0.06514156 0.044915546 0.17000635 -0.23926002

conv1.bias f4 [32]
00000000: 463b 7f3d b283 283e 438d 3e3e 20ad 203c
00000010: 4b1f 69b9 0989 fbbb 65ce 693d c284 b9be
00000020: b74b 30bc 5939 41bb 9bce 263d c294 ec3d
00000030: 795b 11bb 5423 41be 6b5c 713b 6835 bebc
00000040: 7f5f f2bb 625d 833c 4d50 f03c 6893 ef3d
00000050: 162d 0bbb fb91 9b3c 3757 9d3c e87b 8eb9
00000060: 0985 a63c fa71 74bc 0b3a 16bb d8a4 443d
00000070: f479 cd3d a3b0 0d3c b201 e0be 5f3d 4c3b
0.062312387 0.16456488 0.18608575 0.009806901 -0.00022232269 -0.007676248 0.0570816 -0.362341
-0.010760239 -0.0029483645 0.040724378 0.11551811 -0.0022179766 -0.18861133 0.0036828767 -0.023218825
-0.007396638 0.01603574 0.029335165 0.116980374 -0.002123659 0.018990507 0.019206626 -0.00027176668
0.020327108 -0.014919752 -0.002292278 0.04800877 0.10033026 0.0086480705 -0.43751293 0.003116451

conv2.weight f4 [64, 32, 3, 3]
00000000: a327 91bc 337b a0bd fd93 35bd af24 6e3d
00000010: 1769 02bd d4c2 353d 7d7e ba3c 7808 5d3d
00000020: 3d58 9b3d 20cb 68bc b448 163e ec1b 1bbe
00000030: 9e90 2bbd eadc b03c acf8 40be 736c a2bd
00000040: 2666 61bd 6ec6 8bbd 61a9 943b 1f7c 81bd
00000050: 6a61 09be ac94 be3d c765 b5bd aabe 25be
00000060: c22a fe3d de57 813b 7ac8 ecbd 7e03 d33d
00000070: d2a9 49bd 197a aabe 81d9 f03d 75f4 f4bb
00000080: 9f87 29be d88c e4bd 2b55 d5bb 5aa7 f73c
00000090: 7638 0bbe 6ed0 f5bd d545 bcbd 25bc eabb
000000a0: f9b5 d4bb 2f3d 323e 28b5 d8bc 4973 183e
000000b0: f879 8d3e 095f ddbd d5f7 16be 2cf1 923d
000000c0: f13e a4bd c33b fc3c 2146 b03e 037d 9dbc
000000d0: cd80 123e 836d 873e e9fe a1bd 5f01 70be
000000e0: b2a1 37be cd08 803d 9e50 bfbc 4d97 d7bd
000000f0: fbca f53d 1cdc dcbb f38a 3dbd e7c7 b4bd
00000100: 069d 783d 14b1 c4bc b08f 9c3c f880 82bd
00000110: e2c0 edbd 628f 2b3c 7e06 2dbe ce2b 7abd
00000120: 454d 943c 5793 52bd 9dc1 8b3a bbaf 97bd
00000130: 003e 76bd 00c0 40bd 1ec5 24bc 11ae c2bc
00000140: e63b 8bbd d482 40be 336b 16be bd86 ab3d
00000150: 8739 87be f837 e8bd af5a f73d 55f2 4c3c
00000160: b804 8c3d 89e2 ab3d 7f77 83be aab3 44bd
00000170: 7e55 433c a52d 48bd 50ef 273d 4968 233e
00000180: c41b 2d3d 7f7b fd3d cd3a 143e 3c41 803d
00000190: b1dc 6f3d f603 26bd ac97 4a3d 4015 2e3d
000001a0: d3b0 4cbb 2249 e4bc e34f eabc ab3e 7d3d
000001b0: 3654 543e 1603 353d d213 66be 30d9 fd3d
000001c0: d43c b8bd 834b 8ebe a721 55be 3c14 58be
000001d0: 6f7a 2fbe 8f19 51bd 6ca8 463d 58c6 0fbc
000001e0: 3ae0 1cbe 56bf c2bd dad5 b6bd 11f0 543c
000001f0: 6347 4dbe 9dba 42bd 66ec 263e 4f2c 8d3d
00000200: 4479 063d 2a63 d43d 95ad eebd a0f8 8fbd
00000210: 5aa6 cabd 8e5e 41be b31d acbd d257 abbd
00000220: 39bc 2c3e a5e8 1d3e 0562 d2bd a885 ae3d
00000230: e166 213e e99b 82bd b356 e8bd 9f0b 843d
00000240: 1823 813d b467 3f3d 8208 9bbd 590e 363e
00000250: 8795 e43d 2174 223d a018 753e f478 ec3c
00000260: 7b62 59bb ed7d 00be 9f93 64be 9754 08be
00000270: d31f e7bd 6fb1 bc3c fe30 babc c0ce a73d
00000280: 2ecd b03d 8e52 f43c 946e 63be 08d7 0b3e
00000290: 74ea b43d 17a1 a4bd b39a e7bd 63f9 bd3d
000002a0: 3fc0 99bd 64ba 12bd 6b24 3a3e 14d2 9a3c
000002b0: e259 933c 6089 9abd 87f7 1f3e acce d23d
000002c0: 7d62 e1bc c144 fd3d c198 8d3d 6ff3 aa3d
000002d0: 505e 393d 4250 f93d 8fc9 2cbe 21ef 0e3d
000002e0: d7ec f03c b66c 21be f90f 0f3e ed04 973d
000002f0: 97c2 2c3d e97a a0bd 3627 b1bd a2ec 7cbe
00000300: 0340 d13c 0c07 9a3c 9aff 79be a434 5abe
00000310: d3d1 b1bb ed96 0abe 6307 bc3d dd2e 22bd
00000320: f4f5 38be ec8b 803e 5c67 ed3d dc9f 88bd
00000330: a358 bd3d 5fe4 513d 2b6d f33c 6a8e 92bc
00000340: f531 883c a139 853d 0afd e93d a2c2 043e
00000350: c057 703e cfc4 c83d 4362 de3d 1488 033e
00000360: 761c 573e f784 d63d a669 41be ae89 ff3d
00000370: 548d a03c 9c5a 85be 89c9 76bd ef45 2bbe
00000380: 5dee acbd a91a 363e 7b01 903d 70a1 483e
00000390: 0747 4c3d d629 96be bdfc 19be 9639 7fbc
000003a0: 9ab0 86bd f599 44be a0dc 0d3c 09ba c13d
000003b0: f78e 81be b59a 683d 954b a3bc d9fb 8abe
000003c0: edf3 083e 5443 a7bd 9a73 e13c 13f8 f1bd
000003d0: d1a6 1b3e e0c7 a7bd 3c42 86bc 56a2 183e
000003e0: 1db0 33bd 7432 29bd c4e3 fdbc 51b3 11bd
000003f0: d2be bf3b b10c 6d3e 3f6b 3e3e 4d13 cb3d
-0.017719096 -0.078359984 -0.044330586 0.058140453 -0.031838503 0.044375256 0.022765392 0.053963155
0.075851895 -0.014208585 0.14676172 -0.1514737 -0.041885965 0.021589715 -0.18844861 -0.07930841
-0.055029057 -0.06824957 0.004536793 -0.06322502 -0.13416067 0.09305701 -0.08857303 -0.16186014
0.12410499 0.003947242 -0.11561675 0.103034005 -0.04923422 -0.33296278 0.117602356 -0.0074754306
-0.16555642 -0.11159676 -0.006510397 0.030231167 -0.13595757 -0.120026454 -0.09193007 -0.007163542
-0.0064914194 0.17406152 -0.02645357 0.14887728 0.27632117 -0.10809142 -0.14742978 0.07174906
-0.080198176 0.030790215 0.34428504 -0.01922465 0.14306946 0.26450738 -0.079099484 -0.23438023
-0.17932776 0.062516786 -0.023353871 -0.10526905 0.12001606 -0.0067401063 -0.04627509 -0.08827191
0.060696624 -0.024010219 0.019111484 -0.06372255 -0.11609055 0.010471197 -0.16897008 -0.06107693
0.018103251 -0.051410045 0.001066256 -0.07406565 -0.06011772 -0.047058105 -0.010056762 -0.023764642
-0.06798534 -0.18799907 -0.14689331 0.08375309 -0.26411077 -0.113388 0.120778434 0.012508948
0.068368375 0.083928175 -0.25677106 -0.048022904 0.011922238 -0.048871655 0.04099971 0.1595775
0.042262807 0.12377071 0.14475556 0.062624425 0.058560077 -0.04053112 0.04946105 0.042500734
-0.0031233325 -0.027866904 -0.028602546 0.061827343 0.20735249 0.044192396 -0.22468498 0.12394941
-0.08995977 -0.27791986 -0.20813619 -0.21101469 -0.17136548 -0.051049765 0.048500463 -0.008775316
-0.1531991 -0.09509151 -0.08927508 0.012996689 -0.20046763 -0.04754125 0.16301116 0.06893217
0.03283049 0.103704765 -0.11654202 -0.07029843 -0.0989501 -0.18883726 -0.08404102 -0.0836636
0.16868676 0.15420778 -0.10272602 0.08521587 0.15761901 -0.06377394 -0.113446616 0.06447529
0.06305522 0.04672976 -0.07569982 0.1777891 0.111613326 0.03966153 0.23935175 0.028866269
-0.0033170271 -0.12548037 -0.22321938 -0.13313518 -0.11285367 0.023033826 -0.02272844 0.08193731
0.08632885 0.029824521 -0.22210151 0.13656247 0.08833781 -0.08038538 -0.113088034 0.09276082
-0.07507371 -0.035822287 0.18177955 0.018899001 0.017987195 -0.075457335 0.15621768 0.10293326
-0.027512783 0.123666294 0.06913901 0.083472125 0.04525596 0.12173511 -0.16873764 0.03489602
0.029409809 -0.15764126 0.13970937 0.073739864 0.042177763 -0.07835943 -0.08650057 -0.24699643
0.025543218 0.018802188 -0.2441391 -0.21309143 -0.0054266243 -0.13534136 0.091810964 -0.039595474
-0.18062574 0.25106752 0.1159198 -0.06671116 0.09245422 0.051243182 0.029715141 -0.017890174
0.016625384 0.065051325 0.114252165 0.12964872 0.23470974 0.09803163 0.10858586 0.12844878
0.2100695 0.1047458 -0.18887958 0.12477432 0.01959864 -0.26045692 -0.060250793 -0.16725896
-0.08443902 0.17783608 0.070315324 0.19592834 0.049872424 -0.29328793 -0.15037818 -0.015577694
-0.06576653 -0.19199355 0.008658558 0.094593115 -0.25304386 0.056788165 -0.019933501 -0.2714527
0.133743 -0.08167139 0.027520943 -0.118148945 0.15200354 -0.0819242 -0.016389005 0.14905676
-0.043869127 -0.04130788 -0.030992396 -0.0355714 0.005851605 0.23149373 0.18595599 0.09915791

conv2.bias f4 [64]
00000000: 9b91 3fbc 3c42 04be 93f0 27bd ea75 02be
00000010: 52b2 3a3d b550 ad3d f317 833d c174 ad3e
00000020: 5f16 96bd 325c 3a3b 584c d5bc 6ca9 04bd
00000030: 22b1 e03d 78a5 86bb 8d3f bbbd f4b7 f83d
00000040: 83c7 a4bb e540 17be 3b83 453e 9f7b 5d3d
00000050: 1f53 083e 31ca 543e a902 11be 1216 96bc
00000060: 6d76 963d ecd5 183d 365f 8abd 64f0 563d
00000070: 2d57 e598 042c 743c c5d9 79b9 9acb 0396
00000080: 80fe 87be e47d 913d f84d bdbd a919 a7bc
00000090: 49b7 9e3d 691f b83c 3c45 97bd 85a1 673e
000000a0: 5cb1 ce3d c500 a5bd ed03 1dbd b7fb 8b3d
000000b0: 33ef 3a9f af74 8abd 1e5d 64b9 cb32 133e
000000c0: f7eb 703d 16e4 e93b 3726 83be dc1e cc3d
000000d0: 7e86 333d f538 483e cf2a c1bd 89ec c43d
000000e0: 26d4 ccbb 7f5c 563e f472 4bbe a6c4 803e
000000f0: f4aa 1f3e 7de2 7d3d 4dc4 4d3e 97da 47bd
-0.01169243 -0.12915891 -0.041000914 -0.12740293 0.045580216 0.08462659 0.06401052 0.3387814
-0.07328486 0.00284363 -0.02603738 -0.032388136 0.109712854 -0.004109081 -0.09142981 0.12144461
-0.0050286665 -0.14770849 0.19288342 0.054072972 0.13312958 0.20780255 -0.14161171 -0.01832107
0.07346807 0.037313387 -0.06756441 0.052475348 -5.9283138e-24 0.014903072 -0.00023827616 -1.0646341e-25
-0.26561356 0.0710409 -0.09243387 -0.020397978 0.077498026 0.022475915 -0.07386252 0.22620209
0.10092422 -0.080567874 -0.038333822 0.0683512 -3.9584893e-20 -0.06760537 -0.00021778463 0.14374845
0.058818784 0.0071377857 -0.25615093 0.099668235 0.043829434 0.19552977 -0.09431993 0.09615428
-0.006250876 0.20933722 -0.1986807 0.2515003 0.15592557 0.061983574 0.20094414 -0.048792448

conv3.weight f4 [128, 64, 3, 3]
00000000: 4ecd 90bd bad3 9abb c739 493d cdd1 2abe
00000010: 3fcb ed3c 9d79 ecbc d259 d7bc 9a30 1bbd
00000020: ae89 57be f042 14be a855 a3bd 79f0 c7bc
00000030: 203c b4bd 31df 87bd 5fed a1bd ffd1 84bb
00000040: 5f71 de3d 76cd 303c 8373 803e 45e0 33bd
00000050: 1195 f1bc 2072 9d3d 688c cbbc 027d 443d
00000060: e42d 3eba a276 503d 540d 2c3e 9c58 37bb
00000070: f788 643d 4f01 863e e85d 60be cfb5 aa3d
00000080: 5706 3e3b 04c7 3bbe d110 893d e268 34be
00000090: f7c2 193e c2af 223d 2821 3dbe d91b f6bc
000000a0: ad78 eebd ddfe 75be 7e99 7bbe e3ec 22bc
000000b0: 8314 183d f456 533e 4f30 5dbd a1e0 43be
000000c0: ae42 af3d bf6f 75be d6c1 073e 313e b4be
000000d0: a952 51be 8b58 a63e 10a9 b6bd 4576 ea3a
000000e0: bb81 133e 57b9 04be c704 703c 997d e03d
000000f0: 0467 93be aabc b43a d918 033e 5ad2 503e
00000100: fdbf ddbd c337 2e3c 98be 363d b172 b3be
00000110: 86bf 1e39 259b 8fbd 0295 89bc 9e1f 473e
00000120: 7213 3e3e bd99 243e 54db 36bc 0c8d 80be
00000130: eddd 04bd 5eb3 553e 6fda 8dbe 7489 c83c
00000140: b9d5 a93e fb30 8dbe 43d4 acbb 9900 ba3d
00000150: 027b 82be b9e3 2a3c b631 5c3d 2fac 9b3d
00000160: 7030 ac3d 954c f4bd a878 163c 989e 0b3d
00000170: 044b c63d ba1e 803d 7b97 b9bd 42fe 333e
00000180: 99ea 90be ed5c 05be 3c7d 853e fae1 a8bc
00000190: ab5c dd3d 175b 243e 5d05 30be d835 293e
000001a0: c09a 293e 61ed 57be 4029 4e3e 8f62 083e
000001b0: 8353 7cbe dfe5 bfbd 4a13 93bc 73d5 58be
000001c0: bc40 d53d ebf4 523c 0c16 0ebe 35e1 3a3d
000001d0: f68b 563d f642 d6bd e849 a33d afdd b93d
000001e0: 04e2 f6bd 41f6 b13d 56c8 d23d 859f b23d
000001f0: cb70 303e 8aee 7b3c 3efe bbbe 103a 9fbd
00000200: 8225 f2bd b683 f7be ec15 833d 45ba d2bd
00000210: 38a8 bfbe 2dde 743c 4523 a33d 968a a83d
00000220: 525e 07be 396b 7c3d cd60 51be d2af a7be
00000230: 9ae1 3cbe fa47 92be d1ab c3be 2ef7 b3be
00000240: 2417 f4b3 12b5 b1b4 0eed a1b5 da43 c4b4
00000250: 4d8f 84b5 cfce fdb5 b05f 0fb5 189f 50b5
00000260: 1ec2 91b5 8116 10bf 6966 e6bd 8131 8abd
00000270: a874 d1be 3325 44bd 2f78 21bd 3883 43bd
00000280: 58a5 a4b9 95ca a6bd 6246 d4bd fdc9 87bd
00000290: 1763 393e 0e49 f7bd be56 d9bc d2d2 d93c
000002a0: 7a68 08bd 2a0f 443b b452 473d b981 203e
000002b0: a58d ea3b fbf1 f7bd 80f5 1abd cc34 ffbd
000002c0: 1f24 c43c b00d cfbe 90d3 07be 6384 38bd
000002d0: b3af 4b3d 5e32 233e 38ba ebbd ac4e aa3d
000002e0: 9d95 9e3d 3dc6 0e3e b938 b43c 383e 8cbc
000002f0: 7092 09bc 87e9 873e f744 b93d e006 1ebe
00000300: 8536 183e 5b65 d6bd 59b1 ddbd 9a17 f5bc
00000310: 1e97 6fbe 980d 94be e5dc af3c da39 5cbd
00000320: 3db2 023e eafd b0bd d04d cc3c f454 ed3d
00000330: 0f41 26bd 1007 0ebd 5273 d43c ac12 e73d
00000340: 041d 513d 8a98 2abd d782 54be d0ef dfbd
00000350: 8f29 19bc b04e e0be a3eb 36be 3f31 de3d
00000360: b068 9abd e30d 08be b0ed f5bd f0c7 02be
00000370: 129f cdbd 51f3 03be 4939 003e 1749 f73d
00000380: 2259 d0bd d3cd 873c 5c4e 5cba a38e f53d
00000390: 9b62 9a3d 3b4d bd3d 0dae 9b3d cd7b 0c3c
000003a0: 65fe ce3d aef3 2e3d e7b4 e83b c7dc 21bc
000003b0: 91d2 8bbe b2b8 03bd 0c16 debd fbef e1bc
000003c0: af86 0fbe da98 cc3c db12 863d 4735 9dbd
000003d0: 7889 8dbe 807e bdbe 3873 733c 68b5 58be
000003e0: d657 b3bd 5c61 a93d 9837 03bd 1f25 1c3d
000003f0: 0048 9900 1cdb bf00 3d09 a900 7a0e c600
-0.07070409 -0.004724947 0.049127366 -0.16681595 0.02902758 -0.028866583 -0.026287947 -0.037888147
-0.21048614 -0.1447866 -0.07975322 -0.024406658 -0.088005304 -0.06634367 -0.07906603 -0.004053354
0.108614676 0.010791173 0.25088128 -0.043915052 -0.029490026 0.07687783 -0.024847224 0.04797078
-0.0007254763 0.050894387 0.1680196 -0.00279764 0.055794682 0.26172873 -0.21910822 0.083354585
0.0028995478 -0.18337637 0.066926606 -0.17618135 0.1501578 0.039718397 -0.1846968 -0.030042576
-0.11644111 -0.24023004 -0.24570271 -0.0099441735 0.037128936 0.20638639 -0.05400115 -0.19128658
0.0855764 -0.23968409 0.13257536 -0.35203698 -0.20441689 0.32489428 -0.08918965 0.001788803
0.14404957 -0.12961327 0.0146495765 0.10961456 -0.28789532 0.0013789136 0.12802447 0.20392743
-0.108276345 0.010633412 0.044615358 -0.3504844 0.00015139402 -0.07012013 -0.016794685 0.19445655
0.18562105 0.16074272 -0.01116069 -0.2510761 -0.032438207 0.20869204 -0.27705714 0.024479605
0.3317087 -0.27576432 -0.005274327 0.09082145 -0.25484473 0.01043027 0.053758346 0.07601201
0.08407676 -0.11928669 0.00918404 0.034086794 0.09682277 0.062558606 -0.09062096 0.1757746
-0.28303984 -0.1302373 0.2607211 -0.020615567 0.10808691 0.16050373 -0.17189546 0.16524446
0.16562939 -0.21086647 0.20132923 0.13318847 -0.24641232 -0.09370016 -0.017953534 -0.21175174
0.10412738 0.012875776 -0.13875598 0.04562493 0.05237957 -0.104619905 0.07973081 0.09075486
-0.12054828 0.08689547 0.10292117 0.08721832 0.17230527 0.015376696 -0.3671741 -0.077747464
-0.1182356 -0.48342675 0.06400666 -0.10289434 -0.37433028 0.014945549 0.079657115 0.08229558
-0.13219574 0.061625693 -0.20447083 -0.32751328 -0.18445435 -0.2857054 -0.38217023 -0.3514952
-1.1366345e-07 -3.3100565e-07 -1.2064427e-06 -3.6557213e-07 -9.876472e-07 -1.8910158e-06 -5.3410895e-07 -7.771755e-07
-1.0859837e-06 -0.5628434 -0.11250002 -0.06747723 -0.40909314 -0.04788704 -0.039421257 -0.04773256
-0.00031403708 -0.08144108 -0.10364987 -0.06630323 0.18104206 -0.12074481 -0.02653062 0.026589785
-0.03330276 0.0029916265 0.048662856 0.15674485 0.0071579986 -0.12106701 -0.037831783 -0.12461242
0.023943005 -0.4044013 -0.13264298 -0.04504813 0.049728107 0.15937182 -0.11510128 0.08315787
0.0774338 0.1394281 0.021999704 -0.017119512 -0.00839673 0.26545355 0.09046357 -0.1543231
0.14864548 -0.10468551 -0.10824842 -0.02991848 -0.2339749 -0.2891662 0.021467635 -0.05376611
0.12763305 -0.0864218 0.024939448 0.11588469 -0.04058939 -0.034674704 0.025933895 0.11282858
0.051053062 -0.04164938 -0.20753036 -0.109344125 -0.009348287 -0.43810034 -0.17863326 0.10849237
-0.07539499 -0.13286547 -0.12008226 -0.12771583 -0.10040106 -0.12885787 0.12521853 0.12074488
-0.10173251 0.016577637 -0.00084040104 0.119900964 0.07538339 0.09243246 0.07601557 0.008574438
0.10107116 0.04271286 0.0071016434 -0.009879298 -0.27309087 -0.03215856 -0.10844049 -0.027580252
-0.14016221 0.024975229 0.06546565 -0.076761775 -0.27643943 -0.37010574 0.014859013 -0.21162951
-0.08756988 0.08270523 -0.03203544 0.03812134 1.407666e-38 1.7619181e-38 1.5523513e-38 1.8188621e-38

conv3.bias f4 [128]
00000000: 5439 0a3d 07ca bc3d 4a0d ecb4 aabe 87bd
00000010: b0d1 103e 76db b23b 108e ec3d f678 963b
00000020: 60c4 a2bb 074e 403d 09b4 373e ae6c 7e3e
00000030: e6ad 913e 4e21 d4ba a48b 1d3e ce23 cbbd
00000040: 5ed3 a4bc 6ccc 3bac 753a d5bc 6233 053e
00000050: e7c5 11bd 11db 003d 42fb 4ebd 9e78 093e
00000060: 4b30 83b4 0c51 463a 9242 8f3a f28b 6bbd
00000070: e4cc 04bd 77b9 b43d 36b2 9bbb 706c 17bd
00000080: bd82 33bd 7185 a7bd 8612 9bbc 949c 3bbb
00000090: 0f4b e43d 2f7c 2a3e ba13 60b8 36c8 133d
000000a0: 0d69 f4bd 6e21 24bd 4df7 1e3e 73ae 0cbc
000000b0: 40eb 4da5 c9ef c03e cf90 dfba 9c9a 3bbd
000000c0: c87c b4bc 5dfa 0d3d a484 c7a5 2480 753e
000000d0: 3903 de3d fb53 5cbb 4cd7 953e 2d1b b23d
000000e0: e276 bdbc f8df f93d 0895 933e bc4c 2e3e
000000f0: 973b b6bc d1be 07b8 20bb efbd 82fe fbbc
00000100: f50b 58bd 185c d53d 1044 02bd bff9 18bd
00000110: 1940 d6bb 204f 40b4 f72a d1bd e9a0 13bd
00000120: ee79 e83c 98d9 8e3d 19d7 a93d 6a55 9ebb
00000130: 97ca babd 212d 953d 3350 e0bc 9509 0c3e
00000140: 2493 863e 8dcd 803d d1fd e1bc c927 493e
00000150: a9a4 e23d a53b a53c 9e0e 40b8 de74 013e
00000160: 2b99 eaa7 c6ce 1dbd 6bcf d5b8 3e14 40bd
00000170: 2b6d 30bc d938 fcba 96a9 6abc 3d8a 2ebd
00000180: 3030 92bc 9283 e9bc 8bd2 833e f7f0 09bd
00000190: 2508 223e 0c0a 0abd 7d52 09bd f190 803e
000001a0: de53 58bc c671 833d ef79 99bc 088c e8bc
000001b0: ef58 3cbd d4fa aebd bff0 323e 9306 c83e
000001c0: b83a edb9 0d5f 31bd 113c bebc 430b 0a3e
000001d0: a096 05be 4895 43be 187d 8abd 268e d03d
000001e0: 8751 393c 3562 083d b41c f2bc 05fb 19be
000001f0: 5d56 0fbd 5087 ddb6 e07e 873c dbfb 7bbb
0.03374608 0.09218221 -4.3968095e-07 -0.06628163 0.1414249 0.0054582907 0.11550534 0.0045920564
-0.0049672574 0.046949413 0.17939772 0.24846146 0.28452986 -0.0016184242 0.153853 -0.099189386
-0.020120319 -2.6687775e-12 -0.026028851 0.13007882 -0.035589125 0.031458918 -0.050532587 0.13424918
-2.443579e-07 0.00075651775 0.0010929874 -0.05750651 -0.03242196 0.08824437 -0.004751469 -0.03696865
-0.043825854 -0.08179749 -0.018929731 -0.0028627263 0.11147129 0.16648935 -5.3424134e-05 0.036079608
-0.11934099 -0.040070944 0.15524025 -0.008586514 -1.7860621e-16 0.37682942 -0.0017056706 -0.045801744
-0.022032157 0.034662593 -3.4610878e-16 0.23974663 0.108404584 -0.0033619392 0.2926582 0.086965896
-0.023127977 0.12200922 0.2882464 0.1702146 -0.022245212 -3.236422e-05 -0.11705613 -0.030761007
-0.052745778 0.10417956 -0.03180319 -0.03734755 -0.0065384028 -1.7910179e-07 -0.10213273 -0.036042128
0.028378453 0.069750965 0.0829298 -0.0048319595 -0.09120672 0.07283998 -0.027381992 0.1367553
0.26284134 0.06289206 -0.02758685 0.19644083 0.11066563 0.020170042 -4.578998e-05 0.12642238
-6.511411e-15 -0.038527273 -0.00010195266 -0.046894304 -0.010768215 -0.0019243016 -0.014322659 -0.042612303
-0.017845243 -0.02850512 0.2574657 -0.033677068 0.1582342 -0.033700988 -0.033525933 0.25110582
-0.013203589 0.06418185 -0.0187349 -0.028387085 -0.04598325 -0.085439354 0.1747465 0.39067516
-0.00045247911 -0.043303538 -0.023222001 0.13480859 -0.1304574 -0.19099915 -0.06762141 0.10183363
0.011310942 0.033296783 -0.029554702 -0.15037163 -0.03499447 -6.6020657e-06 0.01653999 -0.0038449678

fc.weight f4 [10, 1152]
00000000: 9f4e debd 1d57 1bbe 2e12 cabd 4c8b 3f3c
00000010: f24f 94bd 7df5 97bc 3149 463e afb8 633e
00000020: 7240 dc3d 13cd d1bd 8596 51bd 5e2c 8b3d
00000030: 15bd 853e dd15 4f3e 368f 233e 3656 893e
00000040: 84c5 553e 38c7 de3d c4fc 4ab9 dd23 8fb9
00000050: e1cd 9ab8 c71e 14b9 f7dd 44b9 e4fe 22b8
00000060: 664c d8b7 1bec a7b7 1e6a 51b6 2fbd 5d3e
00000070: e3aa de3d 6639 babd 1c59 403e f345 4b3d
00000080: 3f61 a3bd fd9b 893e 37a2 c83d 2866 1a3d
00000090: 0fc5 563d cd86 083e 50f6 263e 3fcf 843d
000000a0: 3890 1a3e d3ab 243e 7213 523d aafe 663e
000000b0: dbf5 04bd e368 073e 986e bcbc e863 873d
000000c0: 3b41 6d3e dde0 193d 57f4 9e3d 2cd3 4a3e
000000d0: 9989 b23d 0950 033e e43a a0bd cbe9 a4bd
000000e0: 30f1 7dbd 9c75 25bd 1463 1cbc 8684 063d
000000f0: 78f6 acbd 4bcb 12bd ff0c 393d 203b 88be
00000100: 2c8f 73bd 4631 403e b2b3 83be 1b9f dcbd
00000110: ad28 153e 0524 0ebe 0fad 96bc 26cb a63d
00000120: 9288 c63d ca99 283d 6c76 593d 684b 953c
00000130: 0180 fb3c b7ac b33d c011 1d3d d97a 573d
00000140: 4b3b d2b9 f430 103e 7f19 a83d 261d a93b
00000150: 9030 ea3d d505 9e3d 036e b93d 6e49 983e
00000160: b9bf 363e 50c3 103e cfdc fdbe 7b99 e8be
00000170: 39f8 21be afa8 94be 076c babe 9de6 8bbe
00000180: 4dc6 5cbe 5251 1cbe 8fcc 81be 6fd0 6c3d
00000190: 45a4 463d 61a5 963d 3bdb 7fbd 4308 12be
000001a0: f18e 0cbe 6099 2bbd d17d 39bd 0b29 bfbc
000001b0: 6c72 9e3d a1ce 0e3e 3c19 2e3c 0b13 013e
000001c0: 8fe1 683e 4ea0 dd3d edd1 2f3d 484e 563e
000001d0: 2f59 ea3d dae2 5abb 80e1 6bbb 3eb7 92ba
000001e0: ddbb c6ba 6037 2ebb aec5 c7ba 7258 45ba
000001f0: c7c5 3cba a4af 32ba acdb 023e 5504 1e3d
00000200: 5293 a9bd a730 5a3d d7c1 be3d 47e3 f9bc
00000210: 0689 5e3e 4f77 8b3e 0c36 933c 8a48 f73d
00000220: f0da a83d bae1 103e b2bf 9d3d 122c 5c3e
00000230: a85d 433e 264d 823c 1655 313e b46d 3a3e
00000240: a102 04bd 4fc3 01bd c09b 0ebd b364 febc
00000250: d95f 09bd 0fca 14bd 209b 04bd 54ec fabc
00000260: c83b f0bc 6496 d4a9 a4a3 8da7 55c5 ada0
00000270: 9e83 99aa 995e 0dac eff5 40a8 0db5 02a7
00000280: 1353 96a7 e1ae f9a2 b90a 83bc 91e7 72bc
00000290: f82a 64bc 5619 85bc 3231 90bc 268d 92bc
000002a0: 967e 76bc 5229 8dbc 1a08 96bc e01f a5bd
000002b0: c4c2 d83d aeb9 3c3d ece6 e73d 36b0 4e3d
000002c0: e685 f6bd 38ff 6b3e d44c e33c 968d 87bd
000002d0: b1aa de3c a640 943d ef47 0ebe f5b1 19bd
000002e0: 1821 1e3e 2725 983d e400 2bbe e257 393e
000002f0: ad57 cf3d dcd0 493c 3bc2 943c ed2d 193e
00000300: a661 21be 473d 01bd 74e9 efbb 2933 1bbe
00000310: 0c78 d3bb 7149 23be f1e2 203d ee87 193d
00000320: f6fe 143d 9381 303d f1af 203d a049 183d
00000330: c8dc 323d a693 1c3d c032 1f3d 410e 443e
00000340: bd11 633e bc05 aa3d 442c 013d 4428 babb
00000350: 234f c83c e7b9 ce3b f716 423c 6698 9cbc
00000360: 03e4 b2b9 75ed 83b9 df66 deb8 acdf 6cb9
00000370: 3c3b 61b9 3170 8eb8 7611 83b8 15df 02b8
00000380: 45c2 35b7 e499 443e e70c d13d 391a 5b3d
00000390: 31f1 813d 815f 18be a1d5 c63c 2ede 04be
000003a0: 23d1 34be a404 53bc 243d 24be c5a7 f03d
000003b0: 5057 51bd 8030 563d 5771 503c 07e9 c2bd
000003c0: 2794 42bc 859c 00be fddd 01bd 3aea 69be
000003d0: 9ad8 edbd af18 e1bd 31cb 47be 982c 0cbe
000003e0: 89e5 34bd b0df 1ebd b5e9 043d 4a10 1f3e
000003f0: 61dc c2bc 5afc 8fbc 0c93 9abc 2464 c1bc
-0.108548395 -0.1516995 -0.09866749 0.011690926 -0.07241811 -0.018549675 0.19363858 0.2223842
0.107544795 -0.10244193 -0.051168937 0.06795572 0.2612082 0.20223184 0.159726 0.26823586
0.20876127 0.10877842 -0.00019358384 -0.00027301806 -7.38164e-05 -0.00014125845 -0.00018774705 -3.8861195e-05
-2.5784782e-05 -2.0017897e-05 -3.1205195e-06 0.21654199 0.10872438 -0.09092979 0.18783993 0.049627256
-0.079775326 0.26876822 0.09796565 0.03769508 0.052434023 0.13332672 0.16304898 0.064848416
0.15094078 0.1608117 0.051288076 0.22558084 -0.03246103 0.13223605 -0.023001954 0.066108525
0.23169415 0.037567962 0.07761448 0.19807118 0.08717651 0.128235 -0.078237325 -0.08052405
-0.061997592 -0.040395364 -0.009545106 0.032841228 -0.08445448 -0.035838407 0.04517841 -0.2660761
-0.05946271 0.18768796 -0.25723034 -0.107725345 0.14566298 -0.13880928 -0.018393068 0.08144216
0.096940175 0.04116229 0.05309145 0.018224433 0.030700685 0.08773177 0.038347006 0.05260739
-0.00040098498 0.14081174 0.08207988 0.0051609455 0.11435044 0.07715956 0.09054186 0.29743522
0.17846574 0.14137006 -0.49582526 -0.45429596 -0.15817346 -0.29034945 -0.36410543 -0.2732438
-0.2156002 -0.15265396 -0.25351378 0.057815965 0.048496503 0.07355762 -0.062464934 -0.14260964
-0.13726403 -0.041894317 -0.045286004 -0.023335 0.07736668 0.1394601 0.0106261335 0.1260492
0.22742294 0.10821591 0.04292481 0.209283 0.11442792 -0.0033399374 -0.0035992563 -0.0011193526
-0.0015162189 -0.00265833 -0.0015241408 -0.0007528133 -0.0007201102 -0.00068163336 0.1277911 0.03857835
-0.08280052 0.053269055 0.09314316 -0.030503882 0.21731958 0.27239463 0.017970107 0.120743826
0.08244884 0.14148608 0.077025786 0.21501186 0.19078696 0.015905928 0.17317614 0.18205911
-0.03222907 -0.0316804 -0.034816504 -0.031053877 -0.033538673 -0.03632551 -0.0323745 -0.030630268
-0.02932538 -9.44078e-14 -3.931278e-15 -2.9437923e-19 -2.7269587e-13 -2.0089817e-12 -1.0711469e-14 -1.8139272e-15
-4.1723433e-15 -6.7676745e-18 -0.015996324 -0.014825718 -0.01392626 -0.016247433 -0.017601583 -0.01788957
-0.015044829 -0.017231617 -0.01831441 -0.0806272 0.105840236 0.046075515 0.11323342 0.050461017
-0.12037258 0.23046577 0.027746595 -0.06618802 0.027181001 0.07238893 -0.13894628 -0.03752323
0.15442312 0.07428961 -0.16699558 0.18099931 0.10124145 0.012317862 0.018159023 0.14958926
-0.15759906 -0.03155258 -0.007321531 -0.15156235 -0.0064535197 -0.15945984 0.03927893 0.03748315
0.036375962 0.04309232 0.03923029 0.03717959 0.043667585 0.038226746 0.03886676 0.19146062
0.22174735 0.08301875 0.031536356 -0.0056810696 0.024451798 0.0063087824 0.011846296 -0.019115638
-0.00034120688 -0.00025163186 -0.00010604946 -0.00022590038 -0.00021479739 -6.791985e-05 -6.249819e-05 -3.1202177e-05
-1.0833673e-05 0.1919933 0.10207539 0.053491805 0.06344832 -0.14880182 0.024271788 -0.1297538
-0.17657904 -0.012879524 -0.16038948 0.117507495 -0.05110866 0.052292347 0.012722335 -0.09517103
-0.011876143 -0.12559707 -0.031705845 -0.22843257 -0.11613579 -0.10991036 -0.19511105 -0.13688886
-0.044164214 -0.038787544 0.032449443 0.15533558 -0.023786725 -0.017576385 -0.018868946 -0.023607321

fc.bias f4 [10]
00000000: 0cdc 1f3d e77b 1ebe 5f9a 3ebe 4940 573d
00000010: 1b56 923e ccd1 753d e2f7 b93d ed0b 1abe
00000020: 409a 873d 2ad7 95bd
0.039028212 -0.15476952 -0.18613575 0.05255154 0.28581318 0.06001453 0.09080483 -0.15043612
0.06621218 -0.0731643
