models/MNIST/cnn_num-modules=4_seed=015/099.pth (torch, 15277 bytes, 16 tensors)

conv1.weight f4 [32, 1, 3, 3]
000000 ae 88 40 be cd 72 77 3e dc 6a 09 3f 2b be 95 3e
       -0.18802139 0.24164887 0.5367868 0.2924665
000010 9a aa 6a 3f 77 b6 4c bd d6 f1 cf 3e 04 a8 39 3e
       0.9166657 -0.0499787 0.40614194 0.18130499
000020 bf 85 b0 be 79 ae 36 bf 23 67 c0 3e 98 72 aa 3d
       -0.3447704 -0.71359974 0.37578687 0.08322638
000030 2d 91 70 bf 09 a0 fd 3e 13 78 27 3f d1 77 6e bf
       -0.9397152 0.4953616 0.65417594 -0.93151575
000040 d4 2f ab 3e 92 2e b4 3e a3 1b ff 3e c7 aa 58 3b
       0.33434927 0.3519178 0.49825773 0.0033060776
000050 c3 52 01 3f 1b 7f b2 3e c1 30 15 3f 22 53 2f 3f
       0.5051691 0.348626 0.5827752 0.68486226
000060 4b 2c db be 0b 05 f9 be e1 c4 ea bc 7b 81 93 bf
       -0.4280723 -0.4863666 -0.028658332 -1.1523889
000070 b9 e4 50 bf d9 c5 d7 3d 79 68 c9 3e 19 4a 01 3f
       -0.81599003 0.10535783 0.3933752 0.5050369
000080 ff fd 99 3f 24 3c 12 3e b4 6f a3 3e c1 30 32 3d
       1.2030638 0.14280754 0.3192116 0.043503527
000090 6c 7c 81 3e e1 7d 99 3f 97 0f 45 3e 47 48 67 bf
       0.2529024 1.199154 0.19244228 -0.9034466
0000a0 cd e8 fc 3e 55 70 11 3f 07 ca 56 bf ec 5b cb be
       0.49396363 0.5681203 -0.8390202 -0.39718568
0000b0 e5 fc 24 3f 93 c7 89 be ef 52 a6 be da 96 c3 3e
       0.64448386 -0.26910076 -0.32485148 0.38201028
0000c0 5c 8e 24 bf ac ee 24 bf 77 a9 92 3f 0c 08 0f bf
       -0.64279723 -0.64426684 1.1457967 -0.55871654
0000d0 1f 1f c8 bd 5e 1d 34 3f 4a e3 fb 3e a7 d3 21 3f
       -0.09771561 0.7035731 0.49196845 0.6321358
0000e0 c4 b5 a9 3e 33 90 23 3f eb 7e cf 3e 69 48 3c 3d
       0.3314649 0.63891906 0.40526518 0.045967493
0000f0 9e 20 c7 3d e4 71 c8 3e 35 fb f7 3e 6b d8 e7 3e
       0.09723018 0.39149392 0.48433843 0.452823
000100 9f 9f 11 3f 4e 99 13 bf 11 27 2c bf 24 dd 15 3f
       0.5688419 -0.576558 -0.6724711 0.5854056
000110 39 97 ef bd d2 83 03 bf 22 be f1 3e 73 d6 21 3e
       -0.11698765 -0.51373017 0.47215372 0.15804462
000120 fe b8 0b 3f 7a 9d 88 3e 23 85 6e be cb 5e ea 3e
       0.5457915 0.26682645 -0.23292975 0.45775446
000130 4f 1b 46 3f c2 e0 58 3f a1 3b c1 3e ed 51 be 3e
       0.7738542 0.84717953 0.37740806 0.3717188
000140 5d 6a 2e 3f 64 98 3b 3f a6 cf 12 3f b9 80 12 3e
       0.6813105 0.73279405 0.57348096 0.14306916
000150 af 8b 8d be 58 a5 23 3f d2 bb 1d bf f6 84 84 3e
       -0.27645633 0.6392417 -0.61614716 0.2588269
000160 47 be 86 3e a3 77 8d 3e 09 ff bc 3e 14 2b 87 3d
       0.26317045 0.27630338 0.36913326 0.066000134
000170 c2 78 0f 3f 09 41 ef be 05 fa 25 3f 89 a3 87 3f
       0.56043637 -0.46729305 0.64834625 1.0596782
000180 92 69 37 be e2 43 ff 3e fa f3 47 3c ed 39 3f 3d
       -0.17911366 0.49856478 0.012204165 0.0466861
000190 d8 df 7f bc 68 9c 14 bd b9 6b 8e 3b 92 90 ec bc
       -0.015617333 -0.036281973 0.0043463376 -0.02887753
0001a0 98 46 f1 bc 86 8c 5c bd 67 83 2a bd 96 04 c6 bc
       -0.029452607 -0.05384495 -0.04162922 -0.024172109
0001b0 91 17 7c 3f cc 7d 95 3e 8a 25 3b 3f 32 2c 13 3f
       0.9847346 0.29197538 0.73104155 0.5748931
0001c0 77 db e1 3e b4 8a 3e 3f 28 1d eb bd 49 5e 5b 3e
       0.4411275 0.74430394 -0.114801705 0.21422686
0001d0 f5 dd 18 3f 8d b2 84 bf 76 a2 c7 bf 84 a6 2c bf
       0.5971368 -1.0366989 -1.5596454 -0.6744158
0001e0 60 31 d8 bf e8 03 8f 3f 0a 5f a4 3e 94 b2 70 bf
       -1.6890068 1.1173067 0.3210376 -0.9402249
0001f0 7c eb df 3e a2 63 32 3f e9 c3 5c 3e 33 02 81 bf
       0.43734348 0.6968328 0.21559109 -1.0078796
000200 82 65 c1 be b3 c7 90 3f 00 94 74 3e eb 45 6a 3f
       -0.37772757 1.1310943 0.23884583 0.91512936
000210 fc 6c a5 3d 06 cc 7c be 75 c3 53 bc e2 30 db be
       0.08077428 -0.24687204 -0.012925019 -0.42810732
000220 42 c1 33 3f 98 d3 0d bd e1 ff af 3e 67 04 44 3f
       0.70216763 -0.03462562 0.34374908 0.7656922
000230 40 e8 11 bf a2 e1 c3 bc eb c3 b5 bd 21 dc 92 be
       -0.5699501 -0.023911301 -0.08875259 -0.2868357
000240 7a 3c 6a bd 1d fe 0a 3f 32 2d 0c bf 5e ba 7a be
       -0.05718658 0.54293996 -0.5475646 -0.24485156
000250 9e bb 36 3f 17 ad 64 3e ea fa 72 3e 52 49 fc 3e
       0.7138003 0.22331654 0.23728529 0.4927469
000260 9b 7c 5b be fc 05 43 bf 84 97 84 bf 37 30 d1 3c
       -0.21434252 -0.76181006 -1.0358739 0.025535686
000270 54 9e 9f 3e 00 97 28 bd 7e ff 8d 3d 38 a4 cb 3e
       0.31175482 -0.04115963 0.06933497 0.39773726
000280 e4 65 19 3f d0 24 47 3f 45 a9 b5 3e 80 95 22 3e
       0.599211 0.77790546 0.35480705 0.15877342
000290 8a 9c 08 3e 7e 62 12 3f 7f 0e 4a 3f bc d5 2e be
       0.13340965 0.5718154 0.7892837 -0.1707372
0002a0 90 74 79 bf c1 a2 5b bf 35 5e b4 bf 02 b0 c2 3e
       -0.97443485 -0.8579522 -1.409125 0.38024908
0002b0 23 c0 33 3f 2e c0 5d 3f 82 d6 5b bf 0a f1 00 3d
       0.7021505 0.8662137 -0.8587419 0.031479873
0002c0 ca dc 40 3e ec 22 a2 bf 46 7b 02 bf 89 e0 21 bf
       0.18834224 -1.2666907 -0.5096935 -0.6323324
0002d0 df 55 66 3e ec 51 82 3e 9f 5e 8d 3e b3 74 7b 3e
       0.22493695 0.25453126 0.27611253 0.24556236
0002e0 9e ce d2 3d 3d c5 39 3e bd ce a4 3e 3f cc b0 3e
       0.10293315 0.18141647 0.3218898 0.34530827
0002f0 55 c8 94 3e 53 10 26 be 10 59 5f be 79 11 22 3f
       0.2905909 -0.16217165 -0.21811318 0.6330791
000300 a2 49 23 be 91 d2 ad 3e 65 b5 16 3f 6e 52 0d 3f
       -0.15946057 0.33949712 0.58870536 0.552039
000310 3b 15 55 3e 09 28 d0 be 19 c2 55 3f 0f 91 8f 3e
       0.2080888 -0.40655544 0.83499295 0.28040358
000320 8e c9 01 3e 1f 52 9e 3f 62 84 a7 bd 1e e8 06 bf
       0.12674543 1.2368811 -0.08179547 -0.5269793
000330 ff 5f 40 3f 88 20 44 be 9d 87 b6 bf db 70 31 3f
       0.7514648 -0.19153035 -1.4260136 0.6931283
000340 df 88 d9 be a2 c2 4a bf ea 95 20 3f 96 64 c6 3d
       -0.42487237 -0.79203236 0.6272875 0.09687154
000350 50 d6 a5 be 31 eb f6 be b9 4f b7 3e f9 4d ab 3e
       -0.3239007 -0.48226312 0.3580301 0.33457926
000360 bc ad 8a be 70 06 d4 3e c9 5d 53 3e bc 3b b4 3e
       -0.27085674 0.4141116 0.20641245 0.35201824
000370 e1 fa c8 3e 67 b0 cf 3e e7 d3 37 3e 9b 51 df bb
       0.39253905 0.40564272 0.17951928 -0.006815148
000380 2c bc 79 bf 3f c9 1f 3e 17 d1 17 3f ef 81 8e 3f
       -0.9755275 0.15604113 0.5930342 1.1133403
000390 01 10 c3 3e 8d 44 ce 3e 50 f4 c0 3c cb 78 94 3f
       0.38098148 0.40286675 0.023553997 1.1599363
0003a0 bc 3c 2c 3f 8b 69 69 bf 4a 66 33 3f 50 07 03 3e
       0.67280173 -0.9117667 0.70077956 0.12795758
0003b0 5c 69 ab 3e 70 db d3 3e 5d df 31 3e 7e cf 8c be
       0.3347882 0.41378355 0.17370363 -0.27502054
0003c0 84 1f a1 3e 0a aa 75 be a5 c6 98 bf dc 54 40 3f
       0.31469357 -0.23990646 -1.1935622 0.75129485
0003d0 06 0c bf 3e 23 cc 79 3d 2d ca 87 3e 74 0f 99 3e
       0.3731386 0.060985696 0.26521435 0.29894602
0003e0 b9 72 d9 3e 61 32 63 3e 86 88 d0 3e 25 4a 82 3f
       0.4247034 0.22187187 0.4072916 1.0178877
0003f0 d5 ad 60 be 7c 62 04 3f 97 08 36 3f b0 29 33 3f
       -0.21941312 0.51712775 0.7110686 0.69985485

conv1.bias f4 [32]
000000 71 27 7b 3d d6 3c 3a 3e ca 68 9d 3e bc 3d 73 3c
       0.06131691 0.1818727 0.3074401 0.014846262
000010 b2 96 3c 3e ff ba 56 3e 8c ec 00 3f 55 b7 a8 bd
       0.1841686 0.20969771 0.5036094 -0.08238093
000020 19 a9 b6 ba 65 a8 dc bb 42 4d 93 bb 97 7f ef bb
       -0.0013935893 -0.0067339414 -0.004495294 -0.007308911
000030 9b f4 68 bb ed 16 56 3e 9f 09 b7 3d f4 74 53 3d
       -0.0035546187 0.20907183 0.08937382 0.051625207
000040 48 b8 42 3e f9 0d ec 3d e7 f7 37 bd 63 d9 94 3e
       0.1901561 0.115261026 -0.044914152 0.29072103
000050 dc 8c ab be 47 43 68 ba 6c 68 c3 bd d7 c0 d9 bd
       -0.33505905 -0.0008860123 -0.09541401 -0.106324844
000060 d3 dd ce bb 2c 4f 0a bd 53 a5 a5 3d 20 bd c6 39
       -0.0063130646 -0.03376691 0.08088174 0.00037906412
000070 d9 6f 02 ba e4 ee b4 bd b7 3d 54 3d db a9 0a bd
       -0.0004975773 -0.08834627 0.05181667 -0.033853393

conv2.weight f4 [32, 1, 3, 3]
000000 80 e8 fe be 49 dc 7f bd 0c e5 8e be 72 71 95 be
       -0.49786758 -0.06246594 -0.27909124 -0.29188114
000010 fe 28 20 3e 72 f5 c1 3e f9 5f 67 bf c1 22 92 be
       0.15640637 0.37882572 -0.9038082 -0.2854214
000020 88 0d c0 3c 7d 2a cd bc ee da 20 be c2 ee d0 be
       0.023443952 -0.025044674 -0.15708515 -0.40807158
000030 3d 4a ca bd c4 2b 00 bf f6 5c a9 be 95 5b c4 be
       -0.09877441 -0.5006678 -0.33078736 -0.38351122
000040 06 7a 93 bf 3d 36 32 bf 81 db a5 be f0 d5 fe bd
       -1.1521614 -0.6961401 -0.3239403 -0.12443149
000050 39 fe 6d bc 9b 98 12 bf 9a 2c 27 bf b2 4d 1e bf
       -0.014525943 -0.5726411 -0.6530243 -0.61837304
000060 82 8a e6 3d 93 61 13 bf 18 31 c1 be 78 d5 4d 3f
       0.11256887 -0.5757076 -0.37732768 0.8040385
000070 13 cc 69 3e 3e 38 3a 3f 81 b6 31 3f 7d c5 b4 3e
       0.22831754 0.7274207 0.69419104 0.35306922
000080 1a d7 88 3f af 8d 12 be f7 cb d1 3e 69 85 7e 3f
       1.0690644 -0.1431186 0.40975925 0.9942232
000090 d8 19 c3 be e8 70 51 be 87 05 f6 be b3 f3 2e bf
       -0.38105655 -0.20453227 -0.48051092 -0.68340605
0000a0 a0 8a 2a 3d 84 cb 9e 3c 01 98 ec be 96 ae e9 3e
       0.04163611 0.019384153 -0.4620972 0.4564101
0000b0 6c 60 14 3f d0 39 eb 3e ce ca fb 3e 8f 14 e9 3e
       0.5795963 0.45942545 0.49178165 0.45523497
0000c0 27 29 5c 3f 8c b8 4f 3f 20 3d 35 3f 01 fc 57 3e
       0.86000293 0.8114097 0.70796394 0.21092226
0000d0 52 8d d2 3e f6 5d d9 3e bb 0c 20 be 6b ed c8 be
       0.41123444 0.424545 -0.15629856 -0.39243636
0000e0 ad e2 96 be fa e0 db 3e 41 6c fb be dc ca af be
       -0.29469815 0.4294508 -0.4910603 -0.34334457
0000f0 3f 2f 5b 3f de a4 b4 3e 12 be 70 bd d0 08 c5 3e
       0.85618967 0.35282034 -0.058775015 0.38483286
000100 45 a0 80 3f f9 03 c3 3e 45 59 5e 3e f9 a6 7c 3f
       1.004891 0.38088968 0.21713741 0.9869228
000110 ce db 34 3f bb 91 01 3f af bc 93 3e b1 53 1a 3e
       0.70647895 0.5061299 0.28854892 0.15070988
000120 ee 36 c5 bc e9 21 3c be 4b 1c f3 be 10 02 8b be
       -0.024074044 -0.1837231 -0.47482523 -0.2715001
000130 10 c3 93 3e d7 b9 93 3d 53 77 3f bf af 27 42 3e
       0.28859758 0.072131805 -0.7479145 0.1896045
000140 7f 91 1f 3f aa d2 05 bc 7f 5f e2 bd ba 80 45 3e
       0.62331384 -0.008167902 -0.11053371 0.19287387
000150 49 eb 49 3f db 8b c5 3e e2 54 2a 3e cc 41 2d 3f
       0.7887464 0.38583264 0.16633943 0.67678523
000160 ad ea 1a 3f 41 61 ef 3e fc bd 56 bd 08 d7 a3 3c
       0.60514337 0.46753886 -0.052427277 0.019999996
000170 33 7d 35 3f eb f6 ee bd 25 8d 2e 3d e0 78 31 3f
       0.70894164 -0.116681896 0.042615075 0.69325066
000180 88 d3 6d 3e dd 3d 03 bf 87 15 94 be 24 2c 46 bc
       0.23225224 -0.5126627 -0.28922674 -0.012095485
000190 d4 93 9a 3c a8 da 13 3d 83 0c be 3c 42 ba 39 3d
       0.018869318 0.0360972 0.023199325 0.045343645
0001a0 6c 58 0e 3d 53 bd 02 ba a2 8b 6f 3c 07 2e 05 3c
       0.034752294 -0.0004987318 0.014620693 0.00812865
0001b0 b3 51 0a 3f e7 d5 10 bd f0 4e be 3e a7 36 c7 3e
       0.54030913 -0.035360243 0.371696 0.38908884
0001c0 f4 86 03 3f e9 bb 2d 3f 37 67 97 bf 89 ed 35 bd
       0.513778 0.67864853 -1.1828374 -0.044415984
0001d0 42 7a ce 3e 70 3e 31 bf ba b2 7f bf fc 86 21 bf
       0.4032765 -0.692359 -0.9988209 -0.63096595
0001e0 d0 be 1c bf 44 1b a0 bf a6 99 42 bf 5b 43 24 bf
       -0.61228657 -1.2508321 -0.760157 -0.64165276
0001f0 84 d2 75 be 47 e3 18 bf 41 d8 c6 3e 30 c6 b3 3e
       -0.24006087 -0.597218 0.38836864 0.35112143
000200 01 f0 f5 3e 92 7a 82 3f 7b ad 1c 3e 9a 77 c8 3e
       0.4803467 1.0193655 0.15300553 0.3915375
000210 03 1f 20 3f f0 e1 fb 3e 66 30 99 3d d3 39 ff bd
       0.6254732 0.49195814 0.074799344 -0.12462201
000220 63 4e fe 3e 2a 0b 8f 3e 35 c9 21 3e b8 2f f9 3e
       0.4966918 0.27938205 0.1579941 0.4866922
000230 67 f9 e2 3e ba 8f 25 3f 35 1f 5f 3f ae 38 98 3e
       0.44330904 0.64672434 0.87156993 0.29730743
000240 a5 45 1c bf a1 48 a2 3d 42 87 2a be e1 01 d4 bc
       -0.6104377 0.07924009 -0.1665316 -0.025879802
000250 d5 94 17 3d 6f 09 84 bd a6 4e 65 be 6d 8f 74 be
       0.03700717 -0.06447112 -0.22393283 -0.23882838
000260 85 e5 36 be 3b 04 ed 3c f0 64 4b 3e e7 58 86 bd
       -0.17860992 0.028932681 0.19862723 -0.065599255
000270 0e 2a e5 3e 8e ff 00 3d a8 85 3f 3f ac c7 7b 3f
       0.44758648 0.031493716 0.7481332 0.9835155
000280 77 60 8e 3f a8 7b 47 3f a5 e9 14 3f a6 a9 84 3f
       1.1123189 0.7792306 0.58169013 1.0364273
000290 4a fb 09 3f aa b0 48 3f 6a 50 9e 3f 57 7b 97 3f
       0.5389906 0.7839457 1.236829 1.1834515
0002a0 2d 94 32 3f 15 94 b4 3f 5c 54 9c 3f 33 17 07 3e
       0.6975735 1.4107691 1.2213244 0.13192444
0002b0 11 d8 d6 bd f2 01 a5 bd fc 94 39 3f 35 29 2a 3f
       -0.1049043 -0.08057012 0.7249296 0.66469127
0002c0 9a 49 ca 3d b5 f9 52 3f 79 74 2d 3f 12 11 8d 3e
       0.0987732 0.8241227 0.6775585 0.27552086
0002d0 0e a9 e4 3b 47 3a ba 3e c5 8a b4 3e 34 55 58 3e
       0.0069781607 0.36372587 0.35262123 0.21126252
0002e0 9b 20 e0 3e 00 3e 94 3e a5 8d 0e be 1b ca bb 3d
       0.43774876 0.28953552 -0.1392122 0.09169408
0002f0 69 03 91 3e 98 8d d1 3e 84 42 a5 3e 72 02 55 3e
       0.28322914 0.4092834 0.3227731 0.20801714
000300 f9 af b8 bc f6 1a ca bc d4 b5 03 3f 43 18 38 3f
       -0.022544848 -0.02467106 0.5144932 0.7191202
000310 c9 89 0b 3f b3 e3 81 3e 7b 04 93 bf 13 8c 78 3c
       0.5450712 0.25369033 -1.1485742 0.015170115
000320 30 d8 75 3d 97 fb 23 bf 0c d8 32 bc b6 9c 1d 3e
       0.060020626 -0.6405577 -0.010915767 0.15391812
000330 fd 42 15 be 26 be c7 3e 0e 75 c9 3e 6e dd 15 be
       -0.14576335 0.3901226 0.39347118 -0.1463525
000340 80 c9 0a bf fe 17 46 bf 05 36 10 bf b2 02 5d bf
       -0.54213715 -0.7738036 -0.5633243 -0.8633224
000350 70 db 7b bf f3 ca 71 bf db 0c 50 bf 04 b2 7e bf
       -0.9838171 -0.944503 -0.81269616 -0.9949038
000360 40 d0 02 bf c8 05 07 be 7a f2 59 3e fb 4d e8 be
       -0.51099014 -0.13185799 0.21283904 -0.45371994
000370 0c 11 db 3b e6 f9 a6 bc 5f 6e 25 bf 5b 5f 9c be
       0.0066853818 -0.020382833 -0.6462154 -0.305415
000380 87 b9 9b be 49 da 46 3d 9e 7a 96 be df ad 15 bf
       -0.30414984 0.048548017 -0.29390424 -0.5846843
000390 86 c1 24 bf aa 10 3e bf d0 4f 7a 3d 0f 6b d8 3e
       -0.64357793 -0.7424418 0.06111127 0.4226918
0003a0 30 a0 16 3f 3e 67 0e 3f d3 36 06 bf e6 44 4f be
       0.58838177 0.55626285 -0.52427405 -0.20241126
0003b0 f8 20 ae be 11 fb 0f bf 4c 4d ed be 7e 8f 17 bf
       -0.34009528 -0.5624247 -0.46348035 -0.59203327
0003c0 cc fe 19 3e a3 54 95 3d 40 cf 03 bf 62 46 d0 3e
       0.15038604 0.07291534 -0.51488113 0.40678698
0003d0 93 2f ff 3e c9 7c 66 be 64 3c d4 3e 01 89 07 3f
       0.49840984 -0.2250854 0.41452324 0.52943426
0003e0 1a 0b 31 bf a9 ff 7e 3e 85 3d 1b 3f fb ba 23 bf
       -0.69157565 0.24902214 0.60640746 -0.63957185
0003f0 f7 40 0b be a9 a2 92 be d4 a7 48 3e 95 b0 da be
       -0.13599001 -0.28639725 0.19595271 -0.42712846

conv2.bias f4 [32]
000000 8d 0c 94 3e 3e 99 3a 3d db fd b7 be 49 65 98 bc
       0.28915825 0.0455563 -0.35935864 -0.018602984
000010 e1 ba 5a be 11 7b e6 be b6 2e eb 3d a2 bc 86 be
       -0.21360351 -0.45015767 0.11483519 -0.2631579
000020 3e 9d 5a bd e0 66 99 3c 58 a8 e3 37 21 ea 8f be
       -0.053372614 0.018725812 2.71389e-05 -0.28108314
000030 22 87 96 3e b7 f0 ad bd a0 3d ee 3d e2 68 a2 be
       0.29399973 -0.08493178 0.11632848 -0.31720644
000040 39 97 92 3d f3 68 b3 be f5 94 c0 be 59 b4 45 be
       0.0715775 -0.35041007 -0.37613645 -0.19307078
000050 ff 70 04 3e db a2 b3 3e e6 93 37 3e 65 89 48 3e
       0.1293373 0.35085186 0.17927513 0.19583662
000060 e3 b7 bb 3e 12 77 c4 3d 62 ac 51 be 5e 17 3a 3d
       0.36663732 0.09593023 -0.20475915 0.04543244
000070 ac d4 77 3e b6 9c 9d bb 1a 33 73 be 15 0a dd bd
       0.24202222 -0.004809941 -0.23749962 -0.107929386

conv3.weight f4 [20, 32, 1, 1]
000000 0e 3d 33 be 45 9f 00 3f b9 ec 37 be 4a da 35 3e
       -0.1750376 0.50243026 -0.17961396 0.17759052
000010 7a ea a9 3e e2 65 24 be be 68 96 bd 43 eb 86 3e
       0.33186704 -0.1605449 -0.07344197 0.26351365
000020 b8 e3 67 be 60 5f fb 3e 04 36 3d 3d 94 08 01 be
       -0.22645462 0.49096203 0.04619409 -0.12600929
000030 eb ed 42 3e b3 08 31 be b5 a1 8d 3e 50 f9 5e 3e
       0.19036071 -0.17288475 0.27662435 0.21774793
000040 4e 56 9e be 3e ff 36 3e d7 5b ed be 9d 58 4d bf
       -0.3092522 0.17870805 -0.4635913 -0.8021334
000050 f2 ae fd 3e 92 e8 f4 3e f1 82 f3 3e 6e 23 f0 3e
       0.49547535 0.47833687 0.47560838 0.4690203
000060 d8 89 36 be 0a f5 42 be 8e be d4 be 12 fe 90 3e
       -0.1782602 -0.19038787 -0.41551632 0.2831884
000070 d1 78 01 3f c0 dd 93 3e e5 3a c4 3e 0e 5c 5e bd
       0.50574976 0.2888012 0.38326183 -0.05428701
000080 ad 6a ac bd 3f cc c7 be e2 82 29 bd 60 c7 5a 3e
       -0.08418784 -0.39023015 -0.041384585 0.21365118
000090 86 95 30 bf b2 6c 55 3e b5 fd 0d be d3 79 92 3e
       -0.68978155 0.20842245 -0.13866313 0.2860857
0000a0 f6 eb 22 3e 0b b7 05 be 2f 4b 6f 3e 6e 72 e8 bd
       0.15910324 -0.13058107 0.23368524 -0.11349951
0000b0 aa 36 0e 3d 59 b7 36 be 10 4e 20 be bb 48 d5 3e
       0.0347201 -0.17843379 -0.15654778 0.4165705
0000c0 4e c2 c1 bd 41 fe 68 3e f8 12 be 3d 5d 24 1f bf
       -0.09460889 0.2275324 0.09280962 -0.6216486
0000d0 23 89 10 be c9 3b d6 3e 68 a0 df 3e 64 84 9b 3e
       -0.14114814 0.41842487 0.43677068 0.30374444
0000e0 2a 79 60 be 9d 4c b8 3f 7f 89 80 be e1 52 57 be
       -0.2192122 1.439838 -0.251049 -0.2102771
0000f0 72 fb ee 3e 97 7e ef 3e 43 5c af 3d fe e1 30 bd
       0.46676213 0.46776268 0.085625194 -0.043184273
000100 54 24 a9 bc 31 be fa bd 51 4d b0 3c fb d1 27 3e
       -0.020647205 -0.122433074 0.021521242 0.16388695
000110 a7 c0 ae bd ed ce 92 3d e0 1b b8 bd 8e 1d 4e be
       -0.08532839 0.07168374 -0.08989692 -0.20128462
000120 31 7f 9e 3e 08 51 60 3d ac 94 d6 3d 64 a7 3c 3e
       0.30956414 0.054764777 0.10477576 0.1842323
000130 57 2b bf 3e d7 b0 33 bf 39 7f ac be 9e 43 35 bd
       0.37337753 -0.7019171 -0.33690813 -0.044253938
000140 6b c3 9e be 8e 20 cc be ed 0d e7 3e b2 04 05 bf
       -0.31008467 -0.39868587 0.45127812 -0.5196029
000150 98 f4 1d be 06 1b b3 bd 5c 6a 23 bf aa 01 ff 3e
       -0.15425336 -0.08745389 -0.63834167 0.49805957
000160 e1 1a a6 be 01 bf 6e 3e da d8 b8 bd ee 4c 01 bf
       -0.32442382 0.2331505 -0.09025736 -0.5050801
000170 72 c5 50 3e 8a 9d fa 3d 5e ef 2d 3f d1 b7 0c bd
       0.2038782 0.122370794 0.6794337 -0.03435499
000180 f5 e9 07 3e d8 3c 8b be 01 88 8e 3d 66 3b 63 3d
       0.13272841 -0.27194858 0.069595344 0.05547657
000190 e8 69 aa be 8a 33 3d be 65 63 8f 3d 45 08 07 be
       -0.33283925 -0.18476692 0.0700138 -0.13186748
0001a0 83 5b 71 3f d4 c6 a0 3d de dc 21 bf f7 b7 a7 3d
       0.9428026 0.078504235 -0.6322764 0.081893854
0001b0 e4 1d 37 3e 89 4b f4 be c0 38 87 be 93 cc 2e be
       0.17882496 -0.4771388 -0.26410484 -0.17070226
0001c0 2c b6 fa bd ce f5 96 3e c1 42 38 3f f5 62 19 bf
       -0.12241778 0.2948441 0.7197686 -0.5991662
0001d0 c3 bc c5 be 89 d2 d7 bd 35 15 24 3f fe 09 e5 3e
       -0.38620576 -0.10538203 0.6409486 0.44734186
0001e0 b3 31 50 be d9 a9 0e 3f ea 64 be 3d 02 b2 42 3e
       -0.20331459 0.55727917 0.092965916 0.19013217
0001f0 71 aa 26 3e 88 4e 46 be b7 7b 8e 3d d9 2c 72 bd
       0.16275956 -0.19365895 0.069571905 -0.0591248
000200 11 81 bd be 82 a4 a2 be b6 b9 55 3d 31 0c 61 3e
       -0.37012532 -0.31766135 0.05217906 0.21977307
000210 58 4b 74 3e b9 a7 8a 3e ea 37 45 bd 26 89 4e 3e
       0.23856866 0.27081087 -0.048149027 0.20169505
000220 d4 b8 d7 be a9 cc 82 3e ea e0 79 3e 9f f3 d6 3d
       -0.421332 0.25546768 0.24402204 0.10495686
000230 77 9c 4f 3e e4 c8 4a bd b3 94 9c 3e ee 19 13 3f
       0.2027453 -0.04950799 0.30582199 0.5746144
000240 45 6e c9 bb d4 45 99 be 24 e1 34 3d b3 b7 7a bf
       -0.0061471784 -0.29936087 0.044160023 -0.9793655
000250 21 b5 e4 bc 2a ae a6 3e dd d5 63 bf f6 8a 04 bf
       -0.0279184 0.32554752 -0.88998204 -0.5177454
000260 20 f6 00 bf c6 6c 0b bf 8f b3 cc be 23 c8 80 3e
       -0.50375557 -0.5446285 -0.39980742 0.25152692
000270 41 65 3f be 00 4c a9 3e 8f d0 8e be 46 c1 c3 bc
       -0.18690969 0.33065796 -0.27893493 -0.02389587
000280 48 4a cb 3e 30 37 19 3f 63 b8 c3 be 93 b2 04 3f
       0.3970511 0.59849834 -0.38226613 0.5183498
000290 07 7b 3b bf b5 16 a1 bf b4 a6 24 be a8 00 6e be
       -0.732346 -1.2585055 -0.16079217 -0.23242438
0002a0 01 25 6a be 97 9b e5 bd e4 7e 10 3e c2 61 f9 bd
       -0.22865678 -0.11211317 0.14110905 -0.12176849
0002b0 52 e3 00 3f 53 55 61 bd 18 19 e8 3e 92 52 e7 be
       0.50346863 -0.055013012 0.45331645 -0.45180184
0002c0 95 82 f3 bc 54 54 f6 3d 99 44 27 3f 67 01 39 3f
       -0.029725352 0.12027803 0.65339047 0.72267765
0002d0 0a 5b 95 3e 1c 06 21 ba d2 54 94 bd f8 0f 58 3f
       0.2917102 -0.0006142573 -0.07242741 0.84399366
0002e0 a7 fe 24 3e 4d b5 bd 3c 80 b2 bc be 61 57 5b 3d
       0.16112767 0.02315774 -0.36854935 0.053550128
0002f0 57 7f 1b 3f 65 20 5a be da 2e 9e be 4e 0b cd be
       0.6074118 -0.2130142 -0.3089512 -0.40047687
000300 bf 55 02 3e 9d 3f 03 3e e5 01 be be 77 f9 b5 3e
       0.12728022 0.12817235 -0.3711082 0.3554189
000310 ff 6e 11 3f 66 02 19 bf d0 f7 84 be 9d e8 60 3c
       0.5680999 -0.59769285 -0.25970316 0.013727334
000320 a3 3d 60 3e 1e 6a 2f 3e 57 63 56 3e 6d a8 83 bc
       0.21898513 0.17130324 0.20936333 -0.016071523
000330 ea 01 c8 3e a7 a7 c7 3e 3e e5 ae 3e 75 1e 90 be
       0.3906396 0.38995096 0.34159273 -0.28148237
000340 22 6e a7 3b a6 6d 02 bf 00 f0 f1 3d 5c be 2f 3f
       0.0051095644 -0.5094856 0.118133545 0.6864984
000350 90 04 33 3d 9b 38 a7 bd d5 95 37 3e 3f 48 e9 bc
       0.043705523 -0.081650935 0.1792825 -0.028476832
000360 1d c7 f4 bd de 18 c4 3e 6b 73 36 3e 47 6c d1 be
       -0.1195204 0.38300222 0.17817466 -0.40902922
000370 f9 91 c4 3e bf 38 54 be 37 9c 42 be cf 09 b8 3e
       0.38392618 -0.20724772 -0.19004904 0.35944983
000380 b5 17 c6 be e8 d8 e9 be 2a 10 ef 3d d7 ba b1 bd
       -0.38689962 -0.456733 0.11673005 -0.08678215
000390 d8 3d 9c be b9 e0 72 3f 1d 86 c9 bd 91 56 4c 3f
       -0.30515933 0.9487415 -0.09840033 0.7981959
0003a0 51 7b 76 3d 51 8b 8e 3e e5 c6 9a 3e 62 6e ac 3d
       0.060176197 0.27840665 0.3022987 0.08419491
0003b0 31 f6 b0 3e 28 3a 2f 3f aa 6b b9 3e 2b 26 ef 3e
       0.3456283 0.68448114 0.36214954 0.46708807
0003c0 0f 15 98 be 13 b2 3c bd e9 b4 c4 be 17 80 fe be
       -0.29703566 -0.046068262 -0.38419273 -0.497071
0003d0 4d 4f 0f be b8 ff 42 3e b2 7b 55 3e d0 b3 04 3d
       -0.13995095 0.19042861 0.20847967 0.032398045
0003e0 94 9f ce be 16 2f c8 3e 15 53 67 3e cc de 03 be
       -0.40356123 0.39098424 0.22590287 -0.12877959
0003f0 dd 30 c9 bd 7c 37 f5 3e 4c 0d 7a 3e ca 0a 42 3e
       -0.09823773 0.47893894 0.24419135 0.18949428

conv3.bias f4 [20]
000000 b9 ad a7 3d 0b b5 5d 3e 32 0b 93 be 96 21 e3 3d
       0.08187432 0.21651094 -0.2871948 0.110903904
000010 36 0d af 3c 1f 1a d8 3e d8 1a 03 bc e3 9f 81 be
       0.021368604 0.4220743 -0.0080020055 -0.25317296
000020 7b bb c3 3b b2 24 bc 3d 16 99 0f 3f 40 d8 5c 3e
       0.005973277 0.091866866 0.56092966 0.21566868
000030 13 83 03 3c 80 79 de 3d 83 fc 3b 3e df 28 8c 3e
       0.008026856 0.10863018 0.18358044 0.27374932
000040 2a 8f 0f bc 8c dc 12 bf e2 d8 de bc 3f d1 91 3d
       -0.00876216 -0.5736778 -0.027203027 0.07119989

conv4.weight f4 [20, 1, 3, 3]
000000 9e e4 91 be bd 34 29 bf ac 3a 21 bf 93 2d 73 be
       -0.28494734 -0.660961 -0.6298015 -0.23747854
000010 35 c5 2a be 76 34 ab be a6 9e ca bd 0e 2d c1 3e
       -0.16676791 -0.33438462 -0.09893541 0.37729686
000020 1f 76 e5 3d 6c 95 a6 3e e5 2a be 3d 02 c9 d8 3e
       0.112041704 0.32535875 0.09285525 0.42340857
000030 23 fc d4 3e fd a1 3e 3f 07 f4 ee 3e c2 02 3f 3c
       0.41598615 0.74465925 0.46670553 0.011658372
000040 b2 8f 17 3f 54 e1 6d 3e 24 2d 12 3d c5 ef d2 bd
       0.59203637 0.23230487 0.03568758 -0.10299639
000050 ac 87 2c 3d 3e 68 b3 be 12 9b 32 bf 3f 96 35 3e
       0.042121574 -0.35040468 -0.6976787 0.17733096
000060 b7 56 16 bf 91 7a 6d bf 5c df 3f bf 06 0e ac be
       -0.58726066 -0.92765146 -0.74950194 -0.3360445
000070 5a 75 b4 be 1b 52 f7 bd 5d 82 a7 3f 42 bc 1e 3f
       -0.35245782 -0.12076207 1.3086659 0.6200601
000080 56 81 ab 3e 42 06 47 bd 4e fa 13 3e c4 dc e7 3e
       0.33497113 -0.048589952 0.14450952 0.45285618
000090 7e e0 04 bf 2d e7 09 be fb 8c d9 bd 66 c5 56 bf
       -0.5190505 -0.13467093 -0.10622593 -0.83894956
0000a0 79 54 4e 3d b9 44 d3 be 7c 7e 0f bf d8 3a 89 3e
       0.05037353 -0.4126337 -0.56052375 0.26802707
0000b0 b2 c5 8e 3e f1 0f 6e 3d 8c 60 37 3f 90 b6 15 3f
       0.27885205 0.05812067 0.71631694 0.58481693
0000c0 70 7a 7f 3e 49 98 18 3f 08 8f 8a 3e 88 ab a6 be
       0.2494905 0.5960737 0.2706225 -0.32552743
0000d0 bc 03 64 be 80 c3 88 be 02 ce 31 be 20 4a 4e 3e
       -0.2226705 -0.26711655 -0.17363742 0.20145464
0000e0 c5 c0 24 3f 26 38 26 be 0b a8 a8 be 56 b9 3f bd
       0.6435664 -0.16232356 -0.32940707 -0.04680761
0000f0 06 6a ab bc f6 1f 09 be e7 94 12 bf 01 44 0f 3f
       -0.02092458 -0.13391098 -0.57258457 0.5596314
000100 11 c3 3d 3e 23 df 24 3e 0e 31 d4 3c 41 9a e6 be
       0.18531443 0.16100745 0.025902297 -0.4503956
000110 80 e7 4b bf 9f 9c 04 bf ae 7d 34 bb b8 8c 89 bd
       -0.79650116 -0.51801485 -0.0027540731 -0.06716293
000120 66 ed 1c 3f a5 f0 3c 3e 8f ea 03 3f 21 32 ef 3e
       0.6129974 0.18451174 0.51529783 0.46717933
000130 38 89 d4 3e f5 25 f3 3e ab 45 6b 3e 92 70 1c 3f
       0.4151094 0.47489896 0.22975795 0.6110927
000140 5a 7f 90 3f 9b 49 06 3f 87 cb 14 3f ec 56 a4 3e
       1.1288865 0.52456063 0.5812306 0.32097566
000150 74 fe 8f be 76 87 8d bd 20 0e 27 3d fd 09 a0 be
       -0.2812382 -0.06910603 0.040784955 -0.3125762
000160 36 e5 8b 3e 08 f6 fc 3e 27 36 11 be 84 5e 3b bd
       0.27323312 0.49406457 -0.14180814 -0.045744434
000170 df c8 a2 3c 3d d7 b9 3e 53 db bc 3e bb 7b 61 3e
       0.019871173 0.36297026 0.3688608 0.22019856
000180 75 a6 18 bf fd 7a b7 be b4 ff 82 be 87 46 44 bf
       -0.59628993 -0.3583602 -0.2558571 -0.76670116
000190 7b a8 da bd 3b eb ff 3e cd af c1 bc 24 a2 79 3e
       -0.10676666 0.49984154 -0.023643399 0.24378258
0001a0 c1 7a f6 3e af 05 be 3e 56 ab 2e 3f 5b 40 cc 3e
       0.4814053 0.3711371 0.6823019 0.3989285
0001b0 4a ae b1 be b4 27 c6 be 9c 1f d9 be af 95 84 be
       -0.34703285 -0.38702166 -0.4240693 -0.2589545
0001c0 c3 94 f3 be 29 22 bd be f3 6d 5f bd 57 0f c4 be
       -0.47574434 -0.36940125 -0.054548215 -0.38292953
0001d0 27 66 41 be 40 4b 07 bc 51 dc bb 3e 2c 2d 07 be
       -0.18886624 -0.008257687 0.36691526 -0.13200825
0001e0 0a 35 4d 3e 85 ee 3a be 96 b7 d3 be 48 da c9 3e
       0.20039764 -0.1825505 -0.41351002 0.39424348
0001f0 de ea f9 3e e3 fb ec bc fe 11 f0 bc 4b 99 03 3e
       0.48812002 -0.028928703 -0.029305454 0.12851445
000200 77 59 48 3f f4 14 b6 be 5f 89 1b be 27 b4 2f 3f
       0.7826151 -0.3556286 -0.15189122 0.68634266
000210 ee bf c8 bd a8 0b 4c 3e a4 9e d3 3e 3d 6a 3d bf
       -0.09802233 0.19926322 0.4133197 -0.7399023
000220 13 00 e6 be 1b 8c 07 bf a2 e0 53 bf 57 6f 50 be
       -0.44921932 -0.5294816 -0.8276464 -0.20354973
000230 83 bb 9f be 7e 46 e8 be 43 9b c9 bd df 23 c9 bd
       -0.31197748 -0.4536628 -0.09844067 -0.09821295
000240 b8 30 e0 be 43 37 27 3d 7a d3 96 3e 42 51 fa bd
       -0.4378717 0.040824186 0.2945822 -0.1222253
000250 42 00 ce 3e 4d 8e 09 3e 87 4d 82 3e 9d 04 e2 3e
       0.40234572 0.1343319 0.25449774 0.44144145
000260 42 ef 81 3f 22 76 aa 3e 30 b7 94 3e c3 21 6c 3e
       1.0151141 0.33293253 0.2904601 0.23059754
000270 77 45 77 bf ac 37 b9 be 27 02 6a 3e fa ca 8f be
       -0.9659037 -0.36175287 0.22852384 -0.28084546
000280 50 dc 2a 3d e7 b4 a5 bd 72 ab 18 3f 47 cb 92 be
       0.041714013 -0.08091145 0.59636605 -0.28670713
000290 61 1d 16 be 6a e1 c5 3e 39 4f d1 3d 5d 92 9c be
       -0.14659645 0.3864854 0.10220189 -0.30580416
0002a0 6a bf 2c 3f 81 1e 85 3e e4 27 8d 3e 7e c6 54 bd
       0.67479575 0.25999835 0.27569497 -0.05194711
0002b0 0f 0c 58 3e d3 f5 e9 3e e0 b1 e5 bc 49 45 b6 be
       0.2109835 0.45695361 -0.028038919 -0.35599735
0002c0 c8 6e 13 bf 93 bf 07 bf 9c 20 fd be a2 08 32 bf
       -0.57590914 -0.53026694 -0.4943894 -0.6954442

conv4.bias f4 [20]
000000 1a cf 04 3e 6d fd e1 3d fd e3 c5 3e 5f 5f 17 bd
       0.12969628 0.11034665 0.38650504 -0.036956187
000010 e1 37 96 bd cb 00 c1 3d c9 f9 ec be 65 d8 ff 3e
       -0.07334877 0.09423979 -0.4628432 0.49969783
000020 88 8a 43 3e c0 cf bb bd f1 44 a4 be a9 8a 90 3c
       0.19095814 -0.091704845 -0.32083848 0.017644243
000030 ad b2 f9 bd 14 27 1a 3e fc a9 d4 bc cd cc 02 3f
       -0.12192283 0.1505397 -0.025959961 0.5109375
000040 ac 4b 88 3e 70 63 5a be 90 02 6c 3e 13 da 0c be
       0.26620233 -0.21326995 0.23047853 -0.13755064

conv5.weight f4 [20, 20, 1, 1]
000000 01 51 83 be ac 6f 4f 3e 39 95 b6 bd 88 1a 1c 3d
       -0.2564774 0.20257443 -0.08915181 0.03811124
000010 3a 2e 46 be 95 6e 11 bf 05 76 da 3e 5f 78 83 3e
       -0.19353572 -0.5680936 0.42668167 0.25677773
000020 4e b5 3c be d1 39 cd be f1 74 10 3e 86 43 6b bf
       -0.18428537 -0.40083173 0.1410711 -0.9189991
000030 c6 8d 3f 3e 8c 48 a6 3e fa 2b e4 bd e2 07 5b 3e
       0.18706426 0.32477224 -0.111412 0.21389726
000040 c3 6a 1d 3d 84 10 12 be 6c b8 b3 be ff 22 08 bc
       0.038431894 -0.14264113 -0.3510164 -0.008309125
000050 35 3d fe 3d 51 ce 74 3d 61 5c 18 3e f0 6e cb 3e
       0.12414018 0.05976707 0.1487899 0.39733076
000060 a0 a5 30 3e 8c e2 ae 3e 4e ca 6c be c5 74 11 be
       0.17250681 0.34157217 -0.23124048 -0.142047
000070 cb 62 76 3e 6d 9a da 3e 89 36 ea be b1 91 72 be
       0.24061124 0.42695943 -0.45744732 -0.2368839
000080 37 a7 dc 3c b9 fc c4 3d cf 81 51 be d4 50 c9 3e
       0.026935203 0.096185155 -0.20459674 0.3931948
000090 54 c1 65 3e 8b 84 5d be d3 5a c0 3b df 20 14 3d
       0.2243703 -0.21632592 0.005870202 0.03616416
0000a0 5d e0 0b be 63 56 29 3e 74 ad 22 3e d1 34 c4 bd
       -0.13659807 0.1653686 0.1588648 -0.095803864
0000b0 73 08 fb be 25 0d 05 bf c6 c2 1f 3e 0e 7a ca be
       -0.49029884 -0.5197318 0.15601644 -0.39546245
0000c0 e0 4d b0 be 29 03 a3 3e 3b 31 96 be 97 4e 2d be
       -0.34434414 0.31838349 -0.29334435 -0.16924511
0000d0 ee 01 d1 bd 79 44 c2 be c9 dd 86 3e 81 f9 df be
       -0.10205446 -0.37942865 0.26341084 -0.43745044
0000e0 74 58 5d 3e 27 ff 4b bf 9f 66 11 bd 9a f9 73 be
       0.21615773 -0.79686207 -0.035498258 -0.23825684
0000f0 92 e3 09 bf a8 35 44 3f f7 d3 89 be 8a ab 28 3f
       -0.5386287 0.7664437 -0.2691953 0.6588675
000100 41 12 85 be 2a 28 be be 1a 6a 47 3d d5 b7 f1 3c
       -0.2599049 -0.37140018 0.04868517 0.029506603
000110 f1 87 0b bf 36 bd 75 3d 63 19 e6 3e 75 c6 91 3e
       -0.54504305 0.0599949 0.44941244 0.28471723
000120 4e 52 1b be fb 03 a9 3e 00 47 b4 3e 83 ae 87 3d
       -0.15168115 0.3301085 0.3521042 0.06625082
000130 c6 50 ec 3d 39 98 a0 3d 7b c8 17 3c 89 ce af 3d
       0.11538844 0.07841534 0.009264107 0.08584315
000140 9c 06 d6 3d d2 4e 1c bd 3c e5 13 3f 1f fd 77 bd
       0.104504794 -0.038161106 0.5777166 -0.06054413
000150 14 c4 15 be 54 5d af be 24 0f 52 be 82 fa 78 3e
       -0.14625579 -0.3425089 -0.20513588 0.24314311
000160 eb 91 eb 3d ab f1 0e be 9b db 15 bf 63 6b 92 3e
       0.11502441 -0.13959377 -0.58538216 0.28597555
000170 f4 11 02 be 4d 42 e8 3d a0 e0 fa 3d 2a f8 04 be
       -0.12702161 0.11340771 0.12249875 -0.12985292
000180 37 9c c8 3e 61 4a 1f 3f 39 e5 b5 3e cd b3 62 be
       0.39181682 0.6222287 0.35526446 -0.22138901
000190 f7 29 ee be 73 2f 5d 3d af fd d9 bd 32 73 9d be
       -0.46516392 0.05400033 -0.106440894 -0.3075195
0001a0 7e d4 9c be 8d 07 ec 3e 9c bb 83 be 2a 94 d9 bd
       -0.3063087 0.4609951 -0.25729072 -0.10623963
0001b0 5e 09 ff be 5c d5 c1 3d 1e 0d c9 bd 9c 24 4b 3d
       -0.49811834 0.09464523 -0.09816955 0.04959546
0001c0 9c 33 45 3e 07 6d c5 be 80 5d c7 3d 91 25 01 bf
       0.19257969 -0.38559744 0.097346306 -0.50447947
0001d0 31 a0 7e 3e 43 b2 14 3c 90 4a eb 3e a7 91 b3 be
       0.24865796 0.009075704 0.45955324 -0.3507206
0001e0 04 1c 92 be 23 d1 2a be d8 ff 27 bf a7 94 ff 3e
       -0.28537 -0.16681342 -0.6562476 0.499181
0001f0 ae 2d 18 be f0 d9 9a 3e 92 05 0e 3f c9 a0 52 3c
       -0.14861175 0.30244398 0.5547725 0.012855717
000200 b7 1f 36 3e c6 2f 4b 3d db 37 22 3e 65 72 1b bd
       0.17785536 0.049606107 0.1584162 -0.037950892
000210 4a ff df be 39 e0 c8 3c 04 24 7b bd e2 14 b9 3e
       -0.43749458 0.02452098 -0.061313644 0.36148745
000220 b3 0d 81 3e 5c b2 fd 3e d1 61 5f 3e b2 f9 7f 3d
       0.25205764 0.4955014 0.21814658 0.062493987
000230 55 1d b3 bd 89 09 82 3d 2b 66 06 be fb 71 af 3e
       -0.08745829 0.06349475 -0.13124911 0.34266648
000240 79 fa 9f 3e 5e 8c 89 3e 98 59 01 bf 4b 9a 89 3c
       0.31245783 0.26864904 -0.50527334 0.016797205
000250 92 c0 d1 3e 34 fd f8 bc f9 18 54 3e 12 60 ff bd
       0.40967232 -0.030394174 0.20712651 -0.12469496
000260 4a e1 1c be a0 7c 23 bf f1 c0 28 bf a0 d1 43 bd
       -0.15320316 -0.6386204 -0.65919405 -0.047807336
000270 b6 bb 30 3c b3 a0 21 3d 0f 2d 41 3e c6 e2 ad 3c
       0.010786941 0.039459895 0.18864845 0.021226298
000280 de 7b 2f bd 01 75 cd 3d 23 ab d3 be 31 8f 14 3e
       -0.04284274 0.10032082 -0.41341504 0.14507748
000290 37 84 f0 be 12 7e 77 3e 11 f3 b6 3e 4f 18 18 3f
       -0.46975872 0.24169186 0.3573232 0.5941209
0002a0 77 d0 d3 bd 68 50 45 3e 4d 6b aa bd c6 a2 15 be
       -0.10342496 0.19268954 -0.08321247 -0.14612874
0002b0 56 0e 19 3e 4a 57 f4 3e c3 ab 82 bd 5b 2b 5b bd
       0.14946875 0.47722846 -0.06380417 -0.053508144
0002c0 48 7c 43 bd 3f 73 c1 3e 83 23 29 3e 65 0b e6 3e
       -0.047725946 0.37783238 0.16517453 0.44930568
0002d0 84 90 6e 3d e3 4e 4c 3e 7a c2 8d 3f e8 63 0e bf
       0.05824329 0.19951968 1.1074975 -0.55621195
0002e0 d6 7d 21 be 7e 92 78 be 61 1f d3 3d 2d 44 01 bf
       -0.15770659 -0.24274632 0.103087194 -0.50494653
0002f0 a1 4d 5e be 2c e3 4c 3e 67 ba cd bd 35 86 13 3e
       -0.217093 0.20008534 -0.10045319 0.14406665
000300 82 92 b6 be b1 6a 2f 3e 5f a1 c2 3d 04 83 44 3e
       -0.35658652 0.17130543 0.09503435 0.19190603
000310 86 48 85 3e 00 0a a1 bd 70 04 43 be 71 72 c0 3e
       0.26031893 -0.078632355 -0.19044662 0.37587312
000320 fe e0 d1 bd f2 1e 19 3e 46 3d 6a 3e 51 51 77 3d
       -0.10247992 0.14953211 0.22874936 0.060380284
000330 b4 b6 82 be e8 ff 92 bc 6c 71 5e 3e 2b 83 62 3d
       -0.25530016 -0.017944291 0.21722955 0.055300873
000340 0d 21 99 be c7 ab c0 3e ee 7a b8 bd 4c ff c8 3e
       -0.29908028 0.37631056 -0.09007822 0.39257276
000350 e7 d4 c7 be 51 e5 d9 be a1 4c ba 3e cd 50 39 3e
       -0.3902962 -0.42557767 0.36386588 0.1809723
000360 15 e5 ec bd a6 0b 6d 3e 75 fd 62 be eb 1b b1 be
       -0.115671314 0.23148975 -0.22166999 -0.34591612
000370 6f 9b a7 3e 8e d7 bf 3a d4 40 2c 3e 5d 16 1e 3f
       0.32735774 0.0014636384 0.16821605 0.61752874
000380 f3 48 b1 3d 98 cd 81 3e 45 73 c1 bb c2 41 f9 3d
       0.08656492 0.25352168 -0.005903634 0.121707454
000390 71 45 4d 3e e2 cd 57 bc 04 b5 0e bf 92 4a 16 3e
       0.20046021 -0.013171645 -0.5574496 0.14676884
0003a0 3d 82 84 be a3 72 ed 3b 61 cb 7c 3e 48 ef 01 3e
       -0.25880614 0.007246332 0.24686958 0.12688935
0003b0 29 75 ce 3d 1d bf ef be 2b 3e 16 be 37 64 e2 bd
       0.1008094 -0.46825495 -0.14672153 -0.11054271
0003c0 a7 af 70 b8 bc 29 57 ba cf 5c 00 39 e0 a8 97 b8
       -5.7384048e-05 -0.0008207818 0.00012241605 -7.2316965e-05
0003d0 dd 93 a6 3b b5 b5 0b ba d0 21 cf 37 4a ce 7a 38
       0.0050835446 -0.00053295057 2.4692068e-05 5.9796766e-05
0003e0 40 89 c8 b8 61 04 bc b9 f5 ec 36 39 f9 e0 20 b9
       -9.562308e-05 -0.00035861417 0.00017445146 -0.00015342598
0003f0 95 b1 54 3a 2f 9f f6 b8 cf f6 c8 b6 e2 62 74 38
       0.000811362 -0.00011759844 -5.989197e-06 5.8266225e-05

conv5.bias f4 [20]
000000 c8 a1 2c be ff 50 49 be 1f 2c 63 be ad c7 7c 3e
       -0.1685859 -0.19659804 -0.221848 0.24685545
000010 e1 ad ba 3e f9 6c 8c 3c da ee b3 be 92 fc 83 3e
       0.36460784 0.017141806 -0.35143167 0.25778633
000020 4c b1 7f 3d 8c a5 a0 bd 50 6f 02 3e 2b a0 e0 3e
       0.062424943 -0.078440756 0.12737775 0.43872198
000030 bf 7d 8a b7 9c 20 1f 3e 39 2f 91 3e 8c 9b d5 be
       -1.6509437e-05 0.15539783 0.2835634 -0.41720235
000040 ea 54 e8 bd 89 3c 8e be c6 4a 30 be aa cb 03 3e
       -0.11344321 -0.2778056 -0.17216024 0.1287066

conv6.weight f4 [20, 1, 3, 3]
000000 da a1 1b bf 01 16 3f bf 1d b6 c7 be 56 3c 36 bf
       -0.6079384 -0.7464295 -0.3900613 -0.71185815
000010 db 3c 44 bf 2c 3b 88 bf b2 e1 cc be 46 4b f9 be
       -0.7665536 -1.0643058 -0.40015942 -0.48690242
000020 d3 ed 88 be 89 bc 8a 3e d9 37 62 be fb ef c3 be
       -0.26743945 0.27096966 -0.22091617 -0.38269028
000030 ba 72 ad be dc 86 02 3e 7b b0 fc be 7f ea a2 3e
       -0.33876592 0.12746757 -0.49353394 0.3181953
000040 ec bf c3 3e ea 94 e4 3e 92 68 82 3d 21 2b 90 3e
       0.38232362 0.44644862 0.063676015 0.28157905
000050 c3 b9 d5 bd bb 1f 98 3e a4 c6 7d 3e 0d 31 1c 3e
       -0.10435822 0.29711708 0.24782807 0.15253086
000060 b5 d1 07 bf 3e 60 b4 be 3c 9f 64 bc f9 f9 d7 be
       -0.5305436 -0.35229677 -0.01395398 -0.42182902
000070 42 bb 02 bf 6c 87 b4 3d de a6 b5 3e 89 87 ea be
       -0.5106698 0.08814892 0.35478872 -0.4580653
000080 86 4a 66 bd a6 9e ec 3d f9 da 3a be 5a ea 14 3e
       -0.056223415 0.11553697 -0.18247594 0.14542523
000090 60 28 a7 bd 4d d4 6f be 88 a6 19 bf 8a 13 01 3f
       -0.08161998 -0.2342083 -0.6001973 0.5042044
0000a0 d7 23 83 3e 9f c6 8d 3e f0 8e a7 bd 32 83 75 3e
       0.2561328 0.27690598 -0.0818156 0.23975828
0000b0 03 c6 48 bd ae b9 7f be b7 6c 31 b9 12 2e eb 3d
       -0.049016964 -0.24973175 -0.00016920535 0.114833966
0000c0 b1 72 e1 3e 77 18 bb bd 58 74 ab be 7d b5 0f 3f
       0.44032815 -0.09135526 -0.334872 0.56136304
0000d0 12 8f e3 3e 44 65 cd 3a f4 6d 5b 3e a6 d1 23 bf
       0.4444509 0.0015670438 0.21428663 -0.63991773
0000e0 5b 28 95 3d 9f d7 17 3f a4 eb ba 3d fc 41 50 3e
       0.07283088 0.59313387 0.09126976 0.20337671
0000f0 c3 ff 39 be be 5f b9 be d6 74 5a bd 9a e4 e8 be
       -0.18163972 -0.36205858 -0.05333408 -0.4548691
000100 d2 27 e0 be 36 78 cb be b2 5f 87 be 59 3c 33 bf
       -0.4378038 -0.3974015 -0.26440197 -0.7001396
000110 96 28 c5 be 87 1e 79 3c 7c 06 0a bf 5e 39 b3 bd
       -0.38507527 0.015205032 -0.53916144 -0.08751176
000120 75 2a 6c 3e 24 06 1b 3e 56 6b c3 be 8c dd dd 3e
       0.23063071 0.15139061 -0.38167828 0.4333309
000130 e0 87 da 3e cf a6 0c be 36 d4 f2 bd 03 b8 8d 3d
       0.4268179 -0.13735507 -0.11856882 0.06919863
000140 4d 09 e2 bd 7e 37 9b be 73 ee 3c bc 57 82 06 3e
       -0.1103693 -0.30315775 -0.01153146 0.13135658
000150 24 aa ac be 26 7f 54 3e 68 85 fa 3d 86 03 1f bf
       -0.33723557 0.20751628 0.122324765 -0.6211475
000160 76 95 4a be d7 0b 9f be e4 c6 bd 3e 2a 9a e3 3e
       -0.19783577 -0.3106372 0.37065804 0.44453555
000170 78 af a4 be 46 51 71 bd 0f bd 4d 3e 07 4c 48 be
       -0.32165122 -0.0589154 0.20091651 -0.19560252
000180 ff f3 6e 3e b9 3f 78 3e 9e 9c 25 bd cb 8f a3 be
       0.23335265 0.24243058 -0.040432565 -0.31945643
000190 c7 96 b6 be 94 3d 29 bf 1e cf 78 3e ae 36 69 3e
       -0.3566191 -0.66109586 0.24297759 0.22774765
0001a0 c9 d4 8d 3d 8b 38 cf be 3b 75 5b bd 7d c7 b0 bc
       0.06925351 -0.40472826 -0.053578597 -0.021579498
0001b0 af 91 00 38 eb 8f d3 b8 ca 3a b7 b9 47 6e c0 3a
       3.0653257e-05 -0.00010088071 -0.0003494828 0.0014681303
0001c0 04 b9 8c 3b 31 ea 1d 3b 01 47 19 39 d1 38 ee 38
       0.0042945165 0.0024095888 0.00014617668 0.00011359307
0001d0 58 c2 b0 34 34 d8 8e be f4 18 8c bf fa f0 52 bf
       3.2923958e-07 -0.27899325 -1.0945115 -0.8239895
0001e0 a7 6e 95 3f 69 38 06 3f 78 07 50 3e 31 c2 8d 3e
       1.1674393 0.52429825 0.20315349 0.2768722
0001f0 7b 4c 80 be 56 74 b9 bc f8 00 77 bd 59 42 01 bf
       -0.2505835 -0.022638481 -0.06030366 -0.50491863
000200 42 24 97 be c7 f8 07 3d 41 b4 0b bf c2 21 e3 3e
       -0.2951985 0.033196237 -0.5457192 0.44361693
000210 6b 30 1e be 61 de da 3d ae fb 80 3c a3 d1 35 bd
       -0.15448157 0.10686947 0.01574501 -0.04438938
000220 3a 53 48 bc 14 99 a9 be e8 b0 96 3e 4c f1 a8 3e
       -0.012226874 -0.33124602 0.29431844 0.32996595
000230 8f 5f e9 be 6d 39 0a be 0b 98 9b be 6c 6b ac 3e
       -0.45580718 -0.13498469 -0.30389437 0.33675706
000240 b3 5f 5b be fa 61 11 bf d0 ba f3 be df 08 21 3f
       -0.21423225 -0.56790125 -0.47603464 0.6290416
000250 9c cd c1 3e ea fb 17 bf 31 a3 93 3e 8a dd 5f be
       0.3785218 -0.59368765 0.28835443 -0.21861854
000260 35 c3 2e bd 6f 3a ee bc 87 98 b2 bd ba a7 3a be
       -0.042666633 -0.029080598 -0.087204985 -0.18228045
000270 5c 5a c2 3e 72 50 e6 be 47 f1 7d 3d d5 34 df 3d
       0.37959564 -0.4498325 0.061997678 0.10898749
000280 77 a7 6c bf 05 4f 68 be 1c 49 2b 3e c7 9f 2d bc
       -0.9244303 -0.22686394 0.16727108 -0.010597176
000290 98 ca 13 3f e0 c8 07 bd 8c ee f3 be 63 44 90 3e
       0.5773101 -0.033150554 -0.47642934 0.28177175
0002a0 0e e0 b4 be 3a 47 6d be 6f b3 7b be 26 a6 8a be
       -0.3532719 -0.23171702 -0.24580167 -0.27079886
0002b0 f0 76 ed bb ee b3 26 3e b8 f4 72 3e 63 49 4b 3e
       -0.0072468445 0.16279575 0.23726165 0.19852214
0002c0 62 0b 98 be b0 37 e8 be 9c 73 da be 19 c4 8a be
       -0.29696184 -0.45354986 -0.42666328 -0.27102736

conv6.bias f4 [20]
000000 41 8f 98 bd bc 53 31 3b 07 5b d2 3d 2d 8d 9c 3e
       -0.074491985 0.0027057966 0.10271268 0.3057646
000010 33 af 11 be 0e 2a 0c 3e f3 24 ac bc bf c2 59 be
       -0.1422699 0.13687918 -0.021013713 -0.21265696
000020 12 3a b2 3e 6c f7 65 be 9b 4a 7e be 86 67 0f 3f
       0.3480993 -0.22457665 -0.24833147 0.5601734
000030 0b 18 98 be 4d 33 7d 3e d4 39 13 bd 85 2b 04 be
       -0.29705843 0.24726601 -0.03594382 -0.12907226
000040 06 54 e7 be 25 49 d4 3e c7 f5 cc bd eb 0c 2d be
       -0.45181292 0.41462055 -0.10007816 -0.16899459

conv7.weight f4 [20, 20, 1, 1]
000000 65 ad 86 3e 40 22 59 be ee 36 88 be 13 a9 1f 3e
       0.26304165 -0.21204472 -0.26604408 0.1559184
000010 9a 8c 4b 3e c6 0d 96 3b 6f 3d 2e be bd 1b 6f be
       0.19877854 0.0045792786 -0.17015623 -0.23350425
000020 28 f1 56 bc 18 6a 6e bd 97 b3 a6 be fc ec 0e bc
       -0.01311902 -0.058206648 -0.3255889 -0.008723494
000030 c1 35 d4 3c 9f fb 7c 3e 47 d7 78 3b 16 4c 2b be
       0.025904538 0.24705361 0.0037970112 -0.16728243
000040 bd a6 48 3e 04 3f 92 be 80 c5 47 3d 1a 8b 85 3e
       0.19594856 -0.28563702 0.048772335 0.2608269
000050 30 db 12 3f b3 80 1f 3f 8e 16 99 be d4 ba 3a be
       0.57365704 0.62305754 -0.2990002 -0.18235332
000060 60 bc 5b be 04 fd a3 3d ab 45 3f bc fd b3 8c bc
       -0.21458578 0.08007243 -0.011674325 -0.017175669
000070 d4 a9 98 bd b2 59 b6 3e 72 5c 74 3e 04 2a 66 be
       -0.07454267 0.35615307 0.2386339 -0.22476965
000080 61 ac 7c 3e 80 d2 bc be ba db f3 3e db 75 b8 3e
       0.24675132 -0.3687935 0.47628576 0.36027417
000090 6a 1d 30 3e 8b fb d7 be 20 35 96 3c a2 dc b0 3d
       0.1719872 -0.421841 0.018335879 0.08635832
0000a0 73 39 6f 3e 4b fc 03 3e 7e ff 56 3c c1 d9 47 3e
       0.23361759 0.12889211 0.0131224375 0.1951666
0000b0 9e 35 82 be 12 e6 da be 52 5e 78 be 47 0b d4 be
       -0.25431532 -0.42753655 -0.2425473 -0.41414854
0000c0 e2 98 64 3d f6 c5 d1 3a 21 19 3f 3e 1e 53 05 3e
       0.055809863 0.0016004432 0.1866193 0.13019988
0000d0 32 a4 19 3d 59 33 b7 bc 55 98 c8 be 3f 22 3b 3f
       0.037510104 -0.022363352 -0.3917872 0.7309913
0000e0 13 22 ae 3e 0f e9 40 be 60 d4 71 be 21 59 c9 3e
       0.34010372 -0.18838905 -0.23616171 0.39325812
0000f0 c2 bb 83 3d 11 3e 69 be d5 9f f8 be 4b da 26 3c
       0.06432296 -0.22777583 -0.48559442 0.010183881
000100 1d e2 15 3e 51 8f 07 3e 56 c6 b7 3e 6f b3 9e bd
       0.14637037 0.13238265 0.35893506 -0.07749068
000110 a7 50 9e bd d2 85 c6 3d ad 80 40 3d a0 81 6e 3d
       -0.07730227 0.09693493 0.046997715 0.05822909
000120 76 8a 5d 3d 10 72 50 bd 6c 33 c5 be 1c 47 38 bd
       0.054087125 -0.05089003 -0.38515794 -0.04498969
000130 50 8b 92 3e 11 87 00 bf 6c ad e8 3e 4d a8 b6 bd
       0.28621912 -0.50206095 0.4544481 -0.089188196
000140 a9 19 f6 be e1 c9 11 be 94 fc c1 be 56 41 01 3f
       -0.48066452 -0.14237167 -0.37888014 0.5049032
000150 f5 5f 5c 3e 79 21 63 bd 38 28 f4 3d d6 f0 af 3e
       0.2152098 -0.055451844 0.119217336 0.3436343
000160 7d d4 05 bf 39 b7 f8 bd 01 50 5f 3e 40 8a 00 be
       -0.52277356 -0.12144322 0.21807863 -0.12552738
000170 8f 52 5d bd 81 48 63 3d 1c bb fc 3e bc a1 02 be
       -0.054033812 0.055489067 0.49361503 -0.1275701
000180 fa ee be be 34 5a ae 3d a6 bb 8b 3d d5 f0 a7 3e
       -0.372917 0.08513299 0.068229005 0.32800928
000190 2f e2 6f be f9 b0 ad be d0 4c cd ba 1c 22 9c 3d
       -0.23426126 -0.33924082 -0.0015663151 0.07623693
0001a0 14 e1 03 3e ab 9b 3f be 53 ac a9 be ea 21 06 3e
       0.12878829 -0.18711726 -0.33139285 0.13098875
0001b0 cf 87 51 be 7a 63 cb 3e 66 f9 cc be 54 4f c9 be
       -0.20461963 0.39724332 -0.40034026 -0.39318335
0001c0 81 df c7 3d dc 72 06 3f c2 6a ce 3e e7 73 35 3d
       0.09759427 0.5251901 0.40315825 0.044299986
0001d0 1e 30 e5 3e 68 d3 53 3d ee de a3 3d 41 25 11 be
       0.44763273 0.051715285 0.08001505 -0.14174367
0001e0 1c 25 3b bd 36 56 a6 3e ca cf 75 3e 97 fa b4 3c
       -0.045689687 0.3248765 0.24005046 0.022092147
0001f0 26 9e 61 be 37 a2 06 bf 5a 6e 65 be 2f b6 7b 3e
       -0.22032985 -0.5259127 -0.22405377 0.24581216
000200 0d fb c9 bc 42 5e 0b 3f 0e 6c 20 be b3 73 ca 3c
       -0.024655843 0.544407 -0.1566622 0.024713373
000210 c2 5a 21 bc ac b0 7a 3e 95 9f d6 3e 84 a7 ad be
       -0.0098482985 0.24481457 0.41918626 -0.33916867
000220 23 19 ca 3e 2a 55 ff 3d fa 77 a6 bc cb 35 cc 3d
       0.39472303 0.12467416 -0.020320881 0.09971198
000230 03 cd 67 3d f7 5a b5 3d bd 40 95 3d c5 46 1f 3f
       0.056592 0.08855241 0.072877385 0.6221736
000240 ea a6 11 be df 16 8c be 83 ee cb be 17 7a b7 3d
       -0.14223829 -0.273612 -0.39830408 0.08958834
000250 df 90 76 3e 4f 0c 9c 3e 6e fa 44 be 1b d7 f1 3a
       0.24078701 0.3047814 -0.19236156 0.0018450947
000260 0d 60 b6 3c a0 ed d6 be b3 5c 2e bd 20 6b 2d 3e
       0.022262597 -0.41978168 -0.042568874 0.16935396
000270 5b c2 fb be c1 52 82 bd 6e 9b 38 bf 17 b6 ae 3e
       -0.4917172 -0.0636344 -0.72112167 0.341233
000280 98 96 2c 3f 2c 83 89 3d d4 f6 67 3d 9a 3f 51 be
       0.6741729 0.06714472 0.056631878 -0.20434418
000290 8a 8f 05 bf 12 cb ae b9 fd 90 80 bd 69 9e e5 3d
       -0.5217215 -0.00033339165 -0.06277654 0.11211855
0002a0 83 27 2e 3e a6 4a 0a 3e 3d da 2b be 7a f6 4a 3d
       0.1700726 0.13505039 -0.1678247 0.049551465
0002b0 e5 bf f2 bd c7 5f 52 bd 79 52 97 bd cb 29 53 3e
       -0.11853007 -0.05136087 -0.07388777 0.20621412
0002c0 01 f4 2c 3f 1e 1a 99 3e ed e4 2e bd 52 8c cf 3d
       0.6755982 0.29902738 -0.04269879 0.10134186
0002d0 5f bf cb bd 74 7c f4 bd 2b 0a 41 be da 5a aa be
       -0.099486105 -0.119378 -0.18851535 -0.3327244
0002e0 76 5c 8e be 46 ac 6c 3e b6 bc 76 bd 13 c8 54 3e
       -0.27804917 0.23112592 -0.060238563 0.20779447
0002f0 e5 ea 73 be d8 f0 1e 3c 90 10 b7 be 56 ad d9 3e
       -0.23820074 0.009700976 -0.35754824 0.42515057
000300 88 3b 42 be ef 3f 21 3f 62 77 74 3e 9b 39 bb 3e
       -0.18968022 0.6298818 0.23873666 0.36567387
000310 63 d3 2c 3f 6c 6c 1a 3e 35 68 db be bc 33 24 be
       0.6751005 0.15080422 -0.4285294 -0.1603536
000320 f8 42 9c 3e 70 fc c2 3d 7c e8 87 3c 03 cf 65 be
       0.30519843 0.09520805 0.01659035 -0.2244225
000330 07 e8 d5 bd 6e 7f e5 3d cc ac 57 be b6 84 34 3e
       -0.10444646 0.11205946 -0.2106201 0.1762875
000340 e4 b5 89 be 0d f4 b5 be 43 65 16 3e 7e 4e 63 bd
       -0.26896584 -0.35537758 0.14687066 -0.055494778
000350 52 6a ac 3e 32 b6 b6 3e 02 1d ae be 05 37 9a bd
       0.33674866 0.3568588 -0.34006506 -0.075300254
000360 42 ae fa 3d 6e 5e 67 be e6 17 1b 3e 49 71 a6 be
       0.12240268 -0.22594616 0.15145835 -0.32508305
000370 2e 31 a1 3d 69 05 3d bd 26 b9 d3 be a1 8a 45 3d
       0.078707084 -0.046147738 -0.41352195 0.04822791
000380 37 22 de bc f6 1b 18 3e 36 2a 13 3c 49 9b 0d 3f
       -0.027115924 0.14854416 0.008982232 0.5531507
000390 ec ae 45 be 58 4c 0b bf ec d1 ab 3d 1b 71 8a 3e
       -0.19305009 -0.54413366 0.08389649 0.27039418
0003a0 9e a5 c3 3d d6 91 aa be 90 c5 49 3e a1 50 7e be
       0.09553073 -0.3331439 0.1970427 -0.24835445
0003b0 c9 5a 1d 3e 2f 59 24 3d 93 4a 6a 3e 05 2d 4c 3e
       0.15366663 0.040124115 0.2288001 0.19939049
0003c0 b0 8f 9c 3e 30 79 f6 3d 2e d5 8c 3e 87 35 cc bd
       0.30578375 0.120348334 0.27506393 -0.09971147
0003d0 9a a5 1f be 10 27 88 bd 02 81 95 3e b2 25 3f 3e
       -0.15590516 -0.066480756 0.29199988 0.18666723
0003e0 1a 16 30 3e fe f2 73 3e b6 fd 74 3c 55 5a 84 be
       0.17195931 0.23823163 0.0149530675 -0.25850168
0003f0 14 73 b9 3e 60 f2 f1 be f5 c6 9a 3e bc 30 4d 3d
       0.3622061 -0.4725523 0.30229917 0.050095305

conv7.bias f4 [20]
000000 ee 14 0b be 4f d2 bc be 04 97 49 be c9 2b 52 bd
       -0.13582203 -0.36879203 -0.19686514 -0.051311288
000010 b9 cf 1b 3e 9b 61 1f be 9b 3d 92 bd 02 94 44 3e
       0.15215959 -0.15564577 -0.071406566 0.19197085
000020 f6 76 1d 3e af 4e 67 3d 90 2b 53 be 4c 76 60 bd
       0.15377411 0.056471523 -0.20622087 -0.054800317
000030 be 00 e7 bd 1d dd 6e bd 2e e5 1c 3d 72 e6 9d be
       -0.112794384 -0.05831634 0.0383045 -0.30839878
000040 98 3c 45 bd 79 bf d8 3d c0 48 10 3e 15 dc b9 3d
       -0.04815349 0.105833955 0.14090252 0.090751804
