models/CIFAR10/cnn_params=047k_seed=025/099.pth (torch, 193063 bytes, 8 tensors)

conv1.weight f4 [30, 3, 5, 5]
0	0x3e1a9b68	0.15098345
1	0xbcf6baf4	-0.030118443
2	0xbe02dc98	-0.12779462
3	0x3dfba764	0.122877866
4	0xbd8df833	-0.06932106
5	0x3d458ff4	0.048232988
6	0x3e25cc43	0.16191201
7	0x3d4e3d78	0.05035159
8	0x3da22954	0.07918039
9	0x3db03e16	0.08605592
10	0xbe808a2e	-0.25105423
11	0xbd8ba090	-0.06817734
12	0xbd0c4c91	-0.034252707
13	0x3e1aca35	0.15116198
14	0xbdd52a89	-0.104085036
15	0xbd5cda2d	-0.053919006
16	0xbbe70d94	-0.007051179
17	0x3da2bd68	0.079462826
18	0x3e5f1ed0	0.21789098
19	0x3e291266	0.16510925
20	0xbe99be85	-0.30028167
21	0xbe0aa997	-0.13541256
22	0x3d279c40	0.040920496
23	0x3da34353	0.079718255
24	0x3c7f222e	0.015572114
25	0xbdcdee78	-0.1005525
26	0x3dc8d751	0.09806693
27	0xbdb985f6	-0.09058754
28	0x3da26ce7	0.07930928
29	0x3db3b814	0.087753445
30	0xbd5fd578	-0.05464694
31	0x3e38d37c	0.18049425
32	0x3dbf4ce3	0.09340837
33	0x3e5adfcc	0.21374434
34	0x3e8a9157	0.2706401
35	0xbe910641	-0.28325084
36	0xbc7f9126	-0.015598571
37	0xbe0095e9	-0.12557186
38	0xbdc423e8	-0.09577161
39	0x3d6fdf83	0.058562767
40	0xbe63e44c	-0.22255057
41	0xbd5b67e4	-0.053565875
42	0xbd4c3b79	-0.049861405
43	0x3c43f5e1	0.011960478
44	0xbd8d367b	-0.06895157
45	0xbe649e9c	-0.2232613
46	0xbd9f3f92	-0.07775797
47	0xbc228419	-0.00991919
48	0xbacb364a	-0.001550385
49	0x3adffdf7	0.0017089237
50	0xbdc05e71	-0.09393013
51	0x3c9bb697	0.019007964
52	0xbccf50f6	-0.02530716
53	0xbdde1c3f	-0.10845231
54	0xbd7965fa	-0.060888268
55	0xbb8367f7	-0.0040101963
56	0x3e11bd1e	0.14232299
57	0x3d77967d	0.06044625
58	0x3e05f9cf	0.13083576
59	0x3dfe63b1	0.124213584
60	0xbe265d31	-0.16246487
61	0xbdc84d65	-0.09780387
62	0xbe01d195	-0.12677605
63	0xbe534797	-0.20632778
64	0xbdd1ace8	-0.102380574
65	0x3dde4162	0.108523145
66	0x3e404e21	0.18779804
67	0x3d5c0cdf	0.053723212
68	0xbde0d33d	-0.109777905
69	0xbdd8a36b	-0.105780445
70	0x3e004f23	0.12530188
71	0x3e338ade	0.17533442
72	0xbd6dbcf8	-0.058041543
73	0xbd061159	-0.032731388
74	0xbc0dc966	-0.008653974
75	0x3cce3682	0.025172476
76	0xbe1321bb	-0.14368336
77	0x3c55c84c	0.013048243
78	0x3de732e0	0.112890005
79	0x3b09e514	0.0021041082
80	0x3dc27679	0.09495253
81	0x3dc6fae7	0.097158246
82	0xbe24dcdf	-0.1609988
83	0xbe06fead	-0.13183089
84	0x3ca48119	0.02008109
85	0x3d2b804d	0.041870404
86	0xbd347aaa	-0.044062294
87	0x3e8261d3	0.2546526
88	0xbcd54c09	-0.026037233
89	0xbe63fad9	-0.2226366
90	0xbe00b64f	-0.12569545
91	0x3cabfe9e	0.020995434
92	0x3e0d11c2	0.13776305
93	0x3db5646f	0.08857047
94	0xbde4db57	-0.11174648
95	0x3dcbadfe	0.09945296
96	0x3dde1ef7	0.1084575
97	0xbe43fda6	-0.19139728
98	0xbd97f360	-0.07419467
99	0x3dee64a9	0.11640293
100	0x3d7932ca	0.06083945
101	0xbde0165e	-0.10941766
102	0xbdf7b6fd	-0.12095449
103	0x3dd577c1	0.10423232
104	0x3db9f361	0.09079624
105	0xbd145f37	-0.036223616
106	0x3df8a932	0.121416464
107	0xbe0d1a40	-0.13779545
108	0xbe15c938	-0.1462754
109	0x3e07b6a9	0.13253273
110	0xbd674b5e	-0.05646836
111	0x3dbaa626	0.091137215
112	0x3e449dfb	0.1920089
113	0x3d495113	0.049149584
114	0xbe68a7ca	-0.22720256
115	0xbd1a35af	-0.037648853
116	0xbdbb6c40	-0.091515064
117	0x3e1b5b89	0.15171637
118	0x3c2a1837	0.01038175
119	0xbd8f08f9	-0.06984133
120	0x3da63bf8	0.08116907
121	0x3c2f9dc2	0.010718765
122	0xbe524773	-0.20535068
123	0xbd2511e3	-0.04030026
124	0x3dcd1802	0.10014345
125	0xbdcaf2b4	-0.09909573
126	0xbe05dc9a	-0.13072434
127	0xbde30bb6	-0.11086218
128	0x3db8b6fc	0.090192765
129	0x3e45744a	0.19282642
130	0x3dce2f21	0.10067583
131	0xbd573419	-0.05253992
132	0xbd2bc0a7	-0.041931774
133	0xbd01e547	-0.031712797
134	0x3e5da706	0.21645746
135	0xbd06aa08	-0.032877
136	0xbd868b4c	-0.065695375
137	0x3e2f521b	0.17121165
138	0x3cebd603	0.028788572
139	0xbe71347a	-0.23555174
140	0xbe247477	-0.16060053
141	0x3c250e91	0.010074274
142	0x3e445cfc	0.19176096
143	0x3c67d241	0.0141492495
144	0xbd90db92	-0.0707313
145	0x3e22d761	0.15902473
146	0x3e1d33fc	0.15351862
147	0xbe8b2803	-0.27178964
148	0xbd9857f1	-0.074386485
149	0x3d4b86ad	0.049688984
150	0xbd6b89be	-0.057504408
151	0xbdc35bd2	-0.09538998
152	0x3afcda4f	0.0019291135
153	0x3c01544a	0.007893631
154	0x3ce7c47e	0.028291937
155	0x3d340e33	0.043958854
156	0x3dabc465	0.08387069
157	0x3d182d7c	0.037152752
158	0x3dd5141a	0.10404225
159	0xbd9c26a1	-0.076245554
160	0xbdb8b3be	-0.09018658
161	0x3cd13aa1	0.025540652
162	0x3c93a475	0.018022755
163	0xb9c37199	-0.00037277935
164	0xbcaf7c4e	-0.021421578
165	0x3d123d8a	0.03570322
166	0x3bd3b21f	0.0064604427
167	0x3d38f1c6	0.045152448
168	0xbc1f70c9	-0.00973148
169	0xbdaa487b	-0.08314606
170	0xbd498e9e	-0.049208276
171	0xbd0c36e2	-0.034232028
172	0xbd875cfb	-0.066095315
173	0x3d4a4b28	0.04938808
174	0x3d5b4169	0.053529177
175	0xbd92a6eb	-0.07160743
176	0x3df99129	0.1218589
177	0xbccbc1b1	-0.024872633
178	0xbd3f4414	-0.046695784
179	0x3d5276c3	0.05138279
180	0x3d97d209	0.07413108
181	0x3e2c8833	0.16848831
182	0x3cf5dc97	0.030012412
183	0xbdb71915	-0.08940331
184	0xbd74b9ed	-0.059747625
185	0x3e074276	0.13208947
186	0x3e4cb73d	0.19991775
187	0x3c4f6b20	0.012659818
188	0xbdab6cb1	-0.083703406
189	0xbe710897	-0.23538433
190	0x3e5fc743	0.21853356
191	0x3e6cdac2	0.23130324
192	0x3dd1ae3e	0.10238312
193	0xbdc41f4f	-0.09576284
194	0xbe6eeb8b	-0.2333204
195	0x3dcfef32	0.10153045
196	0x3de9bc48	0.11412865
197	0xbd0e55c1	-0.03474975
198	0xbe4cf404	-0.2001496
199	0xbe21e9d1	-0.1581185
200	0xbd73ec07	-0.059551265
201	0x3dd19000	0.10232544
202	0x3e25393a	0.16135111
203	0xbcd898c9	-0.026440041
204	0xbdabf97e	-0.08397196
205	0xbd976e56	-0.07394092
206	0x3dccab50	0.09993613
207	0x3da408d0	0.08009493
208	0xbd6c1851	-0.057640377
209	0xbe02809e	-0.12744376
210	0x3e2b5b26	0.16733989
211	0x3e037725	0.12838419
212	0x3e0e4495	0.1389335
213	0xbba74d9f	-0.0051056887
214	0xbe8ca11f	-0.27466676
215	0x3db008ec	0.08595452
216	0x3e25ce92	0.16192082
217	0x3ccc6b8c	0.024953626
218	0xbe3ad405	-0.18244942
219	0xbe97892f	-0.2959685
220	0x3e2a0c89	0.16606344
221	0x3e3b915c	0.18317169
222	0x3d09b8e6	0.0336236
223	0xbe30498a	-0.17215553
224	0xbe916b30	-0.2840209
225	0x3d1d9cde	0.03847968
226	0x3e217754	0.15768176
227	0x3e48acf2	0.19597223
228	0xbe2604de	-0.16212794
229	0xbe8cb382	-0.27480704
230	0x3dd6dd5a	0.10491438
231	0x3cd1a1c5	0.025589833
232	0x3db8cac0	0.090230465
233	0xbe9c8597	-0.3057067
234	0x3cc1513c	0.023598306
235	0xbd15ad66	-0.03654232
236	0xbd93c83c	-0.07215926
237	0xbe198d42	-0.14995292
238	0xbd5d4055	-0.05401643
239	0x3e8796fa	0.26482373
240	0xbb751d1b	-0.0037401381
241	0xbe11a950	-0.14224744
242	0xbe356c49	-0.17717089
243	0x3e405347	0.18781768
244	0x3e41fcb2	0.18944052
245	0xbd4e2797	-0.050330725
246	0xbd443f72	-0.04791207
247	0xbd3f84d6	-0.04675754
248	0x3df164e7	0.11786824
249	0x3d81adb1	0.06331957
250	0x3d896c43	0.067101024
251	0x3b43b246	0.0029860898
252	0x3e96ca2d	0.29451123
253	0xbd9493e5	-0.07254771
254	0xbe864ca1	-0.26230338
255	0x3e16967d	0.14705844

conv1.bias f4 [30]
0	0xbc3ce1a5	-0.011528407
1	0x3c6725b8	0.014108114
2	0xbdba624e	-0.091007814
3	0x3c404c55	0.011736949
4	0xbce461c5	-0.027878651
5	0x3d3d563e	0.046224825
6	0xbd3fdf3d	-0.046843756
7	0xbba0e252	-0.004909792
8	0xba202a0b	-0.00061097805
9	0x3c94e0f5	0.018173674
10	0xbc6305e6	-0.013856387
11	0x3deed2fc	0.11661336
12	0xbc5136a9	-0.01276938
13	0x3e0f57ab	0.13998286
14	0xbd89d9ad	-0.067309715
15	0x3d8b2c92	0.067956105
16	0xbb9145c5	-0.004433366
17	0xbf05b40c	-0.52227855
18	0x3dd6402f	0.10461461
19	0x3dbaccdf	0.09121107
20	0xbc207f04	-0.009795908
21	0x3c521296	0.012821814
22	0x3eae0af6	0.33992738
23	0xbe2dfc1a	-0.169907
24	0x3d9c6920	0.076372385
25	0x3db5e31b	0.088812076
26	0xbe3d7bcf	-0.1850426
27	0x3e513c1c	0.20433086
28	0xbcd4ed6a	-0.025992114
29	0xbc681722	-0.014165672

conv2.weight f4 [30, 30, 5, 5]
0	0xb7e9a750	-2.7853675e-05
1	0xb74bfc9d	-1.2158559e-05
2	0xb6e95749	-6.9541024e-06
3	0xb726dcb4	-9.9457575e-06
4	0xb7248ce5	-9.807966e-06
5	0xb7f4bab6	-2.917401e-05
6	0xb7123b4c	-8.716084e-06
7	0xb6a917ad	-5.0393487e-06
8	0xb7083e73	-8.120772e-06
9	0xb710daae	-8.633984e-06
10	0xb872c8a7	-5.788417e-05
11	0xb7bf3035	-2.2791422e-05
12	0xb78049dc	-1.5293183e-05
13	0xb7a9773f	-2.0201898e-05
14	0xb7abf9e9	-2.0501162e-05
15	0xb859955c	-5.1875933e-05
16	0xb7b49955	-2.1529073e-05
17	0xb719564b	-9.139602e-06
18	0xb72c77ca	-1.02798895e-05
19	0xb7265de9	-9.916236e-06
20	0xb875fe1a	-5.8649202e-05
21	0xb7a83830	-2.0053325e-05
22	0xb70a9c1b	-8.261787e-06
23	0xb6f640be	-7.3389083e-06
24	0xb6f12ccf	-7.187576e-06
25	0xb4952fc6	-2.7788172e-07
26	0xb48da4c7	-2.6383188e-07
27	0xb50f1f63	-5.3317325e-07
28	0xb4ea7452	-4.367053e-07
29	0xb3f40c6a	-1.13643935e-07
30	0xb4843942	-2.4628577e-07
31	0xb5466af6	-7.3916397e-07
32	0xb58c0dde	-1.0434849e-06
33	0xb5061abe	-4.9957805e-07
34	0xb506b387	-5.0180137e-07
35	0xb53aa1e1	-6.9525964e-07
36	0xb5b1f5d9	-1.3259079e-06
37	0xb59e16d2	-1.1778559e-06
38	0xb548e3cf	-7.483731e-07
39	0xb50dee0a	-5.2872986e-07
40	0xb54677f4	-7.39353e-07
41	0xb4d95544	-4.048144e-07
42	0xb5460de7	-7.378098e-07
43	0xb54c4caf	-7.610751e-07
44	0xb481db26	-2.4187574e-07
45	0xb4b500b8	-3.37144e-07
46	0xb509ef8b	-5.138506e-07
47	0xb5442be7	-7.3079576e-07
48	0xb512042a	-5.43953e-07
49	0xb4ca37f6	-3.766615e-07
50	0xb80fc09d	-3.4273242e-05
51	0xb83df9a1	-4.5293596e-05
52	0xb834420c	-4.2976855e-05
53	0xb7c8d8f0	-2.3942877e-05
54	0xb8682d7a	-5.5355464e-05
55	0xb8307252	-4.206814e-05
56	0xb875d0e7	-5.8607107e-05
57	0xb88fae0e	-6.8511916e-05
58	0xb7efeec2	-2.86022e-05
59	0xb895c320	-7.1412185e-05
60	0xb85627aa	-5.1058516e-05
61	0xb897956f	-7.228075e-05
62	0xb84b0153	-4.8400205e-05
63	0xb7e3b058	-2.7142625e-05
64	0xb89264fe	-6.980634e-05
65	0xb835d630	-4.335324e-05
66	0xb80a6f81	-3.300561e-05
67	0xb7e13d9a	-2.6850776e-05
68	0xb7ad0a9f	-2.0628153e-05
69	0xb892c02a	-6.997616e-05
70	0xb7ed9ef5	-2.8326622e-05
71	0xb7c86513	-2.3888924e-05
72	0xb778651c	-1.4805493e-05
73	0xb75ce187	-1.31655315e-05
74	0xb842321f	-4.6299883e-05
75	0xb2f90913	-2.8991542e-08
76	0xb40a00ce	-1.2852544e-07
77	0xb3ee65e2	-1.1101271e-07
78	0xb392f063	-6.842381e-08
79	0xb3f0f0eb	-1.12196936e-07
80	0xb4940fc7	-2.7578628e-07
81	0xb45c0983	-2.0492557e-07
82	0xb4b4cbd1	-3.367591e-07
83	0xb47a2dbe	-2.3299705e-07
84	0xb2a54232	-1.923863e-08
85	0xb4c9a663	-3.756023e-07
86	0xb4d45937	-3.955299e-07
87	0xb557c638	-8.038219e-07
88	0xb4b12ffd	-3.3003735e-07
89	0xb38103f8	-6.0077525e-08
90	0xb4a22a2f	-3.0205544e-07
91	0xb504a22f	-4.940984e-07
92	0xb5523822	-7.831278e-07
93	0xb3c423db	-9.133483e-08
94	0xb3b237d1	-8.298924e-08
95	0xb52643d4	-6.193852e-07
96	0xb4977b49	-2.8215644e-07
97	0xb48df3bd	-2.644064e-07
98	0xb3d99be4	-1.0133206e-07
99	0xb303073e	-3.05074e-08
100	0xb89b1528	-7.3949166e-05
101	0xb8be6d2e	-9.080242e-05
102	0xb8e0b98c	-0.00010715713
103	0xb8eb03d4	-0.00011206386
104	0xb8ab5496	-8.169671e-05
105	0xb8785941	-5.921093e-05
106	0xb8bffc71	-9.1546106e-05
107	0xb8d352a8	-0.0001007666
108	0xb8acc430	-8.238142e-05
109	0xb88ec4b4	-6.8077265e-05
110	0xb85374a3	-5.0414947e-05
111	0xb8a2e087	-7.7665834e-05
112	0xb8cb9bc2	-9.7088065e-05
113	0xb8ac54b5	-8.217377e-05
114	0xb87612f6	-5.866863e-05
115	0xb8c78059	-9.512966e-05
116	0xb90388a5	-0.00012544038
117	0xb90545dc	-0.00012709893
118	0xb8d4507d	-0.0001012394
119	0xb87c9fca	-6.0230297e-05
120	0xb89fac6e	-7.613828e-05
121	0xb8d1f3f1	-0.00010011334
122	0xb8d9afbd	-0.000103801
123	0xb8a84d9c	-8.02532e-05
124	0xb84fc869	-4.9539292e-05
125	0xbb3de889	-0.0028977713
126	0xbb410177	-0.0029450336
127	0xbb41b2e2	-0.0029556085
128	0xbb47644c	-0.0030424772
129	0xbb4a1109	-0.0030832908
130	0xbb47ad90	-0.0030468442
131	0xbb46f7cf	-0.0030360108
132	0xbb48ed8c	-0.0030659167
133	0xbb50f6c8	-0.0031885374
134	0xbb544ed2	-0.0032395613
135	0xbb49e31b	-0.0030805531
136	0xbb4c7fc4	-0.0031204084
137	0xbb4c9fcd	-0.0031223178
138	0xbb56aac7	-0.00327556
139	0xbb59172b	-0.0033125381
140	0xbb4fb85d	-0.0031695582
141	0xbb4df08e	-0.00314239
142	0xbb50fe9c	-0.003189004
143	0xbb596790	-0.00331733
144	0xbb58c511	-0.0033076445
145	0xbb4c32ea	-0.0031158277
146	0xbb4d84bb	-0.003135963
147	0xbb51e693	-0.0032028302
148	0xbb57b69f	-0.0032915247
149	0xbb570821	-0.0032811242
150	0xb4ccf56f	-3.8176537e-07
151	0xb4bcc9c9	-3.5164547e-07
152	0xb4927bd4	-2.7284716e-07
153	0xb45d04e1	-2.0584004e-07
154	0xb565f2e9	-8.566263e-07
155	0xb44d9ac2	-1.9148413e-07
156	0xb4c2be66	-3.627385e-07
157	0xb46cf6a9	-2.2068947e-07
158	0xb440d24f	-1.7957903e-07
159	0xb5428ee5	-7.247857e-07
160	0xb44d6cf4	-1.913175e-07
161	0xb44e45e9	-1.9210678e-07
162	0xb3952ea5	-6.946838e-08
163	0xb3b0b590	-8.228665e-08
164	0xb468c50b	-2.1678368e-07
165	0xb436b7c2	-1.7016922e-07
166	0xb3cff0b2	-9.682971e-08
167	0xb3824a63	-6.0671276e-08
168	0xb368c079	-5.4191762e-08
169	0xb42c5038	-1.6047932e-07
170	0xb3d88bee	-1.0083737e-07
171	0xb3ccd9a1	-9.539077e-08
172	0xb33c013c	-4.3773284e-08
173	0xb3451001	-4.5882192e-08
174	0xb41832af	-1.4174542e-07
175	0xb6e0b7f7	-6.6971365e-06
176	0xb69076aa	-4.3053487e-06
177	0xb61061f6	-2.1514693e-06
178	0xb62b3fe2	-2.551817e-06
179	0xb6002524	-1.9095105e-06
180	0xb700d366	-7.678615e-06
181	0xb6eda18b	-7.0819565e-06
182	0xb64aaa9c	-3.0199653e-06
183	0xb6bc5af5	-5.6134254e-06
184	0xb62ac2a2	-2.5445265e-06
185	0xb73137be	-1.0563001e-05
186	0xb6eb24d9	-7.0078354e-06
187	0xb62af6bf	-2.54756e-06
188	0xb6b3d7b4	-5.359727e-06
189	0xb6027f29	-1.9445527e-06
190	0xb70f91e7	-8.557435e-06
191	0xb6e60c9f	-6.8560034e-06
192	0xb6255585	-2.4636695e-06
193	0xb618dd83	-2.2778702e-06
194	0xb64b5223	-3.0297167e-06
195	0xb6c928e6	-5.995028e-06
196	0xb685aeae	-3.9840443e-06
197	0xb5a657e9	-1.2393549e-06
198	0xb5ba9ddd	-1.3904024e-06
199	0xb6365a85	-2.7172803e-06
200	0xb8a79bf5	-7.99223e-05
201	0xb7dab87e	-2.6073536e-05
202	0xb7f7a679	-2.9522214e-05
203	0xb80d7fc1	-3.3736e-05
204	0xb7f32497	-2.8984896e-05
205	0xb8e4cbe1	-0.000109098626
206	0xb80a7df7	-3.3019078e-05
207	0xb801ffe8	-3.0994328e-05
208	0xb878f228	-5.9353333e-05
209	0xb7b97952	-2.2110213e-05
210	0xb8f31999	-0.00011591911
211	0xb8066dad	-3.2050233e-05
212	0xb7c7b35c	-2.380617e-05
213	0xb84b3dac	-4.8456408e-05
214	0xb7d9def3	-2.5972235e-05
215	0xb8d7f10f	-0.000102968996
216	0xb79f62c1	-1.9000263e-05
217	0xb74aa30e	-1.2078102e-05
218	0xb791af63	-1.7367018e-05
219	0xb75c574d	-1.3133348e-05
220	0xb8bab7cd	-8.903407e-05
221	0xb789720d	-1.6384782e-05
222	0xb6d37cac	-6.3028037e-06
223	0xb6ee325d	-7.098816e-06
224	0xb69db985	-4.700562e-06
225	0xb8273dce	-3.9873463e-05
226	0xb846afec	-4.737072e-05
227	0xb88d560f	-6.7394336e-05
228	0xb8a457e0	-7.8364974e-05
229	0xb8b3db15	-8.576192e-05
230	0xb8a89f43	-8.040529e-05
231	0xb8b6ae3b	-8.710889e-05
232	0xb8a937a5	-8.0689126e-05
233	0xb8c74c28	-9.503245e-05
234	0xb89bb361	-7.424388e-05
235	0xb8d1da09	-0.00010006509
236	0xb89e933a	-7.56145e-05
237	0xb8e6a139	-0.00010997285
238	0xb90812ba	-0.00012976947
239	0xb8b4f40e	-8.6285276e-05
240	0xb8f84f33	-0.000118403135
241	0xb915f016	-0.00014299186
242	0xb9381350	-0.00017554802
243	0xb8caf9f2	-9.6786665e-05
244	0xb8aac0f9	-8.142176e-05
245	0xb8a5d6f0	-7.907848e-05
246	0xb89c2f28	-7.447443e-05
247	0xb86597dd	-5.473929e-05
248	0xb89204ce	-6.9627175e-05
249	0xb840dbb1	-4.598097e-05
250	0xb7b6ab44	-2.1775842e-05
251	0xb7e44789	-2.721303e-05
252	0xb7fba1a9	-2.999681e-05
253	0xb84242aa	-4.631529e-05
254	0xb7c21cbd	-2.3139984e-05
255	0xb8653d0c	-5.465471e-05

conv2.bias f4 [30]
0	0xbc34c8e1	-0.011034221
1	0x3da4984a	0.08036859
2	0x3e7957fa	0.24349967
3	0x3aaec468	0.001333368
4	0x3e00f7a8	0.12594473
5	0x3cb7b48a	0.022424955
6	0xbbe2c996	-0.0069210036
7	0xbe554089	-0.208254
8	0x3d595d58	0.053067535
9	0xbdb1a553	-0.08674111
10	0x3e3ce1cf	0.18445514
11	0x3e84684a	0.25860816
12	0xbcdd1c71	-0.026991101
13	0xbd11014a	-0.03540162
14	0x3e21c931	0.15799405
15	0xa4221f6e	-3.5154772e-17
16	0x3efb6990	0.49103975
17	0x3e113bee	0.14183018
18	0xbb26ffcd	-0.002548206
19	0x3e4a55ac	0.19759244
20	0x3d4c8761	0.049933795
21	0x3eb1f064	0.34753716
22	0x3d4138c0	0.04717326
23	0x3e8df3be	0.27725023
24	0x3e045dbd	0.12926383
25	0x3e5789f0	0.21048713
26	0x3ec8dcfe	0.39231104
27	0xbbadaa75	-0.005299861
28	0x3cb1b582	0.021692995
29	0x3e8b4469	0.2720063

conv3.weight f4 [30, 30, 5, 5]
0	0xbb7812f2	-0.003785309
1	0xbb95e384	-0.004574241
2	0xbb9ccb19	-0.0047849533
3	0xbb99d485	-0.0046945238
4	0xbb85e6d5	-0.004086355
5	0xbb950d25	-0.004548686
6	0xbba4eefe	-0.005033373
7	0xbbb13a6c	-0.0054085758
8	0xbbb673c3	-0.005567999
9	0xbba03fe9	-0.004890431
10	0xbb8da104	-0.004322173
11	0xbba26e83	-0.0049570217
12	0xbbae3676	-0.005316551
13	0xbbb73d74	-0.0055920426
14	0xbba7c11b	-0.0051194555
15	0xbb801216	-0.003908406
16	0xbb97bdb9	-0.004630771
17	0xbba6a5d0	-0.0050856844
18	0xbbb78d50	-0.0056015626
19	0xbbaa19c8	-0.0051910616
20	0xbb2d5458	-0.0026447978
21	0xbb441fc0	-0.002992615
22	0xbb53fb69	-0.0032345897
23	0xbb65f639	-0.0035089387
24	0xbb4911d9	-0.0030680804
25	0xbe965913	-0.29364833
26	0x3c8d7bad	0.017270887
27	0xbda1e674	-0.079052836
28	0xbd473361	-0.048632983
29	0x3aa6d0ec	0.0012727058
30	0xbdcd9675	-0.10038463
31	0x3c730fb0	0.014835283
32	0x3d165374	0.03670068
33	0x3d247d81	0.040158752
34	0x3d3215d5	0.043477852
35	0x3dc29aa3	0.09502151
36	0x3c9cdbf4	0.01914785
37	0xbb89cbe6	-0.004205215
38	0x3d9f0992	0.07765497
39	0x3e111e4b	0.14171712
40	0x3e45dc92	0.19322422
41	0x3cd31408	0.025766388
42	0xbdbf1356	-0.0932986
43	0x3ceb5f44	0.02873195
44	0x3e286a87	0.16446887
45	0xbb7d3b19	-0.0038639961
46	0x3c77f82d	0.015134853
47	0xbd5843be	-0.05279898
48	0xbde3d0ee	-0.111238346
49	0xbdf82920	-0.12117219
50	0x3ac8c7ad	0.0015318297
51	0xbd83cd1c	-0.06435606
52	0xbe1654da	-0.14680806
53	0xbd2f2bda	-0.04276643
54	0x3ddff8ac	0.10936102
55	0xbc9a0ce4	-0.018804975
56	0xbc6c2c76	-0.014414897
57	0x3d3fecce	0.046856694
58	0x3c98e1f2	0.018662427
59	0x3d2ac99b	0.041696172
60	0xbdfdc8ea	-0.12391837
61	0xbe2fe61f	-0.17177628
62	0xbe32bcec	-0.1745488
63	0xbe385474	-0.18000966
64	0x3d91e7a4	0.0712426
65	0xbe345244	-0.17609507
66	0xbdbc0d3c	-0.09182212
67	0xbdb6a0d4	-0.08917394
68	0xbd1df45c	-0.038563117
69	0xbcb528c8	-0.022114173
70	0xbe3cb51e	-0.18428466
71	0xbdf57ffd	-0.119873025
72	0xbde15086	-0.11001687
73	0xbe2dbd44	-0.1696673
74	0xbdf98bc4	-0.12184861
75	0xbc059d73	-0.008155215
76	0xbbdc0770	-0.006714754
77	0xbdb79024	-0.089630395
78	0xbbcd4a49	-0.006264959
79	0x3d60b7c1	0.05486274
80	0x3d8ee126	0.069765374
81	0x3e143d8d	0.14476605
82	0x3d325796	0.04354056
83	0xbbffd348	-0.007807169
84	0x3dccd0e0	0.10000777
85	0xbc9e6cf5	-0.019339064
86	0x3d5d198e	0.05397945
87	0x3d8bd8f3	0.06828489
88	0x3d62cf53	0.0553735
89	0xbbf73e6e	-0.007545284
90	0x3e21fca2	0.15819028
91	0x3e3d7d01	0.18504716
92	0x3cc0348d	0.023462558
93	0x3caedc72	0.02134535
94	0xbddb7a7b	-0.10716721
95	0x3d2b2fc1	0.04179359
96	0xbe0f83b3	-0.14015083
97	0xbe628b53	-0.2212346
98	0xbdd7f4b5	-0.10544721
99	0xbec4cdd3	-0.3843828
100	0x3e34bb82	0.17649654
101	0x3cf81dc0	0.030287623
102	0xbcbad07d	-0.022804493
103	0xbc025119	-0.0079539055
104	0x3e264a72	0.16239336
105	0xbce609dd	-0.028080875
106	0xbdc9da41	-0.09856082
107	0xbd8a85ba	-0.067637876
108	0x3d5ef480	0.054432392
109	0x3b89d097	0.004205774
110	0x3ca940f1	0.02066085
111	0xbe127aea	-0.143047
112	0xbe208704	-0.15676504
113	0x3d36f8ba	0.044670798
114	0x3c1741c2	0.0092319865
115	0xbe11b27b	-0.14228241
116	0xbe3b123c	-0.18268675
117	0xbe0af0db	-0.13568442
118	0xbdb9a708	-0.09065062
119	0xbe2a966b	-0.16658942
120	0x3d84b6c0	0.06480169
121	0xbc58a2b3	-0.013222384
122	0x3d9e51c3	0.077304386
123	0x3d192300	0.037386894
124	0x3c934f79	0.017982231
125	0x3d72cf75	0.059279878
126	0x3d8db29b	0.06918832
127	0xbe00e863	-0.12588648
128	0xbd6543d4	-0.05597289
129	0x3d208e85	0.039198417
130	0xbdf52d34	-0.119715124
131	0xbd2be94e	-0.041970544
132	0xbdb435ec	-0.08799347
133	0xbe39af70	-0.1813333
134	0xbe13e92d	-0.14444418
135	0xbe2b54aa	-0.16731516
136	0xbe3a63bd	-0.1820211
137	0xbe1f19c1	-0.15537168
138	0xbe43d517	-0.19124256
139	0x3c109271	0.008823977
140	0x3e713561	0.23555519
141	0xbcaee509	-0.021349447
142	0x3ac50bb0	0.001503339
143	0xbdc78e90	-0.097439885
144	0xbe02e21a	-0.12781563
145	0x3e0b4fb9	0.1360463
146	0x3daa868c	0.08326444
147	0x3e14b6cb	0.14522855
148	0xbc718e30	-0.014743373
149	0xbe5fd744	-0.21859461
150	0xbb8d813e	-0.0043183854
151	0xbb5d49d0	-0.003376592
152	0xbb446a60	-0.002997063
153	0xbb786f0b	-0.0037907984
154	0xbb12923a	-0.002236499
155	0xbb92e7e2	-0.004483209
156	0xbb875bdc	-0.0041308235
157	0xbb88ef00	-0.0041788816
158	0xbb9b76cd	-0.0047443868
159	0xbb3a9407	-0.0028469579
160	0xbb8283db	-0.0039830036
161	0xbb86e8a3	-0.004117088
162	0xbbac004a	-0.005249058
163	0xbbc17ab4	-0.00590452
164	0xbb615f75	-0.0034389172
165	0xbb715337	-0.0036823282
166	0xbb7132a1	-0.0036803859
167	0xbb9853fc	-0.0046486836
168	0xbb9dea2f	-0.0048191766
169	0xbb0d78b7	-0.0021586844
170	0xbaa61f04	-0.0012674038
171	0xbabca7fc	-0.0014393325
172	0xbadbd2f8	-0.0016771248
173	0xbab7b36c	-0.0014015264
174	0xb92d89db	-0.00016549921
175	0x3df819d4	0.12114301
176	0xbc5beb09	-0.013422736
177	0x3d456757	0.048194256
178	0xbc1e58fc	-0.00966477
179	0xbd83ba6b	-0.06432041
180	0x3d8aec98	0.06783408
181	0xbcbe6f1e	-0.023246344
182	0x3cbe8ac1	0.023259522
183	0x3df1d7bb	0.118087254
184	0x3d7cc981	0.061715607
185	0xbd1f3496	-0.03886851
186	0xbcf5e19a	-0.030014802
187	0x3cb2f866	0.021846961
188	0x3e0452ba	0.12922183
189	0x3de1ea34	0.11030999
190	0xbe01302e	-0.12616035
191	0xbd22b078	-0.039719075
192	0xbd766dda	-0.060163356
193	0x3dbaa10f	0.09112751
194	0xba6eb865	-0.00091064564
195	0xbd94be0c	-0.07262811
196	0x3d827aaf	0.06371056
197	0xbc904867	-0.01761265
198	0x3ceb29ec	0.028706513
199	0xbe241e10	-0.16027093
200	0x3d854e94	0.06509128
201	0xbd5e1578	-0.054219693
202	0x3deb7012	0.11495985
203	0x3d3c2834	0.04593678
204	0x3b29e194	0.0025921809
205	0x3e3ad936	0.18246922
206	0xbda5032d	-0.08057246
207	0x3e2afab0	0.16697192
208	0xbc1abfd5	-0.00944515
209	0xbda2c83e	-0.079483494
210	0x3d91ee5e	0.07125543
211	0xbde8a6c8	-0.11359936
212	0xbdd4a9ec	-0.103839725
213	0xbdf7f8d7	-0.12108009
214	0x3c74f822	0.014951738
215	0x3dfa7cd6	0.12230842
216	0x3d3b62ca	0.04574851
217	0x3ca89bf2	0.020582173
218	0x3d2b5399	0.04182777
219	0xbb1635c2	-0.0022920226
220	0x3e82e624	0.25566208
221	0x3e59c847	0.21267806
222	0x3d9c17e4	0.07621744
223	0xbc9dabbf	-0.019246934
224	0xbcba98b4	-0.022777893
225	0x3e264d25	0.16240366
226	0x3e1910d6	0.14947829
227	0x3e100188	0.14063084
228	0x3d0729ad	0.03299873
229	0x3e21315d	0.15741487
230	0x3e6f968d	0.23397274
231	0x3e032c50	0.12809873
232	0x3da7b1e0	0.08188224
233	0x3daea4d2	0.08527531
234	0x3e3bdcb8	0.18345916
235	0x3de52b2c	0.11189875
236	0x3e2771e7	0.16352044
237	0x3e1d1932	0.15341642
238	0x3e0b3bcc	0.1359703
239	0x3df26ac6	0.11836772
240	0xbe669847	-0.22519027
241	0x3dbca04a	0.0921026
242	0x3e14d2ee	0.14533588
243	0x3da0e8ee	0.07856928
244	0xbb03dd40	-0.002012089
245	0xbebefccb	-0.3730224
246	0xbe21d60b	-0.15804307
247	0xbcf33e92	-0.029692922
248	0x3dee0157	0.11621349
249	0xbcdbfc96	-0.02685384
250	0x3d993c43	0.07482197
251	0x3dba5a87	0.09099298
252	0x3e3c30f1	0.18378045
253	0x3d9748d5	0.073869385
254	0xbda48e9e	-0.080350146
255	0x3bc5a4d1	0.0060316105

conv3.bias f4 [30]
0	0xbe3fb5ef	-0.18721746
1	0xbe92fd38	-0.28708816
2	0xbe564829	-0.20925964
3	0xbe5c8d10	-0.21538186
4	0x3deaf3bd	0.11472271
5	0x3eaae14c	0.33375013
6	0x3e895ea8	0.2683003
7	0xbe1d41eb	-0.15357177
8	0xbcaf4f43	-0.0214001
9	0xbc872211	-0.016495736
10	0x3de255fe	0.11051558
11	0xbcd923ce	-0.02650633
12	0x3e1bb165	0.1520439
13	0xbe85d355	-0.26137796
14	0xbdfede8a	-0.1244479
15	0xbcafe9cf	-0.021473793
16	0x3e7d1962	0.24716714
17	0x3e830843	0.2559224
18	0xbcd88ae9	-0.026433425
19	0x3e301a00	0.17197418
20	0xbdc40012	-0.09570326
21	0x3e8fa5de	0.28056234
22	0xbe84755b	-0.25870785
23	0xbd7a2c31	-0.0610773
24	0xbd6776f5	-0.05650993
25	0xb7e4a164	-2.7254871e-05
26	0xbea22cdf	-0.3167486
27	0xbeb5bfaf	-0.35497805
28	0x3e31df9d	0.17370458
29	0x3d41788d	0.047234107

fc.weight f4 [10, 30]
0	0x3e878628	0.2646954
1	0x3ecdd620	0.40202427
2	0xbe049bb2	-0.12950018
3	0xbd1ee541	-0.038792852
4	0x3d7ec366	0.062198065
5	0x37afae15	2.0942689e-05
6	0xbe110e11	-0.14165522
7	0x3e2e9bf0	0.17051673
8	0xbd240250	-0.040041268
9	0x3c002960	0.007822365
10	0x3ea12e8f	0.31480834
11	0xbd36ad0d	-0.044598628
12	0xbdc8f7f3	-0.098129176
13	0xbe3b2ee1	-0.18279602
14	0xbce837c7	-0.02834691
15	0xbdf6bb1a	-0.120474055
16	0xbe10d4e7	-0.14143716
17	0xbe4ea1e3	-0.20178942
18	0x3d8147e6	0.06312542
19	0xbe85eb6c	-0.26156175
20	0x3cbd3200	0.02309513
21	0xbe25639b	-0.16151278
22	0x3e2081d0	0.1567452
23	0xbd98db25	-0.074636735
24	0x3e8c65fa	0.27421552
25	0xbe131a21	-0.14365436
26	0x3ea47466	0.32120055
27	0x3de0ce53	0.10976853
28	0xbdc789ed	-0.09743104
29	0xbe6537e3	-0.223846
30	0xbea9183b	-0.330263
31	0xbe6e300b	-0.23260514
32	0x3f4655a4	0.7747443
33	0x3e557fc1	0.20849515
34	0xbe1a99eb	-0.15097778
35	0xbdf60803	-0.12013247
36	0x3ef5dcc3	0.4801999
37	0x3de5249d	0.11188624
38	0x3c45f8de	0.01208326
39	0xbd3635cc	-0.0444849
40	0xbdafc076	-0.08581631
41	0x3cbaf2b3	0.022820806
42	0xbeb37007	-0.35046408
43	0xbe65cf52	-0.22442368
44	0xbe76482b	-0.24050967
45	0x3e27762a	0.1635367
46	0xbe0ed1f4	-0.13947278
47	0xbd1108f3	-0.035408925
48	0x3c9dde68	0.01927109
49	0x3e7866b6	0.24257931
50	0x3dd33a98	0.1031391
51	0xbe270dd6	-0.16313872
52	0xbc7b111e	-0.015323905
53	0xbe1bafcd	-0.15203781
54	0x3e5ed013	0.21759062
55	0xbe05a306	-0.1305047
56	0xbc181355	-0.009281953
57	0x3e5c26cd	0.21499176
58	0x3e3d1eb3	0.18468742
59	0xbe1232b9	-0.14277162
60	0xbd92dcfd	-0.071710564
61	0x3dcaaa2e	0.098957404
62	0xbe696d1a	-0.22795525
63	0xbe51b661	-0.20479728
64	0x3a9987f4	0.0011713491
65	0x3d0bbf13	0.03411777
66	0xbe43fdc5	-0.19139774
67	0x3ee81021	0.45324805
68	0xbe49c863	-0.19705348
69	0x3ca8339e	0.020532425
70	0x3b990601	0.004669905
71	0x3c005a39	0.007834011
72	0x3e7d34d0	0.24727178
73	0xbe5fd816	-0.21859774
74	0x3ea0c86c	0.3140291
75	0xbe62efe8	-0.2216183
76	0xbe890e86	-0.26768893
77	0xbd803aa5	-0.062611856
78	0xbc5f0d27	-0.013613976
79	0xbdfbf2a2	-0.12302138
80	0xbd32b820	-0.043632627
81	0xbdb0777f	-0.08616542
82	0x3ed689db	0.4190205
83	0x3eac1bee	0.3361506
84	0xbe58f6fc	-0.21187967
85	0xbb80fdd2	-0.0039365077
86	0xbe31ee4b	-0.17376058
87	0x3cb2e0d1	0.021835716
88	0x3e4618e2	0.1934543
89	0x3dfc9f3d	0.1233506
90	0x3d2c57da	0.04207597
91	0xbce57dcb	-0.028014084
92	0xbe2c1c18	-0.16807592
93	0xbe86fefa	-0.26366407
94	0xbd940453	-0.07227387
95	0x3ecf619e	0.40504164
96	0xbe427a74	-0.18992025
97	0xbd3abbdd	-0.045589317
98	0xbd4170c0	-0.047226667
99	0xbcdaf719	-0.026729153
100	0xbd49e5b5	-0.04929133
101	0x3c18cb16	0.009325763
102	0x3d608195	0.05481108
103	0xbe4b2396	-0.19837794
104	0xbd6e803f	-0.058227774
105	0x3e961b55	0.29317728
106	0x3ea37929	0.31928375
107	0x3cabd0df	0.020973621
108	0xbcb34158	-0.021881744
109	0xbd8f3ca8	-0.06993991
110	0x3e6893dd	0.22712655
111	0xbd362f74	-0.04447885
112	0xbd0e8945	-0.03479888
113	0xbdba947e	-0.09110354
114	0xbe820c25	-0.2539989
115	0x3ddb338c	0.10703191
116	0xbd8b54e6	-0.068033025
117	0xbe93f7d4	-0.28900015
118	0xbd3ec851	-0.046577755
119	0xbd90df64	-0.070738584
120	0x3e70e2d5	0.2352403
121	0xbe3c7268	-0.18403018
122	0xbe8a9f6f	-0.27074763
123	0xbe3b7644	-0.18306834
124	0xbe6c410f	-0.23071693
125	0xbd0eee72	-0.034895368
126	0xbe8e01e3	-0.27735814
127	0xbe22375d	-0.15841432
128	0xbda6efd6	-0.08151214
129	0xbb6eefe2	-0.00364589
130	0x3e591d40	0.21202564
131	0xbce9ed9a	-0.02855568
132	0x3dc87ce5	0.09789447
133	0x3c9ab539	0.018885242
134	0xbe423522	-0.18965581
135	0xbe0a0f36	-0.13482365
136	0xbcbf6d71	-0.023367615
137	0x3e473870	0.19455123
138	0x3d57eeef	0.0527181
139	0xbe219651	-0.15779997
140	0xbd03a90c	-0.032143638
141	0x3f09e56c	0.53865695
142	0xbea77438	-0.32705855
143	0x3eb5b42d	0.35489026
144	0x3dec0870	0.11525047
145	0xbe4cc410	-0.19996667
146	0xbe8f4ac3	-0.27986726
147	0xbe95c0b0	-0.2924857
148	0x3e650d15	0.22368272
149	0xbdb98a56	-0.090595886
150	0x3e89aa23	0.26887617
151	0xbe21824d	-0.15772362
152	0xbe673111	-0.22577311
153	0xbe851fa2	-0.26000696
154	0xbdbeca61	-0.093159445
155	0xbe23225d	-0.15931077
156	0xbe6afa71	-0.22947098
157	0xbe08893e	-0.13333604
158	0xbe354024	-0.17700249
159	0xbb536beb	-0.003226037
160	0xbc795410	-0.015217796
161	0x3d377356	0.044787727
162	0xbd584a00	-0.052804947
163	0xba6ed60b	-0.00091108744
164	0x3d2eb2d4	0.042651013
165	0x3e775706	0.2415429
166	0x3e9c42a7	0.30519602
167	0xbe1e053a	-0.15431681
168	0xbd023900	-0.03179264
169	0xbd378587	-0.044805076
170	0x3e2bc23e	0.16773316
171	0xbd7ab584	-0.061208263
172	0xbd3fe442	-0.046848543
173	0x3cc4c4d0	0.024019629
174	0xbea02120	-0.31275272
175	0x3f095ac7	0.5365414
176	0xbde3ccb2	-0.11123027
177	0xbec6cfa4	-0.38830292
178	0xbd24546c	-0.040119573
179	0x3e6d623f	0.23182009
180	0xbd96e028	-0.07366973
181	0xbe1e452a	-0.15456071
182	0xbe67c341	-0.22633077
183	0xbd98cf3a	-0.074614
184	0x3ddffbf2	0.10936727
185	0xbdc9ada3	-0.09847572
186	0xbe636dd0	-0.22209859
187	0xbc42c556	-0.011887869
188	0xbeb6e0fd	-0.35718527
189	0x3c89660f	0.016772298
190	0xbea3ebf4	-0.32015955
191	0xbd4cd215	-0.050005037
192	0x3ec6129f	0.38686082
193	0xbeacb8ac	-0.33734643
194	0xbe25ae65	-0.16179807
195	0x3e49f58a	0.19722572
196	0x3d721fc2	0.059112318
197	0x3e95306a	0.291385
198	0xba1a4a06	-0.0005885664
199	0x3e00f14c	0.12592047
200	0xbe856bc2	-0.26058775
201	0xbe416afa	-0.18888465
202	0xbe0501e3	-0.12989001
203	0xbe6c26c4	-0.23061663
204	0x3e6247a5	0.22097643
205	0xbc7bc9f7	-0.015367976
206	0x3ea57e1c	0.32322776
207	0x3cb255f5	0.021769503
208	0x3ecbd286	0.39809054
209	0x3e958316	0.29201573
210	0x3e251757	0.16122185
211	0xbe448ed9	-0.19195117
212	0xbe5ba9d3	-0.21451502
213	0x3dc50674	0.096203715
214	0xbe949dd8	-0.29026675
215	0xbc1fad58	-0.009745918
216	0xbe3af8b6	-0.18258938
217	0xbe6b788f	-0.22995208
218	0x3e1f4e39	0.15557183
219	0x3cdf0856	0.027225655
220	0xbe313fb1	-0.17309453
221	0x3c137273	0.008999455
222	0x3d0086cc	0.031378552
223	0x3f41e231	0.75735766
224	0x3e8c0c17	0.27352974
225	0xbe8eae99	-0.27867582
226	0xbd26fe73	-0.040770005
227	0xbda1a42f	-0.07892644
228	0x3d06e251	0.032930676
229	0xbe2ae37f	-0.16688345
230	0x3ed3e903	0.4138871
231	0xbdd4f39d	-0.10398028
232	0xbe28c5e6	-0.16481742
233	0xbe0585f4	-0.1303938
234	0xbdebb146	-0.115084216
235	0xbe8f67b4	-0.28008807
236	0xbdd3f800	-0.103500366
237	0xbe20ba06	-0.15695962
238	0xbd8aae63	-0.06771543
239	0x3e971052	0.2950464
240	0xbe95b5a3	-0.2924014
241	0xbd5b9cc1	-0.05361629
242	0xbe0e595b	-0.13901274
243	0x3ee4fbcf	0.44723365
244	0x3eff50ac	0.49866235
245	0x3dd4334c	0.103613466
246	0x3eac98dd	0.33710375
247	0xbd456a24	-0.048196927
248	0xbe438d91	-0.19096972
249	0x3c710828	0.014711417
250	0x3e033262	0.12812188
251	0x3a58cc1f	0.00082701625
252	0xbef06dbf	-0.4695873
253	0xbe2c3462	-0.16816857
254	0xbe0550cf	-0.13019107
255	0xbe0b6bb3	-0.13615303

fc.bias f4 [10]
0	0xbe9e348e	-0.3089947
1	0xbe4c7b92	-0.19969013
2	0x3e1db3eb	0.15400665
3	0x3e2a9506	0.1665841
4	0x3eae3cae	0.3403067
5	0xbe2fc2c3	-0.1716414
6	0xbda93338	-0.08261722
7	0xbe5a333e	-0.2130861
8	0x3e6d27a1	0.23159648
9	0x3e5d0a93	0.21586065
