models/MNIST/cnn_num-modules=3_seed=041/099.pth (torch, 23817 bytes, 12 tensors)

conv1.weight f4 [32, 1, 3, 3]
00000000: f4af 74bf 1004 02be dd8d c13e 9039 ebbe
00000010: 7345 22be d2e0 1a3f 9bde 82be 5472 cb3d
00000020: 636f 133f 1e56 c53d 2b33 ea3d 654b 5f3e
00000030: 473d 223f e9ca df3e d768 18bd 9c98 483f
00000040: c6ea f13e ccf3 70be 8174 34bf 467b c7bf
00000050: f743 eabe 75bd 2e3f b7a3 ac3e 9066 cfbf
00000060: 2064 e43e 7a1a 2a3e 341d 99bf d001 4c3d
00000070: b141 f13d 40af 2f3f 2c73 c1be c282 91be
00000080: f64b 283f b2ae 37bf 67f1 d0be 2851 8e3e
00000090: b9a5 9c3e a207 0b3e 3e2b 143f 0f9e 6abe
000000a0: fd45 073e cf40 423e dadd b63e d68f fc3d
000000b0: 5af5 233f 6719 0cbf c819 e03e 61ae 453e
000000c0: 1e53 16be 98d4 163f 8563 abbe 6d28 6c3e
000000d0: 34ec 8b3e ef8b e7be d0e6 56bf 4765 8fbf
000000e0: 5a3e 82bf d6a1 6fbf 7db5 6e3e 7b25 a6bd
000000f0: 50ce ddbd feac d63e 8691 e73e 9b39 3d3f
00000100: 77ae 753e 30f0 7bbe ec65 603e 5a31 433e
00000110: e20e 4b3f c98a d6bd d995 2a3e 219f 4b3f
00000120: dcad 23bf a8a7 44be e9c8 e13b 93d3 393e
00000130: 5f97 b5be 13ea 9abd c828 033f 6ef4 0a3f
00000140: 9c51 813e e660 2f3f 4fc0 143f bb89 3f3f
00000150: dd1b 1d3e 75bb 5e3e e236 c53e 55a7 9c3e
00000160: 3da1 103f cd5e 9c3d c2ad e83d 5783 493f
00000170: b667 f93d d908 27bf e2ea 213f eda8 6f3d
00000180: 4084 26be a4a5 963d 7a7d b73e 1a4f bdbe
00000190: f275 86bd 4f6c d13e 826b 1c3f a221 323f
000001a0: 61d9 333e 8f52 4ebe 4092 0abf f79a 29bf
000001b0: 3143 01be e05c 5b3e 72fc 0d3f efb4 633e
000001c0: ba72 8cbe 54c5 a8bc 9a21 093f ffe2 5e3e
000001d0: 209b a93e 41b8 24bf 7447 ffbe 064f bcbe
000001e0: 9181 f73e 705c a6bd e728 8dbe aaa2 463e
000001f0: c53c 063f 1c52 263f f77f 75bf 5e5b 333f
00000200: c952 833f bee1 debf a5c7 d03d 43ba ce3e
00000210: bc73 0ebf 1173 8abf e714 34bf e14e 743e
00000220: 6457 043f 5521 043f 98fc 07be c745 7c3e
00000230: 77e8 253f 8de1 b93e bb57 093f 4f5b 123f
00000240: 6d95 043f ef4f 123f 3858 1abf bcd6 12bf
00000250: f3fd 193f 7edb cc3e 7187 34bf d18b d63c
00000260: 2392 8d3e 6b47 19be b4e5 583e 9eea 57bf
00000270: 4494 8a3e c39d 493f 1ebc bb3e c261 20bf
00000280: f0be caba 7b7b 39bc 376f 25be 6ad9 fbbe
00000290: d85b 1d3e b892 be3e 081d 093f 476b c53e
000002a0: 00a6 0b3e 227b fb3e 4304 c4bd 6201 92be
000002b0: f644 bcbe 8231 813e 2c0a b5be be8d c1be
000002c0: a590 b23e 8379 da3e aeb2 d53e e6fe a83e
000002d0: 3fa1 45be aec2 69be cabf 2bbe 031d 423e
000002e0: bd11 173f 80cc 1e3f 31da 7c3e 9285 d5be
000002f0: 39ab a4be 360d be3d 6836 c23e dc96 6ebe
00000300: 2792 953d b53b 8c3e 5228 053f 9554 92be
00000310: 5d55 30bf 9eec 213b 2927 1f3f 85c6 8bbe
00000320: 2e0d 0abf 5308 133e 00fc c63c af46 cf3e
00000330: 80f6 973e 89d5 bc3e 2ca9 463e 0470 3c3f
00000340: 9ba4 153f 828b 533f e97c 1c3e 6783 71be
00000350: e57f 86be cb6e 08bf cc27 fbbe 1f1f eabe
00000360: 2c56 46bf 334e f63c 0c5e 243f ddd4 22bf
00000370: 472a 9b3c c4e7 f03d d28e c83e 8ad4 013e
00000380: 3f4b 113e 0290 b23e 3579 12be 77f4 ec3e
00000390: 4e7f f6ba 3603 1fbc 283c 3c3e 486f 163f
000003a0: a774 5b3e 6a1d cb3e 05a0 0ebf 4e1f 58bf
000003b0: 48fb 57bf 829c a83c f9b8 803e 09cd 583e
000003c0: b19d e23e e25c f23e c43e dc3e 3e98 1d80
000003d0: 549f 1d80 e3d5 0400 90ed 1000 f331 1100
000003e0: a882 2600 2421 4c00 09db 4a00 9c4b 5c00
000003f0: a61b 9fbf c559 ffbe 4c4e 83bf 239b 973e
-0.95580983 -0.12696862 0.37803546 -0.45942354 -0.15846805 0.604993 -0.2556046 0.09933916
0.5759184 0.09635566 0.11435541 0.21806104 0.6337475 0.43709496 -0.037209358 0.78357863
0.4724943 -0.23530501 -0.7049027 -1.5584495 -0.45754978 0.6825784 0.33718655 -1.6203175
0.4460764 0.16611663 -1.1962037 0.049806416 0.11780108 0.68626785 -0.37783182 -0.28420073
0.6574091 -0.7175094 -0.40809175 0.27796292 0.30595186 0.1357713 0.5787848 -0.22911857
0.13210292 0.18970035 0.35716134 0.12332122 0.6404625 -0.5472626 0.4376967 0.19304802
-0.14680144 0.5891814 -0.33474365 0.23062296 0.27328646 -0.45223948 -0.8394594 -1.1202782
-1.0175278 -0.9360632 0.2331142 -0.081126176 -0.108303666 0.41928858 0.45228213 0.73916024
0.23992334 -0.24603343 0.2191388 0.19061795 0.79319584 -0.1047569 0.16658725 0.79539686
-0.63937163 -0.19204581 0.0068904054 0.18147115 -0.3546705 -0.07564177 0.512341 0.5427922
0.25257576 0.6850723 0.5810594 0.74819535 0.1534266 0.21751197 0.38518435 0.30596414
0.5649603 0.07635269 0.11361267 0.78716034 0.121779844 -0.65247875 0.6324903 0.05851071
-0.16261387 0.07355812 0.3583792 -0.36974412 -0.06565465 0.40902945 0.61101544 0.6958257
0.17563392 -0.20148681 -0.5412941 -0.6625208 -0.12623288 0.21422148 0.55463326 0.2223699
-0.2743128 -0.020601906 0.53566897 0.2176628 0.33126163 -0.6434365 -0.49859202 -0.3677904
0.4834104 -0.081231 -0.2757027 0.19397989 0.52436477 0.6496904 -0.95898384 0.7006129
1.0259639 -1.7412641 0.10194329 0.4037648 -0.55645347 -1.0816365 -0.70344394 0.23858215
0.5169585 0.5161336 -0.1327995 0.24635993 0.6480784 0.36304894 0.5364949 0.57170576
0.51790506 0.5715322 -0.6029086 -0.5735891 0.6015312 0.4001121 -0.7051917 0.026189717
0.27650556 -0.1496865 0.21181375 -0.8434237 0.27066243 0.7875635 0.3666696 -0.62649167
-0.0015468281 -0.011320944 -0.16155706 -0.4918931 0.15367067 0.37221313 0.53559923 0.3855841
0.13637543 0.4911738 -0.09571125 -0.2851668 -0.36771363 0.25233084 -0.35359323 -0.37803453
0.3487598 0.4267083 0.41737884 0.33006972 -0.19299792 -0.2282817 -0.1677238 0.1895638
0.5901144 0.6203079 0.24692608 -0.4170347 -0.32161883 0.092798635 0.37932134 -0.23299736
0.07303267 0.27389303 0.5201465 -0.28580156 -0.68880254 0.0024707685 0.6216913 -0.27299896
-0.5392636 0.14358644 0.024290085 0.40483615 0.29680252 0.36881664 0.19400471 0.7360842
0.58454293 0.8263475 0.15282024 -0.23585282 -0.2626945 -0.53294057 -0.490538 -0.4572687
-0.7747524 0.030066585 0.64206004 -0.63606054 0.018941058 0.11762956 0.39171463 0.12678733
0.1418886 0.34875494 -0.1430405 0.46280262 -0.001880625 -0.009705355 0.18382323 0.5876355
0.21431218 0.3967088 -0.5571292 -0.8442277 -0.843678 0.020582441 0.25141123 0.21171965
0.44260934 0.4733649 0.43016636 -2.717844e-39 -2.720386e-39 4.4407e-40 1.55459e-39 1.579122e-39
3.53662e-39 6.991386e-39 6.874402e-39 8.475989e-39 -1.2430313 -0.49873176 -1.0258269 0.29610547

conv1.bias f4 [32]
00000000: 2b96 15bd e2dd 223e 3b42 963e d929 14bc
00000010: dbf3 9dbc 929e 75be 3d13 833e 4ba9 0b3d
00000020: 67fe 793c a0b1 173d 911d 6ebb 4791 b7bd
00000030: c9b1 92ba e875 79bc 7fa4 373d 562a 183b
00000040: eb7c 02bf 5821 1cbd d636 03bb 9b4c 5bbb
00000050: 65ea cdbb e629 12bc 15b6 71bb a551 d23e
00000060: a905 bcbb 9add 6bbd 2d3c ba3e 49e9 5f94
00000070: 227a 58be 75d9 633d 96a1 fb3a 3004 f0bc
-0.036520164 0.15904954 0.29347405 -0.00904318 -0.019281318 -0.23986271 0.25600615 0.034096997
0.015258408 0.03703463 -0.003633354 -0.08963256 -0.00111919 -0.015225865 0.04483461 0.0023218594
-0.5097186 -0.038117737 -0.0020021698 -0.0033462408 -0.0062840455 -0.008921122 -0.003688221 0.41077915
-0.0057379794 -0.057584383 0.36374035 -1.130463e-26 -0.2114034 0.055627305 0.0019197937 -0.029298872

conv2.weight f4 [32, 1, 3, 3]
00000000: abc7 923e cc52 1b3f 85a8 aa3e 8518 1c3f
00000010: d08c e63e 78ba fc3e 3ecd e13e dc9c 373f
00000020: e508 543f 759e 323f 121b 4abe d786 d4be
00000030: 866b f53e b7d7 84bd 58ed 03bf db04 58be
00000040: cf48 1b3d ad33 b33c b8b6 43bf ab3b 48bf
00000050: cb58 1cbf df52 27bf 8558 27bf b335 22bf
00000060: fc7e 87be 6f3d 9ebe 28d6 1dbd 65bb 503e
00000070: 981a 3d3e 2829 d13e f672 72be 479f b3be
00000080: 88de d43e 9432 7a3e d841 f63c da4d 493f
00000090: a0b9 bb3e 0d13 97bc 0e0d 943e d287 50be
000000a0: 7a7d 753e ab00 093f 721d b93c 8719 023f
000000b0: c9cd a23d 97e4 89bf 837b 9bbf c4e8 3dbf
000000c0: e793 87bf 3b1a 97bf 74a0 4bbf 5775 16bf
000000d0: e398 2bbf 5c58 ddbe 34e3 053e c429 77be
000000e0: 547e 20bf 2239 153e aea9 aebe be82 25bf
000000f0: a95d 66bf 9896 67bf 390c 74bf 550e 55bd
00000100: a3eb fdbe af50 ddbd 5b22 dc3e 69fb dc3d
00000110: 442e 483f 6a79 37bd bcd8 853e c83a 5b3e
00000120: 47b4 fcbd 2523 e5bd 2b7b 4fbe 6505 f9bb
00000130: 8906 033f 9a55 e63e 8736 583f a8b6 443f
00000140: b603 d63e 1faf 073e b5ce d3be c7e8 fbbe
00000150: 51fb 463e a177 aabe 73fd 00be dce5 ee3e
00000160: 26ff 5fbe e103 383e 1cce 46bf d7d2 0fbf
00000170: daff 6b3e fa06 c1be eb72 a4bc 420e ae3e
00000180: 2eef 9ebe fc54 11bf 5252 06bf 5d55 3cbf
00000190: 9d9b 5abe 6563 64be d663 39bf a5ac 3ebf
000001a0: f95d 97bf 0baa 163e f6bb 81bc 5c12 33bf
000001b0: a564 f8bb 9adb 613b c629 8bbe 9940 3dbe
000001c0: 6be6 52be aa70 09bf 4f15 42be 5deb 31be
000001d0: f182 90be f945 a5be d991 d4be 8897 1fbf
000001e0: 1b7f 59be 056a 59bf 659a 60bf 66d8 c1be
000001f0: 8c41 19bf 4c9a f6be 1c98 213f 7b29 a53f
00000200: ab36 b73e 62a5 cf3f 3e42 503f ed17 1cbf
00000210: fd35 843f b3d3 843e 4ebd cbbd e23a acbe
00000220: 1cac 47be 123a 0b3f b9f9 72be a9d8 a6bc
00000230: 852e 9d3e 919a d63c bd56 aa3e 838e d03e
00000240: 173e 47be c604 053f c2c5 823f 05cb 41bd
00000250: 687c 6d3f c495 733f f53d 9c3f 1da3 903f
00000260: 4afd f43e af0c fc3e 2ced 653e ec1e 963e
00000270: cb9c 8d3e 265d 223f 3e29 cb3e f53a 0c3f
00000280: 2678 1e3f ce7b 693f 203e 743e 9ac8 e13b
00000290: f3d8 e2bd caf1 083f e2f6 af3e 9a4d 363d
000002a0: 641a 9c3e de50 4fbd 0b74 373f 776a 36bf
000002b0: 01c8 94be 1b5e 823c 83cd a6bd 83d1 b53e
000002c0: 5857 473e 7922 30bd 1a82 a1be fa7b 0fbf
000002d0: 52b3 ebbe 6ad4 1abf a60f 85bd 1a88 81bf
000002e0: 907d 21bf b518 8abe 8f6a 3fbf dea9 efbe
000002f0: 2d02 74be 5873 ca3c 3c56 da3e de9e 9a3e
00000300: 9347 013f 7c0f f53e 8f9c c93e 7708 c03e
00000310: f427 ea3d d1b7 a6be a311 373e a703 003e
00000320: 3278 343d fd69 083f e48e 933e 323f 9a3e
00000330: 0cad 233f e5d9 983e bacd 033d b3a3 8abd
00000340: 65e5 dfbe dadc be3c 2ee1 e23e 6895 a83e
00000350: 2f11 063e ccb2 f8be 743f 0bbf 7cf1 13bf
00000360: a898 633f 05e6 803e c86c af3e 7da9 7b3d
00000370: fef7 b73e 5972 8a3e d157 fe3b 6a96 4c3f
00000380: 4840 c43e 820c e0be cdb0 20bf 7750 09bf
00000390: a45c 14be 3837 7c3d e68a d83c ff07 94be
000003a0: 4bc4 c73c 4824 eabc ba8b fabe 72f1 a2be
000003b0: 01d8 1abd 1d3f b03e 429b dd3e 95b3 e73e
000003c0: 3543 bebe 7b3f f93e 641f 5c3f a33e 0f80
000003d0: 79ef 7180 0ad8 0381 038c 1600 fd9b 4c80
000003e0: a489 7080 9158 2280 375d 4f80 c5c6 3180
000003f0: 11f5 fabe 90ef 6dbf 9fe1 89bf 89a8 44bf
0.2866796 0.60673213 0.33331695 0.60974914 0.45029306 0.49361014 0.441019 0.71723723
0.8282607 0.69773036 -0.19736889 -0.41509125 0.47933596 -0.06486457 -0.5153403 -0.21095602
0.037911233 0.021875227 -0.7645068 -0.78216046 -0.6107299 -0.65360826 -0.65369445 -0.6336319
-0.2646407 -0.30906245 -0.038534313 0.20383985 0.18467176 0.40851712 -0.23676667 -0.35082456
0.41576028 0.24433357 0.030060694 0.7863442 0.36665058 -0.018441701 0.2891621 -0.20364311
0.23973647 0.53516644 0.022597048 0.508202 0.07949407 -1.0772885 -1.2147068 -0.741833
-1.0592011 -1.180488 -0.7954171 -0.58772796 -0.6703016 -0.43231475 0.13074952 -0.24137026
-0.6269276 0.14572576 -0.3411383 -0.6465262 -0.89986664 -0.9046416 -0.9533115 -0.05201562
-0.4959384 -0.10806405 0.4299496 0.1079014 0.78195596 -0.044793524 0.26141918 0.21409142
-0.12339073 -0.11188344 -0.20261829 -0.00759952 0.51181847 0.44987184 0.844582 0.7684121
0.41799706 0.13250397 -0.41368642 -0.49201033 0.19431807 -0.33294395 -0.12596683 0.46659744
-0.21874675 0.1797023 -0.7765825 -0.5618109 0.23046818 -0.37700635 -0.020074328 0.33995253
-0.31041855 -0.567703 -0.5246936 -0.73567754 -0.21348424 -0.22303541 -0.7241796 -0.74482185
-1.1825553 0.14713304 -0.015836697 -0.6994989 -0.007580357 0.0034463168 -0.27180308 -0.18481673
-0.2059571 -0.53687537 -0.18953441 -0.1737494 -0.282249 -0.32279947 -0.41517523 -0.62340593
-0.21239893 -0.849274 -0.8773559 -0.3786041 -0.5986564 -0.48164594 0.63122725 1.2903284
0.35783896 1.6222346 0.8135108 -0.6097401 1.0328976 0.25942764 -0.099482164 -0.33638674
-0.19499248 0.54385483 -0.23728074 -0.020366983 0.30699554 0.02619675 0.332693 0.40733728
-0.19457279 0.5196041 1.0216601 -0.047312755 0.92767954 0.951504 1.2206408 1.1299778
0.47849494 0.49228427 0.22453755 0.29320467 0.27658686 0.63423383 0.39679903 0.5477746
0.6190208 0.91204536 0.23851824 0.0068903686 -0.11076536 0.5349394 0.34368044 0.0445076
0.30488884 -0.05061423 0.7166144 -0.712562 -0.2905884 0.015914014 -0.08144667 0.35511407
0.19466913 -0.043001626 -0.31544572 -0.5604855 -0.46035248 -0.6048037 -0.06497125 -1.011966
-0.6308222 -0.26971975 -0.7477197 -0.46809286 -0.23828955 0.024713203 0.42643917 0.3019933
0.5049984 0.47863376 0.39377257 0.37506458 0.11433402 -0.32562116 0.17877822 0.12501393
0.04405994 0.53286725 0.28819954 0.3012634 0.63935924 0.2985374 0.032178618 -0.067695044
-0.43729702 0.02329867 0.44312423 0.32926488 0.13092493 -0.4857391 -0.54393697 -0.5779035
0.8890481 0.2517549 0.3426268 0.061440933 0.3593139 0.27040365 0.0077619334 0.79917014
0.38330293 -0.43759543 -0.62769777 -0.53638405 -0.14488465 0.0615761 0.02643342 -0.2891235
0.024385592 -0.028581753 -0.48934728 -0.31824833 -0.037803654 0.34423152 0.43282515 0.45254198
-0.3716065 0.48681244 0.859854 -1.400002e-39 -1.0463318e-38 -2.42159e-38 2.070608e-39 -7.035456e-39
-1.0334952e-38 -3.154179e-39 -7.288443e-39 -4.571244e-39 -0.49015096 -0.9294367 -1.0771979 -0.76819664

conv2.bias f4 [32]
00000000: 4334 d9bc 99ad 9b3d 951d 413e f2f4 2dbe
00000010: e48a 793e 7d1f bcbb 21f3 ad3d 7f7c 17bc
00000020: b6d4 edbd 18b8 53be 02a9 1f3e 7c67 20be
00000030: c60a 813e 7b06 bc3d 583d 02bf 946a 903d
00000040: f7cb 0fbe e7b5 3d3e 1255 bd3e d2a2 d5bc
00000050: cc85 45bd 742a 90be 657f 6d3c 217b 0cbe
00000060: 1635 a23d 5d01 febd 42c9 5abe 0799 1bbb
00000070: d52c 79bd 6031 333e f8cf d83c 6965 313e
-0.026514178 0.076014705 0.18858941 -0.1698797 0.24369389 -0.0057410584 0.08493639 -0.009245991
-0.11612837 -0.20675695 0.15591815 -0.15664476 0.25203532 0.091809236 -0.50874853 0.07051578
-0.1404265 0.18526421 0.36978966 -0.026078615 -0.0482233 -0.2815739 0.014495705 -0.13718845
0.079202816 -0.12402604 -0.21365836 -0.0023742334 -0.06083377 0.17499304 0.026466355 0.17323841

conv3.weight f4 [20, 32, 1, 1]
00000000: 7a8b 303f 312b 263e 0bef 123f d62b 9cbe
00000010: 324d 433d 435e 2ebf ea41 2f3e 5071 4cbe
00000020: 9f8c 53bf 9d8b a1be 44c6 afbe 38c0 c53d
00000030: b625 de3d a141 653f 9f48 d9be 9407 08be
00000040: 35d3 67bd 8873 18bd a206 f63c b2bc 73be
00000050: b746 d1bc 756b f2bc e927 72bd b5f8 52be
00000060: 337d 033f 0db2 0dbe 144a 3f3d cc40 e63c
00000070: 140c 4dbe e97e db3e 61c6 0dbf e6b3 3bbd
00000080: ccc6 96b8 c8c8 4b38 02ad 1c3a 4d07 5d38
00000090: ab6a 03ba 5e4d 8139 f206 3039 1130 01bb
000000a0: 3916 ba37 b489 ad39 bedb 0b3a 4a72 d139
000000b0: 2a80 dc37 3493 dc3a e8fa 7db9 5761 e6ba
000000c0: dafc 4ab8 4c06 a5b9 0508 98ba 6660 7b38
000000d0: 07d4 ef39 5324 c5b8 2897 60ba 94b1 b53a
000000e0: 0ed5 abb8 e915 823a 88a0 c2b7 30f6 5034
000000f0: 17fa 2a3b 4a5b 8c3a 5158 10ba 1b1a 01b9
00000100: c17e 9cb0 5a34 f8a0 ce5c 6c36 0198 49b0
00000110: df1d fab8 0cf9 302c ba71 8d86 9583 00b6
00000120: 049d a081 13ce c237 0a81 b138 0731 7b30
00000130: b81f 8033 a08a 8f13 62be 0eb7 ae5e 67b2
00000140: 8cde ebb6 587d acb6 5700 82b8 6e2a 438e
00000150: 796d 9f34 68b8 550f 4e88 b9b7 88bf 1339
00000160: fb7b adaf 5162 9c39 8f77 aa00 e880 9900
00000170: 75bb 7b80 4cdd 5432 f5e4 a601 3b63 2db0
00000180: 89f6 7900 bbaa 43af 3922 ad3a 92c5 9a29
00000190: ca70 acb3 bc33 1a81 998c 2b3a 9d8d 7381
000001a0: 8206 5ba3 0018 1132 049e c324 7306 1a2f
000001b0: cdd6 5aad 6272 0014 8bd3 f82a 4e20 95a8
000001c0: 9a84 b226 c50c 2aae bf79 49b5 8013 9800
000001d0: 8052 4516 cd4c 8e31 8aa8 11a0 d174 7538
000001e0: 980b b4a0 1575 eb2d 03e2 8cb5 bcd4 7401
000001f0: 5119 7623 14e3 038d 1c59 db86 3180 99ab
00000200: bd49 39bf 9bcd 893e 10b0 393c 5ff6 db3c
00000210: 8216 be3e f1eb 003e b280 6abb 7c2e c13e
00000220: d7ad 39bd fd90 ce3e d6ab fbbd 6153 15be
00000230: 5647 f9be effb fdbd 62b2 fb3e 930e ec3d
00000240: 15d8 583e e306 953e 10a8 983e d23e 94bd
00000250: 3da8 d8be 8e7b e93e 0b3f 493f 9ced 61be
00000260: f448 6f3d 5e34 11be efd9 0cbf 70a3 2c3d
00000270: 4273 013f 271b d0be d206 543e 347b 963e
00000280: 05c5 b13e 754a 09be f6c8 323f e0f6 0dbe
00000290: a5a3 743e 4e54 abbf b2f1 c63e 0363 de3e
000002a0: 8eef 81bd 28ba a8be 4703 5ebe 1bfb 69be
000002b0: 5f39 f4be 133b 183f 6afc 69bf 2e99 2c3e
000002c0: 718b 35bf 4d9f abbb 85a5 123f 735b 21bf
000002d0: 2a4b 88be 249b d4be 6303 873e bd82 893c
000002e0: 6e9c 4e3e 9f6d f0be 604b c63e 3f1d ae3b
000002f0: 006b 2f3f 49e4 f3be a668 8d3d 7d20 d6bd
00000300: 0b66 a9bd a915 3abe bf4c 8bbd 2b6b 45bd
00000310: 0fd2 78bc eaad 7e3e b1c0 90be 87bd 16bf
00000320: cc52 083e 9172 d0be a3bc 4bbe e226 dabd
00000330: dfa8 60bb 9ce8 933e ecc7 3e3f 1879 34be
00000340: 52e0 21bf 7a57 893d 4337 4f3d 61be 653c
00000350: 5019 bb3a 72c8 073e ff82 debd cab0 cc3e
00000360: 1a28 84be 3ee2 86be 52e7 463e 2f2f e4bc
00000370: b2c2 afbe 7d17 ca3d 1928 eebe 6f8e c2be
00000380: a3db 04bf 4990 103f 9156 07bf c6bc b63e
00000390: 2e6e a23c b5ee 2e3f 4b02 d53d 26e9 003f
000003a0: a9b2 d9bb 2c54 e23e 39e8 54be 2be5 053f
000003b0: 41f5 49be 3cbc b2be 95bb b43e 1017 15be
000003c0: 54be 103f 5d86 803c 32e8 353e 2f03 6a3e
000003d0: 179b 4f3e a7b8 9f3e 33a6 7a3e 6164 8b3e
000003e0: a7b6 e9be 5dbe 4ebe 2ae0 c1bb 2e8b a13c
000003f0: 901a c13e 2a0b c3bd f240 72be a5fc 3abc
0.68962824 0.16227414 0.57396 -0.30502194 0.04768104 -0.6811258 0.17114988 -0.199651
-0.82636446 -0.3155183 -0.34330952 0.096558034 0.108470365 0.89553267 -0.42438218 -0.13284141
-0.056597907 -0.037219554 0.03003246 -0.2380245 -0.025546415 -0.029592255 -0.059120093 -0.20602687
0.51362914 -0.13837452 0.046701506 0.02810707 -0.20024139 0.42870262 -0.5538083 -0.04582586
-7.189586e-05 4.8585964e-05 0.0005976708 5.2697305e-05 -0.0005013148 0.0002466244 0.00016787255 -0.0019712488
2.2183276e-05 0.00033099728 0.00053351733 0.00039948738 2.6285725e-05 0.0016828538 -0.0002422143 -0.0017576617
-4.839604e-05 -0.00031475944 -0.001159907 5.993284e-05 0.00045743605 -9.400458e-05 -0.0008567446 0.0013862127
-8.1936e-05 0.0009924743 -2.3201355e-05 1.9461072e-07 0.0026089007 0.0010708359 -0.0005506324 -0.00012312124
-1.138652e-09 -4.2047478e-19 3.522076e-06 -7.3339385e-10 -0.00011926493 2.5149353e-12 -5.320541e-35 -1.9150077e-06
-5.9000024e-38 2.3222563e-05 8.464053e-05 9.138294e-10 5.966234e-08 3.623497e-27 -8.5081865e-06 -1.3467497e-08
-7.0294536e-06 -5.1405914e-06 -6.198946e-05 -2.4056035e-30 2.969571e-07 1.0537226e-29 -2.211719e-05 0.00014090363
-3.155661e-10 0.0002982789 1.5654924e-38 1.4097074e-38 -1.1363013e-38 1.2390341e-08 6.1307307e-38 -6.307805e-10
1.1200535e-38 -1.7795802e-10 0.0013209052 6.873247e-14 -8.02989e-08 -2.832245e-38 0.0006544083 -4.4733654e-38
-1.1873392e-17 8.445568e-09 8.483546e-17 1.400851e-10 -1.2439561e-11 6.4849066e-27 4.4200437e-13 -1.6556333e-14
1.2387173e-15 -3.8664866e-11 -7.50555e-07 1.396599e-38 1.5939566e-25 4.141475e-09 -1.2337743e-19 5.8521346e-05
-3.0500858e-19 2.6768402e-11 -1.0496591e-06 4.4968352e-38 1.3341048e-17 -4.0640827e-31 -8.250958e-35 -1.0906884e-12
-0.7237814 0.26914677 0.0113334805 0.026850877 0.37126547 0.12590005 -0.0035782275 0.37730777
-0.045331802 0.40344992 -0.122886345 -0.14582588 -0.48687238 -0.12401568 0.49159533 0.11526217
0.21176179 0.29106817 0.29815722 -0.072385445 -0.42315856 0.45602077 0.7861182 -0.22063297
0.058419183 -0.14180133 -0.5502004 0.042148054 0.50566494 -0.40645716 0.20705727 0.29390872
0.34720626 -0.1340731 0.6983789 -0.13863707 0.2389055 -1.3385103 0.38856274 0.43434915
-0.063445196 -0.32954526 -0.21680938 -0.22849695 -0.4770002 0.5946514 -0.9140078 0.16855308
-0.70915896 -0.005237496 0.5728381 -0.63030165 -0.26619846 -0.41524613 0.2636977 0.016785974
0.2017686 -0.46958634 0.38729382 0.005313545 0.68522644 -0.47635105 0.06904726 -0.104554154
-0.08271416 -0.18172325 -0.068017475 -0.048197906 -0.015186801 0.2487103 -0.28272012 -0.58882946
0.13312835 -0.40712407 -0.19896178 -0.106519476 -0.0034280343 0.28888404 0.74523807 -0.17624319
-0.6323291 0.06706138 0.05058981 0.014022441 0.0014274511 0.13260058 -0.10864829 0.3997863
-0.25811845 -0.26344484 0.19424179 -0.02785453 -0.34328228 0.09867761 -0.46514967 -0.37999293
-0.5189764 0.5647016 -0.52866465 0.35690898 0.019827928 0.6833299 0.10400828 0.50355756
-0.0066436124 0.44204843 -0.20791711 0.5230281 -0.19722463 -0.34909236 0.35299364 -0.14559579
0.5654042 0.01568907 0.17764357 0.22852777 0.20274006 0.31195566 0.24477462 0.2722502
-0.45647165 -0.20189805 -0.005916615 0.019719686 0.37715578 -0.09523614 -0.23657587 -0.011412774

conv3.bias f4 [20]
00000000: 32f8 3d3e d168 92b9 2aef 86b6 eda5 19ba
00000010: 2a8a f03d 86b0 9a3e 7dd6 cdbd 9a37 853d
00000020: 6fdc 7d3e 4975 943d e223 58bd 9cc1 4a3e
00000030: e073 66bc eac2 fb3d 796a fdbd 2caa 71be
00000040: 49fc 103d b416 d93e 7880 429b cc95 5fbe
0.1855171 -0.00027925384 -4.0213536e-06 -0.00058612117 0.11745103 0.30212802 -0.10050676 0.06504746
0.2479112 0.07248933 -0.052768596 0.19800419 -0.014065713 0.12293036 -0.12373824 -0.23600072
0.035396848 0.42400134 -1.6088814e-22 -0.21834487

conv4.weight f4 [20, 1, 3, 3]
00000000: eec2 19bf 5e58 abbe 0d49 a83e bde7 24bf
00000010: 3979 90bd 384c 873e d8f1 05bf bb81 ecbe
00000020: c941 1fbe 741d 96b9 0806 12b7 4581 00ba
00000030: d5ab efb7 d1f1 4c3a 35f1 f139 d4fb 0f3a
00000040: 8cba f3b7 4ac9 053a bc8b 5e3b 541c 643b
00000050: 3cd0 2a3b b2aa 553a d3ae 7039 3ff5 9c36
00000060: 11ee cc36 0937 ab32 8e58 9636 9ac4 68b9
00000070: dfd6 79b9 cbe8 8139 2dde b7b8 15d5 7cb8
00000080: 984d 0f3a 6fed 25ba 80be 73b8 c7a5 c637
00000090: 244c c13e ad5d aa3e 2a1a 023f dd27 0ebf
000000a0: 390e c2be f872 92be 8514 9abe 0e7c bfbd
000000b0: e473 a53d 0052 c3bd 6663 0bbf 8ddd bcbe
000000c0: e1dc b33e 8d9d 55be 942f c83e 8bcc f4be
000000d0: 0c07 1ebc a237 063f 5d33 71bf 56b2 38bf
000000e0: 68da fdbe 3633 edbe d7da aabe ca68 8cbd
000000f0: 9b27 cabe 7601 14bf b845 d23e 4924 2dbe
00000100: 5d37 2abf aa04 eabe 5892 8abe 1468 18be
00000110: ed58 0abf 120d 9abe 15fa 653e d584 d43e
00000120: 960c 0fbe e1a7 6c3e dbe2 03be 6929 8ebe
00000130: d22e fe3d 6b4e 1b3f cc3a 3fbf 10f4 c43e
00000140: 9487 d23e dd09 c0be 280c 05be c054 d7be
00000150: 021b 3abf 20b7 cdbe 423b adbe e1b4 c0be
00000160: c94c 1bbe e443 efbd e8ec 3bbe 2ee8 59be
00000170: 3db9 323f 0cd3 283c fe0b 693e 4004 373f
00000180: d900 06bd c53e 8abd 612b 2d3f 7531 f4be
00000190: b8dc 32bf ae2e e3be 422e 89be 43be 58be
000001a0: 27b2 07bf 8ac0 82be e560 b8be 7d52 e13d
000001b0: 26e4 3a3e eb49 0fbf 08df 62bf ae4b f9be
000001c0: 5d95 b4be c046 44be 9b00 a63d ad45 d73e
000001d0: df82 a43e e9f8 8b3d 41a6 81be 128d ebbe
000001e0: d190 ed3c b0c4 c13e c6e9 173e 4e99 a73e
000001f0: 063b 2a3f 4fb8 263f 0bfc 313e 0819 6a3e
00000200: ab00 123e 942f 9c3e b32f b73e 42ff d83e
00000210: 58a9 51be d7f4 493f 7076 d13e 7aed 1a3e
00000220: a377 ea3e def2 6abd 6308 293f c1c8 933e
00000230: 8b43 ca3e e474 ce3d 5874 283e 046f 5d3e
00000240: 3d27 b2be 055d 92be 3796 5cbd 3339 cd3e
00000250: c476 1c3e a493 743e 9337 a73c b11a bb3c
00000260: 005e 00bf a07b 1ebf b120 7d3e 6ef1 ce3e
00000270: 9ddd 1e3e f6cc 483e b43e be3e b527 f4be
00000280: 2438 03be f7d2 3bbe f884 93ac 1a84 a830
00000290: 2c19 80ad ca19 bcaa 49a5 8628 5c68 1ba8
000002a0: 2da4 c328 a8dd 73a5 0d47 d4a7 509a 86be
000002b0: caf6 54bf 52ce 53be 9975 b6be 6455 07be
000002c0: 319c a33e c9a9 1abf 4a47 abbe d207 81be
-0.60063064 -0.33465856 0.32868233 -0.64416105 -0.070543714 0.26425338 -0.5232215 -0.46192726
-0.15552439 -0.00028632174 -8.703682e-06 -0.0004902075 -2.8571036e-05 0.0007818016 0.00046146815 0.00054925424
-2.9054725e-05 0.0005103542 0.00339578 0.0034806924 0.0026064059 0.0008150741 0.0002295331 4.6777127e-06
6.1073883e-06 1.9932047e-08 4.4806575e-06 -0.00022198484 -0.00023826536 0.00024778242 -8.7675035e-05 -6.027993e-05
0.00054665795 -0.0006329631 -5.811313e-05 2.3680635e-05 0.37753403 0.33274594 0.50821173 -0.55529577
-0.37901476 -0.2860334 -0.3009378 -0.093498334 0.08078745 -0.09537125 -0.54448545 -0.3688778
0.35129455 -0.20860882 0.390988 -0.47812304 -0.009645235 0.5242864 -0.94219 -0.7214712
-0.49580693 -0.46328133 -0.33370087 -0.068559244 -0.39483342 -0.5781473 0.41068816 -0.16908373
-0.6649073 -0.45706683 -0.27064776 -0.14883453 -0.5404194 -0.30088097 0.2245868 0.41507593
-0.13969645 0.23110916 -0.12879507 -0.27765968 0.12411274 0.6066653 -0.7469909 0.38467455
0.41119063 -0.37507525 -0.12992918 -0.42056847 -0.7269746 -0.40178776 -0.33834273 -0.37638
-0.1516601 -0.11682871 -0.18352091 -0.21279976 0.698139 0.010304224 0.22758481 0.7149086
-0.032715652 -0.067502536 0.67644316 -0.47693983 -0.6986804 -0.4437155 -0.26793104 -0.21166329
-0.53006214 -0.2553752 -0.36011425 0.110020615 0.18251094 -0.55972165 -0.8862157 -0.48690552
-0.35270205 -0.19167614 0.08105584 0.42045346 0.32131097 0.06834585 -0.25322154 -0.46006066
0.028999718 0.37845373 0.14835271 0.3273415 0.6649631 0.6512498 0.17381303 0.22861111
0.14258067 0.3050505 0.3577858 0.42382246 -0.20474756 0.7888922 0.40910673 0.15129653
0.457944 -0.057360522 0.6602842 0.288641 0.39504656 0.10080889 0.16450632 0.2162438
-0.3479556 -0.28586593 -0.053854194 0.40082702 0.1527968 0.23884445 0.020412242 0.022839876
-0.5014343 -0.61907387 0.24719502 0.4041857 0.15514226 0.19609436 0.37157214 -0.47686544
-0.12814385 -0.18342195 -4.1927538e-12 1.2261154e-09 -1.4563094e-11 -3.3413403e-13 1.494867e-14 -8.626858e-15
2.1720549e-14 -2.115199e-16 -5.8918854e-15 -0.26289606 -0.8318907 -0.20684174 -0.35636595 -0.13216168
0.31955102 -0.6041532 -0.33452827 -0.2520128

conv4.bias f4 [20]
00000000: 3597 f13c 5f6b 6ebe cddd 7cbe f4cd dd3e
00000010: 3422 f23d 8038 23be 9800 afbe eec5 193c
00000020: f7a1 62be c0b3 e13e a8a6 11bd 461f 763e
00000030: 9d26 303e 710b 52be eeac 8fbd 657c f0bd
00000040: 9beb 20be 3664 8cbd e995 2dbe d58f 273d
0.029491046 -0.23283146 -0.24693985 0.43321192 0.1182293 -0.15939522 -0.3418014 0.009385569
-0.22132097 0.4408245 -0.035559326 0.24035367 0.1720223 -0.20512177 -0.070154056 -0.117424764
-0.15714876 -0.06855051 -0.16951717 0.040908653

conv5.weight f4 [20, 20, 1, 1]
00000000: 2677 a13e e73e a4bd db50 8e3d 8612 e1bc
00000010: 1721 a2bd 72ee 523e acb7 0bbd c62e 06bf
00000020: 1196 7a3e 83ef f63d 0083 19be 3200 f1bd
00000030: 4e4e b73d 2d0b 7f3e a3aa b9be e740 37bd
00000040: 82c2 0c3f e7ec 91be 10ce b83d 1fbf 9b3e
00000050: dbc1 40be df21 a9bd 7d36 723e 18ac 0bbd
00000060: a4af 25bb cd6d fa3c d0cc 11bf 97a2 aa3d
00000070: 4f84 6dbe 8518 8f3e 16a7 593d ce0a d23d
00000080: 4ac6 ba3e 7943 353e 2e64 ca3d f302 64be
00000090: a6dc 6f3e c9a4 adbb 044e d83d f98a 16bf
000000a0: e6b1 083f 88ab c1be dd99 04bf 3cfe a53e
000000b0: 0e4b 353f d3e9 afbe 7e84 a2be e540 a73e
000000c0: 384f c3be 9d5d 743e acce 0cbf f56f ad3c
000000d0: c464 243f 847c b2be a90d 14bf 6b11 25be
000000e0: 0d70 59be 5c7e 763e 039d 92be bfb3 f03e
000000f0: 86fb 2e3e 99eb fd3b ed85 723d 5450 40bd
00000100: 378b d03e 7c28 d53c 1510 11be fff1 e73e
00000110: d717 7ebd 3481 01be e7cb 42be a3c7 b9be
00000120: 801b 643e 0f49 92bd bf65 0c3e 68ed 8c3e
00000130: 39d1 d0be 3a36 8f3e e064 a63d ef1b d43d
00000140: 6196 0ebf c919 c63d 17b7 0abc 36b5 21be
00000150: 603f 4e3e b330 0c3f c93f 81be 7a3a 023e
00000160: bb79 50bd 1161 a53d 7a95 933e d39e 253f
00000170: 4e8a 533e 5f14 9e3e 76ff 8fbe 4914 61bd
00000180: f6d1 da3d 397e 213c 69e7 eb3b f6cb 3b3d
00000190: 5c2c 21be 2017 3abe 5d18 8a3d d237 dbbd
000001a0: b7ca 173f 8316 dd3e 381d d03e ddfb 15bd
000001b0: 97fd 203e 4d48 debd f5a5 233e 4aee 933e
000001c0: 5549 fe3d 5c0f 25bc ae7e e9be 4461 97be
000001d0: eeb6 dabe 4b78 e0bc d49d 1abe 2022 debe
000001e0: 7bb6 1cbe ff9f 9b3e e800 5e3e 8070 adbe
000001f0: 0e00 e03d 54d6 99be c5db d53c 292b bc3e
00000200: 3d14 013f 48d1 e93d e03e f23e b5ef 2ebe
00000210: a1c7 e33d ff43 88be 30c4 11be 2ac9 a63e
00000220: bf6b 283e 58e1 d3be 80c5 813c 793f a4bc
00000230: db0d 1a3e b5c3 943e bf4f 493e 4e62 dc3b
00000240: ad3c 28bd 425d 2cbf a952 b23e f70a 5d3e
00000250: 447a e2bd 9f87 92be 8198 50be ea84 95be
00000260: a4d7 b8bd 5a34 37be d251 d6bc 3be5 b03e
00000270: fa2d 063f 64a1 efbd 1a74 dbbc f49d 813e
00000280: 635c c2bd 1e22 36bd 86df 2a3e 2437 143d
00000290: 0fb1 8d3e 0bc2 85be 95cb a43e c723 d43d
000002a0: 021c 293e 3c3c 623e 1f2d 44be 72ff b33e
000002b0: e9c9 a6be 20aa d6be 8744 843e 4141 013e
000002c0: 8b39 afbe 06e9 94be 85d0 e23c 0a67 a5bd
000002d0: a8d3 5fbe 2bbe e43e 43f9 343e 8781 dabe
000002e0: 94c1 5e3e 700e c5be c5f2 813d d8fa 523e
000002f0: 5fcd 2ebd fab2 863d d6c7 023f 4e51 e93d
00000300: 874b 623e 3cb5 8b3e 6a22 80be 030c 943e
00000310: 9084 503e 78f8 493e a39d 433e 8b12 95be
00000320: c2d7 3e3f eab9 c33c 9761 873e aea9 afbe
00000330: 92f9 023c e3a0 07be fe8b ecbe 4a37 28bd
00000340: de2b 13bc f370 343e c026 86be b112 433e
00000350: 282d 6fbe 30df 54be b1fc 733e 6791 86bc
00000360: ea1b 35be 8060 16bf b5b8 5b3e 1fc3 9fbe
00000370: 4b08 e7bd c493 e5bd 591a 973c 1357 f33a
00000380: 6a69 3bbe d624 8abe e817 153f 553f bfbe
00000390: 0e63 c1be 528e 2abd 6ed8 dbbe 3c58 a13e
000003a0: df19 09be 5908 413d 0ad3 7abd a273 50bd
000003b0: cde5 463e 45d9 543e be5c 05be d6b8 efbe
000003c0: 13a8 7d3e 5ef1 8f3e 35a7 173e b1c3 0bbe
000003d0: 3f9e ee3c 4ea1 e9bd 077e c63e c1dd 92be
000003e0: f7cd 33be e504 cebe b1b3 9bbe f26f 083d
000003f0: 9143 53bd a233 863e 3015 ca3d fa05 b63d
0.31536216 -0.0801981 0.06949016 -0.027474653 -0.07916468 0.20598772 -0.03411071 -0.5241512
0.24471308 0.12057402 -0.14991379 -0.117676154 0.08950482 0.24906607 -0.36262998 -0.04473963
0.54984295 -0.28501055 0.09023678 0.3041925 -0.1882395 -0.082584135 0.23653598 -0.03409967
-0.0025281692 0.030569935 -0.56953144 0.08331793 -0.23195003 0.27948394 0.05313786 0.10255967
0.36479408 0.1770152 0.09882389 -0.2226675 0.23424014 -0.005299185 0.10561755 -0.58805805
0.5339645 -0.3782618 -0.51797277 0.32420528 0.7081765 -0.3435808 -0.3174171 0.32666698
-0.38146377 0.23863836 -0.55002856 0.02117155 0.64216256 -0.34860623 -0.57833344 -0.16119926
-0.2123415 0.2407164 -0.28635415 0.47012135 0.17088136 0.0077490327 0.059209753 -0.046951607
0.40731212 0.026020281 -0.14166291 0.45301816 -0.062034454 -0.12646943 -0.19023095 -0.36285123
0.22276115 -0.07142841 0.13710688 0.27524877 -0.40784624 0.2797106 0.08124709 0.103568904
-0.5569821 0.09672887 -0.008466504 -0.15791783 0.20141363 0.5476181 -0.25243977 0.1271762
-0.05089734 0.080751546 0.2882498 0.6469547 0.20658228 0.30874917 -0.2812459 -0.054950986
0.10684578 0.009856754 0.007199217 0.04584881 -0.15739578 -0.18172884 0.06742928 -0.10704006
0.59293693 0.43181238 0.40647292 -0.03661715 0.15721737 -0.10853634 0.15981276 0.28892738
0.12416331 -0.010074463 -0.4560446 -0.29566395 -0.4271769 -0.02740111 -0.15099269 -0.4338541
-0.15303986 0.30395505 0.21680033 -0.33874893 0.109375104 -0.30046332 0.02610577 0.3675168
0.50421506 0.1141687 0.47313595 -0.17083628 0.111220606 -0.26614377 -0.14234996 0.3257535
0.16447352 -0.4138286 0.015841246 -0.020049797 0.15044348 0.29055563 0.19659327 0.006725586
-0.04107349 -0.673298 0.3482869 0.21586214 -0.110584766 -0.28619096 -0.20370676 -0.29202968
-0.09025505 -0.17891064 -0.026162062 0.3454989 0.52413905 -0.11700705 -0.02678876 0.2531582
-0.094902776 -0.04446613 0.1668683 0.0361854 0.27674147 -0.26124606 0.3218657 0.103583865
0.1651459 0.2209329 -0.19157837 0.35155827 -0.3257592 -0.4192667 0.25833532 0.12622549
-0.3422359 -0.29084033 0.02768732 -0.08076294 -0.21858084 0.44676337 0.17673211 -0.42676947
0.21753532 -0.38487577 0.06345133 0.20603502 -0.042676326 0.06577106 0.51086175 0.11392461
0.22099124 0.27286708 -0.25026256 0.28915414 0.20363069 0.1972369 0.19103102 -0.2911571
0.7454797 0.023892362 0.26441643 -0.34309143 0.0079940725 -0.13244967 -0.46200556 -0.041068353
-0.008982627 0.17621212 -0.2620144 0.19050099 -0.2335707 -0.20788264 0.23826863 -0.016426755
-0.1768643 -0.58741 0.21457179 -0.31203553 -0.11280879 -0.11209825 0.01844518 0.0018565379
-0.18301931 -0.2698123 0.58239603 -0.37353006 -0.37770885 -0.041639633 -0.4293856 0.3151263
-0.13388775 0.0471271 -0.06123642 -0.050891526 0.194236 0.20786007 -0.1302366 -0.46820706
0.24771146 0.28113836 0.14809878 -0.13648869 0.029128192 -0.114077196 0.38768026 -0.2868481
-0.17559038 -0.4023811 -0.3041053 0.033309884 -0.05157811 0.26211268 0.098673224 0.08887859

conv5.bias f4 [20]
00000000: 4f9b 903d 874b a2bc 441d 0c3f 0c78 96bc
00000010: 3708 a2bd 61e4 273e c8b1 82be 07a3 fe3c
00000020: da1f 973d 65ab d0be a431 aebe 9364 a9bd
00000030: b455 c8be 1646 3b3e 1734 2ebe 08fc 7abd
00000040: aa1b 9bbc 2efd c6be 967a 35be 5bef 46ba
0.07060873 -0.019811405 0.54732156 -0.01836779 -0.07911723 0.16395713 -0.2552626 0.031083597
0.07379122 -0.40755764 -0.34022248 -0.08271136 -0.39127886 0.18288454 -0.17012058 -0.061275512
-0.01893409 -0.38865036 -0.17722544 -0.00075887673

linear.weight f4 [10, 320]
00000000: 14f7 6dbd 3377 8ebe 25bd 00be eaca c9bd
00000010: ccb8 c63d 5b9e 613e 6201 cc3d a811 1a3e
00000020: 1a55 533e e48e 5c3d acaf 8d3e fdfb d33d
00000030: 5b87 af3d b1b2 0c3f 7015 eebe a090 babe
00000040: fa90 3c3d 6504 ccbe aaf2 babe 7e1d 45bd
00000050: b583 1fbe dda7 cebd bac3 39be a797 d1be
00000060: 361d 653e d49b dcbd 83ee b7be 3731 7cbd
00000070: 1b02 8b3e ba02 76bd a5a9 84bd 74b7 c63c
00000080: 5132 903c 4f9c 763f 6a0f 6c3f 7acd b0bd
00000090: ca66 e1be c0aa 82be dc3f 1cbf cc0d abbe
000000a0: f422 3e3e 5151 953e 3b3f 6e3e e7b7 16be
000000b0: bdfe 4e3e 2493 b13e cfe1 693e 4e18 ba3d
000000c0: 3b00 d63c 59b0 87be eea3 26be db4e 493e
000000d0: 1115 693d e952 45be b969 dc3d d687 8a39
000000e0: 4a87 8fbe 2e8b 9cbe d028 42bd acc4 163e
000000f0: 81bf 813d b0dd 043d 48a3 19bb 890d 16be
00000100: 65ee 05bd b2b8 cf3d 4db3 04be 1acb 4fbd
00000110: 68eb 203e 7eba 4c3e 6c44 c4be 9932 803e
00000120: a7fb 603e 42e1 bdbe 177a 033f 5a52 2a3e
00000130: 100d 273d bfdd 4cbe 1423 da3e 8c30 e43d
00000140: f2cc 01bd ed25 673e 2533 d8bd 2019 d13d
00000150: 715e bdbd 330f 483d 96ec 0c3f cd80 f1be
00000160: 77df d23d dd72 c33d 698e 4b3d 4b5c 393e
00000170: 9b2f 203e c629 3b3f ae77 f3bd 6172 9a3d
00000180: 0419 f0be 5140 ccbe fe36 89be 9652 94be
00000190: 32d4 763d 8fa4 e43b 19eb 1b3c de8b 363e
000001a0: f82e 5d3e 1c5d 5fbd 7bf8 49be a047 c8bd
000001b0: ab34 f93d 653a f1bd 461a 9c3d 3e41 493e
000001c0: 146a e93d fdef 16bd ef7e 58bc 8010 eb3c
000001d0: 2d8b 003f df28 8b3b 1cab 90be 17b4 213d
000001e0: 4007 ab3d e35d acbd 8477 86bd 24fc fdbc
000001f0: 66d8 3f3d 3dce 973d ceeb 1cbd 30b3 ad3e
00000200: ebf7 6ebd 24f0 263e 8ad9 5f3e 9351 12bd
00000210: 08cc f73c ac94 183e 52e8 1b3f abf5 a6be
00000220: 478d b7bd 5aad b7bc 1f44 e93e c645 973e
00000230: 7eff 81bc 968d 71bd f99f 943d 537f a33d
00000240: 345a e13e 217a 293f b313 423e 2a72 163e
00000250: ea4c a43e 5a60 bd3e 13fc cebc 11be 823e
00000260: 0048 cb3d fc9d 05be 5140 bbbd 6bc5 ecbb
00000270: 1a17 9ebc 2732 80be c6f4 17be 3d7c 86bd
00000280: 3a73 ef3d 376c 763e 011f 2abd d8e9 32be
00000290: 08bc d8be e8bb 5abc 0909 00bf 320a acbe
000002a0: ed2d 00bf 3f27 88be d7bb 9dbe 2930 9fbd
000002b0: 4246 c3bd 8b73 f6bd 3f53 d2bd 3ead cf3d
000002c0: 94f2 04be 3579 cebe eecf 14be 889d f63b
000002d0: 04e3 55be 8189 44be 2cfa f23d b8b9 993d
000002e0: 6e3e 7ebe ec47 fd3c bcb7 923e 66dd 3f3d
000002f0: 4b25 0bbe a46e f4bd e329 5e3e 3361 94be
00000300: 5554 2c3e b5d6 a1be bebd 7ebe 69e0 233d
00000310: a6f7 e73d 3e07 9d3e 1a37 b839 3274 0d3e
00000320: de2e 7c3e 75d4 763d 741b 02be 7dd6 a3bd
00000330: b503 3bbe ba53 83be fa85 bebd b17f 0abd
00000340: a75c cdbe 7bd4 3fbe a5d5 2e3c c2ac 9ebb
00000350: 17e8 82be 2ac7 63be 62c6 923d 7e9a 1ebd
00000360: 80dc ff3e cedc 423e 58d2 8b3e 52a5 9a3b
00000370: b335 883e 7280 063f 77f0 5d3e dad9 68be
00000380: ece3 f73d 5582 c3bd 3a98 d4be 738a 1bbd
00000390: d7da 4b3e 5710 613c a416 33bd bc9b 8d3e
000003a0: fe05 91bd afff 83bd b537 8c3e 787a 9ebd
000003b0: 6161 68be 73c2 7dbe 0fe8 52be 1a04 4dbe
000003c0: b2de 963e 0c7a cfbd 2f76 2abd b034 51be
000003d0: 728b a73d 3c4a 38be 2a9b 9cbe 1eba 0bbe
000003e0: 6cd0 473e 4273 1f3e a08d 0bbe 47ae 29bc
000003f0: d8ef 4d3e abc3 2c3e c3fa 0e3d 9d30 10be
-0.05809696 -0.27825317 -0.12572153 -0.09853156 0.09703216 0.22033064 0.09961201 0.15045798
0.20637932 0.05384721 0.2767309 0.10350797 0.08570739 0.5496016 -0.4650073 -0.36438465
0.046036698 -0.39847103 -0.36513263 -0.04812383 -0.15577586 -0.10090611 -0.1814107 -0.40936014
0.22374424 -0.10771909 -0.35924158 -0.061570372 0.27150044 -0.060061194 -0.064776696 0.0242574
0.017602118 0.9633226 0.9221102 -0.086329415 -0.44023734 -0.25520897 -0.6103494 -0.33408964
0.18568021 0.29163602 0.23266308 -0.1471859 0.20214362 0.34682572 0.22840045 0.09086667
0.026123157 -0.2650173 -0.16273472 0.19658987 0.056904856 -0.19269909 0.107623525 0.00026422617
-0.28032905 -0.30574936 -0.047402203 0.14723462 0.063353546 0.03243798 -0.002344327 -0.14653601
-0.032698054 0.1014265 -0.12959023 -0.050730802 0.157148 0.19993016 -0.38333452 0.25038603
0.21970998 -0.3708592 0.5135817 0.16632977 0.04078394 -0.20006464 0.42604887 0.11142072
-0.03168959 0.22573061 -0.1055663 0.1020987 -0.09246529 0.04884262 0.550485 -0.4716858
0.10296529 0.09543393 0.04969636 0.18101613 0.1564316 0.73110616 -0.118880615 0.07541347
-0.46894085 -0.3989282 -0.26799768 -0.28969258 0.06026096 0.0069776247 0.009516501 0.17826793
0.21599948 -0.054532155 -0.19723694 -0.097792864 0.12168249 -0.11778716 0.07622199 0.19653794
0.11397186 -0.036849964 -0.013213857 0.028694391 0.50212365 0.0042468156 -0.28255546 0.039478388
0.08350992 -0.08416345 -0.065657645 -0.03100402 0.046837233 0.07412384 -0.03831082 0.33925772
-0.0583419 0.16302544 0.21860328 -0.035722326 0.030248657 0.14900464 0.6090137 -0.32609305
-0.089624934 -0.022421528 0.45559785 0.2954542 -0.015868898 -0.058972917 0.07257075 0.079832695
0.44014132 0.6620198 0.18952827 0.14691988 0.3208993 0.36987573 -0.025266683 0.25535634
0.09925842 -0.13048548 -0.09143127 -0.0072256825 -0.019298125 -0.25038263 -0.14839467 -0.06566665
0.116918996 0.24064718 -0.041533474 -0.17472017 -0.42330956 -0.013350464 -0.50013787 -0.33601528
-0.5007008 -0.26592442 -0.30807373 -0.07772858 -0.09534885 -0.12033757 -0.10269784 0.10140465
-0.12983161 -0.4032685 -0.14532444 0.0075261034 -0.20887381 -0.19193079 0.11864123 0.07506126
-0.24828503 0.030918084 0.28655803 0.046842 -0.13588445 -0.119351655 0.21695666 -0.28980407
0.16829045 -0.3160912 -0.24877068 0.040008936 0.11326532 0.30669588 0.0003513627 0.13813856
0.24627253 0.06026121 -0.12705785 -0.07999895 -0.18263133 -0.25649816 -0.09302898 -0.033813182
-0.4010975 -0.18733399 0.010671054 -0.0048423717 -0.25567695 -0.22243944 0.07166745 -0.038721554
0.49972916 0.19029543 0.27308917 0.0047194147 0.2660347 0.5253974 0.21673761 -0.22739354
0.121040195 -0.09546343 -0.4152239 -0.037973832 0.199077 0.013736806 -0.043722764 0.27657878
-0.07081221 -0.06445252 0.2738625 -0.07738203 -0.22693397 -0.24781208 -0.20596336 -0.20021096
0.29466778 -0.101307005 -0.041616615 -0.20430255 0.08180894 -0.17997068 -0.3058713 -0.13645217
0.195131 0.15571311 -0.13628244 -0.010356492 0.20111024 0.16871516 0.034907114 -0.14081044

linear.bias f4 [10]
00000000: 0498 90bc 2c48 4b3e ea4a 07be 2dd0 db3d
00000010: f139 bd3a 7a50 a63d a4c9 ebbd 2c09 8fbd
00000020: 5a15 5abd 1caa b3bd
-0.017650612 0.1985175 -0.13212171 0.10733066 0.0014436824 0.081208184 -0.11513069 -0.06984171
-0.05324302 -0.0877268
