models/FashionMNIST/cnn_num-modules=3_seed=012/099.pth (torch, 23817 bytes, 12 tensors)

conv1.weight f4 [32, 1, 3, 3]
000000 7c db 30 b4 33 08 5d b4 12 91 6a b4 ee 25 47 b4
       -1.6471125e-07 -2.0585212e-07 -2.1845725e-07 -1.8547118e-07
000010 92 c0 80 b4 06 a7 83 b4 aa b3 52 b4 d8 de 73 b4
       -2.398197e-07 -2.4522177e-07 -1.9623135e-07 -2.2712209e-07
000020 b1 0a 83 b4 b2 01 e0 3d 2a bc eb be b9 3f a0 bd
       -2.440843e-07 0.10937823 -0.46041995 -0.07824654
000030 d1 ab ba 3e 90 7b 8a 3e e8 ae 5a 3d 5b 89 c2 3d
       0.3645921 0.27047396 0.05338946 0.09498855
000040 e7 82 53 3f 7b fe 1e 3f 6c e2 19 c0 3a 6f 7e bf
       0.82621616 0.62107056 -2.4044447 -0.9938847
000050 a2 ea c6 bd 39 2e 61 c0 7b 53 dc bf 6f 63 a5 3e
       -0.097127214 -3.5184462 -1.7212976 0.32302424
000060 6a 2f 84 be 12 f0 50 be 7e 8e 0c 3f 8f 4c b3 3e
       -0.25817424 -0.2040408 0.54904926 0.35019347
000070 a1 40 ac bd 5e a5 ef be c2 df 9f 3e 91 d6 0f c0
       -0.084107645 -0.46805853 0.312254 -2.247471
000080 03 d4 e4 bf fb af 56 bf ba c7 42 c0 81 68 ba bf
       -1.7877201 -0.83862275 -3.0434403 -1.4563142
000090 41 d7 4a 3f ba f1 04 be 88 b6 23 c0 9d 2e 7f bd
       0.792347 -0.12982836 -2.5580158 -0.062300313
0000a0 21 75 33 3d eb a1 6f c0 e8 42 30 be fb 0c 3e 3e
       0.043812875 -3.7442577 -0.17213023 0.18559639
0000b0 24 c6 98 bd f2 d3 a8 3c f2 16 fa 3d 27 1a b4 3d
       -0.07459667 0.020608876 0.12211408 0.08794051
0000c0 6d 3e 97 3d b2 28 fe 3e 1a 21 10 3f 84 74 96 3e
       0.07384954 0.49640423 0.5630051 0.2938577
0000d0 d7 7a 91 3e 89 61 cc 3e 63 a3 87 3e b7 d7 6f 3e
       0.28414032 0.39918163 0.26491842 0.23422132
0000e0 34 cf 7e bd ac 03 22 3f 20 82 1c 3f 96 a3 14 3a
       -0.062209323 0.6328685 0.61136055 0.0005670128
0000f0 28 61 b9 3e 96 33 b6 bd bb 49 ca bb 55 ab d4 3e
       0.36206937 -0.08896558 -0.00617334 0.41536966
000100 6d fc 70 3e 23 fb 2a 3e b4 9d 89 3e e9 09 18 3f
       0.23533793 0.16697364 0.2687813 0.5939012
000110 6d d9 22 3f 05 7d 05 3b 30 85 04 bc f1 67 12 3d
       0.63613015 0.0020368707 -0.008088395 0.035743657
000120 5f df 04 3e b2 60 3e be 0e 03 09 bd 47 a0 10 be
       0.12975834 -0.18591574 -0.03345018 -0.14123641
000130 42 71 1f bf e1 2d 87 3d 76 96 27 3d 76 15 f9 3d
       -0.6228219 0.066005476 0.040914975 0.121622965
000140 9c c5 e8 be 9f 6d 93 3c e8 26 09 3d e7 fe 6d bd
       -0.45463264 0.017996607 0.03348437 -0.058104422
000150 cc 66 bd 3e f0 17 b8 3e 8f fe 9e 3e c0 0f f2 3e
       0.3699249 0.35955763 0.31053588 0.4727764
000160 25 b7 a0 3c 0b 33 f5 3e ac cf 81 bb 1a 80 8c bb
       0.01961858 0.47890505 -0.003961524 -0.004287732
000170 ff 47 82 bb 30 21 b9 bb b1 58 ae bb 5c c9 8a bb
       -0.0039758678 -0.005649708 -0.0053206314 -0.0042354297
000180 58 d4 b9 bb ab a7 a3 bb 9a 85 86 bb bb 8a 1a 3f
       -0.0056710653 -0.004994353 -0.004105282 0.60367936
000190 bb 7c 1c 3e d7 48 15 3e c0 9c 7b 3e e7 e5 83 bd
       0.15281956 0.14578567 0.24571514 -0.06440335
0001a0 6e 4a b7 3e 25 ac f6 3e 84 98 0c bb 87 4a 9a 3e
       0.35798973 0.4817821 -0.002145321 0.30134985
0001b0 22 e8 69 3e 2b f8 8a 3e 39 a7 01 bf c0 d7 20 3f
       0.22842458 0.27142462 -0.50645787 0.6282921
0001c0 4b fb d9 bf 2e da 51 c0 a8 36 c2 3e dc da 16 bf
       -1.7029814 -3.2789416 0.37932324 -0.589277
0001d0 40 c5 fd bf 1f 5f e9 be 76 f6 18 3e 78 79 a9 3e
       -1.9825821 -0.45580384 0.14937767 0.33100486
0001e0 27 aa 96 be 86 b6 5c be b4 50 fb 3e 4a 26 e3 bd
       -0.2942669 -0.21554002 0.4908501 -0.110912874
0001f0 e6 17 bf be 7a 26 f7 3e d7 8b e4 3e c9 c6 83 3e
       -0.3732292 0.48271543 0.4463794 0.257376
000200 4f 9d 72 be 4e 7b 16 3f f1 0f 25 be 73 58 94 3d
       -0.23692821 0.587819 -0.16119362 0.07243433
000210 65 80 8e 3e f0 df 9f 3e aa f7 eb be 94 bb 0c bf
       0.27832332 0.31225538 -0.4608739 -0.5497372
000220 2a 0d 45 be 70 37 06 3f bf 48 29 bf a9 b0 24 3e
       -0.19243303 0.5242834 -0.66126627 0.16083016
000230 58 60 ba 3e 55 54 89 bb 11 a4 ac 3e 2a ef e5 3d
       0.3640163 -0.0041909614 0.33718923 0.112272575
000240 f4 9c ae 3e fd 02 f4 bd 1f b6 b6 bd d8 ec 8c be
       0.3410412 -0.119146325 -0.089214556 -0.27524447
000250 10 cf ae be 15 45 74 be 4e 3c d3 3e 77 1f 09 3f
       -0.3414235 -0.23854478 0.41256946 0.53563637
000260 12 d6 1a 3f 37 30 49 3e 4b cd 3b bf 25 45 e8 bc
       0.60482895 0.19647299 -0.7336013 -0.028353283
000270 33 71 1a 3f 0e 84 cd bd 77 2a bb be e8 4c d3 3e
       0.6032898 -0.10034953 -0.36555836 0.41269612
000280 1b 8f 33 bd 97 77 c0 3c 2d e9 e5 3e 35 79 fc be
       -0.043837648 0.023494525 0.44904462 -0.49311224
000290 75 d6 cf 3d 27 f1 e3 3e fd ec 11 bf 35 c0 95 3d
       0.10148326 0.44519922 -0.5700224 0.07312051
0002a0 89 b9 c9 3e 9e 61 97 be f6 f4 9d bd 5e 08 7a 3d
       0.39399365 -0.29566664 -0.07712738 0.061043136
0002b0 d7 c5 1c be 80 0a 60 bf 81 bb 53 3e 76 af 0a be
       -0.15309845 -0.8751602 0.20676996 -0.13543496
0002c0 c0 c1 73 3c 9d 52 cb bc 36 52 3e 3f 04 fc 64 3e
       0.014877737 -0.024819667 0.74344194 0.22361761
0002d0 30 ac 44 3e ce 6d 67 3e 49 c4 06 3f b2 b6 e1 bd
       0.1920631 0.22600481 0.5264326 -0.110211745
0002e0 88 7e 14 bf e7 4f e3 be 34 e5 90 bd b9 54 ab 3e
       -0.5800557 -0.44396898 -0.07074967 0.33463076
0002f0 e1 d4 a1 bd f6 61 ed 99 bd b6 48 9a 31 95 54 9a
       -0.079019316 -2.4544792e-23 -4.1506645e-23 -4.3961088e-23
000300 f4 82 c3 18 99 32 87 99 d6 6c 00 9a 8e 10 b1 1a
       5.0538547e-24 -1.3979109e-23 -2.6557697e-23 7.323223e-23
000310 46 ef ba 1a 2f 95 91 1a 2b 1a d7 bc d5 3a d7 bc
       7.7314364e-23 6.0211614e-23 -0.026257595 -0.02627317
000320 44 3c da bc 49 07 d6 bc 45 1c d1 bc b3 ce de bc
       -0.026640065 -0.02612652 -0.025526175 -0.027198171
000330 38 c6 cc bc 23 40 ce bc 1a 69 dd bc 51 e2 1a 3e
       -0.024996862 -0.025177067 -0.027027655 0.15125395
000340 27 ba b9 3e c6 c3 07 bf 18 bd c0 3e 21 31 86 3e
       0.36274835 -0.530331 0.37644267 0.26209357
000350 9a a8 c9 3b d0 16 ba 3e 6c a9 85 3e e4 d1 91 3d
       0.006154132 0.3634553 0.2610582 0.071201116
000360 6a 25 16 3f c9 90 1e 3f 12 a2 36 3f 42 77 ae be
       0.5865084 0.61939675 0.7134105 -0.34075361
000370 cd f8 b4 3d fa 07 4e be 70 a7 ae be 38 4e a9 3c
       0.088365175 -0.2012023 -0.3411212 0.02066718
000380 04 e2 ca be da e6 8c 3e da 2f f9 3e ca 16 b2 be
       -0.3962556 0.27519876 0.4866932 -0.34783012
000390 6e 13 2c be 6c e8 ab 3e 98 76 44 3e 5a 1a 47 bf
       -0.16804287 0.3357576 0.19185865 -0.77774584
0003a0 6d c0 ca 3e c4 97 b4 3e 6c 45 d5 b7 52 9c b6 b5
       0.39599934 0.35272038 -2.5423906e-05 -1.3605552e-06
0003b0 3a 22 a3 b6 31 a4 b8 b7 2c 48 b7 b6 75 6d 43 b6
       -4.861763e-06 -2.2010967e-05 -5.462227e-06 -2.9120977e-06
0003c0 41 f2 20 b7 81 ad 32 b5 ff 63 07 b5 d2 8c 71 bf
       -9.593147e-06 -6.656265e-07 -5.043693e-07 -0.943555
0003d0 17 05 2a c0 ca 63 36 c0 49 d1 19 3f 5a 35 2c bf
       -2.6565607 -2.8498406 0.6008497 -0.6726891
0003e0 f6 23 d5 bf 3e 01 b5 3e 9d c0 18 3f 44 47 fb be
       -1.66516 0.3535251 0.59668905 -0.4907781
0003f0 df c9 fb bd a2 20 b5 3e a0 9e 11 3f 57 a1 4e 3d
       -0.12294363 0.3537646 0.5688267 0.050446834

conv1.bias f4 [32]
000000 7a 67 48 b4 f6 b8 04 3e b2 53 82 3e 08 07 73 3e
       -1.8664096e-07 0.12961182 0.2545448 0.23733151
000010 84 ae c0 3d f3 fc 40 3e d8 c7 80 3d 9d d5 6e 3b
       0.09408286 0.18846492 0.06288117 0.0036443241
000020 a3 4c 0c 3f 96 2f 7a 3d ad f6 a2 bb 38 12 f9 bc
       0.5480444 0.061080538 -0.0049732537 -0.030404195
000030 cb 9d b6 bb b1 65 67 bc 9f 14 51 3e 4b 76 9b bd
       -0.0055730096 -0.014123366 0.20418023 -0.07590922
000040 48 3f 35 3b 9c 44 1a be 83 7f 13 bd 9a 47 80 3d
       0.0027656127 -0.15065235 -0.036010277 0.06263657
000050 f0 b1 f0 b8 11 97 c2 9b a6 db 84 bc 0e b3 12 3c
       -0.00011477235 -3.2192232e-22 -0.016218018 0.008953823
000060 a8 83 a8 3e f7 a2 66 3d a2 e4 12 b8 eb 0d fa 3d
       0.32912946 0.05630776 -3.5022043e-05 0.12209686
000070 ec be a9 bb c3 c3 64 3e 78 e9 5e 3e ee 51 97 3d
       -0.0051802304 0.22340302 0.21768749 0.07388674

conv2.weight f4 [32, 1, 3, 3]
000000 72 9e ad 33 a1 7e 2b 34 b0 be 51 34 54 b9 03 34
       8.084761e-08 1.5971683e-07 1.9534014e-07 1.2267748e-07
000010 2f 27 5a 34 0d 61 8b 34 29 0c 46 34 33 01 92 34
       2.0317087e-07 2.596138e-07 1.8444611e-07 2.7195492e-07
000020 5f ac a4 34 09 67 34 3e 97 8d 5d be 32 6d b5 3e
       3.0672797e-07 0.1761743 -0.21636043 0.35434872
000030 cb c6 0c bc 27 ca 2b bf 43 9f c2 bc a5 ec 10 bf
       -0.008592318 -0.67105335 -0.023757583 -0.5661109
000040 03 86 19 bf 1a 3d 80 3e 71 33 32 3e e6 c2 34 3f
       -0.5997011 0.25046617 0.17402436 0.7060989
000050 ff 1f 28 3f eb 8f 09 3f b4 70 36 3f db 91 47 3f
       0.6567382 0.53735226 0.7126572 0.7795693
000060 42 36 1d 3f 42 0d 08 3f 07 89 26 3f f4 0e 59 bf
       0.61410916 0.5314523 0.6505284 -0.8478844
000070 a2 11 d2 be 86 43 92 bd 53 4a 93 bf 6c 35 58 bf
       -0.41029078 -0.07141785 -1.1507057 -0.84456515
000080 49 47 42 bf 7d 93 d5 bd fe 21 c6 be 12 98 17 bf
       -0.7589002 -0.10428522 -0.3869781 -0.59216416
000090 2f 5f ac bf de 76 5e bf 63 6a cd be cf 94 fe be
       -1.3466548 -0.86900127 -0.4012023 -0.49722907
0000a0 f2 a8 81 bf 1e 25 3a bf 89 bb 8f 3f db 35 24 3c
       -1.0129683 -0.72712886 1.1229106 0.010022606
0000b0 1f f3 1c bf b1 ba 61 be 85 16 05 be 73 a2 d9 be
       -0.61308473 -0.22043873 -0.12996872 -0.4250675
0000c0 a1 0b fb be 1e d1 bb bd 3b d3 45 bc 81 97 5e 3e
       -0.4903231 -0.09170745 -0.012074287 0.21737482
0000d0 32 bf 7e bd 3e 26 f6 3d 66 d1 b4 3e a2 5e 7e 3e
       -0.062194057 0.12019013 0.35316008 0.24840787
0000e0 11 d4 c4 3e 41 f0 95 bd 53 c4 cd bd 70 5d 91 3e
       0.38443044 -0.073212154 -0.100472115 0.283916
0000f0 49 e6 0b 3f 15 f1 1f 3d f5 7f 31 3e 5d d9 b0 be
       0.5464826 0.039048273 0.17333968 -0.34540835
000100 5a 29 b3 3c db 73 01 3e 14 49 5a bd 46 e3 c3 be
       0.021870304 0.12641852 -0.05329235 -0.38259333
000110 bf 4a 3c be 31 05 87 3e b4 c1 4b 3e 5d 4a 8e 3e
       -0.18387888 0.26371148 0.1989811 0.2779111
000120 61 da 72 3f 4b 52 9c 3e b5 7e 8e bd 70 98 f0 3e
       0.9486447 0.30531535 -0.06957761 0.469913
000130 d2 0d 9f 3e b9 17 cb 3d da 21 1c 3f 21 74 b0 3e
       0.31065232 0.09916634 0.60989153 0.344636
000140 9c b1 2f bc 05 a8 cb be b7 e8 9c be 2c 65 eb bd
       -0.010723498 -0.39776626 -0.30646297 -0.114939064
000150 b0 c3 02 bf 4f 38 e5 be cc 5d f7 3b e0 db ac 3e
       -0.51079845 -0.44769523 0.0075490233 0.337615
000160 6c 6d 94 be 18 e8 92 3d f9 36 58 bb a0 f4 11 bb
       -0.28989732 0.071731746 -0.003299175 -0.0022271052
000170 7b c6 0a bb 2f 03 e2 bb 54 5b 92 bb a0 17 6c bb
       -0.0021175432 -0.006897352 -0.0044664536 -0.0036024824
000180 f7 4e f0 bb dd e4 ac bb 2a d3 8b bb d9 e2 cf be
       -0.007333632 -0.005276306 -0.004267116 -0.4060276
000190 0d f7 6d be 6b a1 e0 be fd 1b b5 be 29 ec 8b be
       -0.23238774 -0.43873152 -0.35372916 -0.27328613
0001a0 aa cb 04 be 81 76 16 3e 20 3c c0 bc 5b 2c ce 3e
       -0.12968317 0.14693643 -0.02346617 0.40268216
0001b0 68 a7 68 3f 8e 36 91 3f 07 c9 c1 3e 61 65 88 3f
       0.9088044 1.1344774 0.37848684 1.0655938
0001c0 60 91 c7 3f 29 f3 17 3f fa aa 0b 3f db 85 2c 3f
       1.559124 0.5935541 0.54557765 0.6739175
0001d0 64 ce 54 3f 5c 48 81 bf cb 5b a0 bf 6e 02 d0 3d
       0.8312743 -1.0100207 -1.2528013 0.101567134
0001e0 38 c4 6d bf 56 01 ac bf 29 41 12 bf de bc 92 be
       -0.9287753 -1.3437908 -0.57130677 -0.2865972
0001f0 06 a7 eb be f0 dd 30 be 82 76 a8 3e f6 06 a8 3e
       -0.46025866 -0.17272162 0.32902914 0.3281781
000200 a6 4d 16 be 6a 23 93 3e 93 2d ec 3e e3 55 c7 bd
       -0.14678058 0.28737956 0.4612852 -0.097331785
000210 e0 e0 3d bd 49 7c fc 3e c4 af 91 3e 6f f1 9b 3f
       -0.046357036 0.49313572 0.2845441 1.2183055
000220 af bd 5d 3f 5a 45 24 3f 7d a9 22 3f 71 da 33 3f
       0.8661756 0.6416832 0.6353987 0.7025519
000230 1f 17 33 3f 4f e9 66 3e 03 0c 2d 3d 47 e8 94 3e
       0.69957155 0.22549938 0.042247783 0.29083464
000240 cc 22 1b 3e 5c cd 4f be 2b 4d 34 3e 67 64 b2 3e
       0.15149993 -0.20293182 0.17607562 0.34842226
000250 11 0d 03 3f 5b d0 7e 3d 56 11 97 3e 16 5c 5b 3f
       0.5119181 0.062210422 0.29505414 0.85687387
000260 d3 66 d9 3e 97 57 34 bf c6 ae 8a bf 41 1e ae bf
       0.4246126 -0.7044615 -1.0834587 -1.3602983
000270 25 7c a1 be eb 58 6d be ed 32 27 bf 7d 15 b2 be
       -0.31540027 -0.23178451 -0.6531208 -0.3478202
000280 d5 bd 7a be 5d 75 f5 be 1b d8 8c 3f 6e a1 b7 3f
       -0.24486478 -0.47941104 1.100345 1.434614
000290 1f 8e 57 3f 02 3e 9d 3f 60 df 13 40 4c f2 bf 3f
       0.84201235 1.2284548 2.3105087 1.4995818
0002a0 b5 36 90 3e ad fb 2b 3f 21 16 0b 3f 7d 82 b8 3b
       0.28166738 0.671809 0.5433064 0.00563079
0002b0 c0 41 e5 3e c2 96 ae 3e 1d 99 80 bd 01 ff 72 be
       0.44776726 0.34099394 -0.06279204 -0.23730089
0002c0 cd 73 1f bf eb 0c cc be 6c d8 2d bf 9d b6 4b bf
       -0.6228607 -0.39853606 -0.6790836 -0.7957552
0002d0 38 2a 83 bf 16 a3 4e bf 0c 7b fe be e3 91 ab bf
       -1.0247259 -0.807176 -0.49703252 -1.3403896
0002e0 b9 72 8d bf 22 23 3f bf 27 34 64 bf 8c 28 33 bf
       -1.1050636 -0.74662983 -0.8914208 -0.69983745
0002f0 55 fe b3 be 9f 19 83 18 ac b8 77 18 2a 02 01 98
       -0.35154977 3.3888577e-24 3.2017237e-24 -1.6673952e-24
000300 ac c9 c2 18 a9 6a 92 19 5e 9a 68 19 dc 42 e8 96
       5.035146e-24 1.5139126e-23 1.2025293e-23 -3.7523816e-25
000310 85 b2 e2 18 d3 a8 19 19 91 e4 c7 bc 5f 96 be bc
       5.859989e-24 7.944008e-24 -0.024400981 -0.023265062
000320 d3 05 db bc e1 b8 c3 bc d9 9b c5 bc 91 13 e4 bc
       -0.026736176 -0.023891868 -0.024122166 -0.027841361
000330 9b 84 d4 bc ea c4 e6 bc b6 72 ef bc 36 36 33 3e
       -0.025942137 -0.028170068 -0.029229503 0.17501149
000340 98 50 db 3d d4 5e 3e 3e 80 bc 8b bd 86 20 d7 be
       0.107087314 0.18590862 -0.06823063 -0.42017
000350 c1 f5 20 3e a9 85 24 3d db 9d dd be 14 1c dc 3c
       0.15718748 0.04016653 -0.43284497 0.026868857
000360 1b e9 10 bf cb d1 11 bf 35 2b ea be 25 c2 1c bc
       -0.5660569 -0.56960744 -0.4573609 -0.009567772
000370 7b 28 7c 3e 13 19 9a 3e e7 81 a1 3b 90 92 7e 3e
       0.24624817 0.30097255 0.0049288156 0.24860597
000380 53 12 aa 3d 4f 12 04 3f ba fd 79 3e b0 dc 06 3f
       0.08304276 0.51590437 0.24413195 0.5268049
000390 a7 20 23 3f 73 0e 1b 3e 2e 36 c6 bc c6 1f c8 3e
       0.637217 0.1514223 -0.024195757 0.3908674
0003a0 6a 2a 2c 3f a0 ca 39 be d0 df e4 3a a6 09 20 3b
       0.6725222 -0.18143702 0.0017461721 0.0024419813
0003b0 5d 51 5a 3b 0c f5 7b 3a 63 a6 ae 3a 93 2d 06 3a
       0.0033312656 0.0009611405 0.0013324734 0.00051184854
0003c0 2f d1 d8 3a 24 69 e1 3a f1 0a 62 39 ec e7 5a bf
       0.0016541834 0.0017197472 0.00021557116 -0.85510135
0003d0 cb a0 34 3f 66 ed 9a 3f bb c4 a0 be 97 3f 97 3f
       0.7055785 1.2103698 -0.31400093 1.1816281
0003e0 fa 08 a8 3f 1f 10 0a 3f 14 50 87 3f 8f 5f 93 3f
       1.312774 0.5393085 1.0571313 1.1513537
0003f0 de 30 9a 3d 61 ee b4 be 76 16 1b bf 7e 1a 21 bd
       0.07528852 -0.3533812 -0.6058115 -0.039331906

conv2.bias f4 [32]
000000 d7 7b 9c bb 92 e5 58 3e 79 12 ca be fe d4 9a 3e
       -0.004775505 0.21181324 -0.3946722 0.30240625
000010 74 92 a9 3d d7 71 7a 3d 99 0f 51 bd 4c ba 67 3e
       0.08279887 0.061143722 -0.051040266 0.2262966
000020 ea 62 bc 3e b1 41 86 3e 65 9a a9 3e 7d 6f a0 3d
       0.36794215 0.26221994 0.33125606 0.07833765
000030 ec da a3 3d c3 87 4f 3e d9 70 81 be e8 6b d3 be
       0.080007404 0.20266633 -0.25281408 -0.41293263
000040 cb 95 38 3e c0 c7 b7 be bd 79 a4 bd a1 63 93 bc
       0.18025891 -0.35894585 -0.08031032 -0.017991843
000050 75 19 11 3d ca 0b 0f be d4 cd 09 be a4 ef be be
       0.03542467 -0.13969341 -0.13457423 -0.37292206
000060 b6 1a 41 be 7c da 8d 3e d2 39 95 be ff c9 f7 3d
       -0.18857846 0.27705753 -0.29145676 0.120990746
000070 19 7b 45 3e 94 c3 0f ba a4 87 82 bd 79 79 97 be
       0.1928524 -0.00054841605 -0.06373528 -0.29584864

conv3.weight f4 [20, 32, 1, 1]
000000 33 30 9e bd 33 ea e1 bd 84 05 79 be 26 ec c0 3e
       -0.07724037 -0.11030998 -0.2431851 0.37680167
000010 3f 8a 3c 3e e5 71 69 3d 91 fb 0b be 58 c3 15 3f
       0.18412112 0.056993384 -0.13670184 0.58501196
000020 e2 b5 b6 3e 2c 33 39 3e 59 0f cd 3d 80 e9 ef 3d
       0.3568564 0.18085927 0.10012693 0.117144585
000030 20 8f 10 3e e7 83 29 be 9a 3e 52 3e 0f b3 ab be
       0.14117098 -0.16554223 0.20531693 -0.33535048
000040 31 25 8d 3d 67 ce a2 bc ca ab e0 bc 25 84 8a be
       0.06891859 -0.019873811 -0.027425665 -0.27053943
000050 59 82 7a bf 42 cc b9 be 6e 78 57 be 15 3e 1e be
       -0.97855145 -0.3628865 -0.21042034 -0.1545337
000060 5a f1 65 be 1d 90 69 3e 97 77 b2 be ac c3 22 3d
       -0.2245535 0.22808881 -0.34856865 0.03973739
000070 d3 24 45 3c 2a d4 2c 3e c5 79 19 bd bf f5 76 be
       0.012032705 0.16877809 -0.037469644 -0.24117182
000080 aa 57 13 3d 4a 02 8c 3e 5f 23 bd 3e d1 45 16 be
       0.035972275 0.27345496 0.36941049 -0.1467507
000090 2d 57 4b 3f 6c 99 2b be 45 c8 62 bc 64 ac c1 be
       0.79429895 -0.16757745 -0.013841693 -0.37826836
0000a0 8e 16 e9 bc d6 4d 3c be 08 a9 c1 3c d9 d4 61 be
       -0.028453138 -0.18389067 0.02364017 -0.22053851
0000b0 95 67 42 bf 97 9d 79 3d 24 92 49 bd 16 39 a0 3c
       -0.75939304 0.060941305 -0.049211636 0.01955847
0000c0 0c 42 a1 be 69 a5 a8 be ed c5 91 bf b3 80 80 3e
       -0.31495702 -0.32938698 -1.1388527 0.2509819
0000d0 3b bd 88 be ad 71 ad bc 59 36 8f 3b 40 76 98 3e
       -0.2670687 -0.021172369 0.0043704924 0.29777718
0000e0 ff 48 a6 be fd b8 97 bc bd 3f 0a be 34 e3 22 3e
       -0.32477567 -0.018520826 -0.13500877 0.15906984
0000f0 de f5 d7 bd 84 36 27 be 6c da b2 be 83 40 b2 3d
       -0.10544942 -0.1632939 -0.34932268 0.08703711
000100 93 dc 19 bd b4 97 6c be d3 d6 37 bf 5a 22 57 3f
       -0.03756387 -0.23104745 -0.7181217 0.8403679
000110 1f 2b 21 3f 89 e0 21 be 31 0b 9b 3e fd 46 80 be
       0.6295642 -0.1580831 0.30281976 -0.2505416
000120 33 5f 02 3f bc b7 2f bd e1 c4 45 3e e5 97 4e be
       0.5092651 -0.042899832 0.19313385 -0.2017513
000130 d5 1f 1a bf 6d 06 1b bf 6d 31 65 3e 4c 9f 44 be
       -0.6020482 -0.6055668 0.22382136 -0.19201392
000140 7e cf 43 be 21 cd 1c 3e ee f5 8c 3e 31 85 3f be
       -0.1912212 0.15312625 0.2753138 -0.18703152
000150 61 ba 86 3f ee a7 70 be 26 95 7d be 1a 4a 5e be
       1.0525628 -0.2350156 -0.24763927 -0.21707955
000160 29 08 76 be 42 b5 96 3e 2f 90 af be 1e 57 86 be
       -0.2402655 0.29435164 -0.3428969 -0.2623834
000170 7c ab 0a bd 88 85 80 be 5a 35 98 be 95 4e e0 3d
       -0.033854946 -0.25101876 -0.29728204 0.10952488
000180 9a 56 3e b9 84 5e 91 bc 84 c7 a4 bb 94 8f a6 3c
       -0.00018152074 -0.017745264 -0.005028667 0.020332135
000190 70 a0 ef 3b 98 b4 8f 3c 42 32 a6 bb 2c 7c 33 3c
       0.007312827 0.017542168 -0.005071909 0.010954898
0001a0 d8 87 1c bd 9b d2 0d 3b e9 7a 13 bd 04 4f 92 3c
       -0.03821549 0.0021640423 -0.036005888 0.017859943
0001b0 5f a1 64 bc 11 06 62 bc dc 72 18 bc 02 27 d3 3c
       -0.0139544895 -0.013795392 -0.009304728 0.025775436
0001c0 bd 0c cb 3b 21 36 79 bc 3b e9 a9 3c 06 c4 10 bc
       0.006196587 -0.015210659 0.020741096 -0.008835798
0001d0 71 04 14 3c 15 c9 01 3d 65 3a 00 3d 4e 6e 9d 3c
       0.009034262 0.031685907 0.03130569 0.019217636
0001e0 0a 62 cd 3c 55 56 77 bc fc d6 11 3d 2a 05 6d bc
       0.025071163 -0.015096267 0.035605416 -0.014466563
0001f0 8d 6f c1 3c 4b 7f 83 3c 8d 22 cc 3c be 63 0c ba
       0.023612762 0.016051909 0.024918819 -0.0005355439
000200 b3 66 fe 3c b9 0a 6c bc 27 13 76 bb 3e 70 c8 3d
       0.03105483 -0.014406853 -0.0037548037 0.097870335
000210 76 9e 9f bf 4b 7e 09 be c4 ab 20 bd 5d c7 d9 bd
       -1.2470233 -0.13427083 -0.03922631 -0.10633729
000220 d0 1b 80 bd a9 48 6d be 49 6a 00 be 4f c6 11 bd
       -0.06255305 -0.23172249 -0.12540545 -0.035589512
000230 b0 5e 89 3f 25 9e 81 be 5a 41 2d 3e 35 ab 74 be
       1.0732021 -0.25315967 0.16919461 -0.23893435
000240 1e 8e c3 bd f8 53 13 3f ed a9 0e 3f a3 e0 2d be
       -0.09548591 0.5755 0.55728036 -0.16980223
000250 aa d4 cc 3d 2e 87 4b 3e 93 42 7a 3e cf 86 8a be
       0.100015 0.19875786 0.24439459 -0.27055976
000260 e2 b9 d4 bc 16 38 40 3e 13 e2 9a bc 75 ab 59 3f
       -0.025967542 0.18771395 -0.018906629 0.8502725
000270 13 64 22 be b0 58 63 3e df 1c 18 3e a3 34 e2 bd
       -0.15858488 0.222018 0.14854763 -0.11045196
000280 80 99 21 34 fb dc 05 3a df e4 80 bb 2d db 7c 3b
       1.5050136e-07 0.0005106476 -0.0039335336 0.0038582787
000290 6c 1b af 3b 1f 05 6b 3b ff 98 aa bb dc ea d1 39
       0.005343845 0.0035861207 -0.005206227 0.0004003857
0002a0 fe e0 cb bb c7 9c 85 3b 5c 64 fb ba be bb a0 3b
       -0.0062218895 0.004077527 -0.001917969 0.004905193
0002b0 da 0e 2c bb 4f 4f c2 3b bb e0 43 bb 20 ee 0c 3a
       -0.002625397 0.0059298645 -0.0029888588 0.00053760596
0002c0 35 0b 18 bb dc b7 82 3b f8 78 4d bb ed 3c f2 3a
       -0.002320004 0.003989203 -0.003135262 0.0018481292
0002d0 df 83 a4 3a d7 6a 8e 3a 77 0a 8a 3a 57 c9 9c 3a
       0.0012551508 0.0010865581 0.0010531683 0.001196186
0002e0 2c 1c 47 39 74 29 c0 bb 18 7e ed 3a b7 b0 31 bb
       0.00018988614 -0.0058643166 0.0018119244 -0.0027113387
0002f0 a1 d3 6b ba 59 b0 bb 3b b3 83 ba 3b 70 9c e3 bb
       -0.0008996074 0.0057278094 0.0056919693 -0.006946139
000300 d6 c6 e5 bd d5 e2 87 be 59 1d 87 bf e6 0c 9b 3f
       -0.112195656 -0.26540247 -1.0555831 1.2113311
000310 aa 32 bd 3e 16 63 d9 bd 55 d5 d5 3d 97 f7 5b 3d
       0.36952716 -0.10614602 0.104410805 0.053702917
000320 cc 73 94 3e 32 ef 41 be 81 f4 9d 3e a0 96 bd bd
       0.28994596 -0.18938902 0.30850604 -0.09257245
000330 f7 eb ce be bf 8f 20 3f 96 3b 97 3e 9d 94 74 be
       -0.40414402 0.6271934 0.29537648 -0.23884816
000340 21 d6 49 3e ea 37 0d bf a7 ba b7 be d4 d1 97 be
       0.1971059 -0.55163443 -0.35884592 -0.29652274
000350 bb 63 26 3e e7 8a 17 be bb a2 fa bd 25 c3 ea bd
       0.16248982 -0.14799081 -0.122380696 -0.11463002
000360 80 63 f9 be 9b fa 3d 3e 20 69 74 be 66 0f d5 bc
       -0.48708725 0.1855263 -0.23868227 -0.02600832
000370 26 21 0b 3d f0 b4 73 be 57 e3 cf bd 19 19 9d 3e
       0.03396716 -0.23799491 -0.101507835 0.3068321
000380 ca 62 bd bd 54 9d b6 be 16 85 47 bf d9 90 c3 3e
       -0.09247358 -0.35666907 -0.7793745 0.38196447
000390 ea 21 b2 3e 22 18 ac be be d1 3f 3e c6 ff 84 3c
       0.347915 -0.33612162 0.18732354 0.016235244
0003a0 3a c0 8c 3e 1f c2 87 be b2 35 ef 3d 15 cd a5 bd
       0.27490407 -0.2651529 0.116801634 -0.08095757
0003b0 ba 55 52 3e 5d 1e 86 be 0f 4b b4 3e 50 6c 9e 3d
       0.20540515 -0.2619504 0.35213515 0.07735503
0003c0 bc 0f 20 3e a9 d8 df bc fa 41 81 3e c8 70 15 be
       0.15631002 -0.027324991 0.2524565 -0.14593804
0003d0 81 8b c5 be ce f5 0c bd c1 db 3a be 02 a1 8b be
       -0.38582996 -0.034414105 -0.18247892 -0.27271277
0003e0 e8 ec 3b be f7 fd ee 3e 75 32 26 be d9 ea f0 bd
       -0.18352091 0.46678135 -0.16230185 -0.11763544
0003f0 b4 c5 c3 be 98 33 aa be f5 cf bd be c0 b2 a0 3e
       -0.38236773 -0.33242488 -0.3707272 0.31386375

conv3.bias f4 [20]
000000 a5 82 80 3e f9 9a 3f be 3a 40 ac 3e eb ea 1d bd
       0.25099674 -0.18711461 0.3364275 -0.038554113
000010 82 cb 2f be 9f 53 74 bb 6c d9 02 3e fe be 13 3e
       -0.17167476 -0.0037281287 0.12778252 0.14428326
000020 3d 78 01 be be 93 e1 a6 dd 9a 54 3d d0 21 34 3e
       -0.12643524 -1.5652557e-15 0.0519055 0.17591023
000030 17 e8 b0 3e d7 82 0a 3e 9c 27 26 3e c7 89 02 b6
       0.3455207 0.13526474 0.16226047 -1.9451707e-06
000040 08 08 bc 36 02 8d f9 3d 5d a1 2e be 1b f7 62 3e
       5.6037716e-06 0.12185098 -0.17053743 0.22164576

conv4.weight f4 [20, 1, 3, 3]
000000 98 80 41 3f d0 14 79 3d 25 e4 4e 3e c6 10 c0 3d
       0.75586843 0.060810864 0.20204218 0.09378199
000010 37 1e c5 3c 98 be 86 3e 9b c3 1a 3e e6 2f 85 3e
       0.02406226 0.26317286 0.1511368 0.26013106
000020 bb fe 77 3e 6b f1 89 3d 9e 5b 3c 3e 27 67 09 bf
       0.24218266 0.067355 0.18394324 -0.53673023
000030 7b e2 3b 3e 50 04 6c 3f 35 88 53 be 8e 2f 67 bc
       0.18348114 0.9219408 -0.20657428 -0.014110459
000040 5c d2 65 3f 6b 1d 15 3e 85 08 cc be a4 25 34 bd
       0.8977411 0.14562003 -0.3985025 -0.04398121
000050 cd 41 11 3f 4b 47 a8 be 82 87 c3 be 9e 3b 24 3f
       0.5674103 -0.32866892 -0.38189322 0.6415347
000060 28 a6 87 be 9e 8c 47 be ec f1 35 3e cd 0b 39 3c
       -0.26493955 -0.19487235 0.17768067 0.011294317
000070 a6 50 84 3b 9a 0c fe 3c c2 61 70 3c 4d 92 b8 3a
       0.0040379344 0.031011868 0.014671745 0.0014081687
000080 1b 73 35 bb b1 c6 2c bc 7a 06 53 bc 36 63 0b bd
       -0.0027687016 -0.010545419 -0.012879962 -0.03403016
000090 f5 a5 c6 be 73 7d 14 3f 7f 1c b9 bd 07 4f 2e bf
       -0.3879849 0.5800392 -0.09038638 -0.68089336
0000a0 cb 71 8e be 95 ca 8c be 9c 96 20 be be ce f1 be
       -0.27821192 -0.27498308 -0.15682453 -0.47228044
0000b0 8c f0 14 bf 49 9f 18 bb 79 7e cd bb 0c 49 20 3b
       -0.58179545 -0.00232883 -0.00627118 0.0024457602
0000c0 61 3e 02 3b 49 2e 88 3b 36 5d 02 3c 44 39 6f 3a
       0.0019873607 0.0041559082 0.0079567935 0.00091256597
0000d0 c0 55 00 bc ae 4c c5 ba 56 58 58 3d 78 6d 33 bc
       -0.007832944 -0.001505276 0.05281862 -0.010951392
0000e0 64 3c f7 be af 23 fb 3d 3a 27 dc 3e af da ac bd
       -0.48288262 0.122626655 0.42998677 -0.08440148
0000f0 42 10 c4 be 4d e2 09 3f 58 ea e0 3e d0 3b 01 bf
       -0.38293654 0.5386093 0.4392879 -0.5048189
000100 b9 a5 38 3d 7c 70 e6 3e 78 70 c1 3e ab 3c c5 3e
       0.04507992 0.45007694 0.3778112 0.38522848
000110 48 14 a8 be e3 b0 a0 3e 25 dc 8f be 32 3a fe 3d
       -0.32827973 0.31384954 -0.28097644 0.124134436
000120 be 55 97 3e 7d e0 20 3e d1 f9 b3 bd 35 2b dd 3e
       0.29557604 0.15710635 -0.08787883 0.43197027
000130 7e 07 48 3f 77 f7 2f bf e3 a1 cc 3d c4 1a 8d 3e
       0.7813643 -0.68736976 0.09991815 0.27559483
000140 c5 10 98 bd 21 b2 29 2f fa 4f 9e 2f 59 c8 93 b0
       -0.074250735 1.5433745e-10 2.879686e-10 -1.07526e-09
000150 96 33 b5 ad 0a 95 9e af 5b 3c c5 2f bb da 59 2d
       -2.0600226e-11 -2.884593e-10 3.5876976e-10 1.238359e-11
000160 44 89 91 ab 20 82 5e 2e c5 0a 3f be dd 5a 12 be
       -1.0340969e-12 5.059253e-11 -0.18656452 -0.14292474
000170 24 c5 28 3b 18 ac dc 3e 5c d9 f8 be 97 38 2d bf
       0.002575227 0.43100047 -0.48603332 -0.67664474
000180 c0 76 01 3e 21 25 a2 be 81 ab 57 bd 19 76 0b 3d
       0.12642956 -0.31668952 -0.052653793 0.034048174
000190 5a 34 d3 3e f5 d3 14 3f c9 e5 17 be 83 8a fe be
       0.4125088 0.5813592 -0.1483375 -0.4971505
0001a0 e7 de 5d 3d d4 7a 8a 3d a8 18 23 be bd 40 f5 be
       0.054167654 0.06761709 -0.15927374 -0.47900954
0001b0 75 ad 24 be de d6 c6 3e fd c7 a6 3e e7 a6 a2 3e
       -0.16081794 0.38835806 0.32574454 0.3176796
0001c0 ce 1e eb 3e 6d 67 38 3e b5 05 c8 bc e9 e5 06 3c
       0.4592194 0.18008204 -0.024416784 0.008233526
0001d0 04 54 c6 be b8 28 fe 3d e0 c9 ef be 12 3c 65 bd
       -0.38735974 0.1241011 -0.46833706 -0.05596549
0001e0 24 d0 c5 bd 52 9f 2a be fb e5 e2 3d 61 76 97 3e
       -0.0965884 -0.16662338 0.110790215 0.29582503
0001f0 a6 7c 2a 3f 8d 9f e4 3e a5 a4 95 be 64 89 25 3f
       0.6659645 0.44652978 -0.29227176 0.64662766
000200 53 bb a5 bd a9 84 96 3d b0 52 af 3e 0b 06 d3 3e
       -0.0809237 0.07349522 0.34242773 0.41215548
000210 ca 29 45 3d 81 11 e2 3e 9d bc 5c 3f 29 85 51 b7
       0.048135556 0.4415398 0.862253 -1.24883745e-05
000220 90 f2 5d b7 26 ce ba b6 36 92 06 ba 99 72 3f b9
       -1.32291025e-05 -5.567231e-06 -0.00051334815 -0.0001825787
000230 7d ea 06 b8 d9 15 89 b6 fb 32 3a b5 ce 73 b1 b3
       -3.2166474e-05 -4.0854616e-06 -6.9364586e-07 -8.2632695e-08
000240 98 45 f2 37 23 8d 13 37 34 6c fc b6 f6 58 1d b8
       2.8881055e-05 8.794744e-06 -7.5227817e-06 -3.751457e-05
000250 cf 27 02 b8 4c ef 88 b6 4b 59 3f b8 32 bd 26 b8
       -3.103149e-05 -4.0809737e-06 -4.562111e-05 -3.9753686e-05
000260 b6 1c 16 b8 34 78 2b 3e 6f f6 e1 3e 1c ec b1 3f
       -3.5789526e-05 0.16745073 0.44133326 1.390018
000270 04 88 0c 3f 25 b2 3e 3f 7f fc 8f 3f 71 27 2c be
       0.54895043 0.74490577 1.1248931 -0.1681192
000280 f2 04 d9 bd d3 10 1e 3f 6b ef 22 bf 49 bf 29 bd
       -0.10596646 0.6174442 -0.6364657 -0.04144219
000290 f5 15 d7 be 71 fb 21 bf 4b 6b 65 be 0c 49 f3 be
       -0.4200894 -0.63274294 -0.2240421 -0.47516668
0002a0 cc 5d 44 be 5f 5e 38 3e f7 d2 9e be 37 39 fe 3b
       -0.19176406 0.1800475 -0.31020328 0.0077582854
0002b0 02 18 c9 3d d6 91 78 be 56 47 78 be 97 f2 ea bd
       0.09819032 -0.24274382 -0.24245963 -0.114720516
0002c0 16 08 c9 3e e1 12 af be 71 4a 83 be 20 3c bf 3e
       0.39263982 -0.3419409 -0.25642732 0.3735056

conv4.bias f4 [20]
000000 62 28 3a 3e c9 4f ed be b1 82 a9 3e 09 5d b4 3d
       0.18179467 -0.46349934 0.33107522 0.088068075
000010 1b b4 fe bd 95 1f a9 3b a5 e3 55 bc b9 a0 96 be
       -0.12436696 0.0051612356 -0.013054763 -0.29419497
000020 d9 a6 95 be f3 7e 40 be 08 11 e0 3d d2 e1 f0 bc
       -0.29228857 -0.18798427 0.109407485 -0.029404555
000030 ce 65 c3 bd 63 dc 9c 3e 21 b5 6e be 3c 46 5a 3e
       -0.09540902 0.30636892 -0.23311283 0.21315855
000040 ea e5 a4 3e 13 52 0f 3e 54 c9 a9 3e 27 6e ba 3e
       0.3220666 0.13996153 0.33161414 0.36412165

conv5.weight f4 [20, 20, 1, 1]
000000 ad 53 ad 3c 67 ba 85 3e 3f 2a 96 be ab 29 79 3d
       0.021158064 0.26118776 -0.29329106 0.060830753
000010 5e 76 42 3e cf a7 01 3d 4a 7a 86 3e 05 07 99 bd
       0.18990466 0.031654175 0.26265174 -0.07472042
000020 bc 4b 05 be 7b d6 0a bd ab 5f 0c 3f 89 95 ca 3d
       -0.13017172 -0.03389595 0.5483348 0.09891803
000030 a0 7a 3e 3e 67 56 af 3e e8 68 8c bd 78 39 30 be
       0.18601465 0.34245607 -0.06855947 -0.17209423
000040 e5 a8 84 bc e0 18 12 3f df 8d e9 3e d8 ce f8 bd
       -0.016193816 0.57069206 0.45616052 -0.12148827
000050 14 91 07 3f 01 ea 24 3e 96 c4 f3 3e cc 96 b8 3d
       0.52955747 0.1610489 0.4761092 0.09013137
000060 4f f3 67 3e 9b b1 21 bc 61 a1 04 3e 23 ee 75 3e
       0.22651409 -0.009869005 0.12952186 0.24016623
000070 58 84 79 be 8d 19 17 be ca 94 11 3c a7 18 59 bd
       -0.24366891 -0.1475584 0.008885572 -0.053002026
000080 fb ac 63 3e 0f b7 8d bd 92 07 66 bd aa ff 97 3d
       0.22233956 -0.06919681 -0.056159563 0.07421811
000090 0b d8 af 3c 59 c4 39 3d 03 d9 34 3f af f3 ca be
       0.021465322 0.045353267 0.70643634 -0.3963904
0000a0 6d 6c 39 be cf 1f f2 3e 82 91 62 3e cb 81 46 3d
       -0.18107767 0.47289893 0.2212582 0.048463624
0000b0 0d b6 ed 3e ae 88 23 3d b3 d7 54 3e 57 c6 e5 be
       0.46427956 0.03992527 0.20785408 -0.44877884
0000c0 87 c5 2d bf 7f ea e8 bd 05 e5 c4 bd 12 8c 89 3e
       -0.6787953 -0.113728516 -0.096139945 0.26864678
0000d0 93 0a 3a 3e 34 2c 02 3e 87 1a 89 3e 7a 10 a2 3d
       0.18168096 0.12712175 0.2677805 0.07913299
0000e0 a1 be 44 3e 2b 69 fa 3e a0 ba 40 3d aa 88 e0 3d
       0.19213344 0.48908362 0.04705298 0.109635666
0000f0 91 e1 a8 3d 71 06 b1 3e 70 1d ad bd 8c 38 7a be
       0.082461484 0.34575227 -0.084528804 -0.24435633
000100 cc d3 60 3e fc 12 4e bd f3 1f 8e be 52 b8 0d 3f
       0.21955794 -0.050311074 -0.2775875 0.55359375
000110 cd bc 56 be a0 d4 46 bc d6 2c 56 3e a5 b8 07 3f
       -0.2097046 -0.012135655 0.20915541 0.5301612
000120 fd 9c 9b 3e f9 b0 e7 be 7f 46 9d 3e 98 c9 fd bd
       0.3039321 -0.45252207 0.30717847 -0.123919666
000130 09 9b 9f be c5 5e 0e be 1d c8 49 3c 6f b7 47 be
       -0.3117297 -0.13903339 0.012315777 -0.19503568
000140 06 75 fa 3d f7 e5 db bc 8d c0 97 3d 83 b8 35 be
       0.12229352 -0.026843054 0.07409773 -0.17746167
000150 cd a9 19 be bd 52 50 bd 3c 9b 01 be ad e9 ed 3d
       -0.1500618 -0.050860155 -0.12656873 0.11616836
000160 0a b0 3f bb b1 ba 48 3e ed bd 1b 3e 4b 6f 86 be
       -0.0029249215 0.19602467 0.1520917 -0.26256785
000170 aa 52 d0 bc 19 44 28 be a2 41 cb be 59 38 e2 bd
       -0.025430042 -0.16432227 -0.3969851 -0.11045904
000180 93 8d 6c be 6a c6 31 be b5 d7 2a be fe 1d 6c be
       -0.23100881 -0.17360845 -0.16683848 -0.23058316
000190 fb 7c b6 3d ee 73 56 bc a5 62 12 3f 8d 9b 0f bc
       0.08910557 -0.013089163 0.5718177 -0.008765114
0001a0 de 8a 6c 3e 43 b2 3c bd 1e e8 f1 bc ef 3b 3d 3e
       0.23099849 -0.04606844 -0.029529627 0.18479894
0001b0 d2 af a3 be ad d6 1d 3d 53 55 61 bd bd d6 b8 bd
       -0.31970078 0.03853481 -0.055013012 -0.09025333
0001c0 fa bd 5f 3d de ba f2 3d 78 b7 19 3e 45 1f 82 bd
       0.054624535 0.11852048 0.15011394 -0.063536204
0001d0 5f a7 0e be a4 38 a1 bd a1 8b 24 be 4e 9f fd 3d
       -0.13931035 -0.078721315 -0.16068889 0.123839006
0001e0 49 f5 95 3e c0 9c 86 be 9f e5 40 be f0 4d ee bc
       0.292887 -0.26291466 -0.18837593 -0.029089898
0001f0 ac f9 96 3d 37 96 c6 bc 5d 10 e9 3c bc be f8 3d
       0.0737184 -0.02424155 0.028450185 0.12145755
000200 b3 cf 14 3e 79 53 a8 bd 15 08 08 3e c9 a1 c9 be
       0.14532356 -0.08219046 0.13284333 -0.39381245
000210 7e bb a8 be 0f c0 c1 3e ba 4d a3 bd e0 4b 11 3d
       -0.32955545 0.37841842 -0.079738095 0.03547275
000220 30 9c 91 3d 39 5f c1 3e 36 31 08 be 2b 96 d0 3e
       0.071098685 0.37767962 -0.13300022 0.4073957
000230 da 9c 3d 3e a6 0e 76 be e0 1c 2a 3e 0f db b2 3e
       0.18516865 -0.24029025 0.16612577 0.34932753
000240 d2 4f 4d be 12 b2 7f 3d 10 38 4c 3e c3 6c 3e 3d
       -0.2004998 0.06242568 0.19943261 0.046490442
000250 06 f7 37 bf 56 2b ee bd 2a a9 40 3b fb 48 16 3e
       -0.718613 -0.116293594 0.0029397705 0.14676277
000260 a3 9c b7 3e 49 86 c7 3e 16 da 97 be cc 6e 9f 3e
       0.35861692 0.3896964 -0.29658574 0.3113922
000270 8e d8 e3 3e a3 0a c7 bd ba 01 11 3f 69 c5 e2 3d
       0.44501156 -0.09718826 0.5664326 0.11072809
000280 09 db e7 bd 3b b1 53 bd f8 25 48 be b1 c4 5a 3b
       -0.113210745 -0.051682692 -0.19545734 0.0033381397
000290 b5 b0 ff bd 0c 0c cc bc bf 82 8e bd e0 cb 29 3e
       -0.12484876 -0.024908088 -0.069585316 0.16581678
0002a0 02 e0 69 3d 8a 9c 56 be 32 67 91 3e 0a 7c cc bd
       0.057098396 -0.20958152 0.28399044 -0.09984596
0002b0 36 f6 ee 3d 77 96 3f bb 04 2a b7 be aa ea 5e 3e
       0.11668055 -0.002923397 -0.35774243 0.21769205
0002c0 be ea eb bb 41 c4 78 3f 10 e2 35 3d 86 97 0a 3f
       -0.0071996143 0.9717446 0.044405043 0.54137456
0002d0 5f 40 49 bd 10 2b dc bd bd c1 75 3e 3a f5 c3 bd
       -0.049133655 -0.10750401 0.23999687 -0.09568258
0002e0 61 95 92 be d1 8d 92 bc 24 bc a3 bd 96 34 f1 bd
       -0.28629592 -0.017889889 -0.07994869 -0.11777608
0002f0 89 7a c8 bd f9 67 27 bd ce e1 7e bd d4 31 11 be
       -0.09788997 -0.04087064 -0.062227063 -0.14179164
000300 7e a7 cc bc 2e 1f ee bd d3 db 09 3e 15 c6 1c be
       -0.02498221 -0.11627041 0.13462763 -0.15309937
000310 c6 5e 6a bd 2c 1a a5 bc 0f cc a4 bd aa c3 63 3e
       -0.05721929 -0.020154081 -0.080467336 0.22242609
000320 5e 2b 32 3e f8 f5 ae be 6a 13 c8 3e e4 d1 0c bd
       0.17399356 -0.34172034 0.39077312 -0.034379855
000330 35 ac ca 3e 15 a1 36 bc 8c 73 58 be 2e 32 fd be
       0.3958451 -0.011146803 -0.21137828 -0.49452347
000340 28 b1 85 3c 7a af 8a 3d 60 de 0e 3e 97 ee 2b bd
       0.016319826 0.06771751 0.13952017 -0.041975584
000350 82 5a 31 bf 00 c5 c1 bd 45 68 0c 3f 97 6e 0f 3e
       -0.6927873 -0.09461403 0.548466 0.1400703
000360 5a 52 37 3e 20 65 d4 be cf 34 ec 3b 11 36 1d 3e
       0.17902508 -0.41483402 0.0072084437 0.15352656
000370 2f 5c 4f 3e 63 08 eb be b7 9a 11 3e 34 38 08 3e
       0.20250009 -0.45904836 0.14219175 0.1330269
000380 fa 92 94 3e 3d 6b 66 bd 2f 63 d2 be 69 82 84 3e
       0.29018384 -0.056254614 -0.41091296 0.25880745
000390 fc 45 7f 3d 61 48 06 be 07 e0 a2 be f8 8d 82 be
       0.0623226 -0.13113548 -0.31811544 -0.2549894
0003a0 bf 42 b2 3e af 07 16 be c8 ee 44 be 2c 8b d2 bd
       0.34816548 -0.14651369 -0.19231713 -0.10280451
0003b0 2d c6 09 3d 86 d7 99 3e 12 f9 53 3e 7c 51 9d be
       0.03363626 0.30047244 0.20700482 -0.3072623
0003c0 25 e2 ba bd cb 52 66 be ec be d7 bd 13 06 1e 3e
       -0.09125165 -0.2249252 -0.10534462 0.15432005
0003d0 97 eb bc 3e 54 e8 30 3d a5 cd 3a 3e 95 5c f3 bd
       0.3689849 0.043190315 0.1824251 -0.11882893
0003e0 44 6d 93 3e 7e 76 5c 3d 7f 32 9c 3d 25 ea 99 3d
       0.287943 0.05382394 0.07626819 0.07515363
0003f0 6f e8 20 be d4 4e 95 3e ac 7c 0d 3e 2d 6b ae bd
       -0.15713666 0.29161704 0.1381709 -0.08516536

conv5.bias f4 [20]
000000 8d 18 32 3e f3 4e 40 3e 9a 54 b0 3d 80 64 d8 bd
       0.17392178 0.18780117 0.086098865 -0.10566044
000010 0c af 45 be 58 17 0d be 03 e7 0e be a8 64 31 3d
       -0.19305056 -0.13778436 -0.13955311 0.043308884
000020 dc 2d 9b 3e 56 cd b7 3d d0 38 07 3e df 1a b3 3d
       0.30308425 0.089747116 0.13205266 0.0874536
000030 42 78 60 3e f9 84 6b 3e 39 4b 92 be 8c 6f 51 bd
       0.21920875 0.22999944 -0.28573015 -0.05113177
000040 f5 68 19 be 04 37 a7 3e 90 3a a5 3d 56 8b ec 3c
       -0.14981444 0.3265916 0.080678105 0.028875034

linear.weight f4 [10, 320]
000000 5b d9 31 3d 37 8f 89 bc 1f a0 90 3e b3 72 a3 3d
       0.043420177 -0.016791923 0.28247163 0.079808615
000010 ad 17 e7 bd 2c ef 66 3c 8b d2 3a bd 45 45 51 be
       -0.11283813 0.014095109 -0.045610946 -0.2043658
000020 9b fe 9d 3e 7d 6e 0b bc 09 e9 99 3d 1a c1 0a 3d
       0.3085831 -0.008510229 0.07515151 0.033875562
000030 ef 95 8c be f1 15 69 3e 50 40 be 3d c9 b1 85 bd
       -0.2745814 0.22762276 0.092896104 -0.065280505
000040 3a 82 59 bc 4e 31 5d 3e bc e4 ea 3d ab 11 c2 be
       -0.013275677 0.2160084 0.11469409 -0.37904105
000050 fc d0 67 bd bb 4c c1 bd 02 4a 00 3e ad 08 7f 3e
       -0.056595787 -0.09438463 0.12528232 0.24905653
000060 22 96 10 be 1c 3d ff bd 7f 17 31 bd bd e5 27 be
       -0.14119771 -0.124628276 -0.0432353 -0.16396232
000070 b8 91 99 3d dc 3e 0e be 81 58 19 3e 32 2c 99 be
       0.07498497 -0.13891166 0.14975168 -0.2991653
000080 33 ca 85 3d 50 b2 54 be 8a f9 4c 3e 77 71 ad be
       0.06532707 -0.20771146 0.20017067 -0.3387563
000090 fb c3 cb 3c 65 76 35 bc 9a 7a 1e 3e 6a 0d a1 be
       0.024873724 -0.011075591 0.15476456 -0.31455547
0000a0 70 a7 c1 3d 4c e9 e3 3c 26 1f f1 bd 70 1b 42 bf
       0.09455764 0.027821206 -0.11773519 -0.75823116
0000b0 e7 9d a0 3d 1a a2 e7 3d e2 dd b5 bd b9 dc 0d be
       0.078426175 0.11310215 -0.088802114 -0.1385373
0000c0 7c 59 64 3d e6 4a 9b bd 5c 37 d7 3c e5 7f 5a 3d
       0.0557494 -0.07582645 0.026271515 0.053344626
0000d0 8c e5 67 3e 96 de 44 3d ef f3 f2 3d d7 bb 10 3c
       0.22646159 0.048063837 0.11862933 0.008833847
0000e0 c5 1b 0f be 64 19 cc 39 0f a7 21 3b 41 1f 7c bd
       -0.13975437 0.0003892883 0.0024666225 -0.061553244
0000f0 7a 70 05 be b1 6d 60 bd 39 7c 9b 3b 74 d2 5a 3c
       -0.13031188 -0.05479211 0.004745033 0.01335584
000100 80 59 81 3e 2c 2e 86 3d 44 06 cf bd ee 1d 03 bd
       0.25263596 0.06551775 -0.10108617 -0.032010965
000110 2f d9 e2 3e 72 6e 85 3d 45 34 6d bc ce db de bc
       0.44306323 0.065152064 -0.014477794 -0.02720442
000120 e8 26 84 3e 2a 23 af 3d 6a e0 38 bd 1a c2 3c 3c
       0.25810933 0.08551629 -0.045135893 0.011520887
000130 f6 f4 eb be cd f0 21 bd c5 60 46 3d 0d a7 27 bd
       -0.46085328 -0.039536286 0.04843213 -0.040930796
000140 67 1a 03 be 2a 3e d4 bc 7c 7e 00 be 27 fa 94 be
       -0.1280304 -0.025908548 -0.1254825 -0.290971
000150 d9 84 de bd db 64 9d bd f4 26 00 be 23 f3 f8 be
       -0.108651824 -0.07685252 -0.1251486 -0.48623
000160 7e 11 d1 3c 0c f3 01 bd 82 c3 66 3e fa 3c f0 bd
       0.025521036 -0.03172593 0.22535518 -0.1173038
000170 2f 4e a0 3d e0 14 67 bd 56 10 37 be b7 ca a5 3d
       0.07827412 -0.056416392 -0.17877325 0.080953054
000180 cc 0e 9b bd c2 de 22 3e 3f a1 6b bd a7 b6 de bd
       -0.07571182 0.15905288 -0.057526823 -0.10874682
000190 20 ac 0c be 7c ca dd 3c b5 33 2f be 12 eb c4 bd
       -0.13737535 0.027074091 -0.17109568 -0.096151486
0001a0 3e 54 9d 3d 26 84 13 3d a8 4d 72 3c 77 e6 a0 3b
       0.076820835 0.0360147 0.0147890225 0.004910286
0001b0 ff 8d bf 3b 1c 78 ca 3c c7 73 b5 3d 14 92 69 bd
       0.0058457847 0.024715476 0.088599734 -0.057024077
0001c0 11 e4 01 3e 6c 44 1c be fe f6 9c bd 3f 66 6c 3e
       0.12684657 -0.15260476 -0.076642975 0.23085879
0001d0 f1 91 04 be 73 c6 b9 bd 26 a4 a1 3c 90 c6 9b 3d
       -0.12946297 -0.09071054 0.019731592 0.07606232
0001e0 b1 09 00 3b 55 5d 89 3e 58 6b dc bb 2b 33 3d 3d
       0.0019537027 0.2682902 -0.0067266636 0.046191376
0001f0 c6 86 e9 bd 4c 45 13 3e fa 27 14 3e b1 27 d9 be
       -0.11402659 0.14381903 0.14468375 -0.42413095
000200 77 1e 99 bd 3c b7 df bd d3 d5 7e be 14 fa d7 3d
       -0.07476514 -0.10923621 -0.24886255 0.105457455
000210 6e 2c 81 3d 73 e1 f0 3d ff c6 04 3e 7c 20 05 be
       0.063073024 0.11761751 0.12966536 -0.13000673
000220 c0 9d 1f 3d c9 97 79 3d 15 13 50 3d 93 e7 73 3d
       0.0389688 0.06093577 0.050799448 0.05954702
000230 24 a6 cd bd ab 9f 86 3d 62 b4 16 3e 4e 20 a6 3d
       -0.100414544 0.06573423 0.14717248 0.081116304
000240 90 15 eb bd 09 7b 99 bb 8a 68 02 3e bb 25 9c bd
       -0.11478722 -0.0046838564 0.12735191 -0.07624384
000250 77 be e4 bd 62 82 6e bd 0e 1d 0f 3e cc 52 b3 3d
       -0.11169141 -0.05822981 0.13975927 0.087560266
000260 a0 82 01 3e 19 b9 86 bd 90 fa ce bc 6f ae 3a 3d
       0.12647486 -0.06578273 -0.025265962 0.04557651
000270 f7 f8 05 bd 55 73 41 bd 3f d1 64 bd 73 81 9b 3d
       -0.032708135 -0.04722913 -0.055863615 0.0759305
000280 3b 8f 50 bd 35 fc a3 be d7 8d b2 3f 27 b4 58 be
       -0.050917845 -0.32028356 1.3949536 -0.21162473
000290 65 a1 7b 3d fd 48 e6 be 59 f8 6c bb d0 67 18 3e
       0.061433215 -0.4497756 -0.003615877 0.14883351
0002a0 3c 50 91 3d 3a 61 30 be db 24 57 be 0d 53 85 3e
       0.070953816 -0.17224589 -0.21010153 0.26039925
0002b0 14 05 16 3e 1a c2 5f be 40 f9 d4 3b b7 37 cb 3d
       0.14650375 -0.21851388 0.0064994395 0.09922736
0002c0 6c 36 17 3e 92 2e 2a be b9 8f 39 bd dd c6 84 3d
       0.14766854 -0.16619328 -0.04530308 0.06483243
0002d0 75 a8 0d 3e d3 5a 57 3e 39 cc 4e 3e 39 8d e0 bc
       0.13833793 0.2103074 0.20195092 -0.02741109
0002e0 2c fb 32 be af 17 9f bd c1 e3 81 3d a4 87 2d be
       -0.17478627 -0.07768189 0.06342269 -0.16946274
0002f0 b0 8e d8 3d 8a f3 b7 3d 67 6d fd bd e6 2b 91 ba
       0.105740905 0.08981998 -0.123743825 -0.0011075705
000300 72 0a c8 3e 63 92 a1 bb 75 c7 ec 3d 7d de 17 be
       0.3907047 -0.0049307807 0.11561481 -0.14830966
000310 a0 35 83 bd 91 90 e4 bd 6d b7 72 bd ef fa 84 3d
       -0.064067125 -0.11160386 -0.05925696 0.06493174
000320 c0 cf 19 3e 7f 92 e3 3d 6b 8d b8 3d ad 01 0e 3d
       0.15020657 0.11111926 0.09011348 0.034669567
000330 ed 6c 79 3c 0f 6a b2 bc d2 b9 5a 3d 49 36 04 3e
       0.015223724 -0.021779088 0.05339987 0.12911333
000340 88 e0 dc bb 7c 99 12 be 8d cc 33 be 82 cc 1f be
       -0.0067406334 -0.14316362 -0.17558499 -0.15605357
000350 8a 1f 57 3d 6f b8 9d bd aa 3d c3 be 8d 7d 14 3e
       0.052520312 -0.077011935 -0.38132983 0.14501019
000360 2f 3e dd 3d 9c a0 7e be 13 c4 b7 3c 5f b7 3a 3e
       0.10802876 -0.24865955 0.022432363 0.18234013
000370 78 f8 ed 3d 6c 17 8d bd 59 ee b7 bc 54 2e 7c 3e
       0.11619657 -0.06889233 -0.02245252 0.24627048
000380 fd c7 22 3e 82 3d 09 3e 86 da 8d bd 10 25 3d bc
       0.15896602 0.1340237 -0.06926446 -0.011544481
000390 f9 48 30 bd 20 13 c0 bd 29 0f ba 3c ce 3d 23 3e
       -0.043038342 -0.09378648 0.022712307 0.15941545
0003a0 b9 75 7c bd bc 5e fa bc 76 a3 01 3e 38 95 ad bd
       -0.061635707 -0.030562751 0.12660012 -0.08475727
0003b0 2d ba 56 be 7a 8a 89 bd ca bc 8c 3d 00 44 13 bc
       -0.20969458 -0.067158654 0.06871946 -0.00898838
0003c0 96 f4 a1 bb 80 8d 17 3c ed 14 8d 3c 05 95 f3 ba
       -0.004942487 0.009250045 0.017221892 -0.001858384
0003d0 db dc be 3b 65 05 24 3c 6d fa 79 3c ef 4a cb 39
       0.005824668 0.010011052 0.01525746 0.00038775007
0003e0 58 a8 04 b9 de 1b 2b 3c 47 b4 b1 3c a1 ff dc bb
       -0.00012651214 0.010443656 0.021692408 -0.0067443405
0003f0 54 fa 96 3c 03 05 aa 3c d5 91 29 3d 3d 83 43 ba
       0.018429913 0.020754343 0.041398842 -0.00074582157

linear.bias f4 [10]
000000 21 00 97 bd 29 db 91 3d ed ae 85 3c ef 41 6d bd
       -0.073730715 0.071218796 0.016318763 -0.057924207
000010 3a 71 f0 bd 51 36 e2 3e 1b a9 23 3e d6 fc 5b be
       -0.11740346 0.44182065 0.15982477 -0.21483168
000020 22 12 8e 3d 9b 93 3a be
       0.06937052 -0.1822037
