models/CIFAR10/cnn_params=100k_seed=038/099.pth (torch, 421415 bytes, 8 tensors)

conv1.weight f4 [32, 3, 3, 3]
000000 36 6b 16 bd 6a c7 25 3d bb 46 4d be 28 d5 30 3e
       -0.036723338 0.04047338 -0.20046513 0.17268813
000010 3a 97 ee 3d 69 2d 73 3d e7 f3 97 3e b3 d3 a8 3e
       0.11649938 0.05936948 0.2967827 0.32974014
000020 c3 86 b5 3b e4 e1 bb 3c 2d 19 40 be 76 f6 97 bd
       0.0055397465 0.022934861 -0.18759604 -0.074200556
000030 66 94 66 be 8c 2b ad be af c8 23 be fc 5f 33 be
       -0.22517547 -0.33822286 -0.15994523 -0.17517084
000040 2a 69 3f be 11 e6 39 be 03 95 b0 bd 5e 8f ab 3e
       -0.1869246 -0.1815417 -0.08622172 0.33507818
000050 bd c1 ab 3e 94 02 85 3d 6d ba 99 bd 51 8e b5 3e
       0.33546248 0.06494632 -0.07506261 0.3546014
000060 6e 49 0a 3e b8 31 48 bd 8c 4c 6a 3c 23 7b 0a be
       0.13504574 -0.04887554 0.014300477 -0.13523535
000070 02 d0 4c 3e 93 d1 cc bc 0a 9e 58 3e 07 04 8c 3e
       0.20001224 -0.025002277 0.21154037 0.27346823
000080 df 13 07 be 39 88 5b 3d fd 5a 05 be 70 23 79 be
       -0.13191174 0.05359671 -0.1302299 -0.24329925
000090 f9 74 aa bd 93 1e 1d 3e 79 37 90 3d ad 66 01 3e
       -0.08323092 0.15343694 0.070418306 0.12636824
0000a0 72 57 96 3e a0 f7 98 be 38 ad f6 3d bf 17 20 be
       0.2936359 -0.29876423 0.120447576 -0.15634058
0000b0 90 f6 90 be e8 6e e4 3c 89 d7 8c 3e 21 ea 07 be
       -0.28313112 0.027884915 0.2750819 -0.13272907
0000c0 d6 01 04 3e 7a c8 8c 3d f9 38 43 be 14 91 4e bd
       0.12891325 0.06874175 -0.19064702 -0.050431326
0000d0 4a 60 f4 3c 58 27 67 be b5 14 a1 3d cd 77 52 3e
       0.02983107 -0.22573602 0.07865278 0.20553513
0000e0 70 7d 79 3d 4d 17 32 3e 30 d2 c7 3d f7 c4 0d 3e
       0.060910642 0.17391701 0.09756887 0.13844667
0000f0 67 78 05 be f4 e1 a8 be 35 2c 89 be 15 53 97 bd
       -0.13034211 -0.3298489 -0.2679154 -0.073888935
000100 35 07 f3 bc 04 78 19 3e cf ce 05 3d cf 5b a6 bc
       -0.029666523 0.14987189 0.03266793 -0.02030745
000110 e1 6e 9e 3e e4 71 e8 bd 85 45 a1 bc 4d f0 30 be
       0.3094397 -0.11349848 -0.01968647 -0.17279167
000120 9a 89 d4 3d b6 7e fc 3b 44 2c d8 3c 82 9e d1 3d
       0.10377808 0.007705535 0.026388295 0.10235311
000130 32 09 89 3e ac 84 1e 3e ef 08 7a be a5 5b a6 be
       0.26764828 0.15480298 -0.2441747 -0.32491794
000140 5f 7c 3a be c5 11 da bd 10 73 b9 be d8 be b1 be
       -0.18211506 -0.106479205 -0.36220598 -0.34715915
000150 42 ce cc 3d 8c fe 09 be fe 4b dd 3d 0d a4 38 3e
       0.10000278 -0.13476008 0.1080551 0.1803133
000160 ee ee 98 3e e1 e5 74 3e 28 d7 50 be e2 6f 7e bd
       0.2986979 0.23915817 -0.20394576 -0.06211842
000170 e6 0b 64 be 75 f8 d6 3a fd ae 52 3e 68 8d 98 bd
       -0.22270164 0.001640095 0.20574565 -0.07448846
000180 48 27 46 3e 3e 83 93 bd f8 ea 55 3e 70 7b 00 bc
       0.19350922 -0.07202767 0.20890415 -0.00784193
000190 0c eb 09 be 45 e2 b2 bd 60 e0 57 3e fa f0 33 bd
       -0.1346857 -0.08734564 0.21081686 -0.043930985
0001a0 08 e9 d2 3b 75 60 06 be 1a 14 33 3e 86 71 0a 3d
       0.006436471 -0.13122733 0.17488137 0.03379967
0001b0 5b 27 58 bd e8 b2 22 3c f9 70 9d be 07 e1 a4 3e
       -0.052771907 0.00993035 -0.30750254 0.32202932
0001c0 ff f3 8f be d0 50 73 be 11 db 1d 3e 8a 6d ad be
       -0.28115842 -0.23761296 0.15415598 -0.33872634
0001d0 8c f6 55 bd e9 d0 45 3e dd 96 63 3e d5 8d 50 bc
       -0.05223708 0.19317974 0.22225519 -0.012729128
0001e0 74 25 93 3e f0 ef 73 be e3 69 f4 bd 1a a0 b3 bd
       0.28739512 -0.23821998 -0.11934259 -0.08770771
0001f0 d5 ba 3b be f9 28 e9 3d 8b f9 83 3d d8 a0 54 3e
       -0.1833299 0.11384768 0.06444081 0.20764482
000200 f2 db cc bd 13 7e fa 3d 18 03 8e 3d 1f 00 1c bc
       -0.10002889 0.12231078 0.06934184 -0.009521513
000210 ed 2c 7e 3e 3a 2a fe bd e4 30 21 3e 00 91 ab be
       0.24821825 -0.12410398 0.15741307 -0.33509064
000220 56 b9 8b be 86 22 97 be 98 12 60 3c e7 19 ff bb
       -0.27289838 -0.29518527 0.013676308 -0.00778507
000230 0b 23 0e 3e c1 54 ec 3d 5a 71 c6 3d 34 ee db 3e
       0.13880555 0.11539603 0.09689589 0.42955172
000240 27 94 4a 3e 6c c2 80 3e 22 8a e6 3d 00 aa 8d 3e
       0.19783078 0.25148332 0.112568155 0.27668762
000250 53 28 05 3e 33 54 c9 bd e6 17 49 be ba 3c 90 be
       0.13003664 -0.09830513 -0.19638023 -0.2817133
000260 91 c0 30 be 66 65 a5 bd 19 2b f1 3d 11 58 33 3e
       -0.17260958 -0.08075981 0.11775798 0.17514063
000270 37 55 36 3e 5f 99 c6 bc c7 1d 9f bb 56 50 05 be
       0.17805944 -0.024243055 -0.0048558447 -0.13018927
000280 ca 34 eb bd f2 12 52 be af 86 04 3e 6a 24 95 3e
       -0.11484678 -0.2051504 0.12942003 0.29129344
000290 ee 48 11 3e 73 5d 57 be 15 3b 9c be a8 51 a9 ba
       0.14187977 -0.21031742 -0.30513826 -0.0012918012
0002a0 20 ef 1b 3e 9c 2f 89 bd 3f e5 07 be bc 3b 66 bd
       0.15227938 -0.06698534 -0.13271044 -0.05620931
0002b0 30 24 81 bc fb 20 9a 3e 8c 14 67 3d 3b 60 b0 be
       -0.015764326 0.30103287 0.05641608 -0.34448418
0002c0 e3 fc 4f bc ec df ee 3d f6 a5 ac bd 80 ea bb bb
       -0.01269457 0.116638035 -0.08430092 -0.0057347417
0002d0 6b 2c 9a bb 5b 3e 7b 3d fd bd 6b 3e b2 7a 93 be
       -0.004705002 0.061338764 0.23021694 -0.28804547
0002e0 7f bb b3 bc cb 5f d1 bd dc 7f 06 3e 23 19 18 3e
       -0.021939991 -0.10223349 0.13134712 0.14853339
0002f0 6c 7e 2e be c5 28 51 3e 8b 04 67 bd b8 95 2a 3c
       -0.17040414 0.20425709 -0.056400817 0.010411672
000300 ea fe be 3d 70 3d 59 3d 66 fb f2 3d bb 98 0d 3e
       0.09325965 0.053037107 0.11864357 0.13827793
000310 fb d1 03 3e 83 64 d9 3d bd 7e a0 bd 0b 35 02 3e
       0.1287307 0.10614874 -0.078366734 0.12715547
000320 06 04 93 bc 46 2d 14 bd d7 56 8c bd 4a 41 65 be
       -0.017946254 -0.03617599 -0.06852501 -0.22388187
000330 06 b1 0c 3e 2d 0d 0b be b7 18 26 be 83 05 9f bc
       0.13739404 -0.13579245 -0.16220365 -0.019411808
000340 b1 9e fb bd 41 52 00 be 86 98 ca 3d 6e 48 1b bd
       -0.12286127 -0.12531377 0.09892373 -0.03791087
000350 6d 1d 17 bb ca a3 c2 bd 93 da 97 3c cd f6 f8 bd
       -0.002305831 -0.095038965 0.018536841 -0.121564485
000360 38 1a 75 bd 43 7a 14 bd 78 ef 89 3d 12 3d 9f bd
       -0.059839457 -0.03624941 0.06735128 -0.0777532
000370 8e aa 2a bd 60 04 8e bd 65 da 0a bc c7 ed 01 3e
       -0.04166656 -0.06934428 -0.008474921 0.12688361
000380 ab af 4a bc b9 ab 80 3d d1 5a 53 3c 1e 82 df 3d
       -0.012370984 0.062827535 0.01290007 0.1091349
000390 7f ae b3 bb 58 c8 da 3d c3 ce 03 bd fc de fd 3d
       -0.005483448 0.10682744 -0.032179605 0.123960465
0003a0 c2 23 6a 3b f3 17 97 3d 46 7a 1f 3e bd 65 14 3e
       0.003572688 0.07377615 0.15573987 0.14491935
0003b0 1c bd 2c be f4 57 d3 bd fd a0 18 be c9 dc 20 bd
       -0.16869015 -0.1031951 -0.14905162 -0.039273057
0003c0 2c 47 f4 3d fb e1 c0 3b be 8d de 3d 46 18 66 3d
       0.119276375 0.005886314 0.10866879 0.056175493
0003d0 42 ee 24 3e 56 e4 05 3e 54 44 6c be 64 0e a7 be
       0.16106513 0.13075384 -0.2307294 -0.32628167
0003e0 a0 43 bf bc 41 e5 fd 3c 74 02 12 3e 1f 9c ca 3d
       -0.023347676 0.030993106 0.14258748 0.09893059
0003f0 a3 80 ad 3d 90 f9 b0 bc 62 04 3b be f9 9c ae 3d
       0.08471801 -0.021603376 -0.1826339 0.08526034

conv1.bias f4 [32]
000000 06 48 4d bd 31 02 2f 3c 9d 5a 04 3a 63 38 ee bc
       -0.050117515 0.010681675 0.0005048903 -0.029079622
000010 e3 f5 42 3d fa 81 58 bb 2b db 0f 3c 9f 67 9a 3d
       0.047597777 -0.0033036456 0.008780281 0.075392954
000020 b3 5b e4 bd df 10 a7 bb 5d 4d 4b bc dc 65 34 3c
       -0.11150303 -0.0050984467 -0.012408582 0.011010613
000030 f6 50 84 bb bf d5 bd bb a0 3f fb 3d 7f 2c 31 3e
       -0.0040379716 -0.005793303 0.12267995 0.1730213
000040 09 ce 12 3e bb 32 d2 3d 9e 35 c2 be 1c f5 95 3c
       0.14336409 0.10263582 -0.37931532 0.018305354
000050 84 fa ec 3a 24 e7 8e 3d 2e bb 36 3c b0 79 85 bb
       0.001808003 0.0697768 0.011153026 -0.004073344
000060 e2 42 df 3d 32 72 fb 3d 2d a6 e1 be c7 59 38 3e
       0.10901429 0.122776404 -0.44072095 0.18002997
000070 16 77 3a 38 27 59 2b bb 09 78 04 bc 68 d4 08 3c
       4.4456763e-05 -0.0026145668 -0.008085259 0.008351423

conv2.weight f4 [64, 32, 3, 3]
000000 ef 13 8f 3e 1e 06 2b 3e 3c bc d5 3d 2b c2 d0 3d
       0.27944896 0.16701552 0.104362935 0.101932846
000010 f7 f2 e4 3d b1 17 30 3b a7 3c 0e be e2 2a b5 bd
       0.11179154 0.002686959 -0.13890325 -0.0884607
000020 c3 c7 b6 bd c1 00 84 bd 86 1a 08 be 17 82 ca 3d
       -0.0892482 -0.06445456 -0.13291368 0.09888094
000030 f2 20 e7 3c 01 d5 2d bd 2a 89 bd bc 09 48 c1 3d
       0.028213952 -0.042439464 -0.023136694 0.09437568
000040 9b 80 f5 bd 6b b3 d4 3c 1c 23 ec bd ea 86 e2 bd
       -0.1198742 0.02596446 -0.11530134 -0.11060889
000050 91 f0 35 3c ab e0 23 bc 96 15 62 3c cc 7d 71 bc
       0.011104719 -0.0100022955 0.013799092 -0.014739465
000060 c6 99 ad 3d ab c2 47 3e a3 a5 22 3e 05 a9 23 3d
       0.084765956 0.19507854 0.15883498 0.03995611
000070 6e 3d 90 3c 1e 09 86 bd 15 03 da 3c be 3d 05 3d
       0.017607417 -0.06544708 0.026612798 0.032529585
000080 bf 68 08 bd 26 36 e1 3d 88 fd b8 3d fa 4d f0 3a
       -0.03330302 0.10996656 0.09032732 0.0018333786
000090 dc f6 50 3d bb 69 00 bc 11 9d 28 bc 8d 13 82 bd
       0.051016673 -0.007837708 -0.010291354 -0.06351385
0000a0 45 9a be bd 75 7b bf bd b2 4a 94 3d 40 2f 0f be
       -0.09306768 -0.093497194 0.072408095 -0.13982868
0000b0 4a d8 05 be 16 94 bd 3d 6c 46 27 3e 0e f9 35 3d
       -0.13070789 0.09256761 0.16335458 0.04442697
0000c0 c4 43 3b 3d 94 eb 13 3e 31 6e b0 bb 0c 6d bc 3d
       0.045718923 0.14445335 -0.0053842296 0.092004865
0000d0 fa a7 4b 3e a8 1c 3f 3d 19 78 6d 3d 70 27 35 3d
       0.19888297 0.046658188 0.057975862 0.044227064
0000e0 d0 1f 4b 3c d5 4e 4e be e6 16 36 be 06 af d3 bd
       0.012397721 -0.2014726 -0.17782173 -0.103361174
0000f0 9c e8 72 3e ca 09 89 3e 08 b7 12 3e 42 6b 82 3c
       0.23721546 0.2676528 0.14327633 0.015920285
000100 1f f7 ea b9 83 8f 25 3c dd e6 80 3d a6 e8 51 bd
       -0.00044816078 0.010105017 0.06294034 -0.05124726
000110 67 3c 6b 3d a5 bb 8c bd 3b a6 cc bd 81 e6 75 3c
       0.05743065 -0.06871728 -0.099926434 0.01500857
000120 15 6c cc bd 1e a9 0b be d8 7e 02 be 6f 39 92 bd
       -0.099815525 -0.13638732 -0.127437 -0.07139861
000130 55 4a c9 bd 1d 70 90 bc fb 3f b4 3d b2 d9 6a bb
       -0.09828631 -0.017631585 0.08801266 -0.0035835323
000140 6e 41 31 bc de 84 ee 3d b8 bb 54 3d 67 ac 95 bc
       -0.010818822 0.11646436 0.051936835 -0.018270684
000150 52 d0 b9 3c 0b bd b6 3d 9c 59 fc bd 82 f6 f2 3d
       0.022682343 0.08922776 -0.12321779 0.11863424
000160 3f 66 f8 3d dc eb 5a bd 33 f8 93 3d ba be 74 bd
       0.12128877 -0.05344759 0.072250746 -0.059752204
000170 57 8a 76 bd 38 a8 74 3e 07 e3 6c 3d 9f a5 ae 3c
       -0.060190525 0.23892295 0.057833698 0.021319209
000180 ca e8 c8 bc b7 35 70 bd 33 01 de bc 53 03 82 bd
       -0.024525065 -0.058644976 -0.027100181 -0.0634829
000190 29 8d 56 bd 23 98 4c bc cb 47 bf 3d c5 93 b9 3d
       -0.052380715 -0.012487444 0.09339865 0.09061388
0001a0 2f 57 90 3d c9 97 d9 3d a2 3b b2 3c ce 7b 71 bd
       0.07047879 0.10624654 0.02175695 -0.05895596
0001b0 f6 bb 84 bc 9c bf 86 bd 70 cd ca 3d fc 1e 07 3d
       -0.016202908 -0.06579515 0.09902465 0.032988533
0001c0 0e f8 80 bc 8e 0c 39 3e 85 5d 0e 3d 06 f1 c6 bd
       -0.015743282 0.18071195 0.034757156 -0.0971394
0001d0 f0 da 03 3e 8f db e6 3d dc 77 eb bd 9e 87 27 3e
       0.12876487 0.11272346 -0.11497471 0.16360328
0001e0 d4 57 b5 3c 88 22 6b be 0d 70 05 3d 82 bf 02 3d
       0.022136606 -0.22962391 0.032577563 0.031920917
0001f0 59 83 78 be 94 66 64 bd 98 9f 1d 3d c7 e1 ea 3c
       -0.24268855 -0.05576189 0.03848228 0.028672112
000200 b5 3c a5 3b 59 6c bd 3d 9b 2c 00 bd 22 cf dd 3d
       0.005042637 0.09249181 -0.03129254 0.10830523
000210 f2 5e d2 3e 3a f9 2f 3e 07 34 5d 3e 52 df 2b 3e
       0.41088063 0.17184916 0.21601878 0.16784409
000220 c5 12 dc 3d 7f f3 56 3b 52 1d 35 3d 5e 84 c2 3c
       0.107457675 0.0032798944 0.044217415 0.023744758
000230 83 0c 7d 3c cb 3f 07 3e eb 69 dc 3d af 17 2a 3e
       0.015444878 0.13207929 0.1076239 0.16610597
000240 0a 29 8b 3b 27 95 98 3a af d0 2e be e6 62 98 3c
       0.0042468356 0.001164113 -0.17071794 0.018601846
000250 1a a2 f5 3d 57 ec be bd 64 73 95 3d 5c 02 21 3e
       0.11993809 -0.09322422 0.072974 0.15723556
000260 f1 da f8 3d ad dc 92 3c 31 c8 90 3d 89 a2 f0 bd
       0.12151135 0.017927492 0.070694335 -0.11749751
000270 dc d5 1f be e5 95 78 be bc 5b 26 be b9 12 1d 3e
       -0.15608925 -0.2427593 -0.16245931 0.15339173
000280 ae db 34 3e 47 dd c4 bd a5 c0 ac 3d a1 91 ad 3d
       0.17661926 -0.09612518 0.084351815 0.08475042
000290 8b 98 85 bd bd c9 ab bd 39 8c af bc 00 ba 5b be
       -0.06523236 -0.08388088 -0.021429168 -0.21457672
0002a0 3b 34 7d bd 82 82 5d 3d 37 b8 00 be 86 77 e9 bb
       -0.06181739 0.05407954 -0.12570272 -0.007124844
0002b0 38 3d 4e bd b1 35 41 3d 4a 5d 07 be 9f 02 6a be
       -0.05035135 0.047170345 -0.1321918 -0.22852562
0002c0 92 2c 0b bd 2c 96 46 3d 88 e9 99 bd 4f bd 27 3c
       -0.033978052 0.04848306 -0.07515246 0.010238006
0002d0 c6 e3 86 bd e7 43 4d 3c 35 06 9d bc 5b 34 2a be
       -0.06586413 0.012528396 -0.019167999 -0.16621535
0002e0 a3 34 04 be 61 67 5f be b6 cf 1f 3e b5 d6 1c 3e
       -0.12910704 -0.2181678 0.15606579 0.15316279
0002f0 88 fa 2f 3d 26 ef d3 3d 60 f6 e5 3c 01 9c c0 3d
       0.042963535 0.10348348 0.028071582 0.094047554
000300 a5 8f cc 39 11 b4 29 3b 80 43 97 3b 61 ad 5e bd
       0.00039016936 0.0025894681 0.004616201 -0.054364566
000310 e5 28 1d be 15 1c 85 bd 18 81 8a 3d c5 fa a6 3d
       -0.15347631 -0.06499497 0.06762904 0.08153299
000320 cc 19 6b 3d e1 a7 0c be 90 f0 05 be 82 96 03 bd
       0.05739765 -0.13735916 -0.13080049 -0.032125957
000330 6e 00 9e 3b f8 af 8a 3a f9 a0 be bd ba 5f 10 3c
       0.0048218286 0.0010581007 -0.09308047 0.0088118855
000340 52 c3 d3 3d ed e5 39 3e 2e 83 5a bc 54 2a 39 bd
       0.10339989 0.18154116 -0.01333694 -0.045206383
000350 46 53 ea 3d 69 f8 9a bc 1d d1 0b be c9 bd be bc
       0.114416644 -0.01891728 -0.13653989 -0.023283856
000360 a8 1d c9 3d 1d 3f 39 be 5d 3f a0 bd 16 f1 ed 3d
       0.098201096 -0.18090482 -0.078245856 0.11618249
000370 e5 6b 1a be 48 f3 08 bd c7 c9 b6 3d 40 a6 3c be
       -0.15080221 -0.033435136 0.08925205 -0.18422794
000380 5d e6 16 bc 22 c7 42 bd be 6f df bb 44 38 8c 3d
       -0.009210196 -0.04755319 -0.0068187406 0.06846669
000390 e2 06 54 3d d2 7f ab bd 45 4d 94 3c d5 8b be 3d
       0.051764376 -0.08373989 0.018103251 0.093040146
0003a0 30 eb 82 bc d7 18 de bd 61 6d 33 bc 54 d5 5b 3d
       -0.015981287 -0.108445816 -0.010951371 0.053670242
0003b0 4c 74 1d 3c 0a a9 9d bd 47 ab 0c be 64 4c 1c bd
       0.009610247 -0.07698257 -0.13737212 -0.03815879
0003c0 e3 f2 3c 3e 58 0a 0a 3e 25 1f 8b 3d 97 02 ae bd
       0.18452029 0.13480508 0.0679305 -0.08496588
0003d0 8d 22 a5 3c 35 99 cd bd 31 25 0d bc b5 86 a5 3c
       0.020158077 -0.100389875 -0.008614824 0.020205835
0003e0 f2 25 80 bd b4 f1 c1 3d d0 0c 17 3e bd 11 40 bd
       -0.062572375 0.09469929 0.14750981 -0.046891917
0003f0 2e 96 9d bc 49 d8 08 be 00 77 d3 bd 2b c6 80 3c
       -0.01923665 -0.13363756 -0.10325432 0.015719494

conv2.bias f4 [64]
000000 8e fe 87 be 1c fd 30 3e bd 0b b0 3d b3 63 29 3e
       -0.26561397 0.17284054 0.08595989 0.16541938
000010 f0 96 df 3d 5f 62 48 be 65 16 01 be f6 cc b9 bd
       0.10917461 -0.19568776 -0.12606199 -0.09072296
000020 40 64 06 be 1f 0b ab bc a4 f2 6b bd e9 cc bd bc
       -0.1312418 -0.020879326 -0.057604447 -0.023168998
000030 92 5d e0 bc 8b 64 30 bc 8a d4 21 bd 9d 84 ed bd
       -0.027388368 -0.010766159 -0.039509334 -0.115975596
000040 79 5b b3 bd 72 1d 8f bc 1c ed 81 bb 78 ef 98 0d
       -0.087576814 -0.017470095 -0.003965033 9.425373e-31
000050 1e e4 f4 b7 c8 7e 11 be 99 89 fb bd 6b 2c 81 3e
       -2.9193292e-05 -0.1420852 -0.12282104 0.252292
000060 ba ba b5 bb 97 8f 2f 3d ce bd ce bb 03 ca c9 3d
       -0.005545941 0.042861547 -0.0063092476 0.09852984
000070 12 7d 87 bd 91 67 04 3e 7f 07 15 bd fa c9 ab bd
       -0.06615652 0.12930132 -0.036384102 -0.08388133
000080 51 af 18 bc 46 97 d5 3d 80 07 4c 3c 64 68 0d 3d
       -0.009319142 0.10429244 0.01245296 0.034523383
000090 4b f6 28 3e b6 6a 69 3d 58 3b fa bb d0 3d 8c 3e
       0.16500203 0.056986533 -0.007636469 0.2739091
0000a0 8c 24 8d 3e c9 0c d9 3d 2b 65 70 3e b7 18 54 3e
       0.27566946 0.10598142 0.23476093 0.20712553
0000b0 3d 61 1d be 64 03 89 bd ea ec 11 3e 5f 12 41 3b
       -0.15369125 -0.066901 0.14250532 0.0029460413
0000c0 0f 1e b6 bd ff 8d 8f 3c e6 bc 4d 3e 7c c6 0c 3e
       -0.08892452 0.017523764 0.2009159 0.13747591
0000d0 6a c7 0c 3d 5e 51 89 bc 9c aa ce bc f6 32 fa bc
       0.034369864 -0.016762432 -0.025227837 -0.030541878
0000e0 c0 50 10 bd e2 d2 e5 3c 4c 20 ef 3d 72 91 24 be
       -0.03523326 0.028054658 0.11676082 -0.16071108
0000f0 b4 a6 ae bd 1e e9 26 93 20 b7 ef 3d 7e c3 57 3e
       -0.0852789 -2.1067081e-27 0.1170485 0.21070668

conv3.weight f4 [128, 64, 3, 3]
000000 0a a6 8f 3d 70 7f 82 3d c8 5a d7 3d d7 2a 76 be
       0.07014091 0.06371963 0.10515362 -0.2403978
000010 27 cb 2a be ae c0 3d be e1 a3 21 be 9a 26 df bd
       -0.16679059 -0.18530533 -0.15785171 -0.108960345
000020 24 67 bb be 7a d5 00 3e 8a 2e 18 bd 84 52 28 be
       -0.36602128 0.12581435 -0.037153758 -0.16437727
000030 b1 62 42 bc 25 cf 2b bd 83 e7 a4 bd a8 24 0e 3e
       -0.01186435 -0.041945595 -0.0805197 0.13881171
000040 12 27 7d 3d d6 a5 22 3d 99 ab 52 be 0f 0a 8e be
       0.06180484 0.039708935 -0.20573272 -0.2774205
000050 79 90 70 3c f7 64 d3 3d fe 0b c0 3c 9f 6d 29 3d
       0.014682882 0.10321992 0.023443218 0.04136431
000060 8c f0 a2 3e d9 34 e3 3d b9 55 d6 3d 4b e5 95 3d
       0.31824148 0.11094064 0.10465569 0.07319125
000070 b4 96 8a 3d 58 6b 83 3b 6e b5 f7 3d 2a 8f 85 bd
       0.067670256 0.004010599 0.12095152 -0.06521447
000080 fb 47 13 be bc ce 21 3e 35 f7 26 3e c8 b3 d8 3d
       -0.14382927 0.15801519 0.1630524 0.105811656
000090 36 ca 66 bd 4c 2f 3b be d8 81 9c bd 9c 10 6c be
       -0.056345187 -0.18279761 -0.07641953 -0.23053211
0000a0 9e 6a a9 bc a0 0f e4 bd 2a f2 8d be 01 03 7a be
       -0.020680722 -0.11135793 -0.2772382 -0.24415208
0000b0 18 72 4c ba 85 1b 76 3e b7 c7 92 3e fd 9d 3f 3e
       -0.0007798984 0.24033935 0.28667995 0.18712611
0000c0 7f 78 fa 3d 14 f5 2b 3e 22 7b df 3b 95 d8 66 be
       0.12230014 0.16792709 0.0068200985 -0.22543557
0000d0 9d ed 3d be 88 c3 1a be a9 49 a5 bd 98 5b 11 bd
       -0.18547674 -0.15113652 -0.0807069 -0.03548774
0000e0 29 70 2b bb 3e a4 33 bc 72 55 85 bd 86 f0 6c 3c
       -0.0026159382 -0.010964451 -0.06510438 0.014461642
0000f0 0b bd 45 3c f2 16 35 3d e1 d4 cc bd ad 41 75 3e
       0.012068997 0.044211335 -0.10001541 0.23950835
000100 93 f5 06 3e 88 35 c7 39 4c 13 35 3e 36 b2 98 3d
       0.13179617 0.00037996122 0.17683142 0.07455866
000110 fc 92 2c be 35 f2 d3 bd 35 2c 30 bc 4a 4a 4e bd
       -0.16852945 -0.10348932 -0.010752727 -0.050363816
000120 aa 1e db 3c f7 fb 8e 3d c8 52 80 bd 46 4f 18 bd
       0.02674802 0.06981652 -0.06265789 -0.037184976
000130 b0 f2 ff 3d 2a 58 3f 3b 3e 80 25 be ab e4 28 be
       0.12497461 0.0029196837 -0.16162202 -0.1649348
000140 e2 18 4a 3e 5e 1f 84 ba 6b f2 9f ba 67 eb 91 ba
       0.19736055 -0.0010080149 -0.0012202983 -0.0011132777
000150 3d 9f 78 ba 92 76 ba ba 80 83 c2 ba ff ae 56 ba
       -0.00094841776 -0.001422601 -0.0014840215 -0.00081895286
000160 4a 16 ab ba f5 50 ae ba 66 b0 77 be 71 49 08 be
       -0.0013052907 -0.0013299274 -0.24188384 -0.13309266
000170 84 cd 8a bd a2 08 c3 bd fe 20 3c 3e 2e 7d d2 3b
       -0.0677748 -0.09523131 0.1837196 0.006423614
000180 84 4a 48 3e 91 59 60 3e 60 62 0b 3e db ad 85 3c
       0.19559675 0.21909167 0.13611746 0.016318252
000190 1f 5f 98 3c bd ae 6e 3c 18 82 7c 3c 92 d3 9a 3c
       0.018600045 0.014568028 0.015411876 0.018899713
0001a0 19 31 93 3c 0b 09 36 3c e8 d1 6e 3c 2e 79 8a 3c
       0.017967748 0.011110554 0.014576413 0.016903486
0001b0 a3 d8 9a bc 3a 5c 9d bd 69 4b af bd c1 d2 8d 3d
       -0.018902129 -0.076836064 -0.08559305 0.06924964
0001c0 1e af 52 3e 9c 28 d7 3d 04 d2 a0 3d b8 57 3e 3e
       0.20574614 0.105057925 0.07852557 0.1858815
0001d0 d1 9d 24 3e 00 5d 09 22 ee 6d 11 22 42 af a4 20
       0.16075827 1.8616196e-18 1.970936e-18 2.7898657e-19
0001e0 ca 26 b8 20 63 c8 a1 21 42 e1 54 24 12 b0 04 20
       3.119648e-19 1.0962826e-18 4.6160973e-17 1.1239092e-19
0001f0 a3 80 34 1f 90 94 4b 24 da c3 2e 3d 98 b6 08 3d
       3.822289e-20 4.4144446e-17 0.042667247 0.03337726
000200 fd d6 83 bd d1 59 3d 3d 58 2f 07 3e d6 40 ad 3c
       -0.0643749 0.046228234 0.13201654 0.02114908
000210 85 e1 88 3c 9a 5e 9a bd 1b 8b 72 3d 0b 1b 1b bd
       0.016709099 -0.07537575 0.059214693 -0.037867587
000220 ff a2 fe 3d 31 44 be bc c8 09 e5 bd 32 b9 30 3d
       0.12433433 -0.023225876 -0.11183506 0.043145366
000230 4c be 75 be 7b 10 a2 be bf 5d 90 bd 9f a4 0d be
       -0.23998374 -0.316532 -0.07049131 -0.13832329
000240 20 b4 6b bd 70 6e 96 be 2f 1e a1 3a 2b 03 fa 3d
       -0.057544827 -0.29381132 0.0012292321 0.122076355
000250 2f 0d ea 3d d5 fe f1 3c c1 69 6d 3d 08 68 9f 3d
       0.11428296 0.029540459 0.057962183 0.07783514
000260 c9 6f 4f bc 5f 90 25 3c 22 c6 1a 3c 73 11 06 3c
       -0.012660929 0.0101052215 0.009446653 0.008182871
000270 36 f2 22 3c 42 c2 51 3c 14 5c 21 3c bf b5 10 3c
       0.009945443 0.012802662 0.009848613 0.008832394
000280 cb ee 1f 3c 97 3d 1c 3c 93 ac 0a 2b 0e b4 22 2c
       0.0097615225 0.009536169 4.9266944e-13 2.3121535e-12
000290 15 20 19 2b de bb 86 27 0f 2e a3 29 26 93 2c 2a
       5.440104e-13 3.7396157e-15 7.246644e-14 1.5327721e-13
0002a0 2e f8 15 23 8b ae e9 26 d6 00 29 29 12 5e 54 10
       8.12986e-18 1.6214933e-15 3.7526263e-14 4.1882097e-29
0002b0 dd 87 e0 10 4b 32 f2 10 11 dc 0a 10 e5 25 95 10
       8.856175e-29 9.552966e-29 2.7385234e-29 5.8828523e-29
0002c0 cd 7b c0 10 7f 7a 6d 10 39 91 9e 10 a2 92 f6 10
       7.592139e-29 4.6834376e-29 6.254376e-29 9.7255815e-29
0002d0 f7 32 90 80 2f 20 72 80 40 45 69 80 27 b5 69 80
       -1.3242594e-38 -1.0480792e-38 -9.66757e-39 -9.707712e-39
0002e0 71 b6 51 80 ff 5e 58 80 45 4d 73 80 6c fa 75 80
       -7.504123e-39 -8.115602e-39 -1.0588801e-38 -1.0834587e-38
0002f0 53 81 66 80 1e e0 ce 3d 63 fb d1 3d 39 4b e6 bd
       -9.413613e-39 0.10101341 0.10253026 -0.11244816
000300 c0 a8 75 3e 49 a1 a0 3d fa 2f ec bb 94 61 56 bd
       0.23990154 0.07843263 -0.0072078677 -0.05233915
000310 9e fd 10 be 89 00 52 be 8b ed 7c 3e 1b 20 9d 3c
       -0.14159247 -0.20508017 0.2469999 0.019180348
000320 3d 50 fe bd 1e 09 f9 bd 6b 57 c5 bd e3 87 d4 bd
       -0.12417648 -0.12159942 -0.09635814 -0.10377481
000330 aa 31 2a be 78 63 1e be b9 a5 54 bd 60 14 19 be
       -0.16620508 -0.15467632 -0.051915858 -0.14949179
000340 b5 47 96 3d d8 ad 56 3c 08 90 3f bc 78 52 ac 3d
       0.07337896 0.013102971 -0.011692055 0.08414167
000350 6e eb 16 3e c2 cb 80 be 3b fa 29 be d7 36 23 3d
       0.14738247 -0.25155455 -0.16599362 0.03984722
000360 ca 44 72 9d da 72 7c 9c 04 e4 54 9a 6b f3 09 97
       -3.2063996e-21 -8.352825e-22 -4.4024762e-23 -4.4574324e-25
000370 cc d4 de 99 82 e9 69 9c 9e 2f dd 8e 49 ed a5 96
       -2.304021e-23 -7.7395035e-22 -5.452656e-30 -2.6806936e-25
000380 1c ef 59 9a 89 70 8e 3b e3 17 3e bb 72 89 2a bb
       -4.50677e-23 0.0043469113 -0.0029005937 -0.0026021865
000390 a2 cb 11 be c9 ed fc 3d b9 cd d4 3d 52 0f 80 be
       -0.14237836 0.123500414 0.10390801 -0.25011688
0003a0 94 df c3 bc 28 5f 1b 3e 70 f4 f0 3b cc 9e 39 be
       -0.023910321 0.15173018 0.007353358 -0.18126982
0003b0 83 c9 20 bd 46 8a 62 bc 83 28 f6 3d 03 14 1a 3d
       -0.039254677 -0.013826912 0.12019446 0.03761674
0003c0 b5 30 2f be 46 65 9b 3d 36 a6 a0 bc b1 86 63 3e
       -0.17108424 0.07587676 -0.019610506 0.2221935
0003d0 25 df 39 3e f8 48 b5 3b 71 0a 67 3c e6 9a 2c 3e
       0.18151529 0.00553238 0.0141016105 0.16855964
0003e0 78 47 a2 3d d2 91 9a be 8a 96 cd 3d 46 ed 78 3c
       0.07923788 -0.30189377 0.10038479 0.015193289
0003f0 01 b8 ed bc ff 04 8d bd 57 80 5d bd b6 4b de bd
       -0.029018404 -0.068857186 -0.054077473 -0.108542845

conv3.bias f4 [128]
000000 ce a3 03 bd b0 d5 4c 3d e8 78 47 3e a6 ea 3d b8
       -0.03213864 0.050008476 0.19479716 -4.5279645e-05
000010 50 dd 25 bb 5a f0 d5 bd 6e c8 d6 b6 aa b7 9d bc
       -0.0025308914 -0.10446234 -6.40103e-06 -0.019252617
000020 3e eb 99 bd 5f 1b 2e 3d 1f 7c 8c bc 7f dd 63 bd
       -0.07515572 0.04250657 -0.01714903 -0.055631157
000030 47 43 f7 3d c5 54 69 3e 24 ad f5 3d 76 46 66 3d
       0.12073379 0.22786243 0.119959146 0.05621954
000040 64 0d 43 ba 0f 5b 1f 3e bd 8c 94 3e 7e 29 06 be
       -0.0007440655 0.1556208 0.29013625 -0.13101766
000050 cd 5c 8a 3b 34 20 a2 3d 4d 44 3b 3e c8 d6 cd bc
       0.0042224885 0.079162985 0.18287773 -0.02512683
000060 6f e7 82 3d e1 0f 47 bb 85 a9 d6 3d 51 3f 64 ac
       0.06391799 -0.0030374455 0.10481552 -3.2435896e-12
000070 25 00 c8 3d 92 67 58 bd 80 67 ee ba e6 75 f5 bd
       0.097656526 -0.052833147 -0.0018188804 -0.11985378
000080 e1 8e 0b bd 0c f9 af 3e af 01 40 b4 12 9a 41 3e
       -0.034071807 0.34369695 -1.7882006e-07 0.1890643
000090 04 49 27 bd a7 0c 39 bb 84 a2 ab 3e 85 14 5f ac
       -0.040841118 -0.00282363 0.33522427 -3.1701597e-12
0000a0 0b 7b e8 3c d0 1a 1c 3e 23 28 85 3e bd 2a bc 3d
       0.028378984 0.15244603 0.26007184 0.09187839
0000b0 9c 8d 6e 3e 91 fb b8 3d 4d 68 4f 3c c5 e4 85 3d
       0.23296207 0.090323575 0.012659145 0.06537775
0000c0 07 4c c7 3e b6 7b 85 3e 6a 51 c3 bc 34 b4 81 3d
       0.38925192 0.26070946 -0.023842532 0.06333199
0000d0 83 02 8b 3c b1 35 30 3d ae 1b 15 bd a0 24 28 bd
       0.016968971 0.043019954 -0.03640335 -0.041050553
0000e0 dd 14 ba bc f9 14 a9 bc 3e 02 dd 3d 6d 4f 19 bc
       -0.022715027 -0.020639883 0.10791443 -0.0093573155
0000f0 9d 3c fd a4 56 a7 a7 3b 1b 32 12 bd 9e 74 20 3e
       -1.0982394e-16 0.0051163835 -0.035692316 0.15669486
000100 81 36 fd bc 90 75 01 bc b5 4a 47 b9 61 16 82 3e
       -0.030909779 -0.007901564 -0.0001900595 0.254077
000110 96 aa 0b 3e bd 1d bb bc 88 2f 29 bc 81 70 44 bd
       0.13639292 -0.022841329 -0.010326274 -0.047958855
000120 eb 07 eb bb e6 a7 f5 bc 36 6b 23 bd ae 9a ad bc
       -0.0071725748 -0.029987287 -0.039897166 -0.021191921
000130 ed a7 5f 3e 49 de c8 3d c5 5c 9a 3d c4 81 25 bd
       0.21841402 0.098080225 0.07537226 -0.040406957
000140 b8 7a 8e bd dd b7 55 3d 15 b6 da bc 97 eb 32 3e
       -0.069570005 0.0521773 -0.026698152 0.17472683
000150 f3 c8 aa 3d 98 aa 31 be 4e c9 2c 3e 99 e4 83 3b
       0.08339109 -0.17350233 0.16873667 0.0040250537
000160 91 da f3 b3 45 18 94 3c 44 22 c5 bd b9 60 4a 3d
       -1.1355326e-07 0.018077979 -0.09625676 0.04940865
000170 c0 4b a0 3d 57 cf 1b 3e 89 31 26 3e 4d a1 fb 3d
       0.07826948 0.15215813 0.16229834 0.12286625
000180 d9 a1 3e 3e 7f c3 0f bd aa f1 2c bd 5d 4f eb b5
       0.18616427 -0.03509855 -0.042222656 -1.7531962e-06
000190 97 f9 21 3e fe 4b 3d 3d 55 39 a6 3d 32 49 f9 3d
       0.15817867 0.04621505 0.08116404 0.12172164
0001a0 14 b6 50 ba a1 be b2 bc de 25 20 bd 14 98 de 9b
       -0.0007961702 -0.021819415 -0.039098613 -3.6825097e-22
0001b0 7c 67 87 bc 40 8a b0 3d a7 d6 33 bd 7e d9 b2 bd
       -0.016528837 0.08620119 -0.04390588 -0.087328896
0001c0 a6 4c 01 bc 44 e4 4d bc 6f 3c af b2 bb 59 3c 3e
       -0.00789181 -0.01256663 -2.0400163e-08 0.18393604
0001d0 8e ad e2 bc dc 00 e6 3d f1 94 33 bd 55 32 87 bd
       -0.027670648 0.11230633 -0.043843213 -0.06601397
0001e0 80 00 8d 96 c0 61 4c bb f8 68 5d 3e 04 46 06 3c
       -2.2780094e-25 -0.0031186193 0.21622074 0.008195404
0001f0 d7 1b 3a 3e 84 cb 7a bd a9 97 55 3e 35 d8 f8 bc
       0.18174683 -0.061229244 0.20858635 -0.030376533

fc.weight f4 [10, 1152]
000000 10 eb d2 3e ea 99 d3 3d ec 93 d9 bd fc ba f8 3e
       0.41194963 0.10332091 -0.10623917 0.48580158
000010 cc 4f 9c 3d 79 14 9e bd c5 4e df 3e 8e 9d a8 3d
       0.076324075 -0.077187486 0.43614784 0.08233176
000020 e4 5a 59 3b 72 72 e3 bc ca 2c 3a bd 99 11 82 3d
       0.0033165747 -0.027764533 -0.04545287 0.06351013
000030 56 31 4c bc 58 a8 01 be 38 df 03 bd 7d ed 5d 3d
       -0.0124629345 -0.12661874 -0.0321953 0.054181565
000040 22 3c ce 3b 7c 0c 59 bd e6 4a 17 be 55 02 83 be
       0.0062937895 -0.05299042 -0.14774665 -0.25587717
000050 b1 58 a1 be 06 ba 3f 3d 47 0f 15 bc a9 b3 d6 bd
       -0.3151298 0.046808265 -0.009097881 -0.10483486
000060 2c d9 22 3e 44 51 3b 3e 25 18 1c 3e 1d 76 a4 35
       0.15903157 0.18292719 0.15243585 1.2253328e-06
000070 0a 63 58 36 b4 9a e9 35 0b 7c 42 36 a8 41 99 36
       3.2244157e-06 1.7404877e-06 2.8980455e-06 4.5673987e-06
000080 5b 2c 73 36 af 30 2f 36 ca fd 9d 36 7b 0a 56 36
       3.623564e-06 2.610537e-06 4.7085096e-06 3.1894585e-06
000090 86 a2 4f be a4 40 53 be 7b 6c 0e bd cb 38 7a be
       -0.20276842 -0.20630127 -0.034771424 -0.24435727
0000a0 01 bd d5 bd f9 1b 36 3d d5 f3 8d bd a6 87 97 3d
       -0.1043644 0.04446027 -0.06931273 0.0739892
0000b0 92 3e 84 bc 1a 00 fb 3d eb 11 00 3e 05 e4 31 bc
       -0.016143117 0.12255879 0.12506835 -0.010857587
0000c0 a2 1f 97 3d c9 e8 0c 3e 92 b0 e4 3d c1 93 96 3d
       0.0737908 0.13760675 0.111664906 0.073524006
0000d0 57 33 89 3d 41 7d 9e 3d 11 aa 49 b9 be bd b2 b8
       0.066992454 0.07738734 -0.00019232208 -8.523044e-05
0000e0 9b 0b 74 b8 6f 7c be b8 8e f2 48 b8 6b 6b a9 b7
       -5.818494e-05 -9.0830836e-05 -4.7909612e-05 -2.019639e-05
0000f0 ab e1 14 b7 1b ed c3 b6 45 0f 30 b6 5d 7e 00 3d
       -8.87403e-06 -5.8390556e-06 -2.6234932e-06 0.03137051
000100 32 a5 f9 3c 05 b4 dc 3c f3 9e 2a 3d eb 8f 16 3d
       0.03047428 0.026941309 0.041655492 0.036758345
000110 8a ad 03 3d 92 5c 21 3d ba bc f6 3c 8a c3 d0 3c
       0.03214792 0.039394923 0.030119289 0.025483865
000120 16 ef b2 bd ec 63 29 bc 9a 96 d6 3d f1 94 1f be
       -0.08737008 -0.010338765 0.10477944 -0.1558416
000130 b7 66 b9 bd 1b 3f f6 3b 2c fc a3 bd 4b 00 04 3e
       -0.090527944 0.007514847 -0.08007082 0.12890737
000140 c9 b3 41 3e 87 25 e5 bd 96 db 49 bd 1e 6e 3f bc
       0.18916239 -0.111887984 -0.04928168 -0.011683969
000150 21 ad 42 be 61 0d 3c 3d e1 be c5 bb 76 b7 2c be
       -0.19011356 0.045911197 -0.0060347174 -0.1686686
000160 61 5b 5c bd aa 74 17 bd a9 d6 18 be 0d 45 27 bd
       -0.053798083 -0.036976494 -0.14925636 -0.040837336
000170 98 49 87 bb 16 2e b4 bd 57 ed 57 3d ae a9 1b 3e
       -0.004128646 -0.08797853 0.05271658 0.15201446
000180 cb 53 8b bd 6a 8c e7 3d f8 3b ce 3d 7d 16 2d be
       -0.068030916 0.11306079 0.10070032 -0.1690311
000190 aa be f2 bd 94 75 db bb be cc 94 be 80 eb 8b be
       -0.118527725 -0.006697366 -0.29062456 -0.2732811
0001a0 09 3c 08 be 91 4f 7a be f1 61 87 be 34 1a 38 be
       -0.13304152 -0.24444415 -0.2644191 -0.17978746
0001b0 52 b1 45 be b0 f0 52 bd 5f 6e 15 3c da 78 d5 bc
       -0.19305924 -0.05149907 0.009120553 -0.026058603
0001c0 8e ce f3 3c 04 91 cd 3c eb 85 bf 3c 3f bb 96 3d
       0.029761579 0.025093563 0.023379287 0.07359933
0001d0 a9 9a 9d 3d de 53 1c 3d bf 9b 48 bb f4 7b f5 3d
       0.07695515 0.03816592 -0.003061041 0.11986533
0001e0 1c 74 38 3c a5 1d a3 bb 1a 45 16 3d 94 cc a0 bd
       0.011258151 -0.004977899 0.036686994 -0.0785152
0001f0 7b b4 14 3d 29 22 70 3d 4d 4d 01 3e 01 71 15 3e
       0.036304932 0.058626328 0.12627144 0.14593889
000200 0e 07 e0 3c 11 3a 48 be 66 cc 97 be 04 15 fd bd
       0.027347114 -0.195534 -0.2964813 -0.12357524
000210 f9 2e 10 be bc ae 1b be 9a 16 1e be fb 3d e2 bc
       -0.14080419 -0.15203375 -0.1543831 -0.027617445
000220 f0 e4 48 3c 3b 79 ba 3d f2 42 0e 3d 1d aa 54 3d
       0.012261614 0.09105154 0.034731813 0.051920045
000230 89 ed 1f 3d 37 0d bb bc fb 86 a8 bd 03 df a9 bd
       0.03904489 -0.02283345 -0.082288705 -0.08294489
000240 c5 51 64 14 1f 1c 67 0f 7c 9a 0e 07 46 19 38 15
       1.15271845e-26 1.1394595e-29 1.0728292e-34 3.717844e-26
000250 35 1a 02 13 a9 13 72 10 b5 73 3f 84 96 d8 62 83
       1.6421228e-27 4.774123e-29 -2.2505072e-36 -6.666406e-37
000260 ba 26 b2 82 34 2a c7 bb 5e ff c1 bd df 77 02 be
       -2.6176977e-37 -0.006078029 -0.094725356 -0.1274104
000270 9d 32 c5 bc ac a9 01 be be 9e 18 bb d9 c7 d2 3d
       -0.024071986 -0.12662381 -0.0023287977 0.10292024
000280 c4 f3 a4 bc bd 8f 1b 3e 34 4b ee be 15 2e 75 be
       -0.020135768 0.1519155 -0.4654175 -0.2394336
000290 6f 68 e7 bd 19 32 87 be e9 24 da bd 61 4d 2c bd
       -0.11299216 -0.2640541 -0.10651571 -0.04206598
0002a0 bd 93 2c be 74 dd fa bd 72 bc 44 bd b6 ef a5 3d
       -0.16853233 -0.1224927 -0.048031278 0.08102362
0002b0 98 0d ae bd c1 5e 80 bd 92 5b 3b bc c6 a8 22 bd
       -0.084986866 -0.06268073 -0.011435406 -0.039711736
0002c0 ec 59 d1 3c a1 9a 1b 3e b2 f0 03 3e 98 5d 51 3d
       0.025555573 0.15195705 0.12884787 0.05111465
0002d0 4d 53 84 3e da 6a 9c 3d e1 f2 33 be 91 11 8c 3e
       0.25844803 0.07637568 -0.1757312 0.27357152
0002e0 5e 83 0e 3e f6 f3 a3 bd 01 9c 7f 3e be 8a 95 3d
       0.139173 -0.08005516 0.24961855 0.073018536
0002f0 c1 71 c4 bd 88 60 22 3e 2e 7f 0c 3e fe eb 44 3e
       -0.09592009 0.15857136 0.1372039 0.19230649
000300 54 1b c6 bd 4c d7 82 bd 1d 3b d3 3c 3e f1 82 bc
       -0.09673181 -0.06388721 0.025785023 -0.015984174
000310 4f df c4 bd 6f 71 1a 3d dc 82 7b 3d 3b 19 1c bd
       -0.09612905 0.037705835 0.061404094 -0.03811
000320 73 58 bd 3c db 29 04 bc 95 1f af bd f2 ef 15 3d
       0.023113465 -0.00806662 -0.08550946 0.036605783
000330 05 81 19 3b a5 e6 22 bd 36 28 e2 3d 10 f3 45 be
       0.002342285 -0.03977074 0.11042826 -0.19331002
000340 6e 6b dd bd a8 32 f9 bd 5b ee be 3d 81 d3 eb bc
       -0.10811506 -0.12167865 0.093228064 -0.028787376
000350 4d 00 ea bd 64 61 2e 3e 1b cf 93 bd 2a 16 4c bd
       -0.114258386 0.17029339 -0.072172366 -0.049825825
000360 04 fa 99 3d a5 fa 20 be 05 6d fe bd 6a 22 40 3b
       0.0751839 -0.15720613 -0.124231376 0.0029317387
000370 5b bd 94 bd d4 44 aa bd f9 cb 38 be ad 50 e5 bd
       -0.07262679 -0.08313909 -0.1804656 -0.11197028
000380 c2 7d ed 3d ad a9 68 3c 35 8c 4b 3c fb 4d 45 3c
       0.11596252 0.01420061 0.012423565 0.012042518
000390 a6 7a 56 3c a4 b3 4c 3c ac b6 44 3c 15 6b 82 3c
       0.013090765 0.012494002 0.012006443 0.015920201
0003a0 db bf 32 3c 01 cd 5c 3c 2f 6d be bd 59 16 7f bd
       0.01091 0.013476611 -0.09298169 -0.06227717
0003b0 58 bf 93 bd 71 75 48 be 62 89 fe bd 1e d4 f6 bd
       -0.0721423 -0.1957605 -0.124285474 -0.12052177
0003c0 63 3e af be 41 93 78 be 56 75 1f be cd 2d ef 00
       -0.34227285 -0.24274923 -0.15572104 2.1965114e-38
0003d0 fa 02 25 01 9f d2 94 81 0c 51 49 81 8b 12 f7 80
       3.030785e-38 -5.466884e-38 -3.6976018e-38 -2.269002e-38
0003e0 66 f3 ad 80 e3 23 40 00 04 5b b1 81 41 70 9a 00
       -1.5974856e-38 5.890345e-39 -6.515013e-38 1.4182936e-38
0003f0 48 22 a5 be 9a 2c 63 be 4c 61 eb bd d9 5d 2b be
       -0.32252717 -0.22184983 -0.11493167 -0.16735019

fc.bias f4 [10]
000000 24 ca 63 3d f8 27 09 be e2 d7 ff bd 46 18 cc 3d
       0.0556127 -0.13394153 -0.12492348 0.09965567
000010 82 0c 7a 3e af cf f7 bc 48 2a 9f 3c 89 55 0e be
       0.24418834 -0.030250398 0.019429341 -0.13899817
000020 0b 69 8c 3d 8d 03 a2 bd
       0.06855973 -0.079108335
