models/CIFAR10/cnn_params=025k_seed=025/099.pth (torch, 102615 bytes, 10 tensors)

conv1.weight f4 [80, 3, 5, 5]
000000 bc 8c 2e 3e 69 b2 08 3d 33 5d e6 bd 39 30 90 3d
       0.17045873 0.03337327 -0.11248245 0.07040448
000010 5c ec 75 3a c1 b2 88 bd 20 1b 1d 3e 76 52 fb 3d
       0.00093812286 -0.066747196 0.15342379 0.122715876
000020 a6 5b be 3d 8f b9 2d 3e 54 a1 0d bd 12 17 de 3c
       0.09294824 0.16965316 -0.034577683 0.02711061
000030 16 b8 2f 3e 17 4c 83 3e 63 32 94 bb 88 45 35 3e
       0.17160067 0.2564399 -0.004522608 0.17702305
000040 19 bf 8b bb ad 7f c1 3d 86 ee 34 3e 38 4f f6 3d
       -0.004264724 0.0944818 0.17669114 0.120268285
000050 c7 e9 2a be 55 4b af bd c1 c1 f3 3d cc 41 db 3d
       -0.16690741 -0.0855929 0.1190219 0.10705909
000060 9b d3 61 3c 9a 04 dc bd 4e 6b 8a 3d a1 2a 51 be
       0.013783361 -0.10743065 0.06758748 -0.20426418
000070 da 84 02 be 56 76 db bc 86 db 86 be 62 20 ec 3c
       -0.12745991 -0.026789825 -0.26339358 0.028824035
000080 c2 da eb 3b e9 30 6c 3d 48 4d 24 3e 99 ce 26 be
       0.007197709 0.05766383 0.16045105 -0.16289748
000090 49 65 b3 bd 59 9e 9e bd f5 23 12 be 6c 2f f6 bc
       -0.08759553 -0.07745046 -0.14271529 -0.03005191
0000a0 a6 eb b9 bd e8 11 63 be 73 9f 31 be 9d 05 ed bd
       -0.090781495 -0.221748 -0.17345981 -0.11573336
0000b0 3a 96 4d be e6 78 52 be c3 70 4e be 47 15 14 bd
       -0.20076838 -0.20553932 -0.20160203 -0.036153104
0000c0 70 96 6a 3b 5f f5 5b bc e5 a3 eb 3c e8 f1 09 3e
       0.0035795234 -0.0134252 0.028764674 0.13471186
0000d0 0b f2 e3 3c b7 41 25 be 65 76 88 bd b7 90 12 be
       0.027825376 -0.1613835 -0.06663207 -0.14313017
0000e0 8a dc db 3d b6 6d ff 3d b7 94 01 3e 32 b1 15 3e
       0.10735424 0.124720976 0.12654386 0.14618376
0000f0 4e 6a 25 bd f9 f6 ee bd d0 75 09 3c 1d 26 19 be
       -0.040384583 -0.116682 0.008389905 -0.14955945
000100 90 39 94 bd 2a fa 6c 3e 21 85 d8 3c d4 7e e3 bc
       -0.07237542 0.23142305 0.026430668 -0.027770437
000110 6a aa 1d be 0c 9e e5 bd bb 3d 0f 3e a9 57 89 3d
       -0.15397039 -0.11211786 0.13988392 0.06706173
000120 03 e2 7c bc 50 bb d8 3d f8 41 29 3e 01 a6 3b 3e
       -0.015434745 0.10582602 0.16529071 0.18325044
000130 27 01 3a be 54 8d 01 be 43 4a 18 3e 13 20 3f 3d
       -0.18164502 -0.12651569 0.14872079 0.046661448
000140 95 76 d9 3d e6 a0 fd bb 11 92 2b be 2f fb bd bc
       0.10618321 -0.007740128 -0.16754939 -0.023191063
000150 ad 39 7e 3d 50 30 d3 bd 8e b3 42 3d 99 ac a4 3e
       0.062066723 -0.10311949 0.047534518 0.32162932
000160 3d 35 44 bd 84 1f 53 be 2c bd 29 be 81 91 b5 3d
       -0.047902334 -0.20617491 -0.1657607 0.08865643
000170 44 f9 3d 3e 89 71 b9 bc 5f 5f c2 bd 05 3e 6e 3d
       0.18552119 -0.022637146 -0.09490847 0.058164615
000180 d8 86 48 3d cb b2 32 be 50 ca 29 bd 90 fc 03 3e
       0.048956722 -0.17451017 -0.041452706 0.12889314
000190 99 57 52 3e c1 8e 40 be 09 6e 86 be b8 0c 11 3e
       0.20541228 -0.18804456 -0.26255825 0.14165008
0001a0 d1 e1 07 3e 20 92 9a bb 7e 29 cf bb 43 70 24 be
       0.13269736 -0.0047171265 -0.006322085 -0.1605845
0001b0 b3 a5 ea bc 3c f5 12 3e 2c d4 3d be 03 8a 14 3e
       -0.028643465 0.14351362 -0.18537968 0.14505772
0001c0 1c 0b 99 3e e0 81 ce bc 9a 1a 70 be ba 91 d7 bd
       0.29891288 -0.025208414 -0.23447648 -0.10525842
0001d0 7d 9e df 3c 52 0f 49 3e 8f ad 98 bd 94 cf e2 bd
       0.027297253 0.1963475 -0.07454979 -0.11074749
0001e0 9e bd 0f 3d 20 91 1c bd 4f 8b 4c be 0c 33 52 bd
       0.035092942 -0.03822434 -0.19975017 -0.051318213
0001f0 3a 12 ba 3d ec e2 93 3d 58 81 6a be 40 a6 91 be
       0.09085508 0.07221016 -0.22900903 -0.2844715
000200 85 e8 ed 3d f7 0b 4b 3e 52 e0 f4 3d f3 4d ec bd
       0.11616615 0.19828783 0.11956848 -0.11538305
000210 7d eb f0 bd f5 2d e0 3c c9 32 35 3e 36 02 13 be
       -0.11763666 0.027365664 0.17695154 -0.14356312
000220 cd 80 c0 3d ff a0 a6 3e ff 4c 1b bd c0 41 89 be
       0.09399567 0.32544705 -0.037915226 -0.26807976
000230 bf 72 1f be 8e 76 05 3e 4b db 82 3e 2b fe 86 bd
       -0.15571116 0.13033506 0.25557932 -0.065914474
000240 a4 03 ec bd 51 30 17 3e 2c 30 c8 3d 84 21 56 be
       -0.11524132 0.14764525 0.09774813 -0.20911223
000250 a0 37 1e bd 4a 26 ae 3d 77 6e 5d 3c 5c b6 fe bb
       -0.038627267 0.08503397 0.013515106 -0.007773204
000260 8f 0d ce 3d 42 c2 bb 3d c0 ab 89 3e 99 1a 1f 3e
       0.1006118 0.09167911 0.26888847 0.1553749
000270 13 9d 4b 3e 5e 33 51 3e 8c 4e c7 3e c6 d2 8a 3e
       0.19884138 0.20429751 0.38927114 0.27113932
000280 c0 39 80 bc 5a a3 06 3e d1 fc 87 3e bc 79 ba 3e
       -0.015652537 0.13148251 0.2656007 0.36421
000290 62 70 0b 3e 92 d6 aa 3e 4b 57 b9 3e 3f f1 e7 3e
       0.1361709 0.3336683 0.36199412 0.45301244
0002a0 f6 fa 0f 3e 99 d5 84 be f9 c0 36 3e 20 91 be 3d
       0.14060578 -0.25944212 0.1784705 0.09305024
0002b0 31 55 a2 bd bf 2e 9b be 0d 0e b3 be 5e e9 77 be
       -0.07926405 -0.30309102 -0.34971657 -0.24210116
0002c0 f4 54 bc bd e2 50 28 be fa 65 00 be 79 2f 15 3e
       -0.09195891 -0.16437104 -0.12538901 0.1456889
0002d0 61 bd 94 bd c8 f3 3e bd e3 9c e6 bd 48 14 19 bd
       -0.07262684 -0.046619207 -0.112603925 -0.037372857
0002e0 b6 ef d1 3d a4 09 cf bd 36 9b cb bd d2 fa 29 be
       0.10250799 -0.10109261 -0.099417135 -0.16599587
0002f0 fa 46 d6 bd 89 d5 b4 be 85 0d 64 3e 82 e5 33 3e
       -0.104627565 -0.35319164 0.22270782 0.17568019
000300 6f e5 92 3d 37 d2 b0 be 60 d0 2d bf 67 54 e2 3d
       0.07172667 -0.3453538 -0.6789608 0.11051255
000310 ce c7 8b bd fa 9f ad be 8e 6c 3e bf df 20 2a bf
       -0.06825219 -0.33911115 -0.7438439 -0.6645641
000320 a4 06 d5 bd d3 4a 74 3c 27 9a 12 3e e6 b6 84 3d
       -0.10401657 0.014910418 0.14316617 0.064801976
000330 9b 99 62 3e 09 8e 16 bd 3a 55 8e 3c f3 a3 13 3d
       0.22128908 -0.03675655 0.017374624 0.036045026
000340 27 71 1c 3e 21 ef 8a 3e 3a e9 1c 3e 0e 97 fe 3b
       0.15277539 0.27135566 0.15323344 0.007769472
000350 b9 85 a7 3d d9 49 1f 3e ee 21 fa bd 24 eb b6 3e
       0.081798024 0.15555514 -0.12213503 0.35726273
000360 89 88 a6 3e ba 7a 46 3e 0f b2 55 be 41 2f 03 bf
       0.32526043 0.19382754 -0.20868705 -0.5124398
000370 dd e3 d0 3e 17 32 54 3e 6d bc 6e bd 72 b2 f8 be
       0.40798846 0.20722233 -0.058285166 -0.48573643
000380 a7 31 15 bf 46 ec f6 b9 83 5a 04 ba 47 2d 02 ba
       -0.5827889 -0.00047096814 -0.00050488877 -0.00049658533
000390 76 bd 07 ba d4 12 fa b9 73 6b fa b9 03 aa 05 ba
       -0.0005178073 -0.00047697744 -0.00047763772 -0.0005098881
0003a0 0f 32 01 ba 81 74 06 ba 55 45 eb b9 77 82 fa b9
       -0.0004928419 -0.0005129055 -0.0004487435 -0.0004778092
0003b0 09 b5 05 ba aa 0c fe b9 d5 01 05 ba f8 de ef b9
       -0.00051005237 -0.0004845609 -0.00050738204 -0.00045751757
0003c0 ff 0d 08 ba ca 12 0f ba 0c 05 08 ba 8e 90 03 ba
       -0.0005190074 -0.0005457817 -0.00051887403 -0.0005018794
0003d0 bd 34 e7 b9 46 a0 10 ba 6c 76 12 ba 27 77 06 ba
       -0.00044099046 -0.00055170467 -0.0005587104 -0.00051294494
0003e0 62 ef f8 b9 83 28 ca b9 08 fb c1 b9 82 4d d7 b9
       -0.000474806 -0.00038558626 -0.00036998861 -0.00041065743
0003f0 18 cb d5 b9 67 9e e5 b9 2f dd d9 b9 5c 25 bc b9
       -0.00040777843 -0.00043796303 -0.0004155426 -0.0003588599

conv1.bias f4 [80]
000000 80 66 01 3e 2b e9 1f 3d 1d aa 83 3e 08 1d 8b bb
       0.12636757 0.039040726 0.25715724 -0.004245404
000010 9c a4 09 bd c5 10 f8 3e ad c8 c9 3e 90 20 80 3d
       -0.03360425 0.48450294 0.39410916 0.06256211
000020 42 fd 94 bb 5b 33 40 be e8 41 80 3d 88 3c 64 3e
       -0.0045467922 -0.1876959 0.062625706 0.22288716
000030 0a 73 d7 3d 31 0e 25 be e9 c9 03 3e ed 6d 5e bd
       0.10519989 -0.16118695 0.12869991 -0.054304052
000040 60 5d c5 3d 3a c6 aa 3e 52 a3 20 bd aa f2 20 be
       0.096369505 0.3335436 -0.039218254 -0.15717569
000050 2f ae 20 3c 75 63 bb 3d e8 f5 38 3e c7 51 f0 3d
       0.009807154 0.09149829 0.18062556 0.11734348
000060 7a 32 d6 be aa 85 41 3e dd 42 07 be 14 f2 ad be
       -0.41835386 0.18898645 -0.132091 -0.33973753
000070 96 81 a7 3d cb 6b 41 be 64 8a 50 3d bd 6c 1c bc
       0.081790134 -0.18888776 0.05091323 -0.00954741
000080 4b e0 0c bc 4f 29 84 3d a7 6f 15 3d 5f f8 06 3e
       -0.0085983975 0.064531915 0.036483433 0.13180684
000090 25 b8 bd bd 17 e8 51 3d d6 0b c5 3e b2 ea 33 bc
       -0.092636384 0.05124673 0.38485593 -0.010981249
0000a0 bb c3 78 ac 40 d3 eb 3a f5 c4 13 3b 40 78 9c 3b
       -3.5351572e-12 0.0017992035 0.0022547815 0.004775077
0000b0 c0 b8 36 3e 16 e8 9b 3c a6 ac 4b be 13 a3 9a 3d
       0.17843914 0.019031566 -0.19890079 0.07550635
0000c0 03 77 56 3e 4c 66 11 bf e4 24 fe 3d 73 1e 12 be
       0.20943837 -0.5679672 0.1240938 -0.14269428
0000d0 88 14 02 be 86 c9 b1 3d 1a a2 49 be bd 51 02 3b
       -0.12703145 0.08681016 -0.19690743 0.0019885146
0000e0 92 bd 02 3e e5 41 a7 bd 03 a6 12 3e ba 22 9e bd
       0.12767628 -0.08166865 0.14321141 -0.07721467
0000f0 e6 76 a1 3c b8 80 d2 3b 2f 14 6a 3e 21 ed cf 3d
       0.019710016 0.006424036 0.22859262 0.101526506
000100 14 92 c5 3c fb ea 23 be 3b 29 4a 3a 1c 5e 4a be
       0.024117507 -0.16007607 0.00077118323 -0.19762462
000110 cf e7 b2 bc 92 a4 d0 3e 5f 69 2f 3e 8d 7c f2 3b
       -0.02183905 0.40750557 0.1713004 0.0074001015
000120 ff 69 a6 3d 12 b5 a3 3c 26 a8 94 3e 47 b0 d1 3e
       0.08125686 0.019983802 0.29034537 0.409548
000130 4e 27 af 3d 0d 91 35 bf ac b6 62 3d 3a 85 c8 3d
       0.08552419 -0.70924455 0.05534999 0.09791036

conv2.weight f4 [80, 1, 3, 3]
000000 72 1d 2a be 6f 7a b7 be 13 f9 e4 3d 0c dd 00 bf
       -0.16612795 -0.35835597 0.1118032 -0.5033729
000010 56 14 09 bf 1d f9 34 be 64 8b be be 78 51 e7 bd
       -0.53546655 -0.17673154 -0.37215722 -0.11294836
000020 24 e0 b0 bb bf df 52 3f 96 44 43 3f 60 1a 5a 3f
       -0.0053978134 0.8237266 0.7627653 0.85196495
000030 4f 7c 6e 3f 79 87 5d 3f 44 f7 57 3f b2 1a 2f 3f
       0.9315843 0.8653484 0.8436167 0.6840011
000040 2c 04 54 3f 86 ed ed 3e 02 c9 0c 3e d4 a1 13 3f
       0.82818866 0.46470279 0.13748553 0.57668805
000050 04 fb bd 3e 2a fa 9f 3e d2 dd 0f bc bd f5 d7 bd
       0.37105572 0.31245548 -0.008780913 -0.10544918
000060 30 bd dc be f1 2e 12 bf a9 13 9e be ec 5f d6 bc
       -0.4311309 -0.57102877 -0.30874375 -0.026168786
000070 0c d8 ba bc a2 ed b3 bc a8 98 c2 bc 42 42 ac bc
       -0.022808097 -0.021963898 -0.023754433 -0.021027688
000080 27 c3 a9 bc 44 f4 b0 bc ce f4 9b bc 2f 92 9c bc
       -0.020722939 -0.02160085 -0.01903763 -0.019112675
000090 bf 2d b3 be 24 4a 6b 3c 25 fa ee be ab d8 6c 3e
       -0.3499584 0.014360938 -0.4667522 0.23129527
0000a0 54 59 af 3e 2a f7 49 be 66 25 01 3f 18 13 a0 3c
       0.3424784 -0.19723192 0.5044769 0.019540355
0000b0 e8 91 08 be f9 9c 72 be 04 80 98 be 2c b3 1d be
       -0.13336909 -0.23692693 -0.29785168 -0.1540038
0000c0 6d 39 0e 3f af d7 5f 3e 67 8c 8d be 39 46 e1 3e
       0.55556375 0.2185962 -0.2764618 0.43998888
0000d0 41 d2 ea 3e 16 59 a8 3d 2a 7c b1 bf f8 6d 2c bf
       0.45863536 0.08220117 -1.3866017 -0.673553
0000e0 e9 60 93 bf 3c fe 16 bf 8d a6 89 be 3c 23 33 bf
       -1.151395 -0.5898168 -0.2688488 -0.6997564
0000f0 51 5b 18 bf 9c f4 bc bd e9 14 b7 be 6e fc b0 be
       -0.5951434 -0.09226343 -0.3575814 -0.3456759
000100 d5 b7 cd be 95 d9 cd be be 48 98 3e 17 8c aa 3e
       -0.40179315 -0.40205064 0.29742998 0.33310005
000110 da 84 a4 3d 8a 69 37 3f ef 52 5d 3e 60 f6 2e be
       0.08033152 0.71645415 0.21613668 -0.17086172
000120 82 3b bd be 95 83 10 bf b5 a5 0e bf 81 5c ec bc
       -0.36959463 -0.5645078 -0.557216 -0.028852703
000130 84 45 4e 3d bd 05 83 3c 12 ee 50 3e b7 a3 d2 3e
       0.050359264 0.015993947 0.20403317 0.4114053
000140 04 97 40 3e c4 58 f2 3c 0f ed f9 be 4a 4f f7 be
       0.18807608 0.029583342 -0.48813674 -0.4830268
000150 de 83 70 3d aa a1 99 3e 55 3c 1d be 5a f0 9e 3e
       0.05871951 0.30006152 -0.15355046 0.3104275
000160 71 e0 40 3d 02 37 fc 3c 10 22 82 3f b8 ce 7a 3f
       0.047089044 0.030787949 1.0166645 0.9797168
000170 f4 24 6a 3f 57 42 f6 3e 6a 4f 08 3f b0 00 a0 3e
       0.91462636 0.48097488 0.53246176 0.31250525
000180 e0 5b 9b 3e 98 80 1a 3f 44 43 d6 3d 58 10 f1 3e
       0.30343533 0.6035247 0.10462049 0.47082782
000190 ef 45 35 3e 43 02 24 3e 54 84 64 3f 7f 08 dd 3e
       0.17702459 0.16016488 0.89264417 0.43170545
0001a0 d3 b2 01 3d c1 b4 3c 3f 8f f9 ea 3e cb cd 83 3e
       0.03166468 0.7371331 0.45893523 0.25742945
0001b0 49 7c ce 3e a5 61 ed be 2a 6b 1d bf 5c e3 1c 3e
       0.40329197 -0.4636356 -0.61491644 0.15321106
0001c0 7c 2b b5 be e5 a7 5d 3e 91 8e 82 3e 0e 01 c5 3d
       -0.35384738 0.21646078 0.25499395 0.09619342
0001d0 59 f6 b5 3e 35 c8 98 3e 01 3a a1 3e fb 19 cb 3e
       0.3553951 0.29840246 0.31489566 0.3966826
0001e0 b9 11 8a be 76 f0 f2 bd 6a e5 ea 3d cd ba 1a 3e
       -0.26966646 -0.118622705 0.114695385 0.15110321
0001f0 17 03 8e 3e f4 03 b4 3b 07 ac 8b 3e 6a 72 8f 3d
       0.27736732 0.0054936353 0.27279684 0.070042446
000200 88 fb 42 be 39 50 82 3e 77 87 ee bd 96 5f cf be
       -0.19041264 0.2545183 -0.116469316 -0.40502614
000210 55 b5 00 3f 48 96 80 be 38 c8 ea be 87 df e2 3e
       0.5027669 -0.25114655 -0.4585588 0.44311163
000220 62 1f 84 3e 9a 24 a5 ba a3 ff bc 3e bc 23 cf bc
       0.25805193 -0.0012599409 0.36913785 -0.025285594
000230 d9 52 53 3d a9 99 93 bd 54 f9 d1 be 1d f1 b8 be
       0.05159268 -0.07207043 -0.41010535 -0.36121455
000240 45 6f 40 3d 7e b1 ca bd f5 51 ee b9 ca 55 c0 be
       0.046981115 -0.09897135 -0.0004545596 -0.37565452
000250 54 d2 08 be 28 0e 03 bf e5 b6 c6 be ae d8 a6 be
       -0.13361484 -0.51193476 -0.38811412 -0.32587188
000260 da 95 9e be ed 23 52 bf 5e cf 0e bf 4b e9 64 3e
       -0.30973703 -0.8208607 -0.5578517 0.22354619
000270 8c 37 13 bf 98 ea f2 be 64 c1 eb 3d 0c 59 c6 be
       -0.5750663 -0.47444606 0.11511496 -0.38739812
000280 34 6d 4f 3e 16 3e 42 3d 37 c0 83 3e f1 13 66 be
       0.20256501 0.04742249 0.25732586 -0.22468545
000290 be 71 49 be 51 76 da be cf 76 27 bf 07 57 25 bf
       -0.19672295 -0.42668393 -0.6541566 -0.6458592
0002a0 6c c8 4c be 06 44 2d be ab fc f5 be 5f b9 cd 3d
       -0.1999833 -0.1692048 -0.48044333 0.10045122
0002b0 0a 0a cb bd 3b 2b 09 bf c0 65 39 3e 5a cf 41 be
       -0.09914024 -0.5358159 0.18105221 -0.18926755
0002c0 90 98 f4 3d 06 05 ec be ce 02 27 bf ed 99 28 bf
       0.119431615 -0.46097583 -0.65238655 -0.6585987
0002d0 96 ab 2c bf 70 3e a5 bd 8b e2 92 be 23 cd ef be
       -0.6744932 -0.0806855 -0.28688464 -0.46836194
0002e0 12 eb 01 bf 29 c8 af be d1 49 16 bf bf 89 2b bf
       -0.50749314 -0.34332398 -0.58706385 -0.6700706
0002f0 9f 58 1b bf e5 12 4d be 0d c7 6b be 83 45 cd bd
       -0.606821 -0.20026739 -0.2302515 -0.10023024
000300 a9 e7 a6 3d 37 57 16 be e6 55 2f be 95 73 23 3f
       0.081496544 -0.14681707 -0.17122611 0.6384824
000310 13 28 e5 3e 79 7f 00 3f 7a c5 23 3d 52 80 21 be
       0.44757137 0.5019451 0.03998325 -0.15771607
000320 a4 5d 11 be 33 af e3 bd b9 d1 70 3e 84 04 2a be
       -0.14195877 -0.11117401 0.23517503 -0.16603285
000330 9c 6b 16 3e 92 b6 db 3e d4 34 eb be 8c c1 81 3e
       0.14689487 0.42912728 -0.45938742 0.25342977
000340 41 d6 b6 3e d7 e7 c4 3e 1b ff 83 3e 11 4c de 3e
       0.35710338 0.3845813 0.25780568 0.4341741
000350 0a 50 00 3f 1e a0 0a 3f b6 be 01 3f 10 18 73 3f
       0.5012213 0.5415057 0.50681627 0.9495859
000360 40 65 2c 3d 0f c3 6a be 21 29 91 3e c1 ff 21 be
       0.042088747 -0.22925971 0.2835169 -0.15820219
000370 dd d0 4d 3e 8a 08 ab be d4 48 b3 3e ae 60 81 3e
       0.20099206 -0.33404952 0.350165 0.25269073
000380 7e d9 db 3d 0b c7 83 bc 27 70 79 be d4 87 a0 3e
       0.10734843 -0.016086122 -0.24359189 0.3135363
000390 72 76 19 bf 0c d6 05 bf 0d 9f 92 3c da fa 97 3d
       -0.5994636 -0.52279735 0.017898107 0.07420893
0003a0 ec d4 4a 3e 4c 36 b8 3e 3e 1f e3 3d 2a ba 3f 3d
       0.19807786 0.35978925 0.11089943 0.0468084
0003b0 74 df c2 bd 18 60 49 be 60 89 bd bd 8b 06 4e 3e
       -0.095152766 -0.19665563 -0.09254718 0.20119683
0003c0 4f 4c 36 3e bc d7 62 be 30 f0 5c be cf 1d 98 3e
       0.17802547 -0.22152609 -0.21576 0.29710242
0003d0 58 db b0 3e 7f ad 56 3f 85 62 8e 3e a6 6b 7c bc
       0.34542346 0.83858484 0.2780954 -0.015406525
0003e0 ec f6 1c 3f 7b 9f 37 bf 03 a5 12 bf f5 51 a0 3d
       0.6131427 -0.7172772 -0.5728304 0.07828132
0003f0 80 39 e2 3e 3e c2 98 3e 06 ae de 3e 97 80 92 be
       0.44184494 0.29835695 0.43492144 -0.2861373

conv2.bias f4 [80]
000000 dd 3c b5 3e 1c 1a 4e bd 86 a9 c7 3d 08 66 98 bd
       0.35397997 -0.05031787 0.09749131 -0.07441336
000010 03 93 b4 3d 48 a4 3b be 32 a6 11 3e c1 30 59 bd
       0.08817103 -0.18324387 0.14223555 -0.05302501
000020 e0 f9 40 3e b7 b0 58 3e 58 0e 4c be 02 cf 5f be
       0.1884532 0.21161161 -0.19927347 -0.21856311
000030 ba 24 42 3d ab 18 ae be 3c d6 52 3e 04 2b 95 bd
       0.047398306 -0.34003195 0.20589536 -0.07283595
000040 79 11 05 3e e2 e5 41 3c 40 0b 84 3e f0 a3 ad bb
       0.12994947 0.0118345935 0.25789833 -0.005299084
000050 04 75 3f be 84 48 2e be 3f dd 76 3e ac 3f 04 3e
       -0.18696982 -0.1701985 0.24107836 0.12914914
000060 29 1c c0 be 49 d1 75 3e dc aa c3 bd 98 66 16 3e
       -0.37521484 0.24005617 -0.09554073 0.14687574
000070 02 06 ad 3e 81 0b 9a be 46 db 7e 3d 7b f5 95 3d
       0.33793646 -0.30086902 0.062220834 0.07322212
000080 26 d0 a3 be ff 92 0c be 09 28 91 3d a0 fe 9c 3c
       -0.31994742 -0.1372795 0.07087714 0.019164383
000090 3b 87 88 be e4 73 0d 3e 70 38 30 3a 40 88 29 3b
       -0.26665673 0.1381374 0.0006722277 0.0025868565
0000a0 aa e0 2c 3e 21 9a 18 be 70 78 3e be 82 a9 4e 3d
       0.16882578 -0.14902546 -0.18600631 0.050454624
0000b0 6c 55 40 3e b7 8c 70 be 0a 05 a3 be af 7d 21 3e
       0.18782586 -0.23491178 -0.31839782 0.157706
0000c0 7e cc f0 3d 0b e3 24 3e 81 3f dd bd 96 88 bd 3d
       0.11757754 0.16102235 -0.10803128 0.09254567
0000d0 46 c4 07 3c 0f 03 3d 3e 10 b4 92 be 61 9d 2b 3d
       0.008286541 0.18458198 -0.28653002 0.041898135
0000e0 e3 dd 54 be 5e 81 f1 bd 5f 56 99 be a1 3f fd bd
       -0.20787768 -0.11792253 -0.29948708 -0.12365652
0000f0 72 5f 49 be 9b ae e8 3c 99 39 2b 3e 65 fd a0 be
       -0.19665316 0.02840357 0.1672119 -0.31443325
000100 a3 d1 72 3e c8 ec 21 3e 52 ab c7 be 9f b6 08 bc
       0.23712783 0.15812981 -0.38997895 -0.0083443215
000110 5a 6d 29 be 3b e4 5b be 77 fb 6a 3d 38 12 35 3e
       -0.1654562 -0.21473782 0.05736872 0.17682731
000120 4b 9c e1 bd 4f 19 9a 3e 8a 31 1c be 0b 22 33 3e
       -0.11016139 0.30097434 -0.15253273 0.17493455
000130 f5 12 0a be f7 c4 f2 bb 25 b5 17 be c6 91 0a be
       -0.13483794 -0.007408734 -0.14815195 -0.1353217

conv3.weight f4 [40, 80, 1, 1]
000000 41 29 17 3e fb 57 0e 3d 96 9a 95 3e 23 07 90 bd
       0.14761831 0.034751873 0.29219502 -0.07032611
000010 8d 40 ac be a3 91 79 be 41 9f 50 3e 70 c4 f1 3e
       -0.33642998 -0.24371962 0.2037325 0.47220182
000020 04 75 3f 3e 99 50 a3 3d 6c 3e b5 3e 51 1a 6f be
       0.18696982 0.07974357 0.35399187 -0.23349883
000030 1f cf d8 3b 80 34 28 be 1e 15 bb 3d f3 64 3a 3e
       0.0066164876 -0.16426277 0.09134887 0.18202572
000040 42 d4 de 3e a2 a1 c4 3e 3f 7f 70 3d 33 c1 a1 bd
       0.43521315 0.38404566 0.0587151 -0.07898178
000050 6b b6 03 be b1 d1 4c 3c c9 2f 57 ba 4a b6 69 be
       -0.12862556 0.012501166 -0.00082087197 -0.22823444
000060 65 a1 e2 bc 17 cc 8c 3e 3b 54 6f 3d b9 66 2b 3d
       -0.02766485 0.27499458 0.058429938 0.04184601
000070 4d 2c 8d 3e 55 26 e5 be 0d 77 20 bd c5 b5 11 3e
       0.2757286 -0.44755808 -0.039176036 0.14229496
000080 97 45 8f 3e 79 ef 88 3d fb 53 29 3e 10 69 40 3e
       0.2798278 0.06686301 0.16535942 0.18790078
000090 21 ad c3 bc b0 20 16 bd a7 64 b1 bd 4f e6 16 bd
       -0.023886265 -0.036652267 -0.08661776 -0.036840733
0000a0 ac 14 c9 3d 05 9a 04 3e ac 18 b8 3e ef a2 c1 bd
       0.09818396 0.12949379 0.35956323 -0.09454905
0000b0 8d 21 80 be d8 c7 6e 3e b6 cb d3 be ab 11 30 3e
       -0.25025597 0.23318422 -0.41366357 0.1719424
0000c0 b9 f5 14 be 85 2d 55 3d 12 3b 4c 3e 37 d6 00 3d
       -0.14546861 0.052045364 0.19944409 0.03145429
0000d0 3a 5a 17 3d c3 83 87 3c 02 60 76 be 50 e3 52 bd
       0.03695128 0.016542321 -0.24060062 -0.051486313
0000e0 4b 31 94 be 13 04 3d 3e 76 f9 b2 3d 82 67 8f be
       -0.28943858 0.18458585 0.08738987 -0.28008658
0000f0 e5 66 13 bf 7f be 82 be dc 30 74 3e c1 bc ae 3d
       -0.5757888 -0.25535962 0.23846763 0.08532096
000100 0e 5d 38 be ca dd a2 bd 7d a4 2d 3d c2 97 b1 3d
       -0.18004248 -0.07952459 0.042393196 0.08671524
000110 6f dc ad be 33 bd 60 be 28 12 09 3e 45 86 53 3e
       -0.3395724 -0.21947174 0.13385832 0.20656689
000120 bb 1f f4 3e 05 bc 40 3e 82 96 7e be 31 ad 06 be
       0.47680458 0.18821724 -0.24862102 -0.13152005
000130 ed d8 a3 bc 6e 7b 92 bd a3 7d a3 3d e5 0e 91 be
       -0.0200009 -0.071524486 0.07982948 -0.28331676
000140 fb 47 53 be dc 4d 5a 3e c5 bb 27 be d8 c8 93 bd
       -0.20632927 0.21318763 -0.16380222 -0.07216042
000150 f1 42 00 be 6b 01 91 bd 45 82 5f bd 24 12 b1 be
       -0.12525536 -0.070803486 -0.054567594 -0.34584153
000160 53 dd 74 3d d8 81 eb bd 91 2d d6 3e f0 63 85 be
       0.059781384 -0.11499375 0.4183164 -0.2605281
000170 7f b8 ee 3d 08 fb fb bd cc a7 50 3e 5e 1e 8b be
       0.116562836 -0.1230374 0.2037651 -0.27171606
000180 54 0d 05 bf d8 dc 90 be db f9 db bd 61 a2 02 3f
       -0.5197346 -0.2829349 -0.107410155 0.5102902
000190 64 7f e6 3c b6 1a 88 3d 80 f2 3d be 8c 9c 8f 3c
       0.028136916 0.0664572 -0.18549538 0.017530702
0001a0 e7 2d 33 be ae 3d 39 be 08 24 5c 3d 08 ae ab 3c
       -0.17497979 -0.18089935 0.0537453 0.020957008
0001b0 a4 df 2c 3e ac 7c 5b be 6c 78 02 3c 0a 2b 8e bc
       0.16882187 -0.21434277 0.007963281 -0.017354507
0001c0 1a 33 58 be 6f ae a3 3d 3f 60 29 be 68 f9 1e be
       -0.21113244 0.07992255 -0.16540621 -0.15524828
0001d0 4b 85 3f 3e 71 09 69 3e 3b e0 f1 3e f7 04 5f 3b
       0.18703191 0.22757508 0.47241387 0.003403006
0001e0 1c 6c c8 3d 69 c2 2d 3d ae 86 82 be d3 53 87 be
       0.09786245 0.042421732 -0.25493377 -0.2643114
0001f0 a7 a2 fa bc 32 5b ae 3e ee a8 76 3e 86 6d 01 bf
       -0.030595137 0.34053952 0.24087879 -0.50557745
000200 2d 3f 44 3e e1 c1 23 3e c3 ce 0e be 48 fb 3d 3c
       0.19164725 0.15991928 -0.13946061 0.011595555
000210 6e c7 6d bd 73 5d bb 3d ab e5 8b be 07 f2 71 3e
       -0.05805152 0.091486834 -0.2732366 0.23627482
000220 21 a3 0a 3d f4 1d 47 3d ca 43 29 3e df 8a 85 bd
       0.033846978 0.04861255 0.16529766 -0.06520628
000230 cc 03 59 3c 76 ab 94 3e f7 fb 70 3e ce 75 87 3f
       0.013245534 0.29037064 0.23533617 1.0582826
000240 1a f0 28 3e 6f 9c 6a be 09 55 2c bf 98 0c 3d be
       0.16497841 -0.22911237 -0.67317253 -0.18461835
000250 5e d2 d1 3d 84 6c 8f 3c c4 40 0c 3e 67 0d 36 3d
       0.102452025 0.017507799 0.13696581 0.044446375
000260 19 7e a9 be 2b de d1 3e 88 79 fe bd de 28 4d 3e
       -0.33104017 0.40989813 -0.12425524 0.20035121
000270 33 34 78 be 3a c7 1e 3e 3a 65 2d be 7c 54 54 3e
       -0.24238662 0.15505686 -0.16933146 0.20735353
000280 bc 51 89 3e 53 0c 1b 3e d2 8a e0 bc ef 92 75 bd
       0.2682017 0.1514142 -0.027409945 -0.05995458
000290 0e cd 79 bd c9 61 20 bb 1f 59 39 be 2e 4f c8 be
       -0.06098657 -0.0024472347 -0.18100403 -0.3912291
0002a0 1f 3b 90 be 78 e1 f2 3d 66 a5 8d 3c d3 51 22 3e
       -0.28170106 0.11859411 0.017290782 0.15851526
0002b0 3e d1 81 bd 45 04 56 bd a4 68 2c 3e df 7b 1c bc
       -0.06338738 -0.052250165 0.16836792 -0.009551018
0002c0 f4 9b 9a bd 28 97 2e be 5f 36 d5 bd ce de 11 3e
       -0.07549277 -0.17049849 -0.10410761 0.1424515
0002d0 4d 74 77 be 22 6b 14 3f 4e d3 5a be 66 48 de 3d
       -0.24165459 0.5797597 -0.21369669 0.10853653
0002e0 ab 1a 86 bd cb c2 27 bd cf 42 c4 bd 61 a8 3e 3c
       -0.06548055 -0.040957253 -0.09583055 0.011636824
0002f0 73 52 29 3f d1 35 86 be 8f c9 14 3c 7c d6 9b 3d
       0.6614143 -0.26212934 0.009081258 0.07609269
000300 c4 53 c1 be 41 8d f1 bd 0e ea 91 3e f1 00 ed be
       -0.3775922 -0.1179452 0.28498882 -0.4628978
000310 fc 88 8c be 1a 17 9b 3e d0 3d bb be 9d 6c e2 bd
       -0.2744826 0.30291063 -0.36570597 -0.110558726
000320 9c 05 60 3e 12 b8 3e bd 12 1a 2a bf 0a 7b 02 be
       0.2187714 -0.046562262 -0.6644603 -0.12742248
000330 af 70 4a 3e ae 2c 77 3e a9 04 8f bd a1 e5 97 3d
       0.19769548 0.24138138 -0.06983311 0.07416845
000340 c6 0e e5 3d 21 6b 64 3d 9f 5f f0 3c f8 45 4d 3d
       0.111844584 0.05576623 0.02934247 0.050115556
000350 0a 3a 38 be 06 c9 62 3d 85 23 0d be 7f c0 f3 3d
       -0.1799089 0.055367492 -0.13783081 0.1190195
000360 fa 89 5f bc d0 b3 91 3d 3e 47 10 bd bc e3 c3 3e
       -0.013643736 0.07114375 -0.03522419 0.38259685
000370 dc 68 ab 3d 1d 72 7b be fb 66 dd 3d a0 63 02 bf
       0.0836961 -0.2455525 0.108106576 -0.50933266
000380 93 d0 a1 3e 9c ce a7 3d f6 e5 6e bf ec d1 64 3d
       0.31604442 0.081937045 -0.9331964 0.05586426
000390 fc 8a 02 bc 01 9a 59 be 1a 27 96 be af c4 53 3c
       -0.007967707 -0.21250154 -0.29326707 0.012925311
0003a0 a9 10 72 bc 51 35 52 3e ba e4 ab be a3 1f 7b 3d
       -0.01477448 0.20528151 -0.33572942 0.061309468
0003b0 5c 65 ed 3d 9d 31 16 bd bc 6a 01 be 65 b8 ee 3c
       0.115915984 -0.03666841 -0.12638372 0.02914066
0003c0 8c 3f 7e 3d 33 fe 62 3e 60 75 b4 3d eb 23 85 bd
       0.06207232 0.22167282 0.0881145 -0.065009914
0003d0 a9 1f 7b be 91 74 6d be a3 6e 1d bc b6 ea c7 bc
       -0.24523796 -0.23188998 -0.009608897 -0.024403911
0003e0 3a d4 ea 3d 1b 40 60 bd 82 14 06 bf 52 9f 5a 3e
       0.1146626 -0.054748636 -0.5237504 0.21349838
0003f0 90 10 ea 3d 95 fe 98 bd 43 11 34 3d 3a 02 4d bc
       0.1142894 -0.07470433 0.043961775 -0.012512738

conv3.bias f4 [40]
000000 5e 5a 0c 3e 01 12 ed 3d a4 44 28 3e d1 d5 ab 3d
       0.13706347 0.115756996 0.16432434 0.083903916
000010 b0 ab f6 bd d4 6b 42 3d dd ba cb 3d 51 98 9c bd
       -0.120444655 0.047466114 0.09947751 -0.076462395
000020 5e 30 25 3d 4b 36 35 3d b7 bf 19 bd 16 25 22 bd
       0.04032933 0.04424123 -0.03753635 -0.03958615
000030 99 79 81 3d bc df 15 3d 7a 0c 34 3e 91 4e ed bb
       0.06322021 0.036590323 0.17582884 -0.007242032
000040 b9 ca 08 bd 5e 06 b5 3d ca bc 41 3d 86 26 b8 3d
       -0.033396456 0.08839105 0.047299184 0.08991723
000050 5d 20 28 be 24 56 9c bd 48 75 72 bb 87 a0 cf 3c
       -0.16418596 -0.076336175 -0.0036996175 0.0253451
000060 e1 0f d7 bc d4 92 2e 3e 21 19 20 3e 8c 35 fb bd
       -0.026252689 0.17048198 0.15634586 -0.12266073
000070 1a b1 8f 3d f1 48 6b 3d 2d a7 39 3e 75 38 09 3e
       0.07016201 0.05744261 0.18130179 0.13400443
000080 45 1a 53 3d 8a be 14 be f4 a5 9f 3d 6e 86 ff 3d
       0.051538724 -0.1452581 0.07795325 0.12476812
000090 07 e2 91 3c cf af 33 3d ea eb 32 bd c4 fb 02 3e
       0.017807974 0.043868836 -0.043682016 0.12791353

conv4.weight f4 [40, 40, 3, 3]
000000 e7 f8 b6 3e 78 dc 1f be 85 5f 82 bc 77 b7 a5 ba
       0.35736772 -0.15611446 -0.015914688 -0.0012643178
000010 bf a2 a0 be 5e 76 e0 be 2e 7b f7 3d 9f 60 12 3f
       -0.31374165 -0.43840307 0.120840415 0.5717868
000020 d2 3e 3a 3d 1f bd 6d 3e 38 c6 54 3d 79 37 7d 3d
       0.045470066 0.23216675 0.05194685 0.06182048
000030 18 95 97 bd 0e bf 0a 3d 51 76 fa bc 32 65 fb bc
       -0.07401484 0.03387361 -0.030573996 -0.030687902
000040 60 c2 01 be 69 32 ef bb 37 1f 2c be 6e 60 5a 3e
       -0.12671804 -0.0072997105 -0.16808783 0.21325848
000050 d1 80 fa 3c 6c bf 96 3e bc 16 85 3e 15 7e e1 3e
       0.030579003 0.29442918 0.25993907 0.44041505
000060 12 65 50 3b 1b 33 3d be 9c b4 51 be 59 94 79 bd
       0.0031798524 -0.18476526 -0.20479053 -0.06093249
000070 18 bd 94 bd e7 fb 19 3d 59 0e 4e 3c 27 f1 80 3d
       -0.07262629 0.03759375 0.012576663 0.06295996
000080 bd 05 41 bb 6a 81 81 3e f9 63 85 be 7b 37 96 3d
       -0.0029452883 0.25294048 -0.26052836 0.07334801
000090 70 5d 45 3d 53 cb 4f be 01 0c d6 3c bc 4c 6b 3e
       0.048184812 -0.20292406 0.02612877 0.2297849
0000a0 b5 62 c0 3d 8f cb 86 3e d4 67 7e 3e f4 e9 be 3d
       0.09393827 0.26327178 0.24844295 0.09321967
0000b0 56 d6 34 be 22 41 e4 3a 0b 28 3b 3d 69 cc 04 3e
       -0.17659888 0.0017414431 0.045692485 0.12968601
0000c0 c0 d6 6d be 6d fb 75 be 62 63 6c be f9 79 ad 3d
       -0.23226452 -0.24021693 -0.23084787 0.0847053
0000d0 2f fb 05 3f 2d 52 96 3e 67 4c f5 3d b2 fc c0 bb
       0.523364 0.2935957 0.11977463 -0.0058894986
0000e0 1c e3 09 3e 61 0f 95 3d fe 56 83 be b1 ee b0 bd
       0.13465542 0.07278324 -0.25652307 -0.08639277
0000f0 c5 5a 0d be 74 61 2c be 18 0a 3e be fc b9 b3 3d
       -0.13804157 -0.1683405 -0.18558538 0.08775708
000100 e9 28 47 3c c5 d7 d4 3d f7 1e 9e bd 9e 86 0e be
       0.01215575 0.10392717 -0.0772075 -0.1391854
000110 83 27 2c bc ab d2 e8 3d ce c0 25 bd 0f 0a a1 bd
       -0.010507467 0.11368307 -0.040467076 -0.07863247
000120 bb 3f 42 bd 5a 97 8c bd 65 2b 5e be c0 cf 9d 3e
       -0.04742406 -0.068648055 -0.21696241 0.30822563
000130 5c ec 15 3e ef f7 e9 3e c1 46 89 3e 68 20 01 be
       0.14640945 0.4569697 0.26811793 -0.12610018
000140 00 bd 69 3e c6 af 53 3d 20 6d c4 bc 3c 2d 78 bd
       0.22826004 0.051681302 -0.023977816 -0.060590014
000150 3d 5b 18 3e 8a cd 1a 3e c3 dc 02 3e c2 c6 88 3e
       0.14878555 0.1511747 0.12779526 0.2671414
000160 68 b4 2b 3e dd d8 94 3e 53 59 48 3d f5 5b 4b 3c
       0.16768038 0.29071704 0.04891331 0.012412061
000170 02 1c 16 3d 60 36 31 3e 13 c6 b8 3d cb 1c 91 3e
       0.036647804 0.17305899 0.09022155 0.2834228
000180 8d f6 5c 3e 94 5e 69 bd b9 24 b4 bd 96 92 0b bc
       0.21578427 -0.056974962 -0.08796067 -0.0085188355
000190 cf 64 64 bc b4 d5 8a bc f1 ac f6 bb 1e 36 33 bc
       -0.01394005 -0.016947605 -0.0075279404 -0.0109381955
0001a0 26 4d 72 bc 60 31 e4 bb 23 a4 17 bc 9a d9 21 bc
       -0.014788901 -0.006963894 -0.009255442 -0.00987854
0001b0 79 ad d8 be 5c 2b 85 be 29 0c 73 be 3d 8b c8 be
       -0.4231985 -0.26009643 -0.23735107 -0.3916873
0001c0 9e fc 28 bd 5d 58 7c be 44 ba cd 3c be 8a 74 be
       -0.04125654 -0.24643083 0.025113232 -0.23881051
0001d0 ee 9f 0c be 9b 14 40 be ad 53 3d be 70 dd 18 bd
       -0.13732883 -0.1875786 -0.18488951 -0.037320554
0001e0 c5 f5 8e bd 96 d9 9c bd a3 86 d1 bc dd f7 25 3e
       -0.069804706 -0.07658689 -0.025576895 0.16207834
0001f0 88 ec ec bd ad 19 b3 bc ff ff ba be 1e 10 dc 3c
       -0.11568552 -0.02186283 -0.36523435 0.026863154
000200 13 b4 d4 be e0 07 8c bd 01 17 4e 3e 92 48 a1 bc
       -0.41543636 -0.068374395 0.20125963 -0.019687925
000210 59 45 bf 3e f1 30 34 bf 99 49 da be 82 99 f8 35
       0.37357596 -0.7038718 -0.42634276 1.8522117e-06
000220 fa ec 9a 36 48 c6 23 36 26 e8 0a 36 47 89 ee 36
       4.6171454e-06 2.4404308e-06 2.069873e-06 7.108934e-06
000230 1f f8 95 36 c2 f2 3f 36 ab ab 1a 37 f1 60 ae 36
       4.469431e-06 2.8602522e-06 9.219085e-06 5.1968896e-06
000240 f4 5a 93 ba 07 6f 16 bb f0 b3 85 bb 07 cf 62 bb
       -0.0011242316 -0.002295436 -0.004080288 -0.0034608261
000250 77 69 e0 ba 02 85 47 ba 71 c6 a1 bb fa 32 75 bb
       -0.0017121275 -0.0007611067 -0.004936986 -0.0037414418
000260 38 bd e1 ba 84 f1 da 3e b9 8c 7e 3e 82 83 bf 3e
       -0.0017222529 0.42762387 0.24858369 0.3740502
000270 80 e3 19 bd 3f b3 d3 3b 8f 21 b0 bd 33 de e2 3d
       -0.037570477 0.006460577 -0.08600151 0.110775374
000280 31 72 e4 bd c3 7b a3 bd 30 04 62 3e 97 86 9b 3d
       -0.11154593 -0.0798259 0.2207191 0.0759403
000290 0e b2 93 3d e8 4e c6 bb c1 56 c1 3d b1 ea 50 bc
       0.072116956 -0.006051887 0.09440375 -0.012751267
0002a0 d5 85 4a 3e 79 90 01 3c c6 21 01 3c 51 c5 cc 3d
       0.19777615 0.00790798 0.007881587 0.099985726
0002b0 b6 e5 1c 3e 9f 99 56 3d 0d e8 03 3d 78 e1 4b 3c
       0.15322003 0.0523926 0.032203723 0.012443893
0002c0 11 ce 40 3e ff 98 2f bd 0d ba 92 be ae aa 69 be
       0.18828608 -0.042870518 -0.2865757 -0.22819015
0002d0 3a 6d d8 3d 38 72 a6 bd d3 53 75 3e e4 ca ef bc
       0.10567708 -0.08127254 0.23957758 -0.02927155
0002e0 80 06 5d 3e 20 c7 87 3e 8e 0f e6 3c 60 d8 e0 bc
       0.21584511 0.26519108 0.028083589 -0.027446926
0002f0 97 da de 3e f0 86 fc 3c eb 59 b2 bd 80 06 74 bd
       0.43526146 0.030826062 -0.08708557 -0.05957651
000300 cf d1 45 be b2 4c 40 be 23 36 e0 bd 80 ff 42 bc
       -0.19318317 -0.18779257 -0.10947826 -0.011901736
000310 f1 df b6 3d d2 42 94 be fb ae df 3d ff d6 e1 3d
       0.08929432 -0.2895723 0.10922047 0.110273354
000320 f3 4f 12 3d 65 2d 5c 3d eb 31 a6 3d 3f 3a 24 3a
       0.035720777 0.05375423 0.0811499 0.0006264783
000330 cf cf 95 3d e3 af c7 bc f8 6e 87 3d f9 74 8d 3c
       0.07315027 -0.024375862 0.066129625 0.017267691
000340 57 e8 1d be a6 92 26 be 6c 0c b8 bd ab ee f2 bd
       -0.15420662 -0.1626688 -0.08986744 -0.118619286
000350 bb e6 f5 bd 5f 74 b9 3d 94 73 d8 bd 44 fa 12 3d
       -0.12006899 0.09055399 -0.1056892 0.035883203
000360 1a a1 50 3e 5c fb 64 3e 6e 52 23 3e 40 14 5f 3d
       0.20373955 0.22361511 0.15949413 0.05446267
000370 f4 3e f8 ba 29 f3 ce bb 3e 32 f7 ba e3 a2 33 be
       -0.001893966 -0.006315608 -0.0018859578 -0.17542605
000380 9d 01 75 be 68 c4 34 3d e2 c9 20 bd 14 2d 54 3e
       -0.23926397 0.04413262 -0.03925503 0.20720321
000390 ee 61 84 3e 69 e9 85 3c 0e 56 81 3e a7 b3 80 3d
       0.25855964 0.01634665 0.25260967 0.06284266
0003a0 ef 1e 7f be db 0f 0e 3d 7b d8 e7 bd ea d9 89 be
       -0.24914144 0.03468309 -0.11320587 -0.26924068
0003b0 df 34 7d be 90 d1 8a bd 02 3b 9a b9 3d 6c 61 be
       -0.247272 -0.06778252 -0.00029417133 -0.22013946
0003c0 3b a1 fa bc c5 60 be 3c 0e 13 78 be 3a 8b 8f 3d
       -0.030594459 0.023239503 -0.24226019 0.07008977
0003d0 c1 82 a0 be dd 72 65 be eb ba 00 bd d1 79 aa 3d
       -0.31349757 -0.22407098 -0.03142826 0.08324016
0003e0 db fb 86 3c fb 1b e1 bd 33 32 94 3e 0a 82 65 be
       0.016477516 -0.10991665 0.2894455 -0.22412887
0003f0 1d fc 6e 3c 3e 04 d6 bc 4e 6c 07 3e 1e 68 50 be
       0.014586476 -0.02612507 0.13224909 -0.20352218

conv4.bias f4 [40]
000000 1f 7b 30 be 63 0d c1 bb 6c 2f 2c 3d 32 4e bb b9
       -0.17234467 -0.0058914884 0.042037413 -0.0003572568
000010 05 5d 05 3e 30 67 dc 3e f9 3e 75 3c 04 8a b0 b7
       0.13023765 0.43047476 0.014968627 -2.1045103e-05
000020 db 88 3d 81 2f 77 73 3e 29 3e f3 bc 62 c1 25 3e
       -3.4812007e-38 0.23775934 -0.029692726 0.16187051
000030 e5 16 77 a1 b1 18 07 b7 48 61 41 bb 4f 32 a5 98
       -8.3717156e-19 -8.052376e-06 -0.0029507447 -4.27023e-24
000040 26 c5 b3 bd 43 0d 1f 3d 96 5c 5e 3e 2b 79 f2 bd
       -0.087778375 0.038831007 0.21715006 -0.11839517
000050 04 8e c7 3d 7e 1c 4d b3 e2 d6 a8 b0 b9 96 04 3e
       0.09743884 -4.7756195e-08 -1.2284682e-09 0.12948121
000060 e2 3b a6 3d eb 40 8a 3d 5c e6 a8 3e 76 b2 23 9f
       0.081168905 0.06750663 0.3298825 -3.4664212e-20
000070 d7 77 35 bd ab cf 28 3e 6d 65 74 b9 23 0f b7 a3
       -0.04430374 0.16485469 -0.00023307437 -1.984731e-17
000080 33 28 5e bd 59 8d 88 3b e8 f8 fe bd ca c0 40 bd
       -0.054237556 0.0041672406 -0.12449819 -0.047058858
000090 cb 08 70 bc b0 76 fa 3d 8a 58 10 bd b3 95 6f bd
       -0.014650534 0.12229669 -0.035240687 -0.058492374

fc.weight f4 [10, 40]
000000 80 7e 03 be 17 75 16 3c e0 4f 5d be 57 11 be bc
       -0.12841225 0.00918319 -0.21612501 -0.023201628
000010 a1 a5 cb be 3f 5b 92 be c6 d7 60 be 61 8e 8a bc
       -0.39774802 -0.2858524 -0.21957311 -0.016913595
000020 71 45 15 01 c4 39 34 be 1a 37 46 3d 67 7e fa 3c
       2.74168e-38 -0.17600161 0.048392393 0.030577851
000030 45 a8 9e 3a b9 2b f0 3c e9 7a 25 3d dc f1 99 8e
       0.0012104592 0.029317724 0.04040042 -3.7950314e-30
000040 eb 75 da bc b7 f0 de 3c 06 0f d7 3e c0 3e 0d 3e
       -0.026667556 0.027214391 0.4200365 0.13793468
000050 c1 85 97 be d6 fa c3 b9 f8 0f 89 bc 73 66 df bd
       -0.29594234 -0.00037380186 -0.016731247 -0.109082125
000060 e3 b7 41 3d 6f 6f 92 bd 63 db 43 be a7 b5 9e 3a
       0.04729451 -0.071501605 -0.19126658 0.001210858
000070 d2 36 67 3e f5 6d b1 3e 0a b7 bd bb 26 d1 a7 bb
       0.22579506 0.34654203 -0.005789642 -0.005121368
000080 7b 9b 79 3e eb e3 7b bc 76 bf d1 3d 29 11 8f be
       0.24375717 -0.015374164 0.102415964 -0.2794278
000090 c4 45 ac bc d1 0b 75 bc da ac 5a 3a ec 23 9b 3d
       -0.02102936 -0.0149564305 0.0008341797 0.07575211
0000a0 45 ba 23 3f 1f 39 ce bc ad 18 3e 3f ff bf 2f bc
       0.639561 -0.025173722 0.742564 -0.010726928
0000b0 65 43 82 be 4a bd 95 be a8 c0 f9 bd bf 26 96 bc
       -0.25442043 -0.2924598 -0.121949494 -0.018329022
0000c0 80 6d 89 01 91 6b 0c be a0 08 18 3d 44 ee 5b be
       5.0482977e-38 -0.13712908 0.0371176 -0.2147761
0000d0 cf 04 76 32 55 e5 36 bc da fc 91 bb d1 1f 73 00
       1.4320178e-08 -0.011163075 -0.004455191 1.0572496e-38
0000e0 8f d9 3b 3e 2a 68 31 bd 65 d5 35 bd 0f 4d 8c 3b
       0.18344711 -0.04331223 -0.044392962 0.004281647
0000f0 09 67 6e be f9 30 31 ba 58 85 29 bc 4b 17 5a 3c
       -0.23281492 -0.00067593117 -0.010346733 0.013311218
000100 bb 83 70 3e ba 58 77 3e fc 77 2d 3d 5a 5a 9c ba
       0.23487751 0.2415494 0.042350754 -0.0011928782
000110 82 99 1d be 03 81 82 be b5 57 66 bc 82 0a bd 3b
       -0.1539059 -0.25489053 -0.014058997 0.005769075
000120 c4 9e 51 3c b4 e0 0e 3d 13 21 09 be 9b ba 78 be
       0.0127942 0.034882262 -0.13391523 -0.24289934
000130 20 79 0c 3d 19 91 0c be 85 a6 d5 3c 08 cf a2 be
       0.0342952 -0.13727225 0.02608038 -0.31798577
000140 70 65 24 be d0 2b b0 bb 8b e7 8a be 5d 3b 01 3d
       -0.1605432 -0.0053763166 -0.27129778 0.031550754
000150 ce 32 09 be cd a8 1e 3b 32 01 93 3e 09 68 82 bc
       -0.13398287 0.00242095 0.2871185 -0.015918748
000160 c8 20 47 06 b1 76 29 be 66 62 b1 bc 88 f1 e0 3e
       3.7451824e-35 -0.16549183 -0.021653365 0.43934274
000170 b6 ed 9d ba 29 7d 3c bd 01 45 50 bc 9d f4 e4 87
       -0.0012048993 -0.0460178 -0.012711764 -3.4449398e-34
000180 d6 8c e3 3c 08 89 87 be f3 18 8c 3e 04 c1 9d be
       0.027777117 -0.26471734 0.27362785 -0.30811322
000190 f7 02 c1 3d 1e 62 f8 bb e0 23 a0 3b 61 82 97 be
       0.094243936 -0.007580056 0.004887089 -0.2959166
0001a0 4e 8b 55 bd 50 27 41 3e a9 3a cf bc 84 ee 87 39
       -0.052134804 0.18862653 -0.025296526 0.00025926915
0001b0 4d 8b 17 3f c7 f0 48 3d 90 19 ab ba 23 b9 f4 bb
       0.5919693 0.04905775 -0.0013053883 -0.007468359
0001c0 36 1a b2 be f6 35 73 3b 43 f3 8d 3e 5a 33 7b be
       -0.34785622 0.003711102 0.27724656 -0.24531308
0001d0 24 e9 2f 3d b9 62 f7 bd 24 5a 1c bc ad 85 46 bd
       0.04294695 -0.12079377 -0.009542976 -0.048467327
0001e0 51 d1 a1 be 9c 5b 5e bb 7c 12 87 be d0 39 d9 bc
       -0.31605008 -0.0033929115 -0.2638129 -0.026516825
0001f0 62 69 8b 3e 2f 08 ba 3c 34 33 54 3c d5 76 2b 3d
       0.27228838 0.02270898 0.012951661 0.041861374
000200 86 f5 a0 01 cb 1f dd bd bd 04 68 bd 0b 7e f7 bc
       5.9127026e-38 -0.1079708 -0.056645144 -0.03021147
000210 ec d5 ce 3a 45 34 8b 3c a5 79 a3 3a b8 47 0b 20
       0.0015780306 0.016992697 0.0012472166 1.1797488e-19
000220 80 eb 46 3e 23 ec 11 3e 60 6d ef bc 0b 22 eb 3d
       0.19425774 0.14250235 -0.029226959 0.114811026
000230 92 79 d0 3d b6 7e 6c 3c cf ab 81 bc 36 a9 85 bd
       0.10179438 0.014434507 -0.015828995 -0.06526415
000240 96 00 38 be 3c 9e 25 be 44 aa 08 3c 60 59 d6 b9
       -0.17968974 -0.16173643 0.008341376 -0.0004088385
000250 1b 78 47 be af 72 6f bc ca c7 f0 3c 59 15 04 3a
       -0.1947941 -0.014614745 0.029392142 0.00050385814
000260 e6 fa 33 be 76 8b 76 3d 92 18 10 be dc 79 ef be
       -0.17576179 0.060191594 -0.14071873 -0.4677266
000270 49 d0 fa 3b 0a 33 2d be 78 cc 09 bb 34 5e 97 3d
       0.007654224 -0.16914001 -0.0021026414 0.07391015
000280 a5 cb 68 be 40 5c 22 3c 94 72 a9 be 5a 70 f5 3c
       -0.22733934 0.009909689 -0.3309523 0.0299608
000290 91 87 e4 3d d7 11 e6 3e 9e 0a 75 be c8 a6 a5 3c
       0.1115867 0.44935486 -0.23929831 0.020221129
0002a0 fe 9a 00 01 84 58 07 3f 4e c6 e1 3b 4f 02 e8 bb
       2.3621088e-38 0.5286944 0.006890095 -0.0070803533
0002b0 b8 cf 57 38 50 b3 be bb 77 75 68 3c 55 1a 5a 00
       5.1453448e-05 -0.0058197156 0.014188162 8.274641e-39
0002c0 32 16 35 be 15 2a b7 be b2 8f 52 be ba 79 1e be
       -0.17684248 -0.35774294 -0.20562628 -0.15476122
0002d0 46 6f 62 bd 5f 34 54 bb 93 0b 76 bb a1 bc 80 be
       -0.0552819 -0.0032379848 -0.003754352 -0.25143912
0002e0 3d 8b ec bd df 34 86 be 90 cd 38 bd 5a 3b 13 3b
       -0.11549995 -0.26212212 -0.045117915 0.0022465796
0002f0 62 be 5f bc 73 7e ce 3e b3 13 2f 3c da b5 0d 3a
       -0.013656231 0.40330848 0.010685849 0.0005405821
000300 03 c8 6b be 28 0f 29 bd 0e f1 d1 3d d0 c2 a3 3e
       -0.23025517 -0.04127422 0.10251056 0.31984568
000310 9a d8 d1 bb a0 52 af 3c 42 34 d0 3c ca e6 e5 bd
       -0.0064039947 0.021401703 0.025415543 -0.1122566
000320 87 7c 3f be b2 aa 09 bc 39 2d 96 be 9b 1d 0c bd
       -0.18699847 -0.008402513 -0.29331377 -0.03420792
000330 70 a7 cc 3e b6 a0 1c be b7 61 83 3e 46 ff 92 bb
       0.39971495 -0.15295681 0.25660488 -0.0044859974
000340 af f5 f3 00 7d b1 0e 3c 43 13 00 bd 99 cf 55 bd
       2.240416e-38 0.008709309 -0.03126837 -0.052199934
000350 1f 9e 3c bc da f9 e1 bb 4c 87 33 bb 9a af ad 97
       -0.011512308 -0.0068962397 -0.0027393876 -1.1224191e-24
000360 8d 52 95 bc 73 14 37 bd 7a d9 91 bd 9d 13 d7 3d
       -0.01822784 -0.044697236 -0.071215585 0.10501788
000370 72 82 09 3f f6 c8 8c 3c 1d 41 11 bb e3 bc 4d bb
       0.5371467 0.01718567 -0.0022164055 -0.0031393103
000380 e5 86 ae be b0 d8 9d 3e d9 e9 1c be 64 aa 5c 3b
       -0.3408729 0.30829382 -0.15323581 0.0033670897
000390 bd f5 32 be 27 a1 7c 3d f2 6c 03 b4 55 9c e1 3b
       -0.17476554 0.061677124 -1.223996e-07 0.0068850913
0003a0 34 87 b8 be f4 79 b8 bd 5e 39 e8 bd c8 39 87 bd
       -0.36040652 -0.09007636 -0.11339067 -0.06602818
0003b0 73 11 29 bd 51 36 77 3c 50 22 ed 3c 6e 69 d9 bc
       -0.041276406 0.015088634 0.028947026 -0.02653953
0003c0 bd 39 b8 be 7e 03 3b 3d 7b 0d 99 3d ee c5 c8 bc
       -0.3598155 0.045657627 0.07473274 -0.024508443
0003d0 61 8f 2c be e1 35 a8 3e e0 5d 78 3e 66 25 4d 3c
       -0.1685157 0.32853606 0.2425456 0.0125211235
0003e0 42 ca 8f 81 67 fd 67 bc 5e 5e a3 3c 56 5c 70 be
       -5.282013e-38 -0.014159537 0.019942459 -0.23472723
0003f0 3d 8a 32 bc 8f 2a 64 3c f0 88 7d bc c6 44 5f 10
       -0.010897216 0.013926162 -0.015474543 4.4031977e-29

fc.bias f4 [10]
000000 46 61 1f 3e a4 87 b0 be d3 14 48 be a7 6d e5 3e
       0.1556445 -0.34478486 -0.19539194 0.4481022
000010 9a 27 c7 3e 98 fb c5 be df 8b b0 3e ab 7d e9 be
       0.388974 -0.38668513 0.34481713 -0.4560369
000020 5d bb 2d 3e be b3 a7 be
       0.16966005 -0.3275432
