models/MNIST/mlp_num-layers=2_seed=037/099.pth (torch, 597815 bytes, 6 tensors)

linear1.weight f4 [128, 1024]
0	0x001cee50	2.656884e-39
1	0x003c8208	5.556776e-39
2	0x00e3c484	2.0917154e-38
3	0x8125c196	-3.0444605e-38
4	0x819d5ec4	-5.7808674e-38
5	0x80efc328	-2.2018692e-38
6	0x01153684	2.740609e-38
7	0x008c5ebc	1.2890954e-38
8	0x80659ab4	-9.330882e-39
9	0x8087c2d0	-1.2467678e-38
10	0x803b45b4	-5.443299e-39
11	0x016d5b40	4.3595494e-38
12	0x8181bbf4	-4.7656816e-38
13	0x01368b4e	3.3528067e-38
14	0x8158200c	-3.9695927e-38
15	0x8044d934	-6.322732e-39
16	0x018a0222	5.0696254e-38
17	0x0084b802	1.2188295e-38
18	0x817dfc5a	-4.6649814e-38
19	0x005ce360	8.530432e-39
20	0x80e7f1a8	-2.130069e-38
21	0x010e78f2	2.6168055e-38
22	0x81a11e1e	-5.9185276e-38
23	0x804de474	-7.153287e-39
24	0x81a6cbce	-6.1271215e-38
25	0x00986030	1.3993501e-38
26	0x805c6030	-8.483371e-39
27	0x0090b190	1.3288009e-38
28	0x8120fe0c	-2.9569628e-38
29	0x812f6918	-3.2217825e-38
30	0x00d8f908	1.9925803e-38
31	0x8105331a	-2.4464906e-38
32	0x816b8d54	-4.326408e-38
33	0x01523ff0	3.861678e-38
34	0x813c976e	-3.4638792e-38
35	0x805a3d64	-8.287217e-39
36	0x013a4d20	3.421814e-38
37	0x014d38db	3.7693345e-38
38	0x812041ac	-2.9434476e-38
39	0x01011eee	2.371575e-38
40	0x0077dace	1.1006916e-38
41	0x8180809a	-4.720431e-38
42	0x95e58b0f	-9.271176e-26
43	0xa4cff34f	-9.018412e-17
44	0x3836c1a0	4.357251e-05
45	0xb76be4f4	-1.4060399e-05
46	0x38b43e93	8.594724e-05
47	0x3cbe4084	0.023224123
48	0x38ba165b	8.873335e-05
49	0x3945ef91	0.0001887663
50	0x3a6ba055	0.000898843
51	0x3b371652	0.0027936888
52	0x3c7d9ab1	0.015478776
53	0x3cf6020b	0.030030271
54	0x3ca20afe	0.019780632
55	0x39a1899a	0.00030810834
56	0x38bd4b51	9.026251e-05
57	0x809a7636	-1.4185073e-38
58	0x00057f74	5.04899e-40
59	0x01267f4c	3.0580716e-38
60	0x816bdb84	-4.3320178e-38
61	0x81540904	-3.894472e-38
62	0x01b6b269	6.711225e-38
63	0x814bbc68	-3.7420386e-38
64	0x80ed95c8	-2.1818744e-38
65	0x011d3ddc	2.8880728e-38
66	0x810e4820	-2.6133028e-38
67	0x00777d71	1.0973424e-38
68	0x81bf1e5e	-7.0205894e-38
69	0x37678e7f	1.380185e-05
70	0xbaeea596	-0.0018207307
71	0xbb111926	-0.0022140234
72	0xb6be325b	-5.6683034e-06
73	0xb7952d01	-1.778314e-05
74	0xbcd3f4be	-0.025873538
75	0xba8ec918	-0.0010893671
76	0x3c82d3f5	0.01597021
77	0xbcc90d2b	-0.024542412
78	0xbd04f2e9	-0.03245822
79	0x3c421fb8	0.011848383
80	0x3d04ce15	0.032423098
81	0x3d0ca721	0.034339074
82	0x3ce473f1	0.027887316
83	0x3c951f12	0.018203292
84	0x3d2c90e4	0.042130366
85	0x3d2c0da7	0.042005207
86	0x3d01f16b	0.031724375
87	0x3c1fbb36	0.009749224
88	0x3a8bdf1b	0.0010671349
89	0x352d9660	6.4666347e-07
90	0xaf61adc6	-2.0525368e-10
91	0x80c1635c	-1.7759894e-38
92	0x81132f67	-2.7033645e-38
93	0x802c2bd8	-4.05649e-39
94	0x80bb41f4	-1.7196897e-38
95	0x01718fc4	4.4367856e-38
96	0x00506e3c	7.386384e-39
97	0x8198bc35	-5.6106046e-38
98	0x80b88460	-1.6945218e-38
99	0x80641849	-9.192261e-39
100	0x2597b9ec	2.632031e-16
101	0xbad2ec42	-0.0016092139
102	0xbb97e958	-0.004635971
103	0xbcde6b4f	-0.027150778
104	0xbc72ce17	-0.014819643
105	0xbcf94790	-0.030429631
106	0xbd5f8ea3	-0.05457939
107	0x3d25af46	0.040450357
108	0x3d17df58	0.03707823
109	0x3a241013	0.0006258499
110	0xbc012378	-0.007881992
111	0x3d40b7f9	0.04705045
112	0x3d88cce2	0.06679703
113	0x3db6b894	0.08921924
114	0x3d469e9b	0.0484911
115	0x3c8280df	0.015930591
116	0x3d5614fb	0.052266102
117	0x3dc77b45	0.09740309
118	0x3d6527a2	0.055946
119	0x3c949d45	0.018141398
120	0x3ce4b98f	0.027920512
121	0x3b00e2ac	0.0019666357
122	0xbc23ca1d	-0.009996918
123	0xbc9c1deb	-0.019057235
124	0x814d8925	-3.775095e-38
125	0x01b273be	6.5552955e-38
126	0x009de228	1.4499302e-38
127	0x016483ac	4.1971456e-38
128	0x00d0786c	1.9144982e-38
129	0x00be38a8	1.7469069e-38
130	0x803d3dce	-5.624137e-39
131	0xba9748ab	-0.0011542042
132	0x383495d9	4.30549e-05
133	0xbae291e8	-0.0017285915
134	0xbca411d1	-0.020028027
135	0xbc901b90	-0.017591268
136	0xbcf9f2d7	-0.030511303
137	0xbda4762d	-0.08030353
138	0xbdb2df11	-0.08733953
139	0xbc0bcf8c	-0.00853337
140	0x3caa540f	0.020792035
141	0xbc54228f	-0.012947693
142	0xbd37daac	-0.044886276
143	0xbd07bc36	-0.033138476
144	0xbcd85b62	-0.026410762
145	0xbd4b834f	-0.049685773
146	0x3be87f2c	0.007095238
147	0x3c354546	0.011063879
148	0xbcdca17b	-0.026932469
149	0xbc937046	-0.017997872
150	0x3d7d5e4f	0.061857518
151	0x3d4f4458	0.050602287
152	0x3d2b1833	0.041771125
153	0x3b432059	0.002977392
154	0x3bed3c10	0.007239826
155	0x3bdf164e	0.006808079
156	0xbbb200c5	-0.0054322206
157	0x0a2fd202	8.4654416e-33
158	0x014f07c0	3.8025456e-38
159	0x8180e9da	-4.7355335e-38
160	0x813b1cc8	-3.4367125e-38
161	0xae316637	-4.0335926e-11
162	0xb9f05e9a	-0.0004584685
163	0x3abe9997	0.0014541623
164	0x3ae5d7cd	0.0017535627
165	0xbc0142b3	-0.0078894375
166	0xbcd0bf4d	-0.025481844
167	0xbc2c8258	-0.010529123
168	0xbd31fb84	-0.043452755
169	0xbda94965	-0.08265952
170	0xbe1a8d79	-0.1509303
171	0xbdfa24a7	-0.12214022
172	0xbd8ddf82	-0.06927396
173	0xbdb470bc	-0.08810565
174	0xbdd50138	-0.10400623
175	0xbd82408b	-0.06359967
176	0x3c0e8320	0.008698255
177	0x3b9419a2	0.004519657
178	0xbd071012	-0.03297431
179	0xbd7e12ac	-0.062029526
180	0xbc46eac1	-0.012140931
181	0xbd2a98f4	-0.041649774
182	0x3cc331bb	0.023827424
183	0x3d9999ba	0.07500024
184	0x3d9767dc	0.073928565
185	0xbc6c8e99	-0.014438295
186	0xbcfe70b9	-0.03105961
187	0x3ca3704c	0.019951008
188	0x3c037a9f	0.008024841
189	0x8b07c0e5	-2.6145172e-32
190	0x00e52388	2.1043075e-38
191	0x0068f9f7	9.640562e-39
192	0x009dc848	1.449002e-38
193	0x38591578	5.1756826e-05
194	0x3a9f9c2c	0.001217728
195	0xbb8e100c	-0.004335409
196	0xbd58bf5f	-0.05291688
197	0xbd0d040d	-0.03442769
198	0x3d4d029b	0.050051313
199	0xbc0af385	-0.008480911
200	0x3c83a8f6	0.016071778
201	0x3ca731f1	0.020409556
202	0x3abf61c8	0.0014601285
203	0xbdb5ba51	-0.08873428
204	0xbd318ba7	-0.043346073
205	0xbca99d8f	-0.020705013
206	0xbe048973	-0.12943058
207	0xbe3e362c	-0.18575352
208	0xbdd07ea3	-0.10180404
209	0x3cbc8025	0.023010323
210	0x3d8de257	0.069279365
211	0x3cf29a04	0.029614456
212	0x3d7f830e	0.062380843
213	0x3d7213fd	0.059101094
214	0x3d9f99d8	0.07793015
215	0x3c28ee60	0.010310739
216	0xbcf7efe1	-0.03026575
217	0xbd7eb199	-0.06218109
218	0x3c3b68d9	0.011438572
219	0xbcba6a6c	-0.022755824
220	0xbb334b3d	-0.0027358078
221	0x3c081962	0.008306833
222	0xb50163e7	-4.820162e-07
223	0x00580af8	8.085459e-39
224	0x38b5ab1f	8.662626e-05
225	0x3c27f039	0.010250145
226	0x3d212d0e	0.039349608
227	0x3da28394	0.07935253
228	0x3dad6fba	0.08468576
229	0x3c5c123a	0.01343208
230	0xbc159a85	-0.009131079
231	0x3c3ed073	0.011646378
232	0x3d2c69ed	0.042093206
233	0x3d4a052b	0.049321335
234	0x3d01ea44	0.031717554
235	0x3d81616e	0.06317411
236	0x3d8be53a	0.06830831
237	0x3dbf8777	0.0935201
238	0x3d5c2ff0	0.053756654
239	0x3b929835	0.004473711
240	0x3ca2a1eb	0.0198526
241	0xbd14a12c	-0.036286518
242	0x3c2329f8	0.009958737
243	0x3cab1ec5	0.020888695
244	0x3c9d6343	0.01921237
245	0xbc8b3b67	-0.016996099
246	0x3d9393fb	0.072059594
247	0x3d99f211	0.07516874
248	0x3db21182	0.086947456
249	0x3d92866d	0.07154546
250	0x3c3dd9aa	0.01158754
251	0xbdaaaa0b	-0.08333214
252	0xbbab7008	-0.005231861
253	0x3c9f5d23	0.01945359
254	0x3b559c86	0.0032594516
255	0x21591d0a	7.3560893e-19

linear1.bias f4 [128]
0	0x3d287520	0.041127324
1	0x3e66d8fc	0.2254371
2	0xbd906ac6	-0.070516154
3	0xbe85d4e0	-0.26138973
4	0x3cee22ca	0.029069323
5	0x3d9ed569	0.077555485
6	0x3e700266	0.23438415
7	0xbe62a9b8	-0.22135055
8	0x3e6c82ad	0.23096724
9	0x3e60d7cb	0.21957318
10	0x3deff076	0.11715786
11	0x3d905fd5	0.070495285
12	0xbcd382fd	-0.025819296
13	0x3eb2168a	0.3478282
14	0x3cd862ad	0.02641424
15	0x3eaa4c3b	0.33261284
16	0x3e42a1f0	0.19007087
17	0x3d845fc7	0.064635806
18	0x3e55a025	0.20861872
19	0xbe1d3d62	-0.15355447
20	0x3dcf1307	0.10111051
21	0xbd96fbed	-0.0737227
22	0xbeb0969c	-0.34489906
23	0x3c0b9c89	0.008521208
24	0xbbfae18e	-0.0076562827
25	0x3e87ef62	0.26549822
26	0x3e2196b5	0.15780146
27	0x3e330430	0.17482066
28	0x3e5c8fa5	0.21539171
29	0xbe7621c1	-0.24036314
30	0x3d0ec958	0.034859985
31	0x3bbbf5af	0.005736075
32	0x3e8c2559	0.27372244
33	0xbe90b070	-0.2825961
34	0xbe8041a3	-0.25050077
35	0x3e7ee9c2	0.24893859
36	0x3da52396	0.08063428
37	0x3e40d930	0.1883285
38	0x3ed51d99	0.41624144
39	0x3e0e0085	0.13867386
40	0x3e52c80c	0.20584124
41	0x3e8836d7	0.2660434
42	0xbd203cbc	-0.03912042
43	0x3daf4341	0.085577495
44	0x3e21b5bd	0.15791984
45	0x3f10afdf	0.5651836
46	0x3d06f05b	0.032944065
47	0xbc72d2bc	-0.014820751
48	0x3e813d9c	0.25242317
49	0xbd0babe6	-0.034099482
50	0x3eaff83b	0.34369072
51	0xbe444a81	-0.19169046
52	0x3db17ece	0.08666764
53	0x3e223f8a	0.1584455
54	0x3e09293c	0.13394636
55	0xbddddd20	-0.10833192
56	0xb4cb7781	-3.7898647e-07
57	0x3e4dcf57	0.20098625
58	0x3d15eb66	0.036601447
59	0xbe1e12ab	-0.15436809
60	0x3e283683	0.16427045
61	0x3d1f2b2d	0.038859535
62	0x3d263dd8	0.040586323
63	0x3d5b02da	0.053469516
64	0x3d968b52	0.07350792
65	0xbd88d555	-0.06681315
66	0x3ea86857	0.32892105
67	0xbd6ec78b	-0.058295768
68	0x3efb0fb1	0.4903541
69	0x3eb15a07	0.34638998
70	0xbe27ae9a	-0.16375199
71	0x3e0647aa	0.13113275
72	0x3e26d1ec	0.16291016
73	0xbdf84e18	-0.1212427
74	0x3ebbb6ad	0.36662808
75	0x3e7dde8e	0.24791929
76	0x3e87a135	0.2649018
77	0x3c979eeb	0.018508395
78	0xbda9001a	-0.082519725
79	0xbcbf576f	-0.023357121
80	0xbe2e42e9	-0.17017712
81	0x3f0b638f	0.5444879
82	0x3e3fb083	0.18719678
83	0x3ec2abc1	0.38021663
84	0xbd598564	-0.053105727
85	0x3e565dcb	0.20934217
86	0x3e985548	0.29752564
87	0xbda2fc33	-0.079582594
88	0xbdb2a5d4	-0.087230355
89	0x3ea2ed3a	0.31821615
90	0x3db6cf29	0.089262314
91	0x3da12065	0.07867507
92	0x3db728f9	0.08943362
93	0x3e04bfb3	0.12963752
94	0x3e18d7cb	0.14926068
95	0x3dd580b8	0.10424942
96	0xbdb3459e	-0.08753513
97	0x3dcd521e	0.10025428
98	0x3e2841d7	0.16431366
99	0x3dc12bd5	0.094321884
100	0x3e7a89fb	0.24466698
101	0x3e89f270	0.26942778
102	0x3d79ddc8	0.061002523
103	0x3f042c36	0.5162996
104	0x3e8f957f	0.28043744
105	0xbe293dcc	-0.1652748
106	0x3dad71e9	0.08468992
107	0xbea6d3f4	-0.32583582
108	0x3da95d66	0.082697675
109	0xbe27a8ef	-0.16373037
110	0xbe084a8a	-0.13309684
111	0x3e0c1edf	0.13683651
112	0xbdfaf372	-0.12253465
113	0xbdaf7181	-0.08566571
114	0x3e54c2fb	0.20777504
115	0x3c259d19	0.010108256
116	0x3d9d4899	0.076798625
117	0xbd65c359	-0.0560945
118	0x3db9dd5d	0.09075425
119	0x3db905ac	0.09034285
120	0x3e82a945	0.25519767
121	0xbd21a787	-0.039466407
122	0xbdf32592	-0.118724
123	0x3e861343	0.2618657
124	0xbe45b5da	-0.19307652
125	0x3d979bb0	0.07402742
126	0xb757a11c	-1.285251e-05
127	0x3dd83c55	0.105583824

linear2.weight f4 [128, 128]
0	0x9800206c	-1.6559981e-24
1	0xa05484fe	-1.8001102e-19
2	0x8070d324	-1.0361319e-38
3	0x2bdf647e	1.5872995e-12
4	0xa8574d8e	-1.19517145e-14
5	0x80523ce8	-7.55236e-39
6	0xa9af1f4f	-7.7769923e-14
7	0xa174cdf1	-8.2942977e-19
8	0x9268429a	-7.3288385e-28
9	0x950eb860	-2.8822118e-26
10	0x1cd0b8d1	1.3812059e-21
11	0x9d5a3e79	-2.8884357e-21
12	0x01438570	3.591158e-38
13	0x1916b000	7.790361e-24
14	0x9e3974f2	-9.818002e-21
15	0x892de88e	-2.0933464e-33
16	0x819132b0	-5.333732e-38
17	0x99aa9791	-1.7638805e-23
18	0x2b8290aa	9.277208e-13
19	0x81b52750	-6.654531e-38
20	0xa86b301b	-1.3055552e-14
21	0x80d00c2f	-1.9106154e-38
22	0xa2c11073	-5.233017e-18
23	0x9e83c37f	-1.395102e-20
24	0x8154e476	-3.9102163e-38
25	0x19ad9ba1	1.7950639e-23
26	0x810f0e5c	-2.6275254e-38
27	0x81097893	-2.5249434e-38
28	0x0110a38f	2.656597e-38
29	0x804edee8	-7.243132e-39
30	0x8bd076ea	-8.029761e-32
31	0x93f67873	-6.2217903e-27
32	0x9b40eb82	-1.5957964e-22
33	0x964ff798	-1.6799454e-25
34	0x05ca6822	1.9034241e-35
35	0x8c0e3210	-1.0954347e-31
36	0x80f83946	-2.2795749e-38
37	0x058e352a	1.3373145e-35
38	0x1599e85a	6.2162794e-26
39	0x81adba90	-6.381787e-38
40	0x817240c9	-4.449486e-38
41	0x00a7d39a	1.5412436e-38
42	0xb6412047	-2.877803e-06
43	0x8073b82c	-1.062715e-38
44	0x8029d9ba	-3.843361e-39
45	0x00b182c1	1.6301788e-38
46	0x92462746	-6.252619e-28
47	0x148a40a8	1.3959941e-26
48	0x81104a7e	-2.6502068e-38
49	0x0010984c	1.524002e-39
50	0x984cf99f	-2.6492408e-24
51	0x007334fa	1.0580086e-38
52	0x00951d8f	1.3694093e-38
53	0x0024b15b	3.369701e-39
54	0x808bff2f	-1.2856677e-38
55	0xafc02ed4	-3.495787e-10
56	0x8168d6b0	-4.27657e-38
57	0x802c6652	-4.077467e-39
58	0xa1ca31e8	-1.3701263e-18
59	0xa698fed9	-1.0616195e-15
60	0x9e88652b	-1.4441402e-20
61	0x9b1e5035	-1.309537e-22
62	0x812b8a84	-3.150712e-38
63	0x136cac3e	2.987231e-27
64	0x80215802	-3.062143e-39
65	0x80898a95	-1.2631177e-38
66	0x10ed99c0	9.3716907e-29
67	0x80b53106	-1.6639811e-38
68	0x0f87aa65	1.3377661e-29
69	0xa8e3cd9e	-2.5291235e-14
70	0x808feb68	-1.3216924e-38
71	0xa32648d2	-9.014298e-18
72	0x802c0309	-4.04185e-39
73	0x26bdae4f	1.3161756e-15
74	0x8acc35e9	-1.9664764e-32
75	0x8b1be231	-3.0022082e-32
76	0x811c6c2c	-2.8730284e-38
77	0xa4e74eb7	-1.0031363e-16
78	0xa5a481f5	-2.8537527e-16
79	0x909c3617	-6.161449e-29
80	0xad4561cd	-1.121987e-11
81	0x8035f7ff	-4.956246e-39
82	0x83929529	-8.615354e-37
83	0x00536925	7.660065e-39
84	0x8b119b9d	-2.8043055e-32
85	0x887c6d0c	-7.5961676e-34
86	0x8102eb60	-2.4046102e-38
87	0xac941810	-4.2090845e-12
88	0x9582d52a	-5.2842895e-26
89	0x80493c8d	-6.725713e-39
90	0xacadd8f6	-4.9410432e-12
91	0xa1b78f29	-1.2438457e-18
92	0xa18956cb	-9.306455e-19
93	0x0047b8f9	6.586676e-39
94	0x12e5128a	1.4456502e-27
95	0x92635c1e	-7.1742113e-28
96	0x010c147e	2.572864e-38
97	0x08705ca6	7.233128e-34
98	0x1893b82c	3.8184575e-24
99	0x80d8ade3	-1.9898846e-38
100	0x0574a16e	1.1502475e-35
101	0x80c8d349	-1.8442894e-38
102	0x81596137	-3.9926354e-38
103	0x019432fe	5.4439784e-38
104	0x8006e879	-6.34408e-40
105	0x9aaf3b69	-7.2474286e-23
106	0x8041bbee	-6.036724e-39
107	0x86dba9b5	-8.2628006e-35
108	0x813f6ad7	-3.5157813e-38
109	0xadca3d87	-2.2992065e-11
110	0x801b16a9	-2.487687e-39
111	0x803806c7	-5.145219e-39
112	0x17b09a19	1.1412633e-24
113	0x003b7506	5.460274e-39
114	0x9e0089e0	-6.8047755e-21
115	0x8090be0b	-1.3292486e-38
116	0x903d7e45	-3.7370952e-29
117	0x00133b66	1.766183e-39
118	0x81303848	-3.2366474e-38
119	0x801b77fa	-2.522598e-39
120	0x94ffe298	-2.5837795e-26
121	0x2b21d28e	5.7490894e-13
122	0xb49fd747	-2.9772693e-07
123	0x0e703e10	2.9612166e-30
124	0xa78ba91c	-3.87636e-15
125	0x8e2888e6	-2.0773513e-30
126	0x80d69614	-1.9706634e-38
127	0x8de8598a	-1.431966e-30
128	0x3dd56073	0.10418787
129	0x3dc0c0df	0.09411787
130	0x3e85dc9f	0.26144883
131	0x3e80fd34	0.2519318
132	0xbe9011c5	-0.28138557
133	0x3e5ec1ba	0.21753588
134	0xbe2adb6c	-0.16685265
135	0x3d859a91	0.06523622
136	0xbecdb86d	-0.40179768
137	0x3e34102f	0.17584299
138	0xbebb6886	-0.36603183
139	0x3dac7549	0.08420808
140	0xbd0aa64f	-0.03385001
141	0x3e2e9324	0.17048317
142	0xbeb48e19	-0.35264662
143	0x3e0a5e04	0.13512427
144	0xbee7c3d0	-0.4526658
145	0xbe24ac93	-0.16081457
146	0x3e212d25	0.15739878
147	0xbd875337	-0.06607669
148	0x3e1f3071	0.15545823
149	0x3dd43960	0.10362506
150	0xbe046f8f	-0.12933181
151	0x3e05d4c9	0.13069452
152	0x3cd0a08c	0.02546718
153	0x3eda721f	0.42665192
154	0x3cc61d66	0.02418394
155	0x3e83a638	0.25712752
156	0x3d72368f	0.059134062
157	0x3dda921a	0.10672398
158	0x3cdbaf4f	0.026816992
159	0xbd9eda90	-0.07756531
160	0x3ce680e6	0.028137635
161	0xbe4b2ac4	-0.19840533
162	0x3de12f9b	0.10995408
163	0x3e2a833a	0.16651621
164	0x3d2c60b0	0.042084396
165	0x3d9c7f09	0.076414175
166	0xbdbede8f	-0.093197934
167	0x3d895e7b	0.06707474
168	0x3e100cb0	0.1406734
169	0xbc39be4e	-0.011336876
170	0xbe65b4e1	-0.22432281
171	0xbe73cfa3	-0.23809676
172	0x3e47e068	0.19519198
173	0xbe14e0b0	-0.14538836
174	0x3e5feb6b	0.21867149
175	0x3e0bcfee	0.13653538
176	0x3e861d2a	0.26194125
177	0xbe76fe3c	-0.2412042
178	0x3d9bb1c8	0.076022685
179	0x3d60a929	0.054848824
180	0xbd496492	-0.049168177
181	0xbdf26cb0	-0.11837137
182	0x3dbff07c	0.09372041
183	0xbdc21dbd	-0.094783284
184	0xb90d18ff	-0.0001345612
185	0xbe88fe6e	-0.26756614
186	0x3e3495d0	0.17635274
187	0xbd8f4b35	-0.069967665
188	0xbc898fe1	-0.01679224
189	0xbe8daf8a	-0.27672988
190	0xbe2be463	-0.16786341
191	0xbd2bb5fc	-0.0419216
192	0x3cc515c1	0.024058225
193	0x3cd9b87a	0.026577223
194	0x3f0e1130	0.55494976
195	0xbdf2d559	-0.11857099
196	0x3e27a40c	0.16371173
197	0xbeb36a1e	-0.35041898
198	0xbe0c7469	-0.13716282
199	0xbbed4806	-0.007241252
200	0x3d112d8c	0.035443828
201	0x3e02187c	0.12704653
202	0x3cdf1164	0.027229972
203	0xbf1e0b1f	-0.6173572
204	0x3cafdee6	0.021468591
205	0xbf44ef36	-0.76927507
206	0x3e385f95	0.18005212
207	0xbe6eb83c	-0.23312467
208	0x3dc9cd4f	0.09853613
209	0xbdcf4eb6	-0.10122435
210	0xbd83aedf	-0.064298384
211	0x3e5aba04	0.21360022
212	0x3d9c2c83	0.076256774
213	0x3de8e249	0.113712855
214	0x3e21b57e	0.1579189
215	0x3cd0dd90	0.025496274
216	0x3e02c986	0.12772188
217	0x3dcc25d2	0.09968151
218	0xbe1a1a10	-0.15049005
219	0xbdea0481	-0.1142664
220	0xbe816ec1	-0.2527981
221	0xbdcaa001	-0.098937996
222	0x39d318b2	0.00040263456
223	0x3cb978b7	0.02264057
224	0x3e8a56a2	0.2701922
225	0x3e74d940	0.23911
226	0x3e154adb	0.14579336
227	0x3e91f1b0	0.28504705
228	0x3e22e20d	0.15906544
229	0x3c263d3f	0.010146438
230	0x3e21070f	0.15725349
231	0xbe82fb07	-0.25582144
232	0xbe567895	-0.20944436
233	0xbda94c4f	-0.08266508
234	0x3cf7b5b4	0.03023801
235	0xbe812f73	-0.25231513
236	0x3b4c960a	0.003121736
237	0xbe2ab7fd	-0.16671748
238	0x3edd69cf	0.43244788
239	0xbe5bfba4	-0.21482712
240	0x3cc25ab3	0.02372489
241	0x3d8fb683	0.07017233
242	0xbee795ce	-0.4523148
243	0xbed3cfef	-0.41369578
244	0xbe3c9536	-0.18416294
245	0x3e5fbb90	0.21848893
246	0xbedfc577	-0.4370534
247	0x3dba412c	0.09094462
248	0x3d935f93	0.07195964
249	0x3e370e27	0.17876492
250	0xbd0567fc	-0.03256987
251	0x3cfdf760	0.031001747
252	0x3dd0f150	0.10202277
253	0xbe255dbf	-0.16149043
254	0xb790f299	-1.7279106e-05
255	0xbdb9d91f	-0.09074616

linear2.bias f4 [128]
0	0x8f848b40	-1.3069842e-29
1	0xbdae489a	-0.085099414
2	0xbd03b991	-0.03215939
3	0xbddb568a	-0.107098654
4	0xbe8bb76d	-0.2728838
5	0x3e43aaaa	0.19108072
6	0x3d718831	0.058967773
7	0x3e5b524d	0.21418114
8	0x3da49c63	0.08037641
9	0x3f113e6b	0.5673587
10	0x3f13f0d3	0.57789344
11	0x3e924d66	0.28574675
12	0x3f0ec6f0	0.55772305
13	0x00276c95	3.620536e-39
14	0xbe4b84e6	-0.19874915
15	0xbd2acd03	-0.04169942
16	0x3e9e38a8	0.309026
17	0x3e2373be	0.15962121
18	0x3e697099	0.22796859
19	0x3e7edcef	0.24888967
20	0xbe0063d5	-0.12538083
21	0x3e9fcac9	0.312094
22	0x3e203502	0.15645221
23	0x3eccc61b	0.39994892
24	0x3e63c0d0	0.22241521
25	0x3ec30d27	0.38095972
26	0x3e3e55af	0.18587373
27	0xbe3566fd	-0.17715068
28	0xbd862883	-0.06550696
29	0x3e265ac3	0.1624556
30	0x015cf00a	4.0579838e-38
31	0xbe85e7cd	-0.26153412
32	0xaeac2ee9	-7.8299874e-11
33	0x3dc4175a	0.095747665
34	0x3f3c59d3	0.7357456
35	0x3f096f07	0.5368504
36	0x3c07dea2	0.008292826
37	0x3e7efbe0	0.2490077
38	0x3e654701	0.22390367
39	0xbbdc9f20	-0.0067328364
40	0x3ed9dcbb	0.42551216
41	0xbdc20b5a	-0.094748214
42	0x3ea0860e	0.31352276
43	0x3d37629f	0.044771787
44	0x0186893a	4.9420736e-38
45	0x3dfa837a	0.122321084
46	0x3e1313eb	0.14363067
47	0x3ee541c6	0.44776744
48	0x3e23ded0	0.16002965
49	0xba1dc935	-0.0006019057
50	0x3ea2cabf	0.31795308
51	0x3b9f4370	0.004860334
52	0x3d57ee9f	0.0527178
53	0x3eca4351	0.39504483
54	0xbd04f665	-0.032461543
55	0x3d875d00	0.06609535
56	0x3e66a57c	0.22524065
57	0xbe39c025	-0.18139704
58	0x3f26645b	0.6499688
59	0x3eba2e68	0.3636353
60	0x80920c4e	-1.3412397e-38
61	0x3ea5727e	0.32313913
62	0x3d1c7b7a	0.038203694
63	0xbe86fa2a	-0.26362735
64	0x3f16dce6	0.58930814
65	0xbee43cd5	-0.4457766
66	0x3eeda12b	0.46412024
67	0x3ecd5ad3	0.40108356
68	0x3ecb0dfc	0.39659107
69	0x3c8db839	0.017299758
70	0xbb3e4eae	-0.0029038596
71	0xbe2a9851	-0.16659667
72	0x3eff627f	0.49879834
73	0x3ece6ac6	0.40315837
74	0x3eb72442	0.3576985
75	0x3eb59463	0.35464773
76	0xbe3f440c	-0.18678302
77	0xbdccf34b	-0.10007342
78	0xbe9ffedb	-0.31249127
79	0xb296f09a	-1.7571711e-08
80	0x3e183706	0.1486474
81	0xbc33dce7	-0.01097796
82	0x3ea36f7e	0.31921
83	0xbea139b5	-0.3148934
84	0x3d5ad7fa	0.053428628
85	0x3dcc45ad	0.09974227
86	0x3e463011	0.19354273
87	0xbe47bec7	-0.1950637
88	0x3e2926ea	0.16518751
89	0x3e1e1ca1	0.15440609
90	0x3e97b78e	0.2963223
91	0xbb760aa5	-0.0037542966
92	0x3eb992e0	0.3624487
93	0x3f1eb471	0.6199408
94	0x3e469da3	0.19396071
95	0x3ded5a73	0.115895174
96	0xbeb57a62	-0.35444933
97	0x3cac4806	0.021030437
98	0x3e8d90b0	0.2764945
99	0x3c4a178e	0.012334717
100	0x3bf8b9f3	0.0075905262
101	0x3e819a86	0.25313205
102	0x3d4e9ea9	0.05044428
103	0x004b7f98	6.933434e-39
104	0xbc78a536	-0.015176108
105	0xbea5bf97	-0.32372734
106	0x3db17eb8	0.08666748
107	0xbece2331	-0.40261224
108	0x3e6eb333	0.23310547
109	0xbd16a35b	-0.03677688
110	0xbe47d0e1	-0.19513275
111	0xbed9bdff	-0.42527768
112	0x3f0d59da	0.5521523
113	0xbd83a245	-0.06427435
114	0x3e29fd6d	0.1660058
115	0xbed65934	-0.41864932
116	0xbe81dc0e	-0.253632
117	0xbe9d405e	-0.3071317
118	0xbd7b8e76	-0.06141516
119	0xbd69162c	-0.05690591
120	0xbe604738	-0.21902168
121	0x3e8cb1dd	0.2747945
122	0x3de25ef8	0.1105327
123	0xbeacee0a	-0.3377536
124	0xbf23ffea	-0.6406237
125	0x3eadafbb	0.33923134
126	0x3e8a983e	0.27069277
127	0xbe32a915	-0.17447312

linear3.weight f4 [10, 128]
0	0xb19583e9	-4.351467e-09
1	0x3dd86055	0.10565249
2	0x3c6362c5	0.013878529
3	0x3e939891	0.28827336
4	0xbd66740d	-0.05626302
5	0xbe9cf7b8	-0.30657744
6	0xbd930c1a	-0.071800426
7	0x3d5ec30b	0.054385226
8	0x3eb369c5	0.35041633
9	0xbe340dfb	-0.17583458
10	0x3d1ed82b	0.038780373
11	0xbd4efcb7	-0.050533976
12	0x3ee6f0d9	0.45105627
13	0x9a4e8820	-4.2709762e-23
14	0x3d290ead	0.04127376
15	0xbc8d9eed	-0.017287696
16	0x3dc4e5b8	0.09614128
17	0x3e1f17f3	0.1553648
18	0x3df2609d	0.11834834
19	0xbdc72f87	-0.09725862
20	0x3e127419	0.143021
21	0x3aeba1b6	0.0017977271
22	0xbc9dd148	-0.019264832
23	0x3d99dda9	0.075129814
24	0xbd892433	-0.066963576
25	0x3de42caa	0.111413315
26	0xbe77aa90	-0.24186158
27	0xbef410f7	-0.47669193
28	0x3d1b89c0	0.037973166
29	0xbf227a59	-0.6346794
30	0x8e364b5a	-2.2469512e-30
31	0xbe6728cc	-0.22574157
32	0xa7de97f0	-6.178211e-15
33	0xbe8d99b8	-0.2765634
34	0x3ee42602	0.44560248
35	0x3e0295f8	0.12752521
36	0xbed4d2f6	-0.415672
37	0xbd883e9e	-0.06652568
38	0x3d769442	0.060199983
39	0xbedd726a	-0.43251354
40	0xbdb32864	-0.08747938
41	0x3d8acdc6	0.067775294
42	0x3dc0fbb0	0.094230056
43	0xbe44db27	-0.19224225
44	0xa3af864c	-1.9030415e-17
45	0xbf05267c	-0.5201185
46	0x3e82badf	0.25533196
47	0xbda13251	-0.07870925
48	0xbe5cea9a	-0.21573868
49	0x3c06fe92	0.008239405
50	0xbf091210	-0.53543186
51	0xbf120767	-0.57042545
52	0xbee28da5	-0.4424869
53	0x3e208312	0.15675
54	0x3dab3517	0.083597355
55	0xbe2ab683	-0.16671185
56	0xbd72d0c7	-0.059281137
57	0xbe9c693c	-0.30549037
58	0xbea47d10	-0.32126665
59	0xbea6cc56	-0.3257777
60	0x010bb2e9	2.565863e-38
61	0x3e852c55	0.26010385
62	0xbed4d57e	-0.41569132
63	0xbedf6e63	-0.43638906
64	0x3e90a748	0.28252625
65	0xbde30aa5	-0.11086015
66	0x3e77ce61	0.24199821
67	0x3e320e9b	0.17388384
68	0x3e456780	0.19277763
69	0x3de13fd1	0.109985
70	0x37937d7c	1.7582199e-05
71	0xbf3f77fe	-0.7479247
72	0xbeb76b20	-0.35823917
73	0xbf11fdfa	-0.5702816
74	0xbf387ed9	-0.72068554
75	0xbe9c7eb3	-0.30565414
76	0xbdbcff1c	-0.09228346
77	0xbe96eae1	-0.29476073
78	0xbe1aa075	-0.15100272
79	0x25b661c2	3.163821e-16
80	0x3eafda0d	0.34346047
81	0xbcdd9c57	-0.027052088
82	0xbb45d68d	-0.0030187697
83	0x3c9e81e7	0.019349052
84	0x3d1c0cbe	0.03809809
85	0x3cf7385b	0.03017824
86	0xbe9363cb	-0.28787073
87	0x3e449fa8	0.19201529
88	0x3d106ee1	0.035261992
89	0x3ddcb146	0.10776
90	0xbeaf7662	-0.34270006
91	0xbe7c137d	-0.24616809
92	0x3dd03ad4	0.101674706
93	0xbe8c6365	-0.27419582
94	0x3ebeee15	0.37291017
95	0xbe3fc48a	-0.18727317
96	0x3e1486a8	0.14504492
97	0xbdcee372	-0.101019755
98	0x3e17406a	0.14770666
99	0xbde51eef	-0.11187541
100	0x3e26adf4	0.16277295
101	0x3f0414ac	0.5159404
102	0xbf31b9c3	-0.69424075
103	0x33aba900	7.993549e-08
104	0xbbe5ccec	-0.007012954
105	0x3e1b01bd	0.15137382
106	0x3de817b9	0.1133265
107	0xbea922e6	-0.33034438
108	0xbeca9824	-0.395692
109	0x3c871cf6	0.016493302
110	0x3ec7f819	0.3905647
111	0xbf4bbeef	-0.79588217
112	0xbf299925	-0.66249305
113	0xbe45c998	-0.19315183
114	0x3de8d4d1	0.113687165
115	0xbe9ba0e8	-0.303962
116	0x3daf9cf1	0.08574856
117	0xbf308f7d	-0.68968946
118	0x3e34f027	0.17669736
119	0x3e048495	0.12941201
120	0x3e7cfd09	0.247059
121	0x3e3d4b9f	0.18485878
122	0x3d03ebb7	0.032207217
123	0xbe5deab0	-0.21671557
124	0x3c22ec50	0.009944037
125	0x3e8ab706	0.2709276
126	0x3e941d6b	0.28928694
127	0x3e0531ba	0.1300725
128	0xaa0dc3d7	-1.2591261e-13
129	0xbe6ccd28	-0.23125136
130	0x3d21f502	0.0395403
131	0x3eff4122	0.4985438
132	0xbd8b7ca7	-0.06810885
133	0xbd6bcafb	-0.057566624
134	0xbf3825ce	-0.71932685
135	0xbe27a5c3	-0.16371827
136	0xb9d6b4fd	-0.00040952108
137	0x3cddd004	0.027076729
138	0xbeb89195	-0.3604857
139	0xbd14f9f7	-0.036371198
140	0x3e0a5c84	0.13511854
141	0x32593887	1.2643915e-08
142	0xbf299ac3	-0.6625177
143	0x3db0b8b7	0.086289816
144	0x3ce642cf	0.028108029
145	0xbd6fb5b9	-0.058522914
146	0xbed3d0e1	-0.413703
147	0xbf67ce5c	-0.90549254
148	0x3d1a0c1b	0.0376092
149	0x3e3b9e81	0.18322183
150	0xbf041de8	-0.51608133
151	0xbe399acc	-0.18125457
152	0xbe86f862	-0.26361376
153	0xbeb73d35	-0.35788885
154	0x3de39009	0.11111457
155	0x3e02be40	0.12767887
156	0x3ebba3a6	0.3664829
157	0x3d40997f	0.047021385
158	0x9947b0b3	-1.0323743e-23
159	0x3dcedc3c	0.101006
160	0x0041b017	6.032476e-39
161	0x3e55266b	0.20815437
162	0x3daff7b9	0.08592171
163	0x3d5159bd	0.05111097
164	0xbe5f6222	-0.21814778
165	0xbf32467f	-0.6963882
166	0x3b27c12f	0.0025597324
167	0xbd2e5451	-0.04256088
168	0xbe4a11aa	-0.19733301
169	0x3de50f9e	0.11184619
170	0xbedbf806	-0.42962664
171	0x3e1af3dc	0.15132087
172	0x0175718b	4.5080856e-38
173	0xbda6d6ea	-0.0814646
174	0xbdb0ebb1	-0.086387046
175	0xbf389fdb	-0.7211892
176	0x3d528a94	0.05140169
177	0x3c61158e	0.013738049
178	0xbe0d759e	-0.13814399
179	0x3e7ae2ed	0.24500628
180	0xbe9bbe25	-0.30418506
181	0xbf1626bc	-0.58652854
182	0xbe7d1c44	-0.24717814
183	0xbe0093d4	-0.12556392
184	0xbe705cd4	-0.23472911
185	0x3e5e7b77	0.21726786
186	0x3e21870f	0.15774177
187	0xbd42cd54	-0.047559097
188	0x1f05aa36	2.830464e-20
189	0x3f064737	0.52452415
190	0xbe43cc20	-0.19120836
191	0x3d8266c7	0.063672595
192	0xbce9cb17	-0.028539224
193	0x3d9ce243	0.076603435
194	0x3e165a4b	0.14682882
195	0xbce28a1b	-0.027653744
196	0xbe1e5b8e	-0.15464613
197	0xbf1e5739	-0.6185184
198	0x3a7763e3	0.00094371865
199	0xbe871188	-0.26380563
200	0xbe9255cf	-0.28581092
201	0x3dbb8e35	0.09157983
202	0x3f0862d3	0.53275794
203	0xbe1a4679	-0.15065946
204	0xbe1d50fb	-0.15362923
205	0x3e2de507	0.16981898
206	0x3d824bae	0.06362091
207	0x38c91559	9.588403e-05
208	0x3e2286f0	0.15871787
209	0xbd111156	-0.035416923
210	0xbe7508ef	-0.23929189
211	0x3efa70e3	0.4891425
212	0x3dbcff50	0.092283845
213	0xbe79494e	-0.2434437
214	0x3da7b267	0.081883244
215	0xbe1223c5	-0.14271457
216	0x3e89a1ef	0.26881358
217	0x3c4f0d0c	0.012637388
218	0xbe0dc4d1	-0.13844611
219	0x3d03ecc5	0.032208223
220	0xbdfba3ba	-0.12287088
221	0x3d395ae3	0.045252692
222	0xbe8901b8	-0.26759124
223	0x3ecdeea2	0.40221125
224	0x3eb8435a	0.35988885
225	0x3d1d736c	0.038440153
226	0x3eb9ce4f	0.36290213
227	0xbed57285	-0.41688934
228	0x3f098ee5	0.53733665
229	0x3e919e79	0.28441218
230	0x3c972f30	0.018455118
231	0xb0667508	-8.3839824e-10
232	0x3c30d60c	0.01079322
233	0x3f33c461	0.70221525
234	0xbeb7a9f4	-0.3587185
235	0x3f10086d	0.56262857
236	0xbda4ff70	-0.08056533
237	0x3c882399	0.016618537
238	0x3f109647	0.56479305
239	0x3d046202	0.03232003
240	0x3c951b98	0.018201634
241	0x3d572616	0.052526556
242	0x3dd29c31	0.102836974
243	0x3df677af	0.120345466
244	0x3ea2195f	0.31659982
245	0xbdc76aa0	-0.09737134
246	0xbe81f3fb	-0.25381455
247	0x3ef38312	0.47560936
248	0x3cc378d8	0.023861334
249	0xbd483045	-0.04887416
250	0x3da0f3a3	0.0785897
251	0xbe41290c	-0.18863314
252	0x3e597416	0.2123569
253	0xbf0f4a10	-0.55972385
254	0x3e84a52d	0.2590727
255	0xbee961be	-0.45582384

linear3.bias f4 [10]
0	0xbd62b131	-0.055344764
1	0xbebe58e0	-0.3717718
2	0xbc0df72a	-0.008664886
3	0xbe868b25	-0.26278034
4	0xbd357687	-0.04430249
5	0xbe019c2b	-0.1265723
6	0xbc1fac9d	-0.009745744
7	0xbeb0a5f7	-0.3450162
8	0x3f438eee	0.7638997
9	0x3e87820b	0.26466402
