models/MNIST/cnn_num-modules=2_seed=031/099.pth (torch, 58727 bytes, 8 tensors)

conv1.weight f4 [32, 1, 3, 3]
0	0x9cffbcd0	-1.6923291e-21
1	0x1e07ea6f	7.19532e-21
2	0x20256feb	1.4013074e-19
3	0x1fa2af46	6.8899634e-20
4	0x1e249a48	8.713992e-21
5	0x20830bea	2.2200147e-19
6	0x200b6a7c	1.1808991e-19
7	0x1ed85ed2	2.2909106e-20
8	0x2020f165	1.3632398e-19
9	0xb0998ab1	-1.1171634e-09
10	0x30a534a6	1.2020294e-09
11	0xb024bb1c	-5.992875e-10
12	0x2c7f8e44	3.6316653e-12
13	0xaf125c13	-1.3311334e-10
14	0x3027fa23	6.110971e-10
15	0x2eb85e4c	8.384102e-11
16	0x2eecbdf8	1.0765783e-10
17	0xb004defd	-4.8338206e-10
18	0xbdc36862	-0.09541394
19	0xbe0dc7ef	-0.138458
20	0x3f30a023	0.6899435
21	0x3f43c40a	0.76471007
22	0x3e7e5662	0.2483764
23	0x3f31f0e4	0.69508195
24	0x3eaa93af	0.333158
25	0xbe8926a2	-0.26787287
26	0x3eb2ba0a	0.34907562
27	0xbd15fe66	-0.036619566
28	0x3db586e4	0.08863619
29	0x3ea61230	0.3243575
30	0x3ecd7fb4	0.40136492
31	0x3f10f958	0.5663047
32	0xbea05459	-0.31314352
33	0x3f176714	0.5914166
34	0xbf09b943	-0.5379831
35	0xbf4abe49	-0.791966
36	0xbf3e9f42	-0.7446176
37	0x3f1516a6	0.58237684
38	0x3ef6418f	0.48096892
39	0xbf7c8107	-0.9863438
40	0x3e5468c7	0.20743094
41	0x3f2fadc4	0.6862452
42	0xbf16be9c	-0.58884597
43	0xbf307b04	-0.68937707
44	0x3c480810	0.0122089535
45	0x3b1ecea6	0.0024232059
46	0xbeff3002	-0.49841315
47	0x3ea1fcf4	0.316383
48	0x3f26d9eb	0.65176266
49	0xbe52fc2f	-0.20604013
50	0x3ef72c7a	0.4827612
51	0x3ebe6837	0.37188885
52	0xbee9174e	-0.45525593
53	0x3db89d8d	0.090144254
54	0xbd96e6ed	-0.07368264
55	0xbf48ef5a	-0.7849022
56	0xbe1f32b4	-0.15546685
57	0x3f06bf75	0.5263589
58	0xbf020671	-0.5079108
59	0xbefd0a49	-0.4942191
60	0x3f1ef693	0.6209499
61	0x3eac29ee	0.3362574
62	0xbdbc2c5f	-0.091881506
63	0x3ec974c2	0.39346892
64	0x3bd1701c	0.0063915383
65	0x3ec51a74	0.38496745
66	0x3f42cf07	0.7609715
67	0x3eb549b5	0.35407797
68	0x3f11354f	0.5672197
69	0x3f33f48f	0.7029504
70	0x3f18ffa9	0.59765106
71	0x3ddb2c38	0.107017934
72	0x3ef601ce	0.48048252
73	0x3ec83692	0.39104134
74	0x3f1f4074	0.6220772
75	0xbf23fba9	-0.6405588
76	0xbe672048	-0.22570908
77	0x3e3479bd	0.17624564
78	0xbf5baa45	-0.85806686
79	0xbf12722f	-0.5720548
80	0xbe4e5382	-0.20149043
81	0x3ed422de	0.41432852
82	0xbe5a36d9	-0.21309985
83	0x3d4523c6	0.04812982
84	0x3f39299f	0.72329134
85	0xbed9793d	-0.4247531
86	0xbf137e70	-0.57614803
87	0x3ebbeb25	0.3670284
88	0xbeb6d4cc	-0.35709226
89	0x3dd5bfb8	0.10436958
90	0xbf009b57	-0.5023703
91	0x3efbb3f4	0.4916073
92	0x3cd09bb9	0.02546488
93	0xbe49ac74	-0.19694692
94	0x3f024c31	0.5089751
95	0xbed86500	-0.42264557
96	0x3d0dd6d7	0.034628715
97	0x3ecfd979	0.40595606
98	0xbe82982f	-0.25506732
99	0x3e807598	0.25089717
100	0x3f0cd099	0.55005795
101	0x3ec09572	0.37614018
102	0xbecfb90e	-0.40570873
103	0xbc336fc5	-0.010951941
104	0x3f07ee6b	0.5309817
105	0xbef50faf	-0.47863528
106	0xbf1b57db	-0.6068093
107	0xbe0845d7	-0.13307892
108	0x3ebd8025	0.3701183
109	0x3e926d5f	0.2859907
110	0xbf25bdd0	-0.64742756
111	0xbbc72221	-0.0060770665
112	0x3ee22a17	0.44172737
113	0xbf04faa1	-0.5194493
114	0x3e8241e4	0.25440896
115	0xbc9ba1c1	-0.018998029
116	0xbe7c3aa3	-0.24631743
117	0x3f020c19	0.5079971
118	0x3ee0a413	0.4387518
119	0x3f1fd183	0.62429065
120	0xbe7b3ea1	-0.2453561
121	0xbecd10df	-0.40051934
122	0xbf161cbf	-0.58637613
123	0xbde455be	-0.111491665
124	0xbec94588	-0.3931086
125	0xbe28f03d	-0.16497894
126	0x3ef16231	0.47145227
127	0x3f07b868	0.53015757
128	0x3f07b33f	0.5300788
129	0x3f0620f1	0.52394015
130	0x3e83888f	0.25690123
131	0xbdaa39ec	-0.08311829
132	0x3f27fcf8	0.65620375
133	0x3ec7b680	0.39006424
134	0xbdd6c282	-0.10486318
135	0x3e890cdc	0.26767623
136	0x3c18e3ff	0.009331702
137	0xbf7063d1	-0.9390231
138	0x3ec8cab9	0.39217165
139	0x3f22ff53	0.63670844
140	0x3ebe738c	0.3719753
141	0xbef244ad	-0.4731802
142	0xbe3aa27f	-0.1822605
143	0x3ed27708	0.4110644
144	0xbe6da547	-0.2320758
145	0xbed288e3	-0.4112006
146	0xbeaf61b2	-0.34254223
147	0xbf48615d	-0.78273565
148	0x3e59b6ad	0.21261092
149	0x3f2398c8	0.63905
150	0x3ec44e25	0.3834087
151	0x3e1efbcf	0.15525745
152	0x3cd5e16a	0.026108462
153	0x3eb98822	0.36236674
154	0x3f105c21	0.5639058
155	0x3d9e88f1	0.07740963
156	0x3dd81e0e	0.105526075
157	0xbe79b307	-0.243847
158	0xbdf79421	-0.120888
159	0x3e389be6	0.1802822
160	0xbf28be92	-0.6591579
161	0xbed40179	-0.41407374
162	0xbf04fb27	-0.5194573
163	0xbeceed43	-0.4041539
164	0xbe4b947f	-0.19880866
165	0xbf3cf217	-0.738069
166	0xbe732fb1	-0.23748662
167	0x3e962723	0.29326734
168	0x3e2488ea	0.16067854
169	0x3f29ef2a	0.6638056
170	0x3f3182c2	0.69340146
171	0x3eb79422	0.35855204
172	0x3ebbdb56	0.36690778
173	0x3d3b6dfe	0.045759194
174	0x3f00cbd3	0.5031101
175	0x3e14bb3f	0.14524554
176	0xbdbe615c	-0.092959136
177	0xbe6c91e2	-0.23102525
178	0xbf1865bd	-0.5953024
179	0xbf3cccc7	-0.73749965
180	0xbf09a379	-0.53765064
181	0xbf06e33e	-0.52690494
182	0x3f04da57	0.5189566
183	0x3f0d8344	0.5527842
184	0x3ee4f82b	0.44720587
185	0x3f10858a	0.56453764
186	0x3d9dc82c	0.077041954
187	0xbd011e4e	-0.03152304
188	0xbeb02e51	-0.34410337
189	0xbf39d9a0	-0.72597694
190	0xbf775743	-0.96617526
191	0x3ed0778e	0.40716213
192	0x3ee2f32d	0.44326153
193	0xbef22d1a	-0.47300035
194	0xbfb33678	-1.4000998
195	0x3f06ff7d	0.52733594
196	0x3f1a4e80	0.6027603
197	0xbf52a0a2	-0.82276356
198	0xbf3c71a0	-0.7361088
199	0x3e987349	0.29775456
200	0x3f645a55	0.89200336
201	0xbf19f554	-0.60139966
202	0x3e5f66e0	0.21816587
203	0x3f16e167	0.58937687
204	0x3b311213	0.002701883
205	0x3eb1690d	0.3465046
206	0x3e188f1a	0.14898339
207	0x3e9ae6c3	0.30254182
208	0xbf1ae2dc	-0.6050241
209	0xbd721e3f	-0.059110876
210	0xbee7ed8d	-0.45298424
211	0xbe19759d	-0.14986272
212	0x3eb1822d	0.3466963
213	0xbf4a1bd8	-0.78948736
214	0xbd9de8c0	-0.07710409
215	0x3f2dfad0	0.67960835
216	0xbead6ec4	-0.3387357
217	0x3f213d2d	0.6298397
218	0x3e27c63a	0.16384211
219	0x3e419260	0.18903494
220	0x3ef07af2	0.469688
221	0xbf149675	-0.5804208
222	0x3e7c545f	0.2464156
223	0x3d44b22c	0.04802148
224	0xbf1aeacc	-0.6051452
225	0x3ed770d9	0.42078283
226	0x3da34062	0.079712644
227	0xbf14561d	-0.579439
228	0x3c830607	0.015994085
229	0xbf689e5e	-0.9086665
230	0xbed3aba1	-0.4134188
231	0xbfae0153	-1.3594154
232	0xbdfc66fb	-0.123243295
233	0x3e1ed4ce	0.15510866
234	0x3e3991e8	0.18122065
235	0x3f0dd788	0.55407
236	0x3eddb6d8	0.4330356
237	0x3eccff13	0.40038356
238	0x3e6bc67f	0.23024939
239	0x3f3a27f1	0.72717196
240	0x3e5b5980	0.2142086
241	0x3d37fc20	0.04491818
242	0x3f4a4033	0.7900421
243	0xb1ff5e46	-7.4321944e-09
244	0xb3212553	-3.751968e-08
245	0xb2b4ad7b	-2.1033648e-08
246	0xb1a5fb3f	-4.8306954e-09
247	0xb33bff83	-4.3771717e-08
248	0xb2ed3cde	-2.761811e-08
249	0xae185b88	-3.4642095e-11
250	0xb040f0c7	-7.019136e-10
251	0xb0421936	-7.0612616e-10
252	0x3efdb8c5	0.4955503
253	0x3e5d4d7b	0.21611588
254	0xbf6c2847	-0.9224896
255	0xbe0adbe7	-0.13560449

conv1.bias f4 [32]
0	0xa137a478	-6.2220484e-19
1	0xb8bb84d8	-8.941599e-05
2	0xbad5ca9d	-0.0016310994
3	0xbd458f74	-0.04823251
4	0x3d5a9cd8	0.053372234
5	0xba9ec274	-0.0012112395
6	0xbb2c55b0	-0.002629619
7	0xbb061f0d	-0.0020465285
8	0xbe4ceb62	-0.20011666
9	0xbde4f65d	-0.111798026
10	0xbde8b46c	-0.11362538
11	0xbbbb1996	-0.005709837
12	0x3d856f79	0.06515402
13	0x3ab1ff0b	0.0013580037
14	0x3d2b2f88	0.041793376
15	0x3d05758c	0.032582805
16	0xbbabb2b0	-0.005239807
17	0xbb158d3a	-0.0022819773
18	0x3dbdf66c	0.09275517
19	0xbb1d9ecc	-0.002405095
20	0xbd549e86	-0.051908992
21	0x3dbfaa6c	0.09358677
22	0xba5b42fb	-0.0008364168
23	0xbbb7d335	-0.0056098946
24	0xbc82209d	-0.015884692
25	0x3ec4632c	0.38356912
26	0xbb330296	-0.0027314774
27	0xb355db88	-4.979259e-08
28	0xbb08533a	-0.002080156
29	0xbbeae78e	-0.0071687168
30	0x3c5ede35	0.013602783
31	0xbb815f23	-0.0039481088

conv2.weight f4 [32, 1, 3, 3]
0	0x229aff06	4.20118e-18
1	0x222b13be	2.3185273e-18
2	0x21a46a3c	1.1141192e-18
3	0x22a00424	4.337247e-18
4	0x22113920	1.9681406e-18
5	0x218a1686	9.357206e-19
6	0x2144f6f6	6.6734233e-19
7	0x2014d9fe	1.2608215e-19
8	0xa1e95093	-1.5810022e-18
9	0x2e2f4e96	3.986019e-11
10	0xaed716d2	-9.781122e-11
11	0xafa7453a	-3.0426311e-10
12	0x2e6e3259	5.4159652e-11
13	0x2f35fe42	1.6552185e-10
14	0x2f0ba716	1.2701337e-10
15	0x2e3c7071	4.284612e-11
16	0x2dfad690	2.8516994e-11
17	0xaf228719	-1.478181e-10
18	0x3ea8c652	0.32963806
19	0xbe3fdc39	-0.18736352
20	0x3e90ce70	0.282825
21	0xbeaf751e	-0.3426904
22	0xbe50457c	-0.20339006
23	0x3eb109b3	0.34577712
24	0xbeb1b227	-0.34706232
25	0xbe581643	-0.21102242
26	0x3ecb9959	0.39765432
27	0x3dcc1ac2	0.09966041
28	0x3d0ec44b	0.03485517
29	0xbf098092	-0.5371181
30	0x3ce33a12	0.027737651
31	0xbeafbdc3	-0.34324464
32	0x3dca3a7f	0.098744385
33	0x3e4b171a	0.19833031
34	0x3f2acd2f	0.66719335
35	0x3f6e351e	0.930498
36	0xbe6b156a	-0.22957388
37	0xbe3f2d06	-0.18669519
38	0xbd29e65b	-0.04147945
39	0xbf40d341	-0.7532235
40	0xbe9b07ea	-0.30279475
41	0x3de90e2f	0.113796584
42	0xbfb6757a	-1.4254601
43	0xbf325e0e	-0.69674766
44	0xbea7dc1c	-0.32785118
45	0xbf07ca18	-0.53042746
46	0xbc59b00d	-0.013286603
47	0xbcf358d6	-0.029705446
48	0x3d2293dc	0.03969179
49	0x3d8ee693	0.06977572
50	0xbf1b20ad	-0.60596734
51	0x3ef85b66	0.4850723
52	0xbf1101b4	-0.56643224
53	0xbf361600	-0.7112732
54	0xbf8396e1	-1.028042
55	0xbf031dbe	-0.5121726
56	0xbeff24d3	-0.49832782
57	0xbf8bd951	-1.0925695
58	0xbf608b3c	-0.87712455
59	0xbf2569ea	-0.6461474
60	0xbf3d309f	-0.73902315
61	0xbe1d3c2d	-0.15354986
62	0xbe77b92a	-0.24191728
63	0x3f178725	0.5919059
64	0x3d9bcbdd	0.07607243
65	0xbeefdfb5	-0.46850362
66	0x3ea0a882	0.3137856
67	0x3e33eb08	0.17570126
68	0xbf159474	-0.58429646
69	0x3bd2403c	0.0064163487
70	0xbe5a792a	-0.21335283
71	0x3ece324b	0.40272745
72	0x3dc09c8e	0.094048604
73	0xbe1e4de7	-0.15459405
74	0xbf0a38d9	-0.5399299
75	0xbf3d2318	-0.73881674
76	0xbefa676a	-0.48907024
77	0xbf922fdb	-1.1420854
78	0xbf89de7f	-1.0771025
79	0xbeed4ed4	-0.46349204
80	0xbe88d40e	-0.26724285
81	0xbee72b93	-0.45150432
82	0xbee47d28	-0.44626737
83	0xbcff9982	-0.031201128
84	0xbf54d40f	-0.83136076
85	0xbf28fa85	-0.6600726
86	0xbef9e095	-0.48804155
87	0xbf848f18	-1.0356169
88	0xbebbfc0c	-0.36715734
89	0xbf263271	-0.6492072
90	0xbe4a8ea5	-0.19780977
91	0x3e595e7f	0.21227454
92	0x3d54c9a3	0.05195011
93	0x3e946c6e	0.28988975
94	0x3e6e7168	0.23285449
95	0x3f0605ea	0.52352774
96	0x3ed4baea	0.41548854
97	0x3ec7b474	0.39004862
98	0x3f851f35	1.0400149
99	0x3ed01bc4	0.40646183
100	0x3f81371b	1.0094942
101	0x3fb3a642	1.4035113
102	0xbe42dc22	-0.19029287
103	0x3ec71dd8	0.38889956
104	0x3e4e13cd	0.20124741
105	0x3ea67dd6	0.3251788
106	0x3f27d8b5	0.65565044
107	0x3f2dafdf	0.67846483
108	0xbf02fe37	-0.5116915
109	0x3d5de4b4	0.054173186
110	0xbe365d5b	-0.1780905
111	0xbecd9362	-0.40151507
112	0xbf25b7dd	-0.6473368
113	0x3e15bd1d	0.14622922
114	0xbeae049b	-0.3398789
115	0xbf3624fc	-0.71150184
116	0xbea65b2c	-0.32491434
117	0xbedecf00	-0.43517303
118	0xbf8bb736	-1.0915287
119	0xbf01e873	-0.50745314
120	0xbf00ba20	-0.50284004
121	0xbe937fff	-0.2880859
122	0xbf28d926	-0.6595634
123	0xbf31205f	-0.6919002
124	0xbf2f9289	-0.6858297
125	0xbf589d4d	-0.8461502
126	0xbf046114	-0.5171063
127	0x3dfe7e98	0.124264896
128	0x3f1723f8	0.5903926
129	0x3ed4a3a3	0.41531095
130	0x3e7b91fd	0.24567409
131	0xba8ec33c	-0.0010891925
132	0x3ed94955	0.4243876
133	0xbed94559	-0.4243572
134	0xbe88737c	-0.26650608
135	0xbe95a901	-0.29230502
136	0xbefff058	-0.49988055
137	0xbeb1b618	-0.3470924
138	0xbe9ae9e1	-0.3025656
139	0xbf02cb0e	-0.51091087
140	0xbe5e5337	-0.21711431
141	0xbeb71d6f	-0.35764644
142	0x3e923a05	0.2855989
143	0x3f0597fa	0.5218502
144	0x3eef1e84	0.4670297
145	0xbcd06b10	-0.025441676
146	0x3f5ee7be	0.8707236
147	0x3f2fecef	0.68720907
148	0x3eb61d65	0.355693
149	0x3e606eff	0.21917342
150	0xbec62fd4	-0.38708365
151	0xbed3b26d	-0.41347066
152	0xbe87dbec	-0.26534975
153	0xbe094a08	-0.13407147
154	0x3e60a9a3	0.21939711
155	0x3ebce4d7	0.3689334
156	0x3f01731c	0.5056627
157	0x3cf81683	0.030284172
158	0xbef39e45	-0.47581688
159	0x3f4b05b5	0.79305583
160	0x3ea511ca	0.32240134
161	0x3ef9eb65	0.48812404
162	0xbe8a3361	-0.26992324
163	0x3e96e8c2	0.29474455
164	0x3ebf57fe	0.3737182
165	0xbf2dc5b9	-0.67879826
166	0xbf1e76c8	-0.61899996
167	0xbecdab5b	-0.40169796
168	0xbf37d9fa	-0.7181698
169	0xbf125e10	-0.5717478
170	0xbe3d71f2	-0.18500498
171	0x3f7221b2	0.94582665
172	0x3ef47371	0.47744325
173	0x3ecb050c	0.39652288
174	0x3e281ce2	0.16417268
175	0xbdcab292	-0.09897341
176	0x3f027d93	0.5097286
177	0x3d07acb3	0.033123683
178	0x3eaa6801	0.33282474
179	0x3f420048	0.7578168
180	0xbe2fbbf5	-0.17161544
181	0xbceae85b	-0.028675249
182	0x3f10899f	0.56459993
183	0x3f1c85f8	0.6114192
184	0x3f066858	0.52502966
185	0x3f188ef9	0.5959316
186	0x3e211a64	0.15732723
187	0x3e69dc27	0.22837888
188	0x3f417fc1	0.7558556
189	0x3d897ffb	0.067138635
190	0xbecab450	-0.39590693
191	0xbf4788d7	-0.77943176
192	0xbe616cb2	-0.2201412
193	0xbe55cf86	-0.20879945
194	0xbf67117d	-0.9026106
195	0xbf0a6f36	-0.54075944
196	0xbf3d625d	-0.73978215
197	0xbf87bf07	-1.0605172
198	0xbea0f75c	-0.3143872
199	0xbf03113d	-0.5119818
200	0x3e993f43	0.29931077
201	0xbe558df5	-0.20854934
202	0xbbf901bb	-0.0075990832
203	0x3f2e04ce	0.6797608
204	0xbe6fad8d	-0.23406048
205	0xbbc5aaf4	-0.006032342
206	0xbe91ef76	-0.28503007
207	0x3f39d702	0.725937
208	0x3f497256	0.7869009
209	0x3f46c373	0.7764198
210	0x3f0f6254	0.5600941
211	0x3f12bff4	0.5732415
212	0x3e915ac4	0.2838956
213	0x3eb24fb9	0.3482645
214	0x3ee08785	0.43853393
215	0x3f1fede9	0.624724
216	0x3f539ddb	0.82662743
217	0x3d4b732f	0.049670395
218	0x3e8b1d49	0.2717078
219	0xbe568711	-0.20949961
220	0xbec3dbcb	-0.38253626
221	0xbf075ca9	-0.52875763
222	0xbea053e7	-0.31314012
223	0xbede2993	-0.43391094
224	0xbdbcf421	-0.092262514
225	0xbefbac46	-0.49154872
226	0xbf14b208	-0.58084154
227	0xbe753751	-0.23946883
228	0xbecfdd46	-0.40598506
229	0xbef304f4	-0.47464716
230	0xbf09a809	-0.53772026
231	0xbe9ce650	-0.30644464
232	0xbf096ea7	-0.5368447
233	0xbf0d7110	-0.55250645
234	0xbeb8a6e4	-0.36064827
235	0xbecd349a	-0.40079194
236	0x3e717c4a	0.23582569
237	0x3e616dfc	0.22014612
238	0xbeb1cd1c	-0.347268
239	0x3f1c66b9	0.6109424
240	0x3ea2e487	0.31814978
241	0xbe30e7df	-0.17275952
242	0x3f15c89d	0.58509237
243	0xb507a862	-5.053645e-07
244	0xb6a7132e	-4.9792206e-06
245	0xb6076857	-2.0177301e-06
246	0xb2920a73	-1.7001389e-08
247	0xb4c7b0e7	-3.7195352e-07
248	0xb66353b7	-3.3874364e-06
249	0xa62920aa	-5.867792e-16
250	0xb281b253	-1.5098669e-08
251	0xb4829654	-2.4323765e-07
252	0xbf20618c	-0.62648845
253	0xbf2fbaab	-0.6864421
254	0xbf1e36e7	-0.61802524
255	0xbef86cf6	-0.4852063

conv2.bias f4 [32]
0	0xbc6e5124	-0.014545713
1	0xbc6caa2a	-0.014444867
2	0x3d89c2e3	0.06726625
3	0x3d8ef7c9	0.06980855
4	0x3ed93a0c	0.424271
5	0xbe0a5576	-0.13509163
6	0x3dbdf31c	0.09274885
7	0xbe309b64	-0.17246777
8	0x3e83196c	0.25605333
9	0x3e9d62d4	0.30739462
10	0xbd34d4d6	-0.04414829
11	0x3d88f9e0	0.06688285
12	0x3e872c1a	0.26400834
13	0x3d7265bf	0.059179064
14	0xbe1f1f66	-0.15539321
15	0xbe19e996	-0.15030512
16	0xbe98bdf1	-0.29832414
17	0x3d4ee02a	0.05050675
18	0x3e9ff906	0.31244677
19	0xbeed36a7	-0.4633076
20	0xbbd9e760	-0.0066498965
21	0x3ccac1e3	0.024750656
22	0x3ebc460b	0.3677219
23	0x3d3543fd	0.04425429
24	0xbd2253fd	-0.03963088
25	0xbb8bf6c2	-0.004271359
26	0x3e178ff5	0.14801009
27	0xbb202bf7	-0.0024440268
28	0x3e8d3c31	0.27584985
29	0x3dc09cb5	0.094048895
30	0x3eb8e69b	0.36113438
31	0x3d57e9d0	0.052713215

conv3.weight f4 [20, 32, 1, 1]
0	0x3e001ff7	0.12512194
1	0x3c92e3ec	0.017930947
2	0xbe3490ce	-0.17633364
3	0xbda8aa07	-0.08235555
4	0xbf42de30	-0.7612028
5	0x3e051fa1	0.13000347
6	0x3e34e4bd	0.17665382
7	0xbf2872de	-0.65800273
8	0x3eb80e21	0.3594828
9	0xbec3487a	-0.38141233
10	0x3d6942d8	0.056948513
11	0x3d833ae6	0.06407718
12	0x3d900f25	0.070341386
13	0x3d6f61da	0.058442928
14	0xbe02a21c	-0.12757152
15	0xbe168f60	-0.1470313
16	0x3e161e8c	0.1466009
17	0xbe0d2cf4	-0.1378668
18	0x3f5992e2	0.8498975
19	0x3ecf1c68	0.4045136
20	0xbf0aca10	-0.5421457
21	0x3d416fcb	0.047225755
22	0xbe45d49b	-0.19319384
23	0x3db70ade	0.089376196
24	0xbe5410e3	-0.20709567
25	0xbe308c07	-0.17240916
26	0xbf3dc53a	-0.7412907
27	0x3b9b531a	0.004740131
28	0xbe8b494b	-0.27204356
29	0xbeb1a130	-0.3469329
30	0x3f5bf706	0.859238
31	0x3e677ea4	0.22606903
32	0xbddab7ef	-0.10679614
33	0xbddb3949	-0.10704286
34	0xbde4356e	-0.111430034
35	0xbdc50b44	-0.09621289
36	0x3ec7508a	0.38928634
37	0xbd4d42eb	-0.050112646
38	0x3ef9ef8c	0.48815572
39	0x3e84f8f9	0.259712
40	0xbcfe012e	-0.031006422
41	0x3ed26e0f	0.41099593
42	0x3d734ef2	0.05940146
43	0x3db174dc	0.08664867
44	0x3e435e13	0.19078855
45	0xbea61df5	-0.3244473
46	0xbdd25a03	-0.102710746
47	0x3eaeff82	0.34179312
48	0xbeb63376	-0.35586137
49	0x3e69acbf	0.22819804
50	0xbf23481f	-0.63781923
51	0xbda0546b	-0.078286014
52	0xbec4d727	-0.38445398
53	0x3e01ab30	0.12662959
54	0xbef3708a	-0.47546798
55	0x3d851b86	0.0649939
56	0x3e53e480	0.20692635
57	0xbdfb26b5	-0.12263242
58	0xbea357fb	-0.3190306
59	0xbbbf65c1	-0.0058409874
60	0x3e8f356b	0.27970442
61	0xbd8fac42	-0.070152774
62	0x3e16996f	0.14706968
63	0x3eb898da	0.36054116
64	0xbd9fba06	-0.07799153
65	0xbda0f309	-0.07858855
66	0xbe0c48af	-0.13699602
67	0x3eb730ca	0.3577941
68	0x3c93d677	0.0180466
69	0xbec5a040	-0.38598824
70	0xbe70e233	-0.23523788
71	0xbd203af1	-0.03911871
72	0xbe107b57	-0.1410955
73	0x3f57b14e	0.8425492
74	0x3de80610	0.11329281
75	0xbe55fca4	-0.20897156
76	0x3e76d4d6	0.24104628
77	0x3f019345	0.5061534
78	0x3ed541b7	0.416517
79	0xbe852ce4	-0.2601081
80	0x3d6b2bb5	0.05741473
81	0x3e329ad1	0.1744187
82	0xbc85afed	-0.01631924
83	0xbe9c691b	-0.3054894
84	0x3eaa709a	0.33289033
85	0x3ddb7df8	0.10717386
86	0xbeb943ea	-0.36184627
87	0xbe89e48a	-0.26932174
88	0xbe496205	-0.19666298
89	0x3ec58712	0.38579613
90	0x3e4098e4	0.18808323
91	0x3c60590d	0.013693106
92	0x3e84338c	0.25820577
93	0xbddd8db0	-0.1081804
94	0x3d67db9e	0.056605928
95	0xbd46d02f	-0.048538383
96	0x3d845ff3	0.06463613
97	0xbbbe6b1f	-0.0058111097
98	0x3d90c065	0.07067946
99	0x3e926753	0.28594455
100	0x3e0e6245	0.13904674
101	0x3d951f06	0.07281308
102	0x3f562b3b	0.83659714
103	0x3d4f4995	0.050607283
104	0x3e209608	0.15682232
105	0xbe2f0ed4	-0.170955
106	0x3ca5354c	0.020167015
107	0x3ccec018	0.025238082
108	0x3e1ac7d5	0.15115292
109	0xbe3abf1b	-0.18236963
110	0x3d166644	0.03671862
111	0xbe434943	-0.19070916
112	0xbdf15925	-0.11784581
113	0x3e92e5bc	0.28690898
114	0xbeafc7b8	-0.3433206
115	0xbe5d24cc	-0.21596068
116	0x3e2a7837	0.16647421
117	0x3ed9b4e9	0.42520836
118	0xbc9c8049	-0.01910414
119	0xbb50f2ec	-0.0031883074
120	0xbea047ea	-0.31304866
121	0x3d039951	0.032128636
122	0xbd0acbe9	-0.03388587
123	0xbcda729c	-0.026665978
124	0xbeb44a52	-0.35212952
125	0xbdcbb8b9	-0.099473424
126	0x3d0df2f9	0.034655545
127	0x3e285c4a	0.16441455
128	0x3080e744	9.378955e-10
129	0x35d56c20	1.5901205e-06
130	0xb6d9a748	-6.486578e-06
131	0xbc1eeaa1	-0.009699495
132	0x3aea8d9a	0.0017894984
133	0x3c50f0b8	0.012752704
134	0x3c5f6a8f	0.013636245
135	0xba2c04d4	-0.0006561999
136	0xb8421869	-4.6275938e-05
137	0x3ab3b1e5	0.0013709633
138	0xba529a61	-0.00080338685
139	0xbc485e53	-0.01222952
140	0x3b1b1947	0.002366619
141	0x3bbcfe56	0.005767624
142	0x2f2c9767	1.5697098e-10
143	0x3c4ece1f	0.012622385
144	0x3b836d60	0.0040108413
145	0xbba87494	-0.0051408503
146	0x3c43ce2d	0.011951012
147	0x3ade3c81	0.0016955287
148	0xbc549b5f	-0.0129764965
149	0x3c80a416	0.015703242
150	0xbbc2b98b	-0.0059425286
151	0xbc1bf29d	-0.009518293
152	0x3b43249f	0.0029776467
153	0x3cb4eaea	0.022084672
154	0xbc86e52a	-0.016466696
155	0x81bcd558	-6.9366426e-38
156	0x278bf401	3.88448e-15
157	0xbc4a5ddf	-0.012351482
158	0x3c03cfac	0.008045118
159	0xbb1cdf80	-0.0023936927
160	0xbd74736e	-0.059680395
161	0x3cf25579	0.029581772
162	0x3b84c8cf	0.0040522586
163	0xbeb1e7fd	-0.34747306
164	0xbee8cc0f	-0.45468184
165	0x3ea3fb6d	0.3202776
166	0x3d8d9fd9	0.06915254
167	0x3e359530	0.17732692
168	0x3e533fd3	0.20629816
169	0xbedbcfc5	-0.42931953
170	0x3c9c64d4	0.019091047
171	0x3db81af0	0.08989513
172	0x3ce2c9bd	0.027684087
173	0xbc4a7b27	-0.012358463
174	0x3e33ad0b	0.1754648
175	0x3d6ea000	0.058258057
176	0xbd2954c5	-0.04134061
177	0xbbc30bd1	-0.0059523364
178	0x3f327285	0.6970599
179	0xbee2b36e	-0.4427752
180	0xbe8884e9	-0.26663902
181	0xbe0df45f	-0.13862751
182	0xbe9d2a7e	-0.3069648
183	0x3f0b2dca	0.54366744
184	0xbb13fb33	-0.0022580146
185	0x3d34e653	0.044164967
186	0xbde86126	-0.113466546
187	0xbbfc0b66	-0.0076917885
188	0xbe895432	-0.26822048
189	0xbd05b5c3	-0.032644045
190	0x3efbdacd	0.4919037
191	0x3c4c0e09	0.012454518
192	0x3dcf9e6c	0.101376384
193	0x3da36794	0.0797874
194	0xbdac8c23	-0.084251665
195	0x3d839a44	0.06425908
196	0xbce1a457	-0.027544184
197	0x3c1a719e	0.0094265025
198	0xbea2e9c1	-0.31818965
199	0x3d908529	0.07056648
200	0xbf138089	-0.57618004
201	0x3f0f5c98	0.5600066
202	0xbe0730fc	-0.1320228
203	0xbe7601ed	-0.24024172
204	0x3e653272	0.22382525
205	0x3e37b14a	0.17938724
206	0x3c2f3bab	0.010695378
207	0xbe9deacd	-0.308432
208	0x3ee70c8b	0.45126757
209	0x3cb5a877	0.022175057
210	0x3f008ed0	0.50217915
211	0x3e1beb9f	0.15226601
212	0x3e7b9a5a	0.24570599
213	0x3e395100	0.18097305
214	0x3f180f16	0.5939802
215	0xbe3f4711	-0.18679453
216	0xbe28b09f	-0.16473626
217	0xbdea4888	-0.114396155
218	0xbe5194e9	-0.20466961
219	0xbc1719b4	-0.009222437
220	0xbe3d4a73	-0.18485431
221	0xbf52d2ab	-0.82352704
222	0xbe0b3e48	-0.13597977
223	0x3c8fae17	0.017539067
224	0xbab54e90	-0.0013832618
225	0xbdc97f2d	-0.0983871
226	0xbecf2cfe	-0.40464014
227	0x3d797fb1	0.06091279
228	0x3e92a992	0.28644997
229	0xbd43b15c	-0.047776565
230	0x3f0dcc0c	0.55389476
231	0xbe9dd360	-0.3082533
232	0x3f81eba1	1.0150033
233	0xbe8e20c2	-0.27759367
234	0x3ecf6dc3	0.4051343
235	0xbf72874c	-0.94737697
236	0xbe686402	-0.226944
237	0x3bf438e6	0.007453072
238	0x3eaa7332	0.33291012
239	0x3db47e66	0.08813171
240	0x3e7fb450	0.24971128
241	0x3eec26c0	0.46123314
242	0xbeb9c897	-0.3628585
243	0x3e73ea89	0.23819937
244	0xbd668432	-0.056278415
245	0x3ebb5344	0.36586964
246	0xbe63c5eb	-0.22243468
247	0x3ec55caf	0.38547274
248	0xbeaf5629	-0.34245422
249	0x3af7b005	0.0018897062
250	0xbe4f9bde	-0.20274302
251	0xbb099845	-0.00209953
252	0x3e5cbcce	0.21556398
253	0xbb0ed0f0	-0.0021792017
254	0xbdecf6c1	-0.11570502
255	0xbd554dc2	-0.05207611

conv3.bias f4 [20]
0	0xbd82de70	-0.06390083
1	0x3e111447	0.14167891
2	0xbdb0a03f	-0.086243145
3	0x3bbb5986	0.005717459
4	0xbca2c635	-0.019869903
5	0xbda66bb9	-0.08126015
6	0x3bb1521f	0.005411401
7	0x3e31c00a	0.17358413
8	0xbdd0187a	-0.101609185
9	0x3c196a2a	0.00936369
10	0xbccabbb5	-0.024747709
11	0x3defe56b	0.1171368
12	0xbeb36ee0	-0.35045528
13	0xbe7376c3	-0.23775773
14	0xbd27dbb0	-0.040980995
15	0x3db2c9e1	0.087299116
16	0x3d701367	0.058612254
17	0x3e3ed32f	0.18635248
18	0xbc35b5ca	-0.011090705
19	0xbe410310	-0.18848825

linear.weight f4 [10, 1280]
0	0x3e7682f9	0.240734
1	0x3e2550c5	0.16144092
2	0x3e69fb21	0.22849704
3	0x3eb362a0	0.35036182
4	0x3e5e7fdb	0.2172846
5	0x3e048422	0.1294103
6	0x3e237ced	0.15965624
7	0x36c09663	5.739553e-06
8	0xbdb8cb47	-0.09023147
9	0xbe18c211	-0.1491778
10	0xbc48fac1	-0.012266816
11	0x3df5d650	0.120037675
12	0x3b09e3f9	0.0021040423
13	0xbe3dfce5	-0.18553503
14	0xbea47e34	-0.32127535
15	0xbbcba227	-0.0062143984
16	0xbed86aec	-0.42269075
17	0xbed97d8e	-0.42478603
18	0x3e818d09	0.25302914
19	0x3eab0764	0.33404076
20	0x3eabf6d9	0.33586767
21	0xbdcf2c4d	-0.101158716
22	0xbf18fee2	-0.5976392
23	0xbe679264	-0.22614437
24	0xbf146564	-0.5796721
25	0xbeb6139a	-0.3556183
26	0x3dbdd936	0.09269945
27	0xbc97b1aa	-0.018517334
28	0xbe141e12	-0.14464596
29	0xbe3ea91a	-0.18619195
30	0xbf05eaa8	-0.5231118
31	0xbdcf0fe8	-0.10110456
32	0xbe06da39	-0.13169183
33	0xbd6ca650	-0.057775795
34	0x3da4d844	0.08049062
35	0x3d40c46e	0.04706233
36	0xbe7e720c	-0.24848193
37	0xbe545bc8	-0.20738137
38	0xbe7c18c1	-0.24618818
39	0xbe39610e	-0.1810343
40	0xbe23e444	-0.16005045
41	0x3c3040ca	0.010757634
42	0xbdc5534f	-0.096350305
43	0x3de6b259	0.11264486
44	0x3e0ba470	0.13636947
45	0xbe70dd5e	-0.23521945
46	0xbe8bc61a	-0.27299577
47	0xbdf64358	-0.120245636
48	0xbe3de0fc	-0.18542856
49	0xbd5738ad	-0.052544285
50	0xbda98e6b	-0.08279117
51	0xbca0e7ab	-0.019641718
52	0xb9bc35fe	-0.00035898382
53	0xbea84c77	-0.32870838
54	0xbeb8df38	-0.36107802
55	0xbe832c33	-0.2561966
56	0x3e28f4de	0.1649966
57	0xbdb6e74d	-0.08930836
58	0xbda0d875	-0.07853786
59	0xbe069977	-0.1314448
60	0xbdde64b0	-0.10859048
61	0xbe166aa6	-0.1468912
62	0xbdd3a36e	-0.10333906
63	0xbd94ad21	-0.07259584
64	0x3e4b6de6	0.19866142
65	0x3e3cf017	0.18450962
66	0x3e2d0735	0.1689728
67	0x3e424a6a	0.18973699
68	0x3e36b9f7	0.17844377
69	0x3e35a263	0.17737727
70	0x3e411801	0.18856813
71	0x3e65d52d	0.22444601
72	0x3e558033	0.20849685
73	0x3e0059ff	0.12534331
74	0x3e0bccc8	0.13652337
75	0x3e356336	0.17713627
76	0xbdf25a9e	-0.1183369
77	0xbe0df2f7	-0.13862215
78	0x3dc1799c	0.09447023
79	0x3e52d058	0.2058729
80	0x3db3ca67	0.087788396
81	0xbe7f03d0	-0.24903798
82	0xbd86f5c1	-0.065898426
83	0x3e3fa3e1	0.18714859
84	0x3d0f0881	0.03492022
85	0xbec3456d	-0.38138905
86	0xbe3809cc	-0.17972487
87	0x3dc3851c	0.09546873
88	0x3d885261	0.066563375
89	0xbf31f031	-0.6950713
90	0xbd450887	-0.048103835
91	0x3d9f2c04	0.07772067
92	0x3d12b2a0	0.03581488
93	0xbd8903cc	-0.06690177
94	0xbdca6336	-0.09882204
95	0x3de29d7d	0.11065195
96	0x3c844428	0.01614578
97	0xbef3c244	-0.4760915
98	0xbe9a23fe	-0.30105585
99	0x3dcc4caa	0.0997556
100	0x3ea70563	0.32621297
101	0x3d78bea2	0.060728677
102	0x3e54067e	0.20705602
103	0x3e184508	0.14870083
104	0x3db0808e	0.0861827
105	0x3d2608b0	0.04053563
106	0xbd56e2c1	-0.052462343
107	0x3e50f986	0.20407686
108	0x3eb8ab99	0.3606842
109	0x3e061fa4	0.13098007
110	0x3e67c2e3	0.22632937
111	0x3e44c566	0.19215927
112	0x3d04ad6f	0.03239196
113	0x3dcd9a39	0.10039181
114	0x3d877994	0.06614986
115	0x3d9c3180	0.07626629
116	0x3e50a21f	0.20374344
117	0x3e2396ef	0.15975545
118	0x3dd6b37f	0.10483455
119	0x3e274828	0.16336119
120	0x3e2e1734	0.17001039
121	0x3e13f947	0.1445056
122	0xbc183c05	-0.0092916535
123	0xbc87d2d7	-0.016580028
124	0x3d91e718	0.07124156
125	0x3e066c0a	0.13127151
126	0x3e2b0672	0.16701677
127	0x3e4152c4	0.18879229
128	0xbd443940	-0.04790616
129	0xbdb158a9	-0.08659489
130	0xbe1f233c	-0.15540785
131	0xbe931069	-0.28723457
132	0xbdc7717d	-0.09738443
133	0x3d4611a4	0.048356667
134	0xbcdbfb15	-0.026853124
135	0x3da0ac5f	0.07845377
136	0xbd3865ee	-0.045019083
137	0xbe29d13f	-0.16583727
138	0x3da239f4	0.0792121
139	0x3d7305bd	0.059331644
140	0x3e0ebd7d	0.13939472
141	0xbdef0a62	-0.11671902
142	0xbdc042bf	-0.09387731
143	0xbcbb721f	-0.022881566
144	0x3c6d1495	0.014470239
145	0x3bd67d81	0.006545723
146	0x3e4d4de6	0.20049247
147	0x3e19976b	0.14999168
148	0x3e640905	0.22269066
149	0x3ce25a8e	0.02763107
150	0x3e536f24	0.20647866
151	0x3dfae535	0.12250749
152	0xbd9291cf	-0.07156717
153	0xbe1a6de7	-0.15080987
154	0xbe0cfcbf	-0.1376829
155	0xbe01e779	-0.12685956
156	0xbe5bbbc9	-0.21458353
157	0xbd9a8a39	-0.07545895
158	0xbcc05a0d	-0.02348044
159	0x3df7c4ce	0.120980844
160	0xbe1af8c9	-0.15133967
161	0xbe1bd50d	-0.15217991
162	0xbe3fe31d	-0.1873898
163	0xbe86a248	-0.26295686
164	0xbe7fb907	-0.24972926
165	0x3dbc5146	0.09195189
166	0xbdac7c22	-0.08422114
167	0xbdae1b45	-0.08501295
168	0xbdd55a07	-0.10417562
169	0xbdb44b6e	-0.088034496
170	0x3b8d5cbb	0.004314033
171	0xbe6ee00b	-0.23327653
172	0xbd235f7e	-0.03988599
173	0x3e6353ec	0.22199982
174	0xbda35bdb	-0.079765044
175	0xbb861008	-0.0040912665
176	0xbcf5a89e	-0.02998763
177	0x3c7f6d6c	0.015590053
178	0xbe17f997	-0.14841305
179	0xbecc2754	-0.39873755
180	0xbe352df2	-0.17693308
181	0x3e78fcb8	0.24315155
182	0x3ced35da	0.028956342
183	0x346599ec	2.1383283e-07
184	0x3d8c105a	0.06839056
185	0xbd3c1f4a	-0.045928277
186	0xbd30db0b	-0.043177646
187	0xbe178b21	-0.14799167
188	0xbddc65b8	-0.10761589
189	0xbd53163f	-0.051534887
190	0xb5919d1b	-1.0849066e-06
191	0x3d88fb8d	0.066886045
192	0xbd696f67	-0.056991007
193	0x3e1b3113	0.15155439
194	0xbc940a46	-0.018071305
195	0xbe7ad097	-0.24493633
196	0xbdc2f12b	-0.095186554
197	0xbd855036	-0.0650944
198	0xbc9bc1c5	-0.019013295
199	0xbcf62036	-0.030044656
200	0xbdce0cce	-0.10061036
201	0x3de691b1	0.11258257
202	0x3e0ce1ae	0.13757965
203	0x3d240c3e	0.040050738
204	0x3e454b52	0.19267014
205	0x3e361fde	0.17785594
206	0xbe046467	-0.12928925
207	0xbda9dbf0	-0.08293903
208	0xbcf30d5c	-0.029669456
209	0x3c337d63	0.0109551875
210	0x3d16cf1a	0.0368186
211	0x3e0cb58c	0.1374113
212	0x3e66362a	0.224816
213	0x3dcb012f	0.09912335
214	0x3dd632d8	0.104589164
215	0xbbec2d8a	-0.007207577
216	0x3de26d78	0.11056036
217	0x3dea6ef6	0.11446945
218	0x3db23976	0.08702366
219	0x3c139546	0.0090077575
220	0x3e01fae1	0.12693359
221	0x3e2219cc	0.15830153
222	0x3e51b615	0.20479615
223	0x3e2d1c33	0.16905288
224	0x3d23bbe2	0.0399741
225	0x3e839db1	0.25706246
226	0x3df3391e	0.118761286
227	0xbc3eb286	-0.011639243
228	0xbe084006	-0.13305673
229	0x3e4b944e	0.19880792
230	0x3e41d3b6	0.18928418
231	0x3e25e6a9	0.16201271
232	0xbd89fd0b	-0.06737717
233	0xbddd92b5	-0.10818998
234	0x3d1950ff	0.03743076
235	0x3e15c90d	0.14627476
236	0x3e25f7c7	0.16207801
237	0x3dd31223	0.10306194
238	0x3e7460db	0.23865072
239	0x3dca5b99	0.09880752
240	0xbe07709f	-0.13226555
241	0xbdb2a04b	-0.0872198
242	0x3ce84293	0.028352058
243	0x3e9710bb	0.29504952
244	0x3e38ab26	0.18034038
245	0x3d9547e3	0.07289102
246	0x3cc9cafc	0.024632923
247	0xbd7d222c	-0.061800167
248	0xbcc2382a	-0.023708422
249	0x3c26b033	0.010173845
250	0xbdbee9bb	-0.09321924
251	0xbd344052	-0.044006653
252	0xbdbf6d60	-0.093470335
253	0xbe07345f	-0.13203572
254	0xbe05f7d0	-0.13082814
255	0xbd921a0c	-0.07133874

linear.bias f4 [10]
0	0x3e85a9a9	0.26106003
1	0x3e73f6cb	0.23824613
2	0xbda8d6d8	-0.08244103
3	0xbda0d415	-0.078529514
4	0xbe8e66c7	-0.27812788
5	0x3dc3d7eb	0.095626675
6	0xbdeb223c	-0.11481139
7	0xbc2e1260	-0.010624498
8	0x3d568ed7	0.052382316
9	0xbd55a8b0	-0.052162826
