models/CIFAR10/cnn_params=100k_seed=012/099.pth (torch, 421415 bytes, 8 tensors)

conv1.weight f4 [32, 3, 3, 3]
00000000: 1d3a 4cbd ceeb 39bd e2eb e93d 911f 53bd
00000010: a113 8a39 4c3f 3b3c 8d32 14bd 360d d7bd
00000020: 9d59 113e 9a7e b1bd 54a7 03be 3052 3d3e
00000030: a950 26be 7b4a ee3c ea9e 2c3e c8db 96be
00000040: 5cc2 0d3e 0aca 453e 97e4 67be 6378 643c
00000050: d27d 5d3e ac37 83be 26ef 5cbd 0747 a63e
00000060: 7644 cabc be77 5dbd 3edd 503d 6d0a 2d3e
00000070: 86a7 fa3d fb85 1d3e 2c5a adbc b6da 733e
00000080: 8021 613d 7fb9 26be ef7d 10be 2585 6ebd
00000090: 81ee ee3c e123 5ebe 25dc 82be 5f14 a73b
000000a0: 4528 af3d be92 11be 428b 48be b778 6abe
000000b0: c69f 413d 66e6 fabc 5cb6 363c 2e51 86be
000000c0: 0858 04bd 04a0 913e a105 623e 0d1e 3c3e
000000d0: 4a1d e53d 7068 883e 93d8 163e 5545 8fbe
000000e0: 72f2 e2bd 8c32 6b3e 61b9 a9bd 2dfa 153d
000000f0: 87ce 0a3e 197d 93be 0ad8 173e 9d06 a73d
00000100: 49c7 31bd cc73 d33d 0429 223d f1d9 9bbc
00000110: 2d6e 663e 3100 95b9 17fb 58be 07f4 77bd
00000120: a87c 57bd 3c40 7dbe 036e 823c b70e 033e
00000130: 189c 80be 7c44 963e 1398 a1bc 5954 4dbd
00000140: 9fa5 d13d 6185 08be 533f 543e cef8 8ebe
00000150: 63f9 1bbe 9c27 023e 649f af3d 7720 913e
00000160: 93ef 66be bd78 0b3e 68b0 0ebb 47d2 723e
00000170: b046 ecbd 7b62 8cbe 75e4 e13d 5b7e 6c3e
00000180: 5201 dfbc 99f4 b1be 2ac2 3cbe 8c77 113e
00000190: 2052 153e e945 28be 9b47 47be aa33 893c
000001a0: 1b38 af3e 96cb 283e f78c acbe b1bc ea3d
000001b0: b9ca 353e 6e89 e2bd 3c4e 883d 4520 4e3e
000001c0: 26a4 94be 8c1e 90bc 5f6b 853e 1ffd acbe
000001d0: e354 073e 4f27 debd a166 18be 5a3a 553d
000001e0: c4df 433e e95e 7fbe 7609 363e d147 163e
000001f0: 5772 a4be ccd1 113e 3429 0d3e 7453 8939
00000200: 2f5d bfbd b8de 523e d5dd b6be 1da1 513e
00000210: 44c4 fe3d bbba 04be 811c 00bd eee0 d8bd
00000220: fe04 81be 0512 ef3c 8930 5cbe 1b16 3bbe
00000230: 06a9 22be 07e0 403e 2c9d 603e c66c 343e
00000240: e170 163e 0ddf 793b 617a 473c 1b25 babd
00000250: 1731 9dbd b239 52be a5e1 313e 43b2 a33e
00000260: 2a7d 703e 2879 0d3e e32e 933c 785a 63bd
00000270: 69d7 043e 82d4 e7bd 5672 18be 1cec 43be
00000280: cc0b b0bd c8cf 893d dc06 923e b83a 59be
00000290: 7165 01be 269d 043d 4648 b4be 9462 a53e
000002a0: f65c 9abd d08a b9bd 3ba4 243e 3597 9e3e
000002b0: 5428 68bd 911a 38be ea3a c23d f2d2 afbe
000002c0: 506c 813e e34c eabd edb6 883d e48f f03c
000002d0: 1e75 293c aa2b 20bd 5441 b43d 87f8 4e3d
000002e0: 1568 7cbe 62db c83c 729e fdbd 60c3 683e
000002f0: 077b 393c 896e f1bd 2084 f13c 90f6 06be
00000300: 2d4d 05be cc7c 39be 1c58 0abd 9e7e 23be
00000310: 195c b7bc e25c 513c 84c9 03bc 66aa 42be
00000320: 28f2 133d 0942 5ebe bf14 57bd 9326 7abc
00000330: 3bb5 cbbd f153 64bd eada c1bd 2dd3 3a3e
00000340: c1d2 673e ad10 c7bd 8295 993e 66a1 593e
00000350: b0dc 993e e7bd a53e 2c27 ba3d fe30 59bd
00000360: 6c7b 183e bcab b93d 2885 773d 4717 c8bd
00000370: 527e 513e d3f5 dabd e57f a1be 5307 0c3e
00000380: 45be 9d3d b478 483e 6b3e 053e ac1e 2ebe
00000390: 64f7 83bd fc49 8f3e eaae 253e 27b1 67be
000003a0: 6f59 973e e1ff 733e b691 bebc 701b 9bbe
000003b0: 30ba 78be 6e68 b33d 0830 d03d d1fb 1ebe
000003c0: f6be 3ebe a67c 30be c7e1 3fbe db6c 13bd
000003d0: c489 2bbe 0ffb 39bc 83bc 313e 105e b1be
000003e0: 3636 bebd 24d9 91bd 21ee 23be 430d fa3d
000003f0: c08c 7ebd c531 61bd aba8 993e 190e 01be
-0.04986011 -0.045390896 0.11421944 -0.051543776 0.00026336036 0.011428665 -0.03618102 -0.10500567
0.14194341 -0.086667255 -0.128568 0.18488383 -0.16241707 0.02908825 0.16857496 -0.29464555
0.13843673 0.19315353 -0.22645794 0.013944718 0.21630028 -0.25628412 -0.053939007 0.32476065
-0.024690848 -0.054069273 0.050992243 0.16898508 0.12238984 0.1538314 -0.021161161 0.238139
0.05496359 -0.16281699 -0.1411054 -0.058232445 0.029166462 -0.21693374 -0.25558582 0.005098864
0.08552603 -0.14216134 -0.19584373 -0.22897612 0.047271512 -0.03062744 0.011151876 -0.2623381
-0.032310516 0.28442395 0.2207246 0.18370838 0.11187227 0.2664218 0.14731054 -0.27982584
-0.11081399 0.22968501 -0.08287311 0.03661554 0.13555346 -0.2880638 0.14828506 0.08155558
-0.043402944 0.10324821 0.039589897 -0.019024821 0.22502966 -0.00028419637 -0.21189533 -0.060535457
-0.052609116 -0.24731535 0.015921598 0.12798582 -0.2511909 0.29349124 -0.019725835 -0.05012927
0.10236668 -0.1333213 0.20727281 -0.27924198 -0.15231852 0.12710422 0.08575323 0.2834508
-0.22552328 0.13620277 -0.0021772627 0.23713027 -0.1153692 -0.27418885 0.11029903 0.23095076
-0.02722231 -0.34756926 -0.18433443 0.1420576 0.1458211 -0.16432919 -0.19460909 0.016748268
0.34222493 0.16483912 -0.33701298 0.11461771 0.17753114 -0.11061369 0.06655547 0.20129497
-0.29031485 -0.01759269 0.2605848 -0.33786866 0.13215975 -0.10847341 -0.148829 0.0520576
0.19128329 -0.24938549 0.17777047 0.14675833 -0.32118484 0.14240187 0.13785249 0.00026192854
-0.09343945 0.20592773 -0.3571612 0.20471616 0.124397784 -0.12961857 -0.031277183 -0.10589777
-0.2519912 0.029183397 -0.2150289 -0.18270151 -0.1588479 0.1883546 0.21934956 0.17619619
0.14691497 0.0038127333 0.0121751735 -0.090891086 -0.07675379 -0.20529822 0.17371233 0.3197194
0.23485246 0.13815749 0.017966693 -0.0555062 0.12972797 -0.113198295 -0.14887366 -0.19133037
-0.08596 0.06729084 0.28520858 -0.21213806 -0.12636353 0.03237643 -0.3521139 0.32301772
-0.07537262 -0.090596795 0.16078274 0.30974737 -0.056679085 -0.17978884 0.09483893 -0.34340626
0.25277948 -0.11440446 0.06675515 0.029365487 0.010342864 -0.03910414 0.08801523 0.050529983
-0.24649079 0.024518672 -0.12383737 0.2273078 0.011320836 -0.11788661 0.029481947 -0.13179994
-0.13017721 -0.18114012 -0.033775434 -0.1596627 -0.022382783 0.012778493 -0.008043651 -0.19010314
0.03611961 -0.21704878 -0.05251002 -0.015267986 -0.09946676 -0.055744115 -0.09465583 0.1824462
0.2263899 -0.097199775 0.29996878 0.21252975 0.30051184 0.32371446 0.09089503 -0.05302524
0.14890832 0.09065959 0.060429722 -0.09770065 0.20458344 -0.106914185 -0.31542888 0.13674669
0.07702307 0.19577295 0.13012092 -0.17003888 -0.064436704 0.27986133 0.16180006 -0.22626172
0.2956042 0.23828079 -0.02326284 -0.3029437 -0.24289775 0.08760153 0.10165411 -0.15525748
-0.18627533 -0.1723505 -0.18738471 -0.035992485 -0.16751772 -0.011351361 0.17357068 -0.34642076
-0.09287684 -0.071214944 -0.16008808 0.12209561 -0.06214595 -0.054979105 0.30011496 -0.12603034

conv1.bias f4 [32]
00000000: c24c 70bc ba1e 92bd 999d 493c 0ea8 5b3d
00000010: 3254 0fbb f95e 9a3b 8bb7 fe3a 7265 d33d
00000020: 877f 93bc 3b7f babd 3736 70bb aa95 d23c
00000030: c135 553c 1321 8d3a 0cf6 ed3d c1da 673b
00000040: 1781 e93d f652 1cbe 7910 9b3d 3834 df3d
00000050: 6fad 33bb d555 b33c dc83 70be 5047 4a3c
00000060: f821 a3bb e6a9 9f3e e3b6 45ba 0ae7 583b
00000070: 8a1c a33d 5c33 d13d 8b9e d43b 622f 143c
-0.014666738 -0.07134767 0.012305641 0.053627066 -0.0021870253 0.0047110287 0.0019433362 0.103220835
-0.018005146 -0.091062985 -0.0036653408 0.025706131 0.013013304 0.0010767303 0.11619195 0.003537819
0.11401575 -0.15266022 0.07571501 0.10898632 -0.0027416607 0.021891514 -0.234878 0.012346104
-0.0049784146 0.3118431 -0.0007542206 0.0033096694 0.07964428 0.10214874 0.0064886264 0.0090445

conv2.weight f4 [64, 32, 3, 3]
00000000: 635b 3a3d 6b4f 06be 41ce 03bb daaf 95be
00000010: d717 a1be 6125 0fbd 6565 8cbd aae8 21bd
00000020: 8978 f43c acdf eb3d 5d80 a33d 7c39 c8bb
00000030: 9bd4 88bd bd4b 18be 9208 1cbd 773f 2fbe
00000040: d7c4 10be af4b c1bd 511e d33d 1269 e1bd
00000050: 6207 ee3d 2c40 94bd 2998 0ebd 0622 f2bc
00000060: af24 243d f42e 8c3c a40d c13d 5215 e73e
00000070: 8822 573e cc25 e5bc 2667 11bd 6776 9dbd
00000080: b08a 1c3c eb6c 40be a115 6dbe 84a1 08be
00000090: 265b d93c 0eed a1be cf8e 343c 63bf e4bd
000000a0: b03e 9bbe 37de 33be 38d0 1d3e b13e fa3c
000000b0: b4f1 283d 10a4 cfbb 7bc8 933d 9b31 bc3d
000000c0: 28c3 e5bd 1b7a 64bd 569f 55bd db79 6bbe
000000d0: 2c52 f9bd c627 1cbe 123b e2be b368 e8bd
000000e0: 7127 f13e 1b6a 8cbe c336 21be da22 373c
000000f0: 8786 e5bc 8c29 61be 6c31 79be b40d 4e3e
00000100: c3a3 783e 3860 713e 8884 24be c6b1 14be
00000110: a6ce dbbd c4e7 9fbe 0335 99be 1d35 8cbe
00000120: 9718 c13d 26d6 23bc 268a 21be 3fe3 8ebd
00000130: ffe1 acbd d2d5 8ebd 991b b63c c516 4f3d
00000140: eb9f 22bc b0a2 353e 0576 3c3e 13fa 273e
00000150: 2f6d 48be 00c0 dcbd 89a1 b3bd e567 f9bd
00000160: 2a05 b4bd 5574 54be 2095 c33d bddc 183e
00000170: c99b 1b3e 9bd7 adba 0158 50bd 68e4 89bd
00000180: e844 babd dac3 26be b459 bdbd bc54 9f3e
00000190: 2082 2dbe 8f94 cdbd 2c63 dabd 4010 67be
000001a0: f30d 5cbe bfbd f0bd e8fe 0dbe 0dfc 973c
000001b0: ae66 b03d 8ab2 b73d d2af b23e 6609 e63d
000001c0: 6acb dcbc 7678 ed3d 4ebb 4c3b a976 fdbd
000001d0: 3ddd 1ebd f8c0 083e 13d6 813e 9ba5 313e
000001e0: f57b c9bd b608 19bc 10b4 a0bd be6c 8cbd
000001f0: dd91 70bd 07b8 1ebe a798 1f3e 8d6e 0f3e
00000200: ca4a 17bd efca 1ebe 9c4d bbbe cdcc 85be
00000210: e89d 98bd b1f1 96bd 2722 6dbd ce9f a03e
00000220: ec90 503e 7cbc b7bd 4d71 053e eb23 f33d
00000230: fb63 6d3b 1e5e eabd ee5a 26bd 6d2e 903d
00000240: 4eea 41bd 088e 36bd de46 87bc 5a5e 05be
00000250: 2537 8cbd 362c afbd 3a05 953e 6718 5f3e
00000260: 0786 853e 11d5 803e 643c 743e 3c90 713e
00000270: 8940 233e 6ad8 fe3d 381b 813d 9a33 d93c
00000280: 118a 78bc a813 cbbc 6199 9ebd 1cf7 46be
00000290: 4044 aebd 5d99 d2bb ac2d 94bd 0e87 32bd
000002a0: c983 0bbe d981 41be e5ae 91bd 6c03 563e
000002b0: 508a 57bd 4051 2dbd 6aac 3ebd 8a3e 6bbe
000002c0: 8ab6 19be cef6 e3bb 96a5 96bd 1ad9 edbd
000002d0: e810 eebd aeb6 43be f23a 2abe ed27 2d3d
000002e0: 7a6f e63d 44f3 bb3a 64f9 763d e678 3a3d
000002f0: 82c5 d23c 64b0 333e 6d59 893e 6524 833e
00000300: 077d 1a3c 4d95 593d 3444 88bd 0bdf f7bc
00000310: b591 aabd 7da6 bebd ad06 be3c 4a90 c43c
00000320: fa9b 393d 4f13 be3c 4405 d53c 501c 3b3d
00000330: 0e68 35bd 4508 9cbc cdbe 19bd ac1a bbbc
00000340: 4d31 aebd 753d 04be 0936 cd3d 6cea 1d3e
00000350: a6af fa3d 87dd 583c b555 87bb 8a7a 013e
00000360: 858e f53b 7c5f b0be 52e0 20be aa74 ebbc
00000370: 4af1 7cbe 7833 95bd 31ec 9b3d 43de bb3c
00000380: a1e8 df3d 6125 e43c 370a a13c 25d5 0c3e
00000390: a790 863e 7f97 113e 5b58 2f3e a832 183c
000003a0: eeb1 32bd 8cea 9abb 273e 9b00 1b44 a700
000003b0: e511 6a00 264a 9600 0029 ac00 da81 b100
000003c0: 9667 ab00 a2a3 b700 1410 7c00 d108 9c3c
000003d0: b809 e13c ad57 e8bd 68f6 7ebc 87ef 2b3e
000003e0: c021 953d 6999 f53d 7bb4 143e d502 ae3d
000003f0: 22c5 6abe 39dc 833c c1c6 c03e 3289 6ebd
0.04549731 -0.13116233 -0.002011195 -0.29235727 -0.314635 -0.034947757 -0.06855277 -0.039528526
0.029842632 0.115172714 0.07983468 -0.0061103683 -0.06681176 -0.14872642 -0.03809411 -0.17114054
-0.14137588 -0.094382636 0.10308517 -0.11006369 0.11622502 -0.07238802 -0.03481308 -0.02955724
0.040074047 0.017112233 0.0942643 0.45133454 0.21009266 -0.027972125 -0.03549876 -0.07688599
0.00955455 -0.18791549 -0.23152782 -0.13342863 0.02653272 -0.3162617 0.011020376 -0.111693166
-0.30321264 -0.17565237 0.1541146 0.030547472 0.04124613 -0.0063366964 0.07215973 0.09189149
-0.11218864 -0.05578051 -0.052153908 -0.22995703 -0.12173876 -0.15249547 -0.44185692 -0.11348095
0.47100404 -0.27424702 -0.15743546 0.011177743 -0.02801825 -0.21988505 -0.24335259 0.20122415
0.2428122 0.23571861 -0.16066182 -0.1452094 -0.107327744 -0.3123151 -0.29923257 -0.27384272
0.09428518 -0.009999787 -0.15775356 -0.069769375 -0.08441543 -0.06974377 0.022229956 0.050558824
-0.009925823 0.17737842 0.18404396 0.1640399 -0.195729 -0.107788086 -0.08771045 -0.121780194
-0.087900475 -0.20747502 0.09549928 0.14927955 0.15196146 -0.0013263108 -0.050865177 -0.06733018
-0.09095174 -0.16285649 -0.09245625 0.31119335 -0.1694417 -0.10038101 -0.10663447 -0.22564793
-0.21489696 -0.11754941 -0.1386677 0.018552804 0.086133346 0.089696005 0.34899765 0.11232261
-0.026952464 0.11595242 0.0031239572 -0.12376148 -0.038785208 0.13354862 0.25358638 0.1734833
-0.09838096 -0.009340456 -0.07846844 -0.068566784 -0.058732856 -0.15499888 0.15585576 0.14007016
-0.03693656 -0.155071 -0.3658265 -0.26132813 -0.07451993 -0.07370318 -0.0578939 0.3137192
0.20367783 -0.089714974 0.13031502 0.11872085 0.0036222923 -0.11443733 -0.04061406 0.07040105
-0.04734259 -0.044569045 -0.016513284 -0.13024274 -0.068464555 -0.085533544 0.2910555 0.21786653
0.26078817 0.25162557 0.23851162 0.23590177 0.15942587 0.124436215 0.0630402 0.026513863
-0.015169636 -0.024789646 -0.077440985 -0.19430202 -0.085091114 -0.0064269737 -0.07235274 -0.04358583
-0.13624491 -0.18897189 -0.071134366 0.20899743 -0.05262214 -0.042313814 -0.046551146 -0.22973076
-0.1501104 -0.0069569116 -0.07355802 -0.116136745 -0.11624318 -0.19112656 -0.16624048 0.042274404
0.11251731 0.0014339467 0.06029643 0.045525454 0.025728945 0.17547756 0.2682604 0.25613704
0.009429223 0.0531209 -0.06653634 -0.030257722 -0.08328573 -0.09309099 0.023196543 0.023994584
0.045314766 0.023202566 0.026003487 0.045681298 -0.044288687 -0.019046912 -0.037535477 -0.022839867
-0.08505497 -0.12914069 0.10020072 0.15421456 0.122405335 0.01323641 -0.00413009 0.12644401
0.0074937963 -0.3444785 -0.15710571 -0.028742153 -0.2470142 -0.072852075 0.07613409 0.022933131
0.10933042 0.027849855 0.019658191 0.13753183 0.26282236 0.14217947 0.17123549 0.009289421
-0.04362672 -0.004727667 1.4256798e-38 1.536096e-38 9.740982e-39 1.3801924e-38 1.5810413e-38 1.6301465e-38
1.574103e-38 1.6864596e-38 1.1393369e-38 0.019047173 0.027470455 -0.11344848 -0.0155616775 0.16790591
0.07281828 0.11992151 0.14521973 0.08496634 -0.22926763 0.016096221 0.37651637 -0.05823631

conv2.bias f4 [64]
00000000: de70 bb3d 33c4 5f3c e3d6 cebc e083 87be
00000010: 7bcc c53d 4236 b23e efa9 75bc 2fb1 c2be
00000020: 77eb c1bc bfc9 4d3d b471 bf3d a2c7 8e3d
00000030: 90fd 9f3d 329f f2bc 2950 c8bc 8273 b09f
00000040: b872 89be 86f4 e0bd c44d a7bc f934 cd3c
00000050: 8f40 31aa 308c 3abe 1814 8b3e 439f 0f3e
00000060: fd4c 043e 11d0 123d ecc0 7b3d 3d08 8dba
00000070: 5ed6 adbb 1137 7cbd 5710 0fbd 69e9 bfbc
00000080: ce8c 14a3 47f7 cabd f413 6f3e 17a2 0abd
00000090: 2aee 83bc 3174 c93d 2d2e 523e 45bd 813c
000000a0: da82 b93e 6a49 c03d 1516 f5bd cdd5 1e3e
000000b0: 238f 71bc 9d80 223d c690 933e b4e5 23ba
000000c0: 3974 07bd 0a48 09bd 53b6 7a3e 3e84 05bc
000000d0: ce37 03be adf9 093c 6252 7d8a 14e1 903d
000000e0: 7a37 b63d e7ee 3e3e d344 c1bd b72e 3db2
000000f0: 35e2 713d f73a 2fbd 7d44 43bb 7812 f23d
0.09152387 0.013657617 -0.02524895 -0.264678 0.09658142 0.3480702 -0.014994129 -0.38025805
-0.023671849 0.05024123 0.09347859 0.06971671 0.07812035 -0.029616926 -0.024452286 -7.472999e-20
-0.26845336 -0.10984139 -0.020422824 0.025049673 -1.5743156e-13 -0.1821754 0.27163768 0.14025597
0.12919994 0.03584296 0.06146328 -0.0010759901 -0.0053050956 -0.061575953 -0.034927692 -0.023426728
-8.052913e-18 -0.09910446 0.23347455 -0.033845987 -0.016104776 0.09836615 0.20525427 0.015837321
0.36232644 0.093890026 -0.119671024 0.15511246 -0.014743599 0.039673436 0.2882139 -0.0006252185
-0.033069823 -0.033515967 0.24483614 -0.008149205 -0.12814257 0.008421344 -1.21970014e-32 0.0707418
0.088973 0.18645822 -0.09436955 -1.101187e-08 0.05905362 -0.042780843 -0.002979546 0.11819929

conv3.weight f4 [128, 64, 3, 3]
00000000: 7a86 57b8 ea67 a7b8 caa4 c9b8 8af4 d9b9
00000010: 79c9 a5b9 4918 5bb9 3330 97b9 515d c0b8
00000020: 4381 adb8 8631 d6b9 8ffd 0fba c7d5 11ba
00000030: 6fb9 a0b9 f909 12ba ccee 73b9 6206 10b9
00000040: 4c21 b2b9 fff1 88b9 d6dd 5bb6 d5d1 1ab8
00000050: 95bc 85b9 8201 90b9 87f9 64b9 3e56 eeb8
00000060: 813b 3ab8 730f 19b8 caf4 5935 d984 fdb9
00000070: 139b 64b8 2a86 9fb7 f23e 08ba eeef f6b9
00000080: 94bf 9ab9 e365 afba be13 00bb bbb9 daba
00000090: e770 52b9 d9fe 8bb9 ec41 d9b9 2a99 4a38
000000a0: 3d7e 46b9 168d c1b9 e66b 83b7 ada8 6ab8
000000b0: 3791 7bb9 0eb9 e2b9 cbcb 5aba 64e8 58ba
000000c0: 073d 9eba fe7f 30ba 387d 51ba a52a 39b9
000000d0: da45 59b9 8e6e c1b9 7c9e 85ba 7086 5bba
000000e0: 793a 79ba bb10 82b8 bf9b 71b8 7ff2 c1b7
000000f0: 8bfa 0eba 6d59 02b9 10b2 c5b8 117a 81b8
00000100: 172f 43b9 ca52 0337 ba71 b9b7 4740 c9b8
00000110: fef0 cfb8 9313 21b9 5c8c 4637 3f2d 70b8
00000120: cc2d 9a01 4b94 9b81 0cca 2700 4487 ed00
00000130: a0fc f600 8c64 4c01 1012 2480 103c e800
00000140: 321c ea80 316b c4ba 34b1 b7ba 4254 e1ba
00000150: 5cf5 4fba 0d73 fdb9 4cbf fab9 7797 a6bb
00000160: bbea 97bb 4e54 8abb 4430 99b5 608f 7cb5
00000170: 293e 10b6 6beb 91b2 4c70 7fb6 22c6 c3b4
00000180: ec51 99b1 a03a 51b7 6115 38b6 8fa9 e6b8
00000190: 5ada 3eb9 d621 29b9 06e3 37b8 dbda 4db8
000001a0: 93b6 5eb8 e1a6 fbb7 8c7b d7b6 f694 fcb6
000001b0: 2e05 c8b7 7692 23b7 8022 41b6 cd5e abb2
000001c0: 8883 39b4 63cd c3b5 9653 ce32 9471 fcb3
000001d0: 43ed 08b4 5275 6501 e06d 7681 30bc 2d01
000001e0: cc52 a481 0028 8701 1cb3 3280 e020 1d81
000001f0: 6a57 d780 d067 a900 21a9 e3b9 a75e 04ba
00000200: b0d6 3dba ef8d 11b9 6340 5bb8 b32e 33b8
00000210: 8a96 9fb8 dc9b 2cb7 ce10 c0b8 57b9 6a01
00000220: 2648 1e81 a6e5 a800 be67 4d81 1b95 5481
00000230: c872 b980 d65f 3301 93e4 1501 5ada 5180
00000240: acc8 8db9 316a beb7 6945 c3b3 02e1 94ba
00000250: e427 11b9 0f07 21b8 79ca 06bb 9b37 bfba
00000260: be3a 37ba 3faf a4b9 e3a2 0bba 7e5d 63ba
00000270: 9550 e3b6 78d9 82b7 721a 85b7 bfba 39b7
00000280: 3b84 00b5 69c9 deb5 8801 8700 38f7 0d01
00000290: 4be6 7601 2086 8981 7eaf 2f81 004c f480
000002a0: 3009 8280 ccd3 0281 6efd 9c81 d9aa 5eba
000002b0: 6111 e2b9 921d feb9 64af 5aba 003e 1bba
000002c0: ee56 6bba 5b85 6eba 5bf3 a1b9 3c73 afb9
000002d0: 4227 9c81 eed4 0381 e8a6 b501 58bf 9400
000002e0: c861 3180 84f6 1b01 669f 5781 5897 4681
000002f0: 2cf1 7e81 9ec9 ddb9 4aed 37b9 a3d0 7238
00000300: 3e78 dbb8 f00f 0c38 0005 ef39 4999 1db8
00000310: 8fe6 3234 f5c2 8b39 1c42 b7b9 c49a 1cb8
00000320: 064c 4fb9 c5b4 52b9 728a b4b7 5393 0aba
00000330: cbb7 d4b9 2300 28ba 5776 89ba 138e 5b36
00000340: 7712 cd34 0628 97b8 885a 3d36 cdc1 f636
00000350: 4b07 71b8 5f71 2ab8 0c73 8cb8 4073 02b9
00000360: b67e 9bba 2877 1bb8 f145 d238 8e66 9eba
00000370: 0641 f9b7 ec10 08b8 2210 71b9 4686 19b3
00000380: b014 0eb8 a355 10ba f442 b5b9 6efd 44b9
00000390: bc6b b3b9 0a80 ffb7 a2ff 33b8 d04c 32b8
000003a0: 4948 74b5 b510 53b7 d786 3eba 47ae 85ba
000003b0: 95d8 b0ba 16cf 47ba bbfc 3bba 2b46 19ba
000003c0: 0921 b4b9 408a 37ba f9eb 61ba c8fb 0e00
000003d0: c452 bb81 9881 1a00 8c8d df00 daca 4a01
000003e0: 182f 3c81 bc8c 6e80 cc4f 7880 0cc9 8300
000003f0: b7e1 022e a38d 542a eab2 6b33 8007 51af
-5.1385236e-05 -7.982536e-05 -9.615121e-05 -0.0004157166 -0.0003162136 -0.00020894514 -0.00028836876 -9.172655e-05
-8.27336e-05 -0.0004085416 -0.00054928 -0.00055631663 -0.00030655737 -0.0005570944 -0.00023263245 -0.00013735288
-0.00033975614 -0.00026120243 -3.2762669e-06 -3.6911882e-05 -0.0002550824 -0.00027466944 -0.0002183673 -0.00011364788
-4.4401273e-05 -3.649243e-05 8.1195014e-07 -0.000483549 -5.450386e-05 -1.9016752e-05 -0.0005197368 -0.00047099538
-0.00029515906 -0.0013381805 -0.0019543017 -0.0016687432 -0.0002006922 -0.00026702022 -0.0004143858 4.8303198e-05
-0.00018929779 -0.00036916946 -1.5666661e-05 -5.594704e-05 -0.00023991322 -0.00043243956 -0.00083464076 -0.0008274375
-0.0012072631 -0.00067329395 -0.00079913763 -0.00017658861 -0.00020720754 -0.00036894198 -0.0010194327 -0.000837422
-0.00095073093 -6.201999e-05 -5.7603927e-05 -2.3120314e-05 -0.0005454204 -0.0001243108 -9.426859e-05 -6.173936e-05
-0.00018614192 7.827484e-06 -2.2106677e-05 -9.5963995e-05 -9.9154175e-05 -0.00015361448 1.18344e-05 -5.7262598e-05
5.663638e-38 -5.71508e-38 3.654065e-39 2.1813537e-38 2.2682157e-38 3.754102e-38 -3.312557e-39 2.1327381e-38
-2.149962e-38 -0.0014985559 -0.0014014603 -0.0017191248 -0.0007932985 -0.0004834164 -0.00047826243 -0.005083974
-0.0046361363 -0.0042214757 -1.1413435e-06 -9.4085954e-07 -2.1493854e-06 -1.6987277e-08 -3.8063326e-06 -3.646574e-07
-4.4621995e-09 -1.247102e-05 -2.743058e-06 -0.000109988374 -0.00018201154 -0.00016129701 -4.3842032e-05 -4.9079634e-05
-5.309896e-05 -2.999924e-05 -6.421882e-06 -7.5275266e-06 -2.384427e-05 -9.749658e-06 -2.8779323e-06 -1.995013e-08
-1.7277318e-07 -1.4588408e-06 2.4019567e-08 -1.1755324e-07 -1.2752302e-07 4.214483e-38 -4.5261896e-38 3.19101e-38
-6.0362893e-38 4.9648565e-38 -4.656027e-39 -2.8859932e-38 -1.977599e-38 1.555744e-38 -0.00043422825 -0.00050495047
-0.0007241769 -0.00013881152 -5.2273634e-05 -4.2720418e-05 -7.609751e-05 -1.0288288e-05 -9.1584036e-05 4.3111987e-38
-2.907178e-38 1.5510746e-38 -3.7726985e-38 -3.9045228e-38 -1.7030743e-38 3.2945867e-38 2.7530972e-38 -7.517005e-39
-0.00027043128 -2.2699214e-05 -9.093021e-08 -0.0011358561 -0.00013843138 -3.8391965e-05 -0.002056746 -0.0014588715
-0.0006989649 -0.00031411086 -0.0005326701 -0.0008673294 -6.774508e-06 -1.5598474e-05 -1.586715e-05 -1.10703395e-05
-4.7876136e-07 -1.6598907e-06 1.2398341e-38 2.607498e-38 4.534829e-38 -5.051831e-38 -3.2268333e-38 -2.2435125e-38
-1.194191e-38 -2.4029186e-38 -5.7669003e-38 -0.0008494086 -0.00043119027 -0.00048468687 -0.0008342175 -0.00059220195
-0.0008977492 -0.0009098851 -0.00030889627 -0.00033464457 -5.736168e-38 -2.421367e-38 6.67284e-38 1.3660295e-38
-4.535017e-39 2.864587e-38 -3.9603626e-38 -3.647544e-38 -4.6825464e-38 -0.0004230262 -0.00017540637 5.7891604e-05
-0.000104651306 3.3393444e-05 0.00045589358 -3.7574475e-05 1.6661419e-07 0.000266574 -0.00034953735 -3.7337435e-05
-0.0001976938 -0.00020094503 -2.152214e-05 -0.0005286235 -0.00040572727 -0.0006408712 -0.0010487539 3.271624e-06
3.819766e-07 -7.207696e-05 2.821589e-06 7.3539327e-06 -5.746567e-05 -4.0636744e-05 -6.6971494e-05 -0.000124407
-0.0011863324 -3.7065853e-05 0.00010026608 -0.0012085007 -2.9713392e-05 -3.2440686e-05 -0.00022989561 -3.574521e-08
-3.3874705e-05 -0.0005505925 -0.00034572894 -0.00018786427 -0.0003422181 -3.0457992e-05 -4.2915002e-05 -4.2510044e-05
-9.100227e-07 -1.258047e-05 -0.00072680175 -0.0010199033 -0.0013492281 -0.0007622106 -0.00071711437 -0.00058469427
-0.00034356889 -0.0007001497 -0.00086182315 1.376019e-39 -6.8811714e-38 2.434212e-39 2.0530093e-38 3.724708e-38
-3.4563935e-38 -1.015239e-38 -1.1048885e-38 1.2102572e-38 2.9759053e-11 1.8878523e-13 5.4877923e-08 -1.9011104e-10

conv3.bias f4 [128]
00000000: 7db8 7abc 1348 09be 99a1 683d a978 833e
00000010: eecf d73d 52d8 a73d 76ff 14bb 12c6 b03c
00000020: 22ac 093d 0d0d dd3d 8344 a2bc d2b8 05bc
00000030: b3a5 ffba c1f8 11bc e7ad db3d 7569 603e
00000040: be49 09bc 00bd 833e badc 283e bd24 38bc
00000050: 5770 d03b 3033 b03a 4249 cd3d f644 2f3e
00000060: 4ddd 88b9 0d91 80ba 80c4 a03b 5437 f43d
00000070: 539d d7bc c64b f03d 6c25 9c3e 0246 843e
00000080: 9b95 ce3b 81f0 8d3d 88b3 33bc 0997 bbbc
00000090: 6d28 13bd 2d8e 2fbc 1330 6abb e1b7 deb9
000000a0: e29a 9e3e 8c0c da3e 4ee8 2a3e 5e5a 1d3e
000000b0: 7268 e8b9 0205 a2bc e1ef e2bc 30d0 ae3d
000000c0: 1463 16bc 6ec8 503e c0df e4ba add5 143c
000000d0: 66ed 29ba c438 90bc 5bd3 f9bd ce20 cdbc
000000e0: 0a01 65bd 431f bf97 3470 b83e edd5 54bc
000000f0: 2e82 dabd dfd4 3d3e 7b86 a5bb ebc9 b7bd
00000100: 4ff2 b8bd cc64 a3bd 68e7 02bd 09a2 413e
00000110: 7cf3 90bc 6e70 473d 2e9b 04be bb0d 233d
00000120: 6bd9 863b 2814 66a2 39d8 423e 348d 81ba
00000130: 5249 203c b6d8 bd3d a937 403d f2f8 63a0
00000140: 0b1b e2bb e6de 113e 3579 113e 55eb 26bd
00000150: 8946 c33d 75e5 1b3e 4e39 87bd 24eb 723e
00000160: 5377 4f3e b46e 343e b83c 6a3d 745b 513e
00000170: b439 fd3d 78c2 33b3 7094 273c 8e8c c13d
00000180: 6b9f 203d b0c2 9f3e c69b ff3b af27 5bbe
00000190: 3602 dbbd 2223 053e f33b 00bd c001 213e
000001a0: 0b36 be3e 98c3 703e 7ccf e2bc 2352 003e
000001b0: 54e5 a7bc ee6f 3ebb c9bc 103e 9829 adbd
000001c0: b28c 873d afbf 94bd 49ad 803d 06eb 8b3e
000001d0: bcff 5ebc 3833 aa3e 9406 87bb c88c 039f
000001e0: 256d 90bc 905f 123e 52a9 38bd a5cb 39bd
000001f0: 8eb7 f7b4 3e54 503d 9023 5bb0 a180 93b0
-0.0153027745 -0.134064 0.056794737 0.25677994 0.10537706 0.08195557 -0.0022735274 0.021578822
0.033611424 0.10793505 -0.01980806 -0.00816174 -0.0019504338 -0.008909405 0.107265286 0.21915229
-0.008379398 0.25730133 0.1649045 -0.011239228 0.006361048 0.001344299 0.100237384 0.1711615
-0.00026104823 -0.0009808854 0.004906237 0.119246155 -0.026320135 0.11733203 0.304973 0.25834662
0.0063044555 0.06930638 -0.010968097 -0.022899168 -0.035927225 -0.01071505 -0.003573422 -0.0004248014
0.3097754 0.42587698 0.1669018 0.15366504 -0.00044328306 -0.019777779 -0.027702274 0.08535802
-0.0091788955 0.20388958 -0.0017461702 0.009084147 -0.00064822135 -0.017605193 -0.12198516 -0.025040057
-0.055909194 -1.2350977e-24 0.36023104 -0.012990457 -0.10669361 0.18538235 -0.0050514317 -0.0897406
-0.09030592 -0.0797821 -0.031958967 0.18909468 -0.017694227 0.048691206 -0.12949821 0.039808016
0.0041152737 -3.1181483e-18 0.19027795 -0.0009884001 0.009783106 0.0926985 0.04692808 -1.9310017e-19
-0.0069001964 0.14245185 0.14206393 -0.040751774 0.09534938 0.1522425 -0.06602727 0.23722512
0.20260362 0.17620355 0.057186812 0.20445043 0.123645216 -4.1853554e-08 0.010228261 0.09450637
0.039214533 0.31203222 0.007800552 -0.21401857 -0.10693781 0.13001683 -0.031307172 0.15723324
0.37150607 0.23512113 -0.027686827 0.12531333 -0.020495094 -0.0029058415 0.14134516 -0.08455199
0.066186324 -0.07263123 0.062830515 0.27327746 -0.0136107765 0.33242202 -0.004120657 -2.785678e-20
-0.01763017 0.14294267 -0.04508335 -0.045360226 -4.614089e-07 0.05086159 -7.9722273e-10 -1.0732216e-09

fc.weight f4 [10, 1152]
00000000: 81d5 523a 3dfb a0ba 9cf5 f6bb 1c11 90bb
00000010: 2750 2abc 4f3c 4fbc 01a7 0ebb d7f1 b8bb
00000020: d7da fabb 580d 4abe c73d a4bd 7b15 5c3d
00000030: dbc1 a9be c55c 8cbe 04fe 06be 91ef b4be
00000040: 40e6 b6be abe4 98be 370c 783e ad44 c53d
00000050: c282 e73d b3d1 1f3d 9edf e33b cc7e 8c3c
00000060: 2fa7 8a3d 303b aebd cec5 61bd 4a41 94bd
00000070: a8d3 c73b bdc9 30be 716f fdbd 6dd5 03be
00000080: 2800 f4bd 3c47 ae3b d418 5a3c 417f e13c
00000090: 7bdf 8ebe a696 3fbe fad6 00be 55f8 a3bd
000000a0: 35d5 aebd 8075 bdbd 7ec7 babd a8fb a3bd
000000b0: c38a d0bc 9afb ffbc 2d5a f0bd a949 0c3d
000000c0: a9eb b2bd aca2 debd a1ad 22be 8d54 593c
000000d0: bf80 97be 19b9 b2be 1076 9c3d c9a9 433d
000000e0: 4c61 3a3c a040 1e3e 9f0f 033e acbb 303d
000000f0: e97b 8d3d 8361 f33d d295 01bd e858 773e
00000100: 0f48 5b3e d5fd 34bc f370 983e e4bb 8c3e
00000110: 2114 fd3c 0c4a 36bd 9af0 36bd 1179 de3c
00000120: 17de ccbd 794a 8ebd f48e 9a3d 9511 7f3c
00000130: 10f0 a2bc eb97 393d bfe9 ca3d bd69 5dbd
00000140: e438 e23c cbaf fabc 81c2 3bbe 6673 26be
00000150: a59d 63bc 9d8a a73d 8a30 1ebe 8636 933d
00000160: 8d9e 1b3e dd3b 2ebd c4ab acbd 61b8 1cbe
00000170: 5839 823c d00d ecbd 710f 85be 8229 a5bd
00000180: bc09 f7bd 0203 27be 9968 52be 90ee 25bc
00000190: 3da9 17bc fa3b 6bbb 4179 e2bb fcd1 93bb
000001a0: 0b5c 02bb bbb8 04bb 4caf dcb9 e620 63b8
000001b0: 67d1 5cba 3a5e d2ba cfdd b8ba 6c5b 83ba
000001c0: 51e8 c9ba ce17 afba 33ff 3bba d546 35ba
000001d0: 8b50 25ba a6ce 35bc 1d43 52bc fb03 f4bb
000001e0: b3e3 55bc 940c 82bc 5f74 33bc 1258 cebb
000001f0: e703 9dbb 81a5 88bb 9969 e53e 3241 ab3e
00000200: d1bb 083e b8d9 8e3e 3420 403e f02a c93d
00000210: d725 203e 734b de3d e131 cc3d 5dd9 05be
00000220: efcf aebc 7fc4 27be 1306 0a3d 8426 2d3b
00000230: 4e0b 09bc 6e44 293d f5a0 e6bc 901f c63b
00000240: e76c 24bc f452 2abc e6c3 28bc cef1 2fbc
00000250: a6b0 4ebc 6b17 44bc 9678 33bc 3a1b 4dbc
00000260: cae8 32bc 15ff 9abd 228b 86be ee2d da3c
00000270: eefb 87be 8d0d 4cbe 7108 18bc fa5c 27be
00000280: 9a1c 3cbe 38bc c4bd a09e 91bc 28fc 793d
00000290: deb0 be3c ae38 213d fb2f 333d 1bca 123e
000002a0: 2a98 92ba bc97 203d 44f9 c9bc aa4f 803e
000002b0: c14e 95bc 92e8 173c 088b 1e3e cf86 c73d
000002c0: c220 563e 1ceb 623e 7bd5 673e 37a6 093e
000002d0: b9ba 2dbe 4637 91be 310c 2dbe 3b6a 3ebe
000002e0: e967 79be 6970 bdbd b87b 7abe 439b 3bbe
000002f0: e371 bc3c 2022 1c3e 2c25 083e b0bd 583e
00000300: f99b a0bd b9a5 513c 75d8 a2bd 7a22 60bd
00000310: 2780 82bd aa9f 83bb f959 0ebd 2da9 4dbe
00000320: c597 06bd 7b0e 66be 14a2 92be d845 6ebc
00000330: 2169 babd c576 31be b09a b73c 3654 c5bd
00000340: 6b88 c6bd d9cd 1bbb a74d 3bbd 2396 713c
00000350: 9a4f 09be 7912 5c3e 5dad e23e 7e9a d2bd
00000360: da73 e23c 4804 f33d 769a d43d ba92 c63d
00000370: b948 883d 9bff 1cbe b4f0 ad3b d4e3 a0bd
00000380: c5b2 44be dd51 403b 0dcc 1d3b fba1 af3a
00000390: 079f 803b 6ae5 873b b122 2e3b 9ff1 df3a
000003a0: 168b 823a b33e 4b3a 85db e3bc cc50 84be
000003b0: 5fb5 72be 7355 a83e 8dd4 9bbc 173f 2b3d
000003c0: 41cf b03e bab7 a63b 0887 0f3e 8166 89be
000003d0: 27c7 953d c5c8 b0bd 45ff 06bd 21b6 733d
000003e0: a0c6 a83d 6581 8fbd 7a11 a63d dec2 9a3d
000003f0: c1be 633c 4033 113c 7e46 2e3c 6e9d 4f3c
0.0008042679 -0.0012281906 -0.007536603 -0.004396571 -0.010395086 -0.012648656 -0.0021767023 -0.005644064
-0.0076554823 -0.19731653 -0.080195956 0.053731423 -0.33155712 -0.27414528 -0.13182837 -0.35339025
-0.35722542 -0.2986196 0.2422341 0.096322395 0.11304237 0.039018344 0.0069541475 0.017150305
0.06770169 -0.08507383 -0.055120282 -0.072390154 0.0060982294 -0.17264457 -0.123747714 -0.12874384
-0.11914092 0.0053185504 0.013311584 0.0275265 -0.27904877 -0.18709812 -0.12582007 -0.0800635
-0.0853676 -0.09250927 -0.09120081 -0.08006984 -0.025456792 -0.031247903 -0.1173595 0.034249935
-0.08736355 -0.10870871 -0.15886547 0.013264787 -0.29590413 -0.34906843 0.07639706 0.04776934
0.011375736 0.1545434 0.12798928 0.043147728 0.069083996 0.11883833 -0.03163702 0.24155009
0.21414207 -0.011046846 0.29773673 0.274871 0.030893387 -0.04450421 -0.04466305 0.027157338
-0.10003298 -0.06947798 0.075467974 0.015568157 -0.019889861 0.045310896 0.09907865 -0.054055918
0.027615018 -0.030601403 -0.18335916 -0.16254959 -0.013892566 0.08180735 -0.15448204 0.07188134
0.15197201 -0.04253756 -0.08431199 -0.1530471 0.015896484 -0.11526072 -0.25988343 -0.080645576
-0.120624036 -0.16309741 -0.20547713 -0.0101276785 -0.009256658 -0.0035893903 -0.0069114272 -0.004511116
-0.0019891288 -0.002025171 -0.00042092276 -5.4151657e-05 -0.00084235374 -0.001604981 -0.001410419 -0.0010021753
-0.0015404319 -0.0013358535 -0.00071715115 -0.0006915157 -0.00063062523 -0.011096632 -0.012833384 -0.0074467636
-0.013054776 -0.015875138 -0.010953038 -0.00629712 -0.004791725 -0.00417012 0.44807127 0.33448178
0.13352896 0.2790048 0.18762285 0.09822643 0.15639435 0.108542345 0.09970451 -0.13071199
-0.021339385 -0.16383551 0.0336972 0.0026420662 -0.008364512 0.041325025 -0.028152922 0.006046243
-0.01003573 -0.010395754 -0.010300612 -0.010738803 -0.012615358 -0.011968474 -0.010954043 -0.012518698
-0.010919759 -0.07568184 -0.26278025 0.02663323 -0.26559395 -0.19927044 -0.009279356 -0.16344061
-0.18370286 -0.096062124 -0.017775834 0.06103149 0.023277696 0.039360695 0.04374693 0.1433491
-0.0011184264 0.039207205 -0.024654992 0.2506078 -0.01822603 0.009271758 0.15482724 0.097425096
0.20910934 0.2216 0.2264003 0.13442312 -0.1696576 -0.28362483 -0.16899182 -0.18595211
-0.24356045 -0.09249956 -0.24461257 -0.18320946 0.023003524 0.15247393 0.1329543 0.2116611
-0.078422494 0.012795859 -0.07951442 -0.05472038 -0.06372099 -0.004016836 -0.034753773 -0.20084067
-0.032859582 -0.22466461 -0.2863928 -0.014543019 -0.09102083 -0.17330463 0.022412628 -0.096352026
-0.096939884 -0.0023773818 -0.045728352 0.014745268 -0.13409272 0.21491422 0.4427289 -0.10283373
0.027643133 0.11866051 0.103810236 0.096959546 0.06654496 -0.15331881 0.005308235 -0.07855955
-0.1920882 0.002934567 0.0024077923 0.0013399714 0.0039252075 0.0041472213 0.002657097 0.0017085559
0.0009959664 0.00077531784 -0.027814636 -0.25842893 -0.23702 0.32877693 -0.01902225 0.041808214
0.34533122 0.00508782 0.14016354 -0.26836017 0.07313376 -0.08632044 -0.032958288 0.059499864
0.0824101 -0.07007102 0.08108802 0.07556699 0.01390046 0.008862317 0.010636924 0.0126718115

fc.bias f4 [10]
00000000: f300 f13c 13ff 25be 9e56 f5bd 225e a53d
00000010: 3de4 9e3e 1adb 47bc 571a 803c cc0c 28be
00000020: ebbc 923d 4712 45bd
0.029419398 -0.16210584 -0.119794115 0.08074595 0.31033507 -0.012198234 0.01563756 -0.16411132
0.071649395 -0.048113134
